examples/style_transfer/model/bedroom.tflite (tflite, 150728 bytes, 52 tensors)

Conv2D_12_bias f4 [16]
0	0x00000000	0.0
1	0x00000000	0.0
2	0x00000000	0.0
3	0x00000000	0.0
4	0x00000000	0.0
5	0x00000000	0.0
6	0x00000000	0.0
7	0x00000000	0.0
8	0x00000000	0.0
9	0x00000000	0.0
10	0x00000000	0.0
11	0x00000000	0.0
12	0x00000000	0.0
13	0x00000000	0.0
14	0x00000000	0.0
15	0x00000000	0.0

Conv2D_13_bias f4 [3]
0	0x00000000	0.0
1	0x00000000	0.0
2	0x00000000	0.0

Conv2D_1_bias f4 [8]
0	0x00000000	0.0
1	0x00000000	0.0
2	0x00000000	0.0
3	0x00000000	0.0
4	0x00000000	0.0
5	0x00000000	0.0
6	0x00000000	0.0
7	0x00000000	0.0

Conv2D_bias f4 [4]
0	0x00000000	0.0
1	0x00000000	0.0
2	0x00000000	0.0
3	0x00000000	0.0

Variable/read f4 [4, 9, 9, 3]
0	0x3e2706d2	0.16311195
1	0x3e30d5b4	0.17269021
2	0x3f224955	0.63393146
3	0x3db9f3c6	0.09079699
4	0xbd713bd1	-0.058894936
5	0x3e272d85	0.16325958
6	0x3cc87bc3	0.024473077
7	0xbe99910d	-0.29993477
8	0xbe8ffe6d	-0.281238
9	0x3f130ca7	0.5744118
10	0xbddbd4a9	-0.10733921
11	0xbdace197	-0.08441465
12	0x3e8d3c8e	0.27585262
13	0xbd37e3f2	-0.04489512
14	0xbe29ca77	-0.1658114
15	0x3dba7636	0.09104578
16	0xbe884b3c	-0.266199
17	0xbec982f2	-0.39357716
18	0xbe906bac	-0.28207147
19	0xbe647ce5	-0.22313268
20	0xbf4a25f5	-0.7896417
21	0xbe3bf61d	-0.18355604
22	0x3c59e98c	0.013300311
23	0xbed7f5b8	-0.42179656
24	0x3ed66eaa	0.41881305
25	0x3d9d68d5	0.07686011
26	0xbe77f70c	-0.24215335
27	0xbe8339ee	-0.25630134
28	0xbe833aae	-0.25630707
29	0x3cf1f2e6	0.029534768
30	0xbe2ec543	-0.17067437
31	0xbef8029e	-0.48439497
32	0xbe029d3b	-0.12755291
33	0xbe8eb3f9	-0.27871683
34	0xbea1da97	-0.31612083
35	0xbe0d28f7	-0.13785158
36	0xbcdcf064	-0.026970096
37	0xbe3aa7cb	-0.1822807
38	0xbe08cafc	-0.13358682
39	0xbea15957	-0.31513473
40	0xbef787ca	-0.48345786
41	0xbf18865c	-0.59580016
42	0xbf163806	-0.58679235
43	0xbf34a1fd	-0.70559675
44	0xbf377b50	-0.71672535
45	0xbf88258a	-1.0636456
46	0xbeedf592	-0.46476418
47	0xbeee98cc	-0.4660095
48	0xbf1f3017	-0.62182754
49	0xbe4a49c5	-0.19754703
50	0xbf00fdd3	-0.50387305
51	0xbdee12f8	-0.11624712
52	0x3be527ba	0.006993261
53	0xbd95cb5a	-0.07314177
54	0xbebafc12	-0.3652044
55	0xbda1b32c	-0.078955024
56	0xbda58f83	-0.08084013
57	0xbe8e46fb	-0.2778853
58	0xbe9e95b9	-0.30973604
59	0x3ccbae4c	0.024863385
60	0xbecee8b0	-0.404119
61	0xbe422ed8	-0.18963182
62	0x3e078534	0.13234407
63	0xbe9574ec	-0.29190767
64	0xbe65b1b7	-0.22431074
65	0x3e8ad01e	0.27111906
66	0xbf4b73b1	-0.79473406
67	0xbeb8d23b	-0.36097893
68	0xbedc2976	-0.43000382
69	0xbf595cc1	-0.84907156
70	0xbef85fae	-0.48510498
71	0xbf0187f3	-0.5059807
72	0xbf72a798	-0.9478698
73	0xbd930e9e	-0.071805224
74	0xbdfa2eed	-0.12215982
75	0xbf437a30	-0.7635832
76	0x3e08e8b3	0.13370018
77	0xbec349bd	-0.38142195
78	0xbe33458c	-0.17506999
79	0xbd130bed	-0.035900045
80	0xbeb517bb	-0.35369667
81	0xbec64fba	-0.38732702
82	0x3cfb743c	0.030695073
83	0x3ed4cf74	0.41564524
84	0xbee6037d	-0.44924536
85	0xbe9b79f1	-0.3036647
86	0x3e9e821e	0.30958647
87	0xbeff8b1d	-0.49910823
88	0xbe14af0e	-0.14519903
89	0x3e88b035	0.26696935
90	0xbe1e769f	-0.15474938
91	0x3b950c56	0.0045485897
92	0x3b557c37	0.0032575259
93	0xbe572113	-0.2100871
94	0xbd32ebca	-0.043681897
95	0xbcf811f7	-0.030282004
96	0xbe8d3f51	-0.2758737
97	0x3e6af547	0.22945128
98	0xbcc29097	-0.023750586
99	0xbf408b0f	-0.75212187
100	0x3d7ae20f	0.061250743
101	0x3e622623	0.2208486
102	0xbf0d4f89	-0.55199486
103	0x3e321464	0.17390591
104	0xbe8f4477	-0.27981922
105	0xbe2a1684	-0.16610152
106	0xbe3120b3	-0.1729763
107	0xbeebccd7	-0.46054718
108	0xbe60c678	-0.2195071
109	0xbbd853d0	-0.006601788
110	0x3eec81cd	0.4619278
111	0xbe83be66	-0.257312
112	0x3e333f4f	0.17504619
113	0x3f11f5b0	0.57015514
114	0x3e0964e2	0.1341739
115	0x3eb1dcb5	0.347387
116	0x3ef4e716	0.47832555
117	0x3ee878b1	0.4540458
118	0x3ef1655e	0.4714765
119	0x3f459fd6	0.77197015
120	0x3e59a9df	0.21256207
121	0x3e698a3d	0.2280664
122	0x3e918fb3	0.28429946
123	0xbd8e3eac	-0.069455475
124	0x3e160bc8	0.14652932
125	0x3e5f34d1	0.21797492
126	0xbed93dda	-0.42430001
127	0x3ea58abd	0.3233241
128	0x3e6c35bb	0.23067372
129	0xbe9766fc	-0.29570758
130	0x3e697085	0.22796829
131	0xbe38569a	-0.18001786
132	0xbe0a11e0	-0.13483381
133	0xbe93288a	-0.28741866
134	0xbe949d6d	-0.29026356
135	0xbe9362a3	-0.2878619
136	0x3d8fa20f	0.07013332
137	0x3f32e44e	0.69879615
138	0x3d3b483f	0.045723196
139	0x3e47989f	0.19491814
140	0x3f4afb7d	0.7928999
141	0x3ed55a20	0.41670322
142	0x3ed8ed71	0.42368653
143	0x3f4cd0b0	0.8000593
144	0x3f354052	0.7080127
145	0x3ea0b9fe	0.313919
146	0x3f109860	0.56482506
147	0x3ee3ad85	0.44468322
148	0x3e1f1adf	0.15537594
149	0x3e52d930	0.20590663
150	0x3e2f0645	0.17092235
151	0x3e96f37e	0.29482645
152	0x3eba3bea	0.36373836
153	0x3ceb5f50	0.028731972
154	0x3f327d57	0.69722503
155	0x3e75184b	0.23935048
156	0xbe777b70	-0.24168181
157	0x3eb67c47	0.3564169
158	0x3cc809a0	0.024418652
159	0xbce2a54c	-0.02766671
160	0xbd76aa11	-0.06022078
161	0xbddcc202	-0.107791916
162	0x3e93b4ae	0.28848785
163	0x3e02de45	0.12780102
164	0x3eecaacc	0.46224058
165	0x3e67fc29	0.22654785
166	0x3ebc48d8	0.36774325
167	0x3ef9136d	0.48647633
168	0x3ee1ccc2	0.4410153
169	0x3ea946ef	0.3306193
170	0x3f520a1b	0.8204667
171	0x3f924947	1.1428612
172	0x3f13c335	0.5771974
173	0x3f6d4c9b	0.92695016
174	0x3f6450fc	0.8918607
175	0x3ea51823	0.32244977
176	0x3e9b583b	0.30340752
177	0x3eeb8033	0.45996246
178	0x3e83f371	0.2577167
179	0x3ea79d86	0.32737368
180	0xbdb515f4	-0.08842078
181	0x3ea9121e	0.33021635
182	0x3e5496b3	0.20760612
183	0xbe839fa7	-0.25707743
184	0x3e3dbcec	0.18529099
185	0xbe77b63f	-0.24190615
186	0x3cf344eb	0.029695949
187	0xbe1ff515	-0.15620835
188	0xbf1f4c56	-0.62225854
189	0x3d3fdf71	0.04684395
190	0xbe24678d	-0.16055126
191	0x3e416e21	0.18889667
192	0x3e108f8f	0.14117263
193	0xbe358004	-0.17724615
194	0x3dc2ec2b	0.09517702
195	0x3f0fa0ca	0.5610472
196	0x3ea906e7	0.3301308
197	0x3f3b8c64	0.73261094
198	0x3f741b02	0.9535371
199	0x3e866990	0.26252413
200	0x3f74e3a4	0.9565985
201	0x3f422398	0.7583556
202	0x3dd55e77	0.10418408
203	0x3f100372	0.5625526
204	0x3e3bfbea	0.18357816
205	0x3e3e2d25	0.18571909
206	0x3e6821fd	0.22669216
207	0xbef01de9	-0.4689782
208	0x3c29f534	0.010373402
209	0x3cead7a1	0.028667273
210	0xbeb8d105	-0.3609697
211	0xbd945dc8	-0.0724445
212	0xbeeda2e5	-0.4641334
213	0xbde25045	-0.110504664
214	0xbdbcb963	-0.09215047
215	0xbf2365c6	-0.6382717
216	0xbd1fbe09	-0.03899959
217	0xbdcb1074	-0.099152476
218	0x3e17caf7	0.14823519
219	0x3e257165	0.16156538
220	0x3d3f1c11	0.046657626
221	0x3e301706	0.17196283
222	0x3f49a71f	0.7877063
223	0x3dc1827c	0.09448716
224	0x3edb63bc	0.4284953
225	0x3f13bfab	0.5771434
226	0xbe3c413e	-0.18384263
227	0x3e3df73f	0.18551348
228	0x3e6dbb58	0.23215997
229	0xbeaaf847	-0.33392546
230	0x3db87b50	0.09007895
231	0xbeb093da	-0.34487802
232	0xbf18e4a8	-0.597239
233	0xbe6dfa05	-0.23239906
234	0xbeadf71e	-0.33977598
235	0xbf2b7395	-0.6697324
236	0xbed26ada	-0.41097146
237	0xbe6c38ae	-0.23068497
238	0xbea6984f	-0.32538077
239	0xbf3bc851	-0.73352534
240	0x3e556350	0.20838666
241	0x3e1feadc	0.15616935
242	0xbeba2725	-0.3635799
243	0xbdc09b85	-0.09404663
244	0xbebad74f	-0.36492392
245	0xbf18db09	-0.5970922
246	0xbe3d52cb	-0.18488614
247	0xbed1c241	-0.40968516
248	0xbf07f16e	-0.5310277
249	0x3dd10c16	0.10207383
250	0xbe4763ec	-0.19471711
251	0xbea49604	-0.32145703
252	0x3d4f26b6	0.050574027
253	0xbea2217f	-0.3166618
254	0xbef79baf	-0.48360965
255	0xbdfc8398	-0.12329787

Variable_1/read f4 [4]
0	0x3f9c8a21	1.2229654
1	0xbf269087	-0.6506428
2	0xbb152aca	-0.00227611
3	0x3f5b1c8c	0.85590434

Variable_10/read f4 [16]
0	0x3e63f5ab	0.22261684
1	0xbeb371ae	-0.35047668
2	0xbdba5fcf	-0.09100305
3	0xbd3093b7	-0.04310962
4	0xbef46593	-0.47733745
5	0xbd263aed	-0.04058354
6	0x3eab3d2d	0.3344511
7	0x3e2bf679	0.1679324
8	0xbe27e09b	-0.16394274
9	0xbf7070c1	-0.9392205
10	0xbce66190	-0.028122693
11	0xbd9ce1ff	-0.07660293
12	0xbe4d754e	-0.2006428
13	0xbf8c723a	-1.0972359
14	0xbf5511c6	-0.83230245
15	0xbea02ff5	-0.31286588

Variable_11/read f4 [16]
0	0x3f1e2e31	0.6178923
1	0x3fd10544	1.6329732
2	0x3f3c3b00	0.73527527
3	0x3fb01332	1.3755858
4	0x3f5ee4ab	0.8706767
5	0x3fc025e8	1.5011568
6	0x3f58f9fe	0.8475646
7	0x3f5e5d22	0.8686086
8	0x3fcfc166	1.6230896
9	0x3f381557	0.7190756
10	0x3f95cd83	1.1703342
11	0x3f493168	0.7859101
12	0x3f8de80d	1.1086441
13	0x3f752ee6	0.95774686
14	0x3f91e9a8	1.1399431
15	0x3f8badb4	1.0912385

Variable_12/read f4 [16, 3, 3, 16]
0	0xbeccd1a8	-0.40003705
1	0xbd5faee1	-0.054610137
2	0xbe52b9cd	-0.2057869
3	0x3f05d0b6	0.5227159
4	0x3e8e3161	0.27772048
5	0x3f2c485b	0.67297906
6	0xbf2e924f	-0.68192
7	0xbf4c8ca5	-0.79902107
8	0xbdb4a00d	-0.0881959
9	0x3cd881bd	0.026429052
10	0x3e6f1025	0.23346002
11	0xbee98a94	-0.4561354
12	0x3f0d5cc0	0.5521965
13	0x3eb5eb4d	0.35531083
14	0xbf09f09a	-0.53882754
15	0xbef92368	-0.48659825
16	0xbbb800fe	-0.0056153527
17	0xbedb2522	-0.42801768
18	0x3e15ad8b	0.14616983
19	0x3e5fcd43	0.21855645
20	0xbdbb9ed3	-0.09161153
21	0xbe187aad	-0.14890547
22	0xbe2ac0f5	-0.1667517
23	0xbeecd178	-0.46253562
24	0xbd84bcd6	-0.0648133
25	0xbe784a63	-0.24247126
26	0x3f0649ff	0.5245666
27	0xbe5acb29	-0.21366562
28	0x3f1d24fd	0.61384565
29	0xbe53bd27	-0.20677625
30	0x3eb664f4	0.35623896
31	0xbd314c85	-0.043285865
32	0xbebe5759	-0.37176016
33	0x3f103a09	0.56338555
34	0x3e5552f7	0.2083243
35	0x3f3e929a	0.74442446
36	0xbf2e185c	-0.6800592
37	0x3eafdd34	0.34348452
38	0x3ead5c56	0.3385951
39	0xbf8cd50c	-1.1002517
40	0xbeaf6ac6	-0.3426115
41	0xbe2752bc	-0.16340154
42	0x3e03dc8e	0.12877104
43	0xbe833da1	-0.25632957
44	0x3e68a9bc	0.22720999
45	0xbeea05c6	-0.4570753
46	0x3ea8e851	0.32989743
47	0xbf03f0a9	-0.51539093
48	0xbdf9dc3b	-0.12200209
49	0x3caf5127	0.021401001
50	0xbd150504	-0.036381736
51	0x3f132edd	0.5749338
52	0x3e5313b9	0.20612992
53	0x3eb9c730	0.3628478
54	0xbd3409be	-0.043954603
55	0xbe614b9e	-0.22001502
56	0x3e8c00de	0.27344412
57	0x3dcab7eb	0.09898361
58	0x3f8a05e0	1.0783043
59	0xbe755cc7	-0.23961173
60	0x3dc91976	0.098193094
61	0x3e9b5335	0.3033692
62	0xbedb6a1e	-0.42854398
63	0xbebe3a2a	-0.3715375
64	0x3e897723	0.26848707
65	0x3dea5800	0.11442566
66	0x3d472580	0.048619747
67	0xbed46396	-0.41482228
68	0xbcfb25a3	-0.030657595
69	0xbe9085f9	-0.28227213
70	0x3ecf81d3	0.40528736
71	0xbe81c3a9	-0.2534459
72	0xbea4bb51	-0.3217416
73	0xbe99d221	-0.30043128
74	0x3f527911	0.8221598
75	0xbe27f615	-0.16402467
76	0x3dd3c09c	0.10339472
77	0x3e78c4fe	0.24293897
78	0x3e0c4fe2	0.13702348
79	0xbd746e61	-0.059675578
80	0x3e5ffa78	0.2187289
81	0x3ded2ff4	0.11581412
82	0xbc8ab796	-0.016933244
83	0xbe4e7d1e	-0.20164916
84	0x3da2ace2	0.07943131
85	0xbe6c083a	-0.23050013
86	0xbe71d9d6	-0.23618254
87	0x3c5bbf4a	0.013412306
88	0x3cfcb9f0	0.03085038
89	0xbd8af367	-0.067847066
90	0x3f35e624	0.7105429
91	0xbe412f87	-0.18865786
92	0x3f296ed3	0.6618473
93	0x3dd617c2	0.1045375
94	0x3e9810d2	0.29700333
95	0xbe1b65e5	-0.15175588
96	0xbd4a9bd8	-0.04946503
97	0xbe69b568	-0.22823107
98	0xbdd4bb8a	-0.10387333
99	0x3ed67fac	0.4189428
100	0xbed56c74	-0.41684306
101	0xbeb07041	-0.34460643
102	0x3f402186	0.7505115
103	0x3e097c6a	0.13426366
104	0x3dd8ad17	0.10579889
105	0xbe450c9d	-0.19243093
106	0x3f54ba9c	0.83097243
107	0xbda7cb5d	-0.08193085
108	0x3e09a2ce	0.13441011
109	0xbd889d05	-0.06670574
110	0x3d8ed79b	0.06974717
111	0xbe83d761	-0.2575026
112	0x3e5240ad	0.20532484
113	0x3e8b3484	0.27188504
114	0x3e2a1e06	0.16613016
115	0x3e15b1c6	0.14618596
116	0x3ea7d39b	0.3277863
117	0xbeda997a	-0.42695218
118	0x3f604642	0.87607205
119	0x3ee25e5e	0.4421262
120	0x3e66f884	0.22555739
121	0xbdae7d8d	-0.08520041
122	0xbedff8e1	-0.43744567
123	0x3e9ead75	0.30991712
124	0x3f2937cb	0.6610076
125	0x3ed6f4ca	0.41983634
126	0x3c229548	0.009923287
127	0x3d0483b7	0.032352176
128	0x3f308bf3	0.68963546
129	0xbea24568	-0.31693578
130	0xbf123848	-0.5711713
131	0xbeb6bc67	-0.35690615
132	0x3e2c5451	0.16829039
133	0xbf141804	-0.57849145
134	0xbe624753	-0.2209752
135	0x3ea5a224	0.32350266
136	0x3e466b0e	0.19376776
137	0x3e5bf3cc	0.2147972
138	0x3efea6c4	0.49736607
139	0x3d9f278d	0.077712156
140	0x3f3bee64	0.7341063
141	0x3f6205fe	0.88290393
142	0x3f0607cb	0.5235564
143	0x3efa5b56	0.4889781
144	0x3e23f3d2	0.16010979
145	0xbdf93f48	-0.12170273
146	0xbd243fb9	-0.040099833
147	0xbd32cc81	-0.04365206
148	0xbe3ecad6	-0.18632063
149	0x3eea7bb7	0.45797512
150	0xbf160093	-0.58594626
151	0xbe9ef21a	-0.31044084
152	0x3e41c8ec	0.18924302
153	0x3e8f465f	0.27983376
154	0xbd9576fb	-0.07298084
155	0x3e80b49d	0.25137797
156	0x3e1c8253	0.1528409
157	0x3f3cf764	0.7381499
158	0x3efe029c	0.49611366
159	0x3f13c363	0.5772001
160	0xbe45967e	-0.1929569
161	0xbdb681cb	-0.08911475
162	0x3f26d72e	0.6517209
163	0xbcaa56d2	-0.020793352
164	0x3f36a877	0.71350807
165	0x3e8f29f4	0.27961695
166	0xbe6e6827	-0.23281918
167	0xbcc7f94c	-0.024410866
168	0x3ec1086c	0.37701738
169	0x3e7fc8d4	0.24978954
170	0x3dcbb552	0.099466935
171	0x3eb66934	0.3562714
172	0x3dacb9f6	0.08433907
173	0xbd7d1407	-0.061786678
174	0xbf363ee0	-0.7118969
175	0x3e449259	0.19196452
176	0xbeb2e509	-0.34940365
177	0xbf2a2e78	-0.66477156
178	0xbd384b49	-0.044993673
179	0xbe3bb979	-0.18332471
180	0x3f29ae8b	0.66281956
181	0x3f17b965	0.59267265
182	0xbd809a4d	-0.062794305
183	0x3d872176	0.06598179
184	0x3f0e27a6	0.5552925
185	0x3de61745	0.11234907
186	0xbe057ee2	-0.13036683
187	0xbe4d6902	-0.20059589
188	0xbe0a4b68	-0.13505328
189	0x3bde0e5d	0.0067766146
190	0xbe709c33	-0.23497085
191	0xbe935514	-0.28775847
192	0x3d3304f3	0.04370589
193	0xbecb721b	-0.39735493
194	0xbde47f1c	-0.11157057
195	0x3e203fd7	0.15649353
196	0x3eb89d1c	0.36057365
197	0x3e6c7e98	0.23095167
198	0x3e029e75	0.12755759
199	0xbeca9aef	-0.3957133
200	0xbf138761	-0.57628447
201	0xbd60f5ea	-0.054922022
202	0x3d452a54	0.04813607
203	0xbe833c54	-0.25631964
204	0x3e87c2b4	0.26515734
205	0x3ebcd7c3	0.36883363
206	0x3ed28a59	0.41121176
207	0xbdb793e1	-0.089637525
208	0x3e1c6b7d	0.15275379
209	0x3d525c47	0.051357534
210	0x3f197611	0.5994578
211	0x3d7985c2	0.060918577
212	0x3e85c696	0.26128072
213	0x3e878dee	0.2647547
214	0x3f3f8c6c	0.7482364
215	0xbe3591ca	-0.17731395
216	0xbe4b65c3	-0.19863038
217	0x3ee01aa3	0.43770322
218	0x3db267d7	0.08711212
219	0xbf129aa6	-0.57267225
220	0x3e8aeb7f	0.27132794
221	0x3e49ea89	0.19718374
222	0xbec671b8	-0.38758636
223	0x3af49d13	0.0018662534
224	0xbc336ee3	-0.01095173
225	0x3b9f0673	0.0048530637
226	0x3d4cac38	0.049968928
227	0xbeb5fdad	-0.35545102
228	0x3e91b5e8	0.28459096
229	0x3e9c8677	0.3057134
230	0x3cd74e19	0.026282357
231	0xbe6f254f	-0.23354076
232	0x3e89b74d	0.2689766
233	0x3f12f466	0.5740417
234	0x3dc684f8	0.096933305
235	0xbe911282	-0.28334433
236	0xbd49506a	-0.049148954
237	0x3e07eac9	0.13273157
238	0xbe93663b	-0.28788933
239	0x3ebfa96a	0.3743394
240	0x3f00a382	0.50249493
241	0x3f079a3e	0.5296973
242	0xbde4bc6e	-0.111687526
243	0xbdbf61f7	-0.09344857
244	0x3e95a8cf	0.29230353
245	0xbf21f80d	-0.6326912
246	0x3f342bc8	0.70379305
247	0x3e4b3691	0.19845034
248	0xbe8c22ea	-0.27370387
249	0xbe19c88b	-0.15017907
250	0x3e56d3f4	0.20979291
251	0xbe7e91e8	-0.24860346
252	0xbd07d6ca	-0.033163823
253	0x3e8f7cd7	0.28024933
254	0x3ec0939b	0.37612614
255	0x3eb9fd74	0.36326182

Variable_13/read f4 [16]
0	0x3e5a6a3d	0.21329589
1	0x3eb3fe54	0.35154974
2	0x3cdd7548	0.027033463
3	0xbd7903a8	-0.060794502
4	0x3d608b53	0.05482037
5	0xbdf71ce5	-0.12066058
6	0x3e6e0b1a	0.23246422
7	0xbedc114c	-0.42981946
8	0x3c4ec6c3	0.012620631
9	0xbda454da	-0.08023997
10	0x3c31a05c	0.010841455
11	0xbe54f012	-0.20794705
12	0x3be2a055	0.0069160857
13	0x3e705331	0.23469235
14	0x3e833d8f	0.25632903
15	0x3e814f2b	0.25255713

Variable_14/read f4 [16]
0	0x3ea7d81e	0.32782072
1	0x3f1a3082	0.6023027
2	0x3eb39cf9	0.35080698
3	0x3e6ac3fa	0.22926322
4	0x3ec599de	0.38593954
5	0x3e9e7509	0.30948666
6	0x3e8fdace	0.28096622
7	0x3ec3a06b	0.38208327
8	0x3f1ebeee	0.62010086
9	0x3e858e1e	0.2608499
10	0x3eae8acd	0.34090272
11	0x3eddb26d	0.4330019
12	0x3e859b51	0.2609506
13	0x3eb1f7af	0.3475928
14	0x3ee8ef9c	0.45495307
15	0x3e85ac6e	0.26108116

Variable_15/read f4 [16, 3, 3, 16]
0	0xbe90162d	-0.2814192
1	0x3e345a21	0.17612506
2	0xbf506ec6	-0.81419027
3	0xbf282fa4	-0.65697694
4	0xbe894cd2	-0.26816422
5	0x3ed073c8	0.40713334
6	0xbf5185dc	-0.8184488
7	0xbeb48c5a	-0.3526333
8	0xbef37865	-0.4755279
9	0xbf154cd9	-0.58320385
10	0xbe80b47f	-0.25137708
11	0xbf41439e	-0.754938
12	0xbdbd9981	-0.09257794
13	0xbdb0524f	-0.08609449
14	0x3f0c987e	0.54920185
15	0xbb1edca7	-0.0024240406
16	0x3e7459d0	0.23862386
17	0xbc9875a6	-0.018610787
18	0xbdc8b2d8	-0.09799737
19	0x3e380c87	0.17973529
20	0x3d53a903	0.051674854
21	0xbe7ad837	-0.24496542
22	0xbe59da60	-0.2127471
23	0xbd835935	-0.06413499
24	0xbdae61df	-0.08514761
25	0x3e9e0237	0.30861065
26	0xbe9db7e9	-0.30804375
27	0xbc8683fb	-0.016420355
28	0xbebfa5fa	-0.37431318
29	0xbe13f46c	-0.14448708
30	0x3c20e0ba	0.009819204
31	0x3d7bf5d6	0.061513744
32	0xbd6f7d2b	-0.05846898
33	0xbec85d2c	-0.39133584
34	0x3eae93ac	0.3409704
35	0x3f743b35	0.9540284
36	0xbea59d54	-0.32346594
37	0x3dd2b8b4	0.102891356
38	0xbcd4f91f	-0.025997696
39	0xbde8e8cf	-0.1137253
40	0x3f3886bb	0.7208058
41	0x3bd73ceb	0.0065685413
42	0x3edd8d7a	0.43272
43	0x3f479281	0.7795792
44	0xbdef5b20	-0.116873026
45	0x3d9011d6	0.07034652
46	0xbec45df2	-0.38352925
47	0xbe4cbf9d	-0.1999497
48	0xbee242b1	-0.44191507
49	0x3e97d27d	0.29652777
50	0xbecc6dbe	-0.39927477
51	0xbee234c9	-0.44180897
52	0xbe3c69d7	-0.1839975
53	0x3e806e1e	0.25084013
54	0xbe78b424	-0.24287468
55	0xbea67b87	-0.3251612
56	0xbe8fefa4	-0.2811252
57	0xbe3231c6	-0.174018
58	0xbeca0332	-0.39455563
59	0xbe833476	-0.25625962
60	0x3dadb1e8	0.084811985
61	0x3dc74dd6	0.09731643
62	0x3f17a579	0.59236866
63	0xbd17254a	-0.036900796
64	0x3de82e6e	0.11336981
65	0x3e23596e	0.15952083
66	0x3e79e331	0.24403073
67	0x3e56f380	0.20991325
68	0x3e67f49a	0.22651902
69	0xbf2a2fea	-0.6647936
70	0x3e219c41	0.15782262
71	0x3ce3d1e6	0.027810048
72	0xbe3c1733	-0.18368225
73	0x3e1289c4	0.14310366
74	0xbd5b6a55	-0.053568203
75	0xbd7930ec	-0.06083767
76	0xbd277a5f	-0.040888187
77	0xbe1cbd1b	-0.15306513
78	0x3e828681	0.25493243
79	0x3d83ea53	0.06441178
80	0xbe5e3ff7	-0.21704088
81	0xbe9dcaca	-0.30818778
82	0x3eb961c8	0.36207414
83	0x3ec72649	0.38896397
84	0x3ebae033	0.36499175
85	0xbdaaf072	-0.083466426
86	0xbe00f20e	-0.12592337
87	0xbe3de60d	-0.18544789
88	0x3ea997ee	0.33123726
89	0xbe673783	-0.2257977
90	0x3f27dec3	0.6557428
91	0x3f4686bc	0.7754934
92	0x3e06bcd1	0.13157965
93	0x3d743935	0.05962487
94	0xbe610180	-0.21973228
95	0x3dc235b0	0.09482896
96	0x3e6ee7fb	0.23330681
97	0x3f6d604b	0.92725056
98	0xbead20b7	-0.33814022
99	0xbe610606	-0.21974954
100	0xbf8e8155	-1.1133219
101	0x3f0269cf	0.509427
102	0xbe95d1d8	-0.2926166
103	0xbde04309	-0.10950286
104	0xbf27fde7	-0.656218
105	0x3d2ab13a	0.041672923
106	0xbeebda43	-0.46064958
107	0xbebb2487	-0.36551306
108	0x3ce5475b	0.027988127
109	0x3e269e8c	0.16271418
110	0x3f4aadc0	0.7917137
111	0xbf468473	-0.7754585
112	0x3de7ef54	0.11324945
113	0x3e8aba6a	0.27095348
114	0xbe427839	-0.18991174
115	0x3c9c5f11	0.0190883
116	0xbee36dc4	-0.44419682
117	0xbcec5a1b	-0.02885156
118	0xbee75d59	-0.45188406
119	0x3eab4f85	0.33459106
120	0xbd4999b0	-0.049218833
121	0x3e27a9e6	0.16373405
122	0xbf26eb53	-0.65202826
123	0xbe949676	-0.29021043
124	0x3e14a7a1	0.1451707
125	0xbea2a604	-0.31767285
126	0x3e197ac3	0.14988236
127	0xbe8fe9fc	-0.28108203
128	0x3d535b0a	0.051600493
129	0xbf1fe365	-0.6245635
130	0x3d1a2faf	0.03764313
131	0x3edeb4a1	0.43497184
132	0x3e09e55a	0.13466397
133	0xbe289cd6	-0.16466078
134	0xbf2a6913	-0.6656658
135	0xbe03e88f	-0.12881683
136	0x3f07a0a6	0.52979505
137	0xbeeacac7	-0.45857832
138	0x3dace5bd	0.084422566
139	0x3f622253	0.88333625
140	0x3e6a1e7f	0.22863196
141	0xbe8d9aaa	-0.27657062
142	0xbe828df7	-0.25498936
143	0x3eb86042	0.3601094
144	0x3f2e615a	0.68117297
145	0x3de3eb82	0.11128904
146	0xbe50c32e	-0.20386955
147	0xbf03538f	-0.51299375
148	0xbec29d58	-0.3801067
149	0xbf100ff7	-0.5627436
150	0xbe89e620	-0.26933384
151	0x3e3659f6	0.17807755
152	0xbecf7e88	-0.40526223
153	0xbf12ecfd	-0.57392865
154	0x3e0ebc0d	0.13938923
155	0x3bd33b6c	0.0064462926
156	0x3eb49e9e	0.35277265
157	0x3f645cb1	0.89203936
158	0x3dc42f63	0.09579351
159	0xbe6fd0df	-0.23419522
160	0x3f110f8f	0.56664366
161	0xbd37ff5f	-0.044921275
162	0xbe09927c	-0.13434786
163	0xbf3cb463	-0.7371275
164	0x3e74a439	0.23890771
165	0xbefd6a8f	-0.4949536
166	0xbf635f34	-0.88817143
167	0x3f0de726	0.5543083
168	0x3e2049a4	0.15653092
169	0xbc536897	-0.012903354
170	0xbf088707	-0.53331035
171	0xbf0b5b3a	-0.54436076
172	0x3c921ff3	0.0178375
173	0xbe94e04c	-0.29077375
174	0x3e4424a9	0.1915461
175	0x3d711d1e	0.05886566
176	0xbc16c1d6	-0.0092014875
177	0xbe5877d6	-0.21139464
178	0xbeb34616	-0.3501441
179	0x3eb17e3c	0.34666622
180	0x3e5debea	0.21672025
181	0x3e381df6	0.17980179
182	0xbe7d6017	-0.24743687
183	0x3e9df92b	0.30854163
184	0x3f27f5b1	0.6560927
185	0x3f3315f3	0.69955367
186	0xbe93e94b	-0.28888926
187	0xbf1f5a67	-0.6224732
188	0x3e64c0e6	0.2233921
189	0x3e05bbd8	0.13059938
190	0xbe14020a	-0.14453903
191	0x3e88ec9e	0.26743025
192	0x3be657e1	0.007029519
193	0xbd5713b9	-0.052509043
194	0x3c714201	0.014725209
195	0x3dfb29ce	0.12263833
196	0xbee467ee	-0.44610542
197	0xbed97b74	-0.42477
198	0x3e8037e5	0.25042644
199	0x3bd0a672	0.006367498
200	0xbf16c9b9	-0.58901554
201	0xbd00e9a0	-0.031472802
202	0x3e185366	0.14875564
203	0x3f007532	0.50178826
204	0xbe6e0940	-0.23245716
205	0x3f01c0db	0.506849
206	0xbd8c3aef	-0.06847178
207	0xbe8f8593	-0.28031597
208	0xbca3bd9c	-0.019987874
209	0x3e858359	0.26076773
210	0xbec60842	-0.38678175
211	0xbf64cb53	-0.8937275
212	0x3eb57e2a	0.35447818
213	0x3e8fd0be	0.28088945
214	0xbe73ce43	-0.23809151
215	0x3e6bf701	0.23043443
216	0x3d289257	0.041155186
217	0xbed4838e	-0.41506618
218	0xbe68be72	-0.22728899
219	0xbe57c435	-0.21070941
220	0x3cadd76e	0.021220889
221	0xbd6639f8	-0.056207627
222	0x3e88f3fd	0.26748648
223	0x3e4f7b21	0.20261814
224	0x3e836b77	0.25667927
225	0xbbcdc3a6	-0.0062794266
226	0xbefab578	-0.48966575
227	0x3cabc49f	0.02096778
228	0x3e71f491	0.23628451
229	0x3d5de68d	0.05417495
230	0xbf0bd02e	-0.5461453
231	0x3ee6721d	0.45008937
232	0x3ebdffd4	0.37109244
233	0xbcb07c9a	-0.02154379
234	0xbda8c121	-0.082399614
235	0xbedb13fe	-0.4278869
236	0x3e023a7c	0.12717623
237	0xbd82781c	-0.06370565
238	0xbe9fdbff	-0.3122253
239	0x3f825625	1.0182539
240	0x3f0ad299	0.54227597
241	0xbf03f7e5	-0.5155013
242	0xbe4ae3f3	-0.19813518
243	0xbba53a33	-0.0050423383
244	0xbf1820d2	-0.5942508
245	0xbf099dbe	-0.5375632
246	0x3f4a5009	0.79028374
247	0xbe9262a0	-0.2859087
248	0xbf6c0e20	-0.92209053
249	0x3e8f445e	0.27981848
250	0x39b41df6	0.00034354598
251	0x3f09243b	0.5357091
252	0xbeac178e	-0.3361172
253	0x3e9f8499	0.3115585
254	0xbdb25e81	-0.087094314
255	0xbcb0f595	-0.021601478

Variable_16/read f4 [16]
0	0xbcdfa0cb	-0.027298352
1	0xbec57e1b	-0.38572773
2	0xbebd221a	-0.3694008
3	0xbdf592ee	-0.11990915
4	0xbf6670c4	-0.90015817
5	0x3f61d122	0.88209736
6	0xbdf7f02f	-0.12106358
7	0xbe891d0a	-0.26779968
8	0xbee628f3	-0.44953117
9	0xbf5b9a90	-0.8578272
10	0xbf272fd1	-0.6530734
11	0xbc288bcf	-0.010287239
12	0x3d58cbf9	0.0529289
13	0xbfae8714	-1.3634973
14	0x3f91afa1	1.1381723
15	0xbecc4c5f	-0.39902017

Variable_17/read f4 [16]
0	0x3f429393	0.7600643
1	0x3f56def4	0.8393395
2	0x3f4511ba	0.76980174
3	0x3f978b66	1.1839416
4	0x3f75382d	0.9578884
5	0x3f24c634	0.64364934
6	0x3f94f6da	1.1637833
7	0x3f6dfd01	0.9296418
8	0x3f5e79aa	0.86904395
9	0x3f93208a	1.1494305
10	0x3f7f1acb	0.9965026
11	0x3fb90333	1.4454101
12	0x3f14db45	0.5814708
13	0x3f7f94f7	0.9983668
14	0x3f5e0f05	0.8674167
15	0x3f790d71	0.97286135

Variable_18/read f4 [16, 3, 3, 16]
0	0xbd9ee8fb	-0.07759281
1	0xbd525709	-0.051352534
2	0x3cc60803	0.024173742
3	0xbde305d0	-0.11085093
4	0xbdb0ba7e	-0.086293206
5	0xbe2dff2f	-0.16991876
6	0xbef25b9f	-0.47335526
7	0x3f27162f	0.65268224
8	0xbe8199bb	-0.253126
9	0xbebc2fb2	-0.3675514
10	0xbea97cdc	-0.33103073
11	0xbe264d27	-0.16240369
12	0xbdd631c5	-0.104587115
13	0xbf09a45e	-0.5376643
14	0xbe166045	-0.14685161
15	0x3ca17930	0.019711107
16	0xbcda22aa	-0.026627857
17	0xbdcd73e3	-0.10031869
18	0xbe173651	-0.14766814
19	0xbe1d872b	-0.15383594
20	0xbe6689e7	-0.22513543
21	0x3e809716	0.2511527
22	0xbed6dd48	-0.419657
23	0xbe0594fa	-0.13045111
24	0x3e1ffcf9	0.15623845
25	0x3d09d501	0.033650402
26	0xbef7741c	-0.48330772
27	0xbd51f6d4	-0.051260784
28	0xbf2d19fa	-0.6761776
29	0xbf31c42e	-0.6943997
30	0x3e306fec	0.17230195
31	0xbf2743f6	-0.65338075
32	0xbf466af1	-0.7750693
33	0x3df2da3b	0.118580304
34	0xbebed2bf	-0.37270162
35	0x3e258791	0.16164996
36	0xbe3ce1a4	-0.1844545
37	0x3f22bf8f	0.63573545
38	0xbecd44bb	-0.400915
39	0x3e813109	0.25232723
40	0x3e1def7f	0.15423392
41	0xbd919eab	-0.07110342
42	0xbea64ddb	-0.32481274
43	0xbe7a486b	-0.24441688
44	0xbf723bbb	-0.9462239
45	0xbedc6742	-0.4304753
46	0x3dbd9d0d	0.09258471
47	0x3edee176	0.43531388
48	0x3cfa77fc	0.030574791
49	0xbe80753b	-0.2508944
50	0x3ec76560	0.3894453
51	0x3f50478f	0.8135919
52	0x3f30a767	0.69005436
53	0xbe6d40d3	-0.2316926
54	0xbe7c5439	-0.24641503
55	0x3e2bed91	0.16789843
56	0x3d57107c	0.052505955
57	0x3f3b9f0a	0.7328955
58	0xbe88ca47	-0.26716825
59	0x3dc6603f	0.09686326
60	0x3f28088a	0.6563803
61	0xbe1dc79c	-0.15408176
62	0xbe0323f4	-0.12806684
63	0xbd85aed8	-0.065274894
64	0xbe8b220f	-0.27174422
65	0xbeb3dcbc	-0.35129344
66	0x3e26742d	0.16255255
67	0x3e3434e0	0.17598295
68	0x3edaca5c	0.42732513
69	0xbe64eb36	-0.22355351
70	0xbe46ceaa	-0.19414774
71	0xbdcb7fa0	-0.09936452
72	0x3f0f42a4	0.5596106
73	0x3e984bf9	0.29745463
74	0x3d29a941	0.04142118
75	0xbd46a864	-0.048500434
76	0xbbbfb22c	-0.005850097
77	0xbe833e80	-0.2563362
78	0x3e8aa63f	0.2707996
79	0x3cc9fb07	0.024655832
80	0xbf1de4d5	-0.61677295
81	0x3e559b4a	0.2086002
82	0xbe839c81	-0.2570534
83	0x3e87a499	0.26492766
84	0x3e822f87	0.25426885
85	0x3e9c87c1	0.30572322
86	0xbe6b22e4	-0.22962528
87	0xbd23a50c	-0.039952323
88	0x3f1b5349	0.6067396
89	0xbe9878d1	-0.29779676
90	0x3e178d59	0.14800014
91	0xbea7967f	-0.32732007
92	0xbf20e2f2	-0.6284629
93	0xbe840adb	-0.25789532
94	0xbcf2c38b	-0.029634258
95	0x3eb3dc3c	0.35128963
96	0xbe20e18d	-0.15711041
97	0x3ea84e73	0.32872352
98	0x3ed9510e	0.42444652
99	0x3e29036b	0.1650521
100	0x3ea74d7b	0.326763
101	0x3ea64625	0.3247539
102	0x3d8bf419	0.06833667
103	0x3e3d9aa9	0.1851603
104	0xbf0b6cb0	-0.5446272
105	0x3cde41ce	0.027130987
106	0x3d4e55c4	0.05037476
107	0x3d3791a5	0.04481663
108	0x3ee7b78d	0.45257226
109	0xbf0e435b	-0.55571526
110	0xbe355ca4	-0.17711121
111	0xbec3422f	-0.38136432
112	0xbedb8b37	-0.4287965
113	0xbeca61ad	-0.39527646
114	0x3de87ec2	0.11352302
115	0x3e741f2d	0.23840018
116	0x3e9aca63	0.30232534
117	0xbe16c052	-0.14721802
118	0xbf889990	-1.0671864
119	0x3e34fa5d	0.17673631
120	0x3d750a6a	0.059824385
121	0xbf985c82	-1.1903231
122	0xbd9c07ea	-0.07618697
123	0x3ca351bc	0.019936435
124	0x3f145b4d	0.57951814
125	0xbf2ab861	-0.6668759
126	0xbe1797b2	-0.14803961
127	0xbe91f0a8	-0.2850392
128	0xbf8ed3e1	-1.115841
129	0xbeab1928	-0.3341763
130	0xbeda0863	-0.42584524
131	0x3fa3f5e8	1.280942
132	0x3e8ce334	0.27517092
133	0x3dc667f6	0.09687798
134	0xbf23e137	-0.64015526
135	0x3f5bf4b5	0.8592027
136	0x3de2936b	0.11063274
137	0xbecbeb55	-0.39827982
138	0xbecec163	-0.40381917
139	0xbf01989d	-0.50623494
140	0xbdbcae25	-0.09212903
141	0xbe93fc24	-0.28903306
142	0xbe2de90d	-0.16983433
143	0xbe99bff8	-0.30029273
144	0xbcb9934a	-0.02265324
145	0xbdba05e0	-0.09083152
146	0xbe7f324e	-0.24921533
147	0x3f24c95f	0.6436977
148	0xbe254151	-0.16138197
149	0x3e142b98	0.14469755
150	0x3e971123	0.29505262
151	0x3e8404c5	0.2578489
152	0xbe6e9e50	-0.23302579
153	0x3f0f6f20	0.5602894
154	0xbedbb093	-0.42908153
155	0xbe8b427f	-0.2719917
156	0x3e26def4	0.16295987
157	0xbf3aeca5	-0.7301734
158	0xbdd56618	-0.104198635
159	0xbe0dba88	-0.13840687
160	0xbf1b22f9	-0.6060024
161	0xbea8b9dd	-0.32954302
162	0xbe8a1eb0	-0.26976538
163	0xbd9c41b2	-0.07629718
164	0xbdfbe8bd	-0.12300251
165	0x3e233c57	0.15940987
166	0x3ee92237	0.45533916
167	0x3f01e3f2	0.5073844
168	0x3e748e4b	0.23882405
169	0x3f0bcec1	0.54612356
170	0x3eaf2e12	0.34214836
171	0xbe980fd0	-0.29699564
172	0xbdd8a8fa	-0.10579105
173	0xbf1fd05a	-0.62427294
174	0x3e5643ad	0.20924254
175	0xbf190d91	-0.59786326
176	0xbf4df98d	-0.8045891
177	0x3e86607f	0.26245496
178	0xbd8b05e9	-0.06788237
179	0x3daabdf4	0.08337012
180	0x3ea8be53	0.32957706
181	0x3edc4792	0.43023354
182	0x3f0bdf98	0.5463805
183	0x3f5338da	0.82508624
184	0x3f05cca8	0.52265406
185	0x3f18c718	0.5967879
186	0x3ed0b291	0.40761235
187	0xbe058610	-0.13039422
188	0x3f235c8b	0.63813084
189	0x3ec231e7	0.37928697
190	0x3ea862f8	0.32888007
191	0x3f2b8110	0.6699381
192	0x3cd00f7b	0.025398007
193	0xbcbe65bc	-0.02324187
194	0xbe1f95de	-0.15584514
195	0xb90a131a	-0.00013167821
196	0x3f3427d4	0.7037327
197	0xbee55420	-0.44790745
198	0x3de26b53	0.11055627
199	0xbeda6ab4	-0.42659533
200	0xbeae64f5	-0.340614
201	0x3ed788c6	0.42096537
202	0x3e34f0f5	0.17670043
203	0x3d9291ca	0.07156713
204	0x3cdbe63b	0.02684318
205	0xbdeacc12	-0.114647046
206	0xbee81695	-0.4532973
207	0x3b48ffd2	0.003067006
208	0xbe90b751	-0.2826486
209	0x3c4bb636	0.012433579
210	0xbe8f7242	-0.2801686
211	0xbde78cb1	-0.11306132
212	0x3f1aff9b	0.60546273
213	0x3d53f767	0.051749613
214	0x3e4ac513	0.1980174
215	0xbedadbe4	-0.42745888
216	0xbf2b3618	-0.66879416
217	0xbeb4c7cd	-0.35308686
218	0x3eded4a8	0.4352162
219	0xbe3f97f6	-0.18710312
220	0x3cad158d	0.02112844
221	0xbb62fa41	-0.0034634026
222	0x3e3eb8ab	0.18625133
223	0xbf0f4780	-0.55968475
224	0xbe5cab2c	-0.21549672
225	0x3ebc64f6	0.36795777
226	0x3d3dbad3	0.046320748
227	0xbda7e100	-0.08197212
228	0x3f337fb7	0.7011675
229	0x3eea4a3c	0.4575976
230	0x3dd66a1e	0.10469459
231	0x3ec38b4d	0.38192216
232	0xbe82bd5b	-0.25535092
233	0x3f2c3baa	0.6727854
234	0x3ed75a8f	0.42061278
235	0x3e5f5a62	0.21811822
236	0x3eacb75c	0.33733642
237	0x3f1eaaac	0.61979175
238	0x3e57c670	0.21071792
239	0x3f109720	0.564806
240	0xbf1daa33	-0.6158783
241	0x3e56dc3a	0.20982447
242	0xbee35a79	-0.44404963
243	0x3dcc919f	0.099887125
244	0x3f39a1a1	0.7251225
245	0xbdbf5183	-0.09341719
246	0x3ea02951	0.31281522
247	0xbe1c7f29	-0.15282883
248	0x3e960160	0.29297924
249	0x3e2a058f	0.16603683
250	0x3f232ed7	0.63743347
251	0x3d371f6f	0.04470771
252	0x3d9b8f53	0.07595696
253	0xbee288b4	-0.4424492
254	0x3e1f111b	0.15533869
255	0x3f5041ce	0.8135041

Variable_19/read f4 [16]
0	0x3e5a6a8f	0.21329711
1	0x3eb3fe48	0.3515494
2	0x3cdd7903	0.027035242
3	0xbd790550	-0.060796082
4	0x3d608c40	0.054821253
5	0xbdf71c21	-0.12065912
6	0x3e6e0b5f	0.23246525
7	0xbedc1166	-0.42982024
8	0x3c4ec370	0.012619838
9	0xbda454fc	-0.08024022
10	0x3c31a248	0.0108419135
11	0xbe54eff9	-0.20794667
12	0x3be29ee1	0.0069159125
13	0x3e7052eb	0.2346913
14	0x3e833d85	0.25632873
15	0x3e814f37	0.2525575

Variable_2/read f4 [4]
0	0x3f9bca40	1.2171097
1	0x3e9a1a78	0.3009832
2	0x3f19d527	0.6009087
3	0x3f3cbbc1	0.7372399

Variable_20/read f4 [16]
0	0x3f0b5a56	0.54434717
1	0x3f2f1aed	0.6840046
2	0x3f03474e	0.5128068
3	0x3ebac206	0.36476153
4	0x3f133de5	0.5751632
5	0x3ece3eee	0.40282387
6	0x3f6dd4dd	0.9290293
7	0x3f4610b2	0.77369225
8	0x3f22301d	0.63354665
9	0x3f0f21fc	0.5591123
10	0x3f41ac77	0.75653785
11	0x3f18f8de	0.5975474
12	0x3f09cc76	0.5382761
13	0x3eecf3d5	0.4627978
14	0x3f3b1ca4	0.7309058
15	0x3f225479	0.63410145

Variable_21/read f4 [16, 3, 3, 16]
0	0xbee02aa4	-0.43782532
1	0xbd8855e4	-0.06657007
2	0xbf47bbfe	-0.7802123
3	0xbeba31ec	-0.36366212
4	0x3f210a73	0.6290657
5	0xbcba026c	-0.022706233
6	0x3f69fbcb	0.9139983
7	0xbe7097f4	-0.23495466
8	0x3e8d7f6a	0.27636272
9	0xbde3c499	-0.111214824
10	0x3e204051	0.15649535
11	0xbdc2770c	-0.09495363
12	0xbf421e40	-0.7582741
13	0x3eabf508	0.33585382
14	0xbf6ce74c	-0.9254043
15	0x3e9d9b11	0.3078237
16	0xbd2358e8	-0.03987971
17	0xbf8d74d8	-1.1051283
18	0x3d8f964d	0.070110895
19	0xbd08f2bd	-0.03343462
20	0x3e8052ac	0.25063074
21	0xbe22130b	-0.15827577
22	0x3ec13c3a	0.37741262
23	0xbccc714c	-0.024956368
24	0x3ec8ec21	0.39242652
25	0x3eb237bf	0.34808156
26	0x3e19501d	0.14971967
27	0x3fa1348a	1.2594159
28	0x3e08203d	0.13293548
29	0x3eb166f8	0.3464887
30	0xbfa425b7	-1.282401
31	0xbe4632ea	-0.1935536
32	0x3f2b8c18	0.6701064
33	0xbebeba66	-0.37251586
34	0xbcf2cdcc	-0.029639147
35	0xbf26b608	-0.6512151
36	0xbea7f7ac	-0.32806146
37	0x3ef75518	0.4830711
38	0xbdb82a96	-0.089924976
39	0x3ed9cd1a	0.42539293
40	0xbeb1b601	-0.3470917
41	0x3f22008a	0.6328207
42	0xbeacfe63	-0.33787832
43	0x3eca57ea	0.39520198
44	0x3d63ab73	0.05558343
45	0xbf1d6abd	-0.61490995
46	0xbe47b5e7	-0.19502984
47	0xbd969994	-0.073535115
48	0xbdda5f43	-0.10662701
49	0x3da8949b	0.08231469
50	0xbedd2919	-0.43195418
51	0x3ca286fd	0.019839758
52	0x3efe5251	0.49672177
53	0x3e546a9b	0.20743792
54	0x3e562102	0.20911029
55	0xbdf73d31	-0.12072218
56	0x3df0f8d3	0.117662095
57	0xbef65a58	-0.48115802
58	0xbd10dd48	-0.03536728
59	0xbd5c997f	-0.053857323
60	0xbeeb13ad	-0.4591345
61	0x3d9031e8	0.07040769
62	0xbeb4a1d3	-0.35279712
63	0x3e82403c	0.25439632
64	0x3d521936	0.051293574
65	0xbec3a4cb	-0.38211665
66	0x3e6ce8d2	0.23135689
67	0x3d079aed	0.033106733
68	0xbd884109	-0.066530295
69	0xbdb07c21	-0.08617426
70	0x3dea6718	0.11445445
71	0x3e5b5c6a	0.21421972
72	0x3d44b2d7	0.048022117
73	0x3d30042a	0.04297272
74	0x3eb2acde	0.34897512
75	0xbd86cd89	-0.065821715
76	0xbb56e913	-0.0032792732
77	0x3cb5494a	0.022129674
78	0xbf2473a0	-0.6423893
79	0xbdd094b9	-0.101846166
80	0x3e7b5d92	0.24547413
81	0xbe27e490	-0.16395783
82	0x3e7a3846	0.24435529
83	0xbf1c6286	-0.61087835
84	0x3da075af	0.07834946
85	0x3ea02458	0.31277728
86	0x3cb9002d	0.022583092
87	0x3ebe2705	0.37139145
88	0xbe90b28a	-0.28261214
89	0x3eaa2798	0.33233333
90	0x3e23bd56	0.15990195
91	0xbcd2dbe1	-0.025739612
92	0x3e7b106a	0.2451798
93	0xbf1d75eb	-0.61508054
94	0x3deb23ec	0.11481461
95	0xb894a2e1	-7.0875285e-05
96	0x3ca27ed5	0.019835869
97	0x3e85fbc5	0.26168647
98	0xbf48a5d2	-0.7837802
99	0x3a87e2f6	0.0010367322
100	0x3e7cb46b	0.24678199
101	0x3dd3c155	0.103396095
102	0xbcc64718	-0.024203822
103	0xbeb4585c	-0.35223663
104	0xba6c92ef	-0.00090245804
105	0xbefdf152	-0.49598175
106	0x3ea0b14b	0.31385264
107	0xbe24985c	-0.16073745
108	0xbf11e182	-0.5698472
109	0x3ea48962	0.32136065
110	0xbe9705e1	-0.29496673
111	0xbe775a87	-0.24155627
112	0x3db3c834	0.0877842
113	0xbf53fbd7	-0.8280615
114	0x3e5e1b42	0.21690086
115	0x3e85842c	0.26077402
116	0xbebfe67d	-0.37480536
117	0x3e194db6	0.1497105
118	0x3d627f70	0.055297315
119	0xbdeb0409	-0.11475379
120	0x3b0e51e6	0.0021716296
121	0x3d261c6b	0.040554445
122	0x3e2fc9c8	0.17166817
123	0x3d4e2744	0.050330415
124	0xbe9189c7	-0.28425428
125	0xbdc008c2	-0.093766704
126	0xbf831ec6	-1.0243766
127	0xbed5c7e2	-0.4175406
128	0x3d9496ce	0.07255326
129	0xbee3e1d4	-0.4450823
130	0x3e8fe79e	0.28106397
131	0xbf0c6807	-0.54846233
132	0xbd45569a	-0.048178293
133	0x3df5e040	0.12005663
134	0xbb28b41a	-0.0025742115
135	0xbb82ab09	-0.003987674
136	0xbf160053	-0.58594245
137	0x3ee0e9d8	0.4392841
138	0xbdead9de	-0.11467336
139	0x3e683284	0.2267552
140	0x3df57998	0.11986083
141	0xbecfc452	-0.40579468
142	0x3e03a435	0.12855609
143	0xbd683e0e	-0.056699805
144	0xbe8cfa2f	-0.27534625
145	0x3e581f13	0.21105604
146	0xbe4f6a2e	-0.20255348
147	0xbee64e18	-0.44981456
148	0xbf6a2bd3	-0.9147312
149	0x3e99309f	0.29919907
150	0xbef6faae	-0.48238128
151	0x3e8274e2	0.254798
152	0xbf344dac	-0.7043102
153	0xbefa42b4	-0.48879015
154	0x3f1d401e	0.6142596
155	0x3c9a6d4d	0.018850947
156	0x3e6057fe	0.21908566
157	0x3e698d75	0.22807868
158	0x3bcc3f53	0.006233135
159	0x3e2e8c92	0.17045811
160	0x3e1218f7	0.14267336
161	0x3c4f9c81	0.012671591
162	0xbef03555	-0.4691569
163	0xbf1bb48e	-0.6082238
164	0xbdb0d909	-0.08635146
165	0x3e97c5b1	0.29643014
166	0xbe22d209	-0.15900435
167	0xbe39179e	-0.18075415
168	0xbe225f50	-0.15856671
169	0xbd1bcbe6	-0.03803625
170	0x3e69b100	0.22821426
171	0xbeac93a6	-0.33706397
172	0x3eafd049	0.34338596
173	0x3d3fb6e0	0.046805263
174	0xbe253111	-0.16131999
175	0x3e669b96	0.22520289
176	0xbe162daa	-0.14665857
177	0x3d9e47c1	0.0772853
178	0xbe70222d	-0.23450537
179	0x3eb30f14	0.3497244
180	0xbf3d33cb	-0.73907155
181	0x3eaae0d7	0.33374664
182	0xbde487de	-0.11158727
183	0x3e8f32c3	0.27968416
184	0xbf8299a4	-1.0203137
185	0x3e22b25b	0.1588835
186	0xbcfd595b	-0.030926397
187	0xbd070c47	-0.032970693
188	0xbcac3d72	-0.021025393
189	0xbc83de00	-0.016097069
190	0x3f421d62	0.75826085
191	0xbe64e0d3	-0.22351389
192	0xbf04342a	-0.51642096
193	0x3e17bdc7	0.14818488
194	0x3d5b41a8	0.05352941
195	0xbe72de23	-0.23717551
196	0xbe6b1c8e	-0.22960111
197	0x3e8aab32	0.27083737
198	0xbec9b46d	-0.39395466
199	0x3e6902d9	0.22754993
200	0xbebfc471	-0.3745456
201	0xbe9d9f6c	-0.30785692
202	0x3ea338e0	0.3187933
203	0x3d698464	0.057011023
204	0x3e8299f6	0.25508088
205	0xbe3540fb	-0.1770057
206	0x3db68c43	0.089134715
207	0xbe824f25	-0.25451007
208	0x3e9694c0	0.29410362
209	0xbe21ff6b	-0.1582009
210	0xbe702d66	-0.23454818
211	0xbf394bef	-0.7238149
212	0x3e6a3ba5	0.22874315
213	0x3cc13e89	0.02358939
214	0xbd9a19e3	-0.07524469
215	0xbe78a2d5	-0.24280865
216	0x3f099278	0.5373912
217	0xbed4be42	-0.41551405
218	0xbd166b2f	-0.036723312
219	0xbee524fc	-0.4475478
220	0x3e104290	0.14087892
221	0xbdfe7dea	-0.1242636
222	0xbe827a78	-0.2548406
223	0x3d97e002	0.07415773
224	0xbe4e10a7	-0.2012354
225	0xbebbfbb9	-0.36715487
226	0xbd1cbd05	-0.0382662
227	0x3e6ea540	0.23305225
228	0xbebcfbb0	-0.36910772
229	0xbe2630df	-0.1622958
230	0xbd10f7c1	-0.035392527
231	0xbe9a4556	-0.30131024
232	0xbf820ab9	-1.0159522
233	0xbd186002	-0.037200935
234	0x3dd2b489	0.102883406
235	0xbdb9afcb	-0.09066733
236	0xbe004aa8	-0.12528479
237	0xbe12975b	-0.1431555
238	0x3e969429	0.29409912
239	0xbdb2939c	-0.087195605
240	0xbf3b3258	-0.73123693
241	0x3e03bab0	0.12864184
242	0xbf3da9d7	-0.7408728
243	0xbe8452af	-0.25844333
244	0xbf32675f	-0.6968898
245	0x3efeab2b	0.49739966
246	0x3e92206d	0.28540364
247	0xbe8866e3	-0.26640996
248	0xbf99552e	-1.197912
249	0x3e794f49	0.24346651
250	0x3e7bbadb	0.24582998
251	0xbee50985	-0.44733825
252	0x3edc447f	0.43021008
253	0xbecec5b1	-0.40385202
254	0x3f850609	1.0392467
255	0xbf9619a6	-1.1726577

Variable_22/read f4 [16]
0	0xbfde72a5	-1.7378737
1	0xbd17a82a	-0.037025608
2	0xbe340aea	-0.17582288
3	0xbe978e66	-0.2960083
4	0xc026ff8d	-2.6093476
5	0x3e0617fb	0.13095085
6	0x3f5316ae	0.8245648
7	0x3ee02ca5	0.4378406
8	0xbd04fe20	-0.032468915
9	0x3d31680e	0.043312125
10	0xbf11bcf3	-0.5692894
11	0xbe29292a	-0.16519609
12	0xbeaa90d1	-0.3331361
13	0xbf920acc	-1.1409545
14	0x3dfb0b5d	0.12258027
15	0xbf378695	-0.7168973

Variable_23/read f4 [16]
0	0x3f605f35	0.87645274
1	0x3f89e480	1.0772858
2	0x3f8c6b39	1.0970222
3	0x3f8fde35	1.1239687
4	0x3f4dc678	0.80380964
5	0x3f33ef10	0.70286655
6	0x3f086b43	0.5328867
7	0x3eef1eda	0.46703225
8	0x3f161a99	0.58634335
9	0x3f9b3c49	1.2127773
10	0x3f6ffec7	0.93748134
11	0x3f765002	0.9621583
12	0x3f5a3fdb	0.85253686
13	0x3f69952c	0.91243243
14	0x3f8ee290	1.1162891
15	0x3f433a6c	0.7626102

Variable_24/read f4 [16, 3, 3, 16]
0	0x3e046d05	0.12932213
1	0x3d9aec36	0.07564585
2	0xbe740841	-0.23831274
3	0xbe0d6eb0	-0.13811755
4	0x3f03a590	0.51424503
5	0x3e80cf2d	0.25158063
6	0x3d285414	0.04109581
7	0xbeb73dfa	-0.35789472
8	0xbd6b9fe0	-0.057525516
9	0xbe9fa59f	-0.31181046
10	0x3ee0a8f2	0.43878895
11	0xbecadfbe	-0.39623827
12	0x3eb638de	0.3559026
13	0xbf567f2c	-0.837878
14	0xbf018ca9	-0.50605255
15	0xbe3305e1	-0.17482711
16	0xbe0ec79b	-0.13943331
17	0xbe13899d	-0.14407964
18	0xbe8cab4d	-0.27474442
19	0x3d2cb1eb	0.042161863
20	0xbe74b6cc	-0.23897856
21	0xbe901624	-0.28141892
22	0xbe4a388e	-0.19748136
23	0xbe3e9d5b	-0.18614714
24	0x3ea04e5a	0.31309777
25	0xbe622d51	-0.220876
26	0x3e8fc431	0.2807937
27	0xbe86f5e2	-0.2635947
28	0x3d072b1c	0.033000097
29	0x3ed9400b	0.42431673
30	0xbe0ac971	-0.13553406
31	0xbe6f3fb2	-0.23364142
32	0x3ec5650d	0.38553658
33	0xbef273c0	-0.47353935
34	0xbb747c75	-0.0037305627
35	0xbe10ed16	-0.14152941
36	0x3c163017	0.009166739
37	0x3ddb49bd	0.10707424
38	0x3e36e44e	0.17860529
39	0xbe87bd13	-0.2651144
40	0xbdc0071d	-0.09376357
41	0xbde78ee1	-0.11306549
42	0x3ea93042	0.3304463
43	0x3e1c5242	0.15265754
44	0xbe91db5b	-0.28487667
45	0x3e60e3a6	0.21961841
46	0xbdfe6095	-0.12420765
47	0x3e883264	0.26600945
48	0xbdee52c2	-0.116368786
49	0xbded1077	-0.11575406
50	0x3e21a994	0.15787345
51	0x3e4ae746	0.19814786
52	0x3f387a6e	0.7206181
53	0x3e5352c1	0.20637037
54	0xbe921110	-0.28528643
55	0xbeae8e4a	-0.34092933
56	0x3f6a0248	0.9140973
57	0xbd45cd0f	-0.048291262
58	0x3d3797d6	0.044822536
59	0xbd77f52a	-0.06053654
60	0xbced6061	-0.028976621
61	0x3f00b22f	0.50271887
62	0x3e30ff5c	0.17284912
63	0xbebbcedc	-0.3668126
64	0x3dc5018d	0.096194364
65	0xbe0c7b4e	-0.13718912
66	0x3d9e1765	0.07719306
67	0x3c88f661	0.016719045
68	0xbf2f8c91	-0.6857386
69	0xbeb6a4e7	-0.35672686
70	0xbe83239c	-0.25613105
71	0xbf091aca	-0.535565
72	0x3e8f5107	0.27991506
73	0xbe40825a	-0.18799725
74	0xbccdb016	-0.025108378
75	0xbe69baa5	-0.22825105
76	0xbed85abd	-0.42256728
77	0x3f152e7c	0.58274055
78	0xbacd8909	-0.0015681098
79	0x3d6cb6b0	0.057791412
80	0x3d8e740b	0.06955727
81	0xbec4fbc0	-0.3847332
82	0x3ef0809a	0.46973115
83	0x3ecb9b9b	0.39767155
84	0xbe1e2bfb	-0.15446465
85	0xbd217f00	-0.039427757
86	0xbdaba683	-0.08381369
87	0x3d5834d8	0.05278477
88	0x3de37ef6	0.111082
89	0xbe025f99	-0.1273178
90	0xbe2d5a00	-0.16928864
91	0x3e981f06	0.2971117
92	0xbe9c59ef	-0.30537364
93	0x3ddf33da	0.10898562
94	0x3d0e5c35	0.034755904
95	0x3c92efc1	0.01793659
96	0xbf210464	-0.62897325
97	0x3e4c90b0	0.19977069
98	0x3f8490da	1.0356705
99	0x3f2a0d8c	0.6642692
100	0x3da967d2	0.08271755
101	0xbf207ac9	-0.62687355
102	0xbf537f11	-0.8261576
103	0xbf41301b	-0.7546403
104	0x3fbae940	1.4602432
105	0xbdb3b443	-0.087746166
106	0xbf06b094	-0.52613187
107	0xbe49b4d5	-0.19697888
108	0xbf051aa9	-0.51993805
109	0x3d28ca39	0.04120848
110	0xbe422a32	-0.18961409
111	0xbea6d65c	-0.32585418
112	0x3f22ace7	0.6354508
113	0x3e716c44	0.23576456
114	0x3f24bbad	0.6434887
115	0x3f0b115c	0.54323363
116	0xbeb72648	-0.35771394
117	0xbef998ff	-0.4874954
118	0xbf39599c	-0.7240236
119	0x3cf43617	0.029810948
120	0x3f0bf50f	0.54670805
121	0x3e3e5d12	0.18590191
122	0xbf1d9d03	-0.61567706
123	0x3cf2f4c4	0.029657729
124	0xbeca2914	-0.39484465
125	0xbebb193d	-0.36542693
126	0xbe5b5a37	-0.21421133
127	0xbcda0d9d	-0.02661782
128	0x3e162435	0.1466225
129	0x3ed05223	0.40687665
130	0x3f1e30e9	0.6179338
131	0x3f2cb156	0.67458093
132	0xbed0d8fe	-0.40790552
133	0xbf10d840	-0.5657997
134	0xbf30c2ad	-0.6904705
135	0xbe2f8113	-0.17139082
136	0x3dc6a2ac	0.09698996
137	0xbeb759b1	-0.35810617
138	0xbf727e4c	-0.94723964
139	0x3e9543f7	0.29153416
140	0xbe8d9b7c	-0.27657688
141	0xbe95a591	-0.2922788
142	0xbf001bcc	-0.50042415
143	0x3e4a4331	0.19752194
144	0xbe73b8bc	-0.2380094
145	0xbe2302ba	-0.15919009
146	0x3e86714d	0.26258317
147	0xbd087978	-0.033318967
148	0xbfdca708	-1.7238474
149	0xbe809eea	-0.25121242
150	0x3eb31a4c	0.34981
151	0xbe30b54b	-0.17256658
152	0xbc47cbf2	-0.01219462
153	0x3d88c50a	0.06678207
154	0xbec5b5a2	-0.38615137
155	0x3e3b65dc	0.18300575
156	0x3ec9d89c	0.39423072
157	0xbea21351	-0.31655362
158	0xbdf5f317	-0.12009256
159	0x3ed6d22f	0.41957232
160	0xbf98f7e5	-1.1950651
161	0xbcbedbc1	-0.023298146
162	0x3e49e655	0.19716771
163	0xbda3aae9	-0.07991583
164	0xc0173b8a	-2.363009
165	0xbbbb70bd	-0.0057202266
166	0x3e4809b7	0.19534956
167	0x3dbdc4b7	0.09266036
168	0xbee5dfba	-0.44897252
169	0x3e048027	0.12939511
170	0x3ed3e1eb	0.413833
171	0x3f010014	0.50390744
172	0x3ebd722f	0.37001178
173	0x3d88c7d2	0.06678738
174	0xbd90ac44	-0.07064107
175	0x3d41fb6d	0.04735892
176	0xbfc57bee	-1.5428445
177	0x399c887a	0.00029856322
178	0xbe3a70a0	-0.18207026
179	0xbdfe9c5d	-0.12432168
180	0xbf84e857	-1.0383404
181	0x3ca4806e	0.020080771
182	0x3f2b6ec6	0.669659
183	0xbf3261e3	-0.69680613
184	0xbdcb9f22	-0.099424616
185	0xbd4868e0	-0.04892814
186	0x3f1cd729	0.6126581
187	0x3d88d2f9	0.06680865
188	0xbeba72cd	-0.3641571
189	0x3db937d9	0.09043855
190	0xbc936876	-0.017994147
191	0x3eb5bb4c	0.3549446
192	0xbe75fb33	-0.24021606
193	0xbed5c511	-0.41751912
194	0xbeac5882	-0.33661276
195	0x3da45c1b	0.0802538
196	0xbecb6354	-0.3972422
197	0x3e110586	0.14162263
198	0x3d8d086a	0.068863705
199	0x3dc0f210	0.0942117
200	0xbe8e6f11	-0.27819112
201	0xbdcc480d	-0.0997468
202	0x3e063c7b	0.13109009
203	0x3d9228ab	0.07136663
204	0x3db6a9ea	0.08919127
205	0xbf36e462	-0.71442235
206	0xbdfc9c68	-0.123345196
207	0xbe176215	-0.14783509
208	0xbf1b6b9e	-0.60711086
209	0xbdb0b26c	-0.08627781
210	0xbe9b4953	-0.3032938
211	0xbcca06ff	-0.02466154
212	0xbfc81646	-1.5631797
213	0x3e1c5b39	0.15269174
214	0x3dae07be	0.084975705
215	0xbda889c4	-0.08229402
216	0xbefad1f9	-0.4898832
217	0x3d6a13b8	0.05714771
218	0x3f46bff5	0.77636653
219	0x3e3d2e85	0.18474777
220	0x3f196fe4	0.59936357
221	0xbe0c6323	-0.13709693
222	0x3e6f0f58	0.23345697
223	0xbe6152b7	-0.2200421
224	0xbe0139ca	-0.12619701
225	0x3db60d17	0.088892154
226	0x3d400531	0.04687995
227	0x3dd34090	0.10315049
228	0xbf2da97a	-0.67836726
229	0xbe07ac97	-0.13249432
230	0x3ec18761	0.37798598
231	0xbf13b4b5	-0.5769761
232	0xbf3e8523	-0.744219
233	0x3d454c0d	0.04816823
234	0x3d832921	0.06404329
235	0x3e23d211	0.15998103
236	0xbe2e79df	-0.17038678
237	0x3f0c11c2	0.54714596
238	0x3df53199	0.119723506
239	0xbe92fc0e	-0.28707927
240	0xbec4c3fe	-0.3843078
241	0xbef06f57	-0.46959946
242	0xbdeee487	-0.11664682
243	0xbcd1f8e9	-0.025631385
244	0xbd8b37dc	-0.06797764
245	0x3e0bf00f	0.13665794
246	0xbd9550f4	-0.07290831
247	0xbec27c00	-0.3798523
248	0x3e3ebd1e	0.1862683
249	0x3dc776d0	0.097394586
250	0xbe6068d6	-0.21914992
251	0x3e979722	0.29607493
252	0xbebc6112	-0.3679281
253	0xbf9ae7c0	-1.2101974
254	0xbd9a9f94	-0.07549968
255	0x3eafe02e	0.34350723

Variable_25/read f4 [16]
0	0x3e5a6aab	0.21329753
1	0x3eb3fe16	0.3515479
2	0x3cdd794f	0.027035384
3	0xbd7906e9	-0.060797606
4	0x3d608bfd	0.054821003
5	0xbdf71c16	-0.12065904
6	0x3e6e0b3a	0.2324647
7	0xbedc1154	-0.4298197
8	0x3c4ec480	0.012620091
9	0xbda454f5	-0.08024017
10	0x3c31a2cd	0.010842037
11	0xbe54efea	-0.20794645
12	0x3be29fe4	0.006916033
13	0x3e70533d	0.23469253
14	0x3e833d83	0.25632867
15	0x3e814f43	0.25255784

Variable_26/read f4 [16]
0	0x3f69bc84	0.91303277
1	0x3f5b09ae	0.85561645
2	0x3f6e6652	0.9312488
3	0x3f312b0d	0.69206315
4	0x3f614dea	0.8800951
5	0x3f5ab92e	0.8543881
6	0x3faf4085	1.3691565
7	0x3f9da1ea	1.2315037
8	0x3f7f2ade	0.99674785
9	0x3f964da5	1.1742445
10	0x3f46e53b	0.7769353
11	0x3f929aa7	1.1453446
12	0x3f223f7b	0.63378114
13	0x3f7a0dd8	0.97677374
14	0x3f75f7cb	0.9608123
15	0x3f2f8852	0.68567383
