examples/style_transfer/model/bedroom.onnx (onnx, 134134 bytes, 48 tensors)

Variable_9/read/_47__cf__47:0 f4 [16, 16, 3, 3]
0	0xbe261ef3	-0.16222744
1	0xbc02ee0b	-0.007991324
2	0x3ea512fc	0.32241046
3	0xbe5384b2	-0.20656088
4	0xbe53dba7	-0.2068926
5	0xbec7029c	-0.38869178
6	0xbd4276e4	-0.047476664
7	0xbb187b01	-0.0023266675
8	0x3e13a2fc	0.14417642
9	0x3c354746	0.011064356
10	0x3e03abed	0.12858553
11	0xbc2427a6	-0.010019219
12	0xbe848af7	-0.25887272
13	0x3e3466d4	0.17617351
14	0xbe031862	-0.1280227
15	0xbc67c09b	-0.014145042
16	0xbcd64c51	-0.026159437
17	0xbdeab90a	-0.11461075
18	0xbedd9af6	-0.43282288
19	0x3aa6ffd2	0.0012741035
20	0x3d213ad0	0.03936273
21	0x3dc2418e	0.0948516
22	0x3e55f717	0.20895039
23	0xbe8aa64a	-0.27079993
24	0x3e78e819	0.24307288
25	0x3ec2b6d9	0.38030127
26	0x3e3f0f84	0.18658262
27	0x3d98d906	0.07463269
28	0x3ebae1f5	0.36500517
29	0x3ecdf057	0.40222427
30	0x3d39bf98	0.045348734
31	0xbe6799e9	-0.22617306
32	0xbe70a2f8	-0.23499668
33	0xbc8c76e3	-0.017146533
34	0x3c5645df	0.013078182
35	0xbe35b74c	-0.17745703
36	0x3e9832c0	0.2972622
37	0x3d6c013f	0.057618376
38	0xbcaa0838	-0.020755872
39	0xbe9b1b12	-0.3029409
40	0xbd41cad2	-0.047312565
41	0xbe9d79bc	-0.30756938
42	0x3e8e93db	0.2784718
43	0x3d7f755b	0.06236778
44	0xbb907b2d	-0.004409215
45	0x3e3cd267	0.18439637
46	0xbeaa338b	-0.3324245
47	0x3e70cc3a	0.23515406
48	0xbeb8c29a	-0.3608597
49	0x3ddd0f28	0.107939065
50	0x3ef1b49a	0.472081
51	0xbe8d9749	-0.27654484
52	0xbe867397	-0.26260063
53	0xbf216a58	-0.6305289
54	0x3eb22a72	0.34798008
55	0xbd43dfe6	-0.047820948
56	0xbeaef810	-0.34173632
57	0xbe9d624b	-0.30739054
58	0xbeb1f97a	-0.34760648
59	0xbf0c00fd	-0.5468901
60	0xbdd8be94	-0.10583225
61	0xbeb64578	-0.35599875
62	0xbe9f9b13	-0.31173
63	0xbf196acd	-0.5992859
64	0xbf13c6c8	-0.5772519
65	0xbf5d67f0	-0.8648672
66	0x3ec301ec	0.38087404
67	0x3eea6bf0	0.45785475
68	0x3e7d0cb4	0.24711877
69	0x3e5b123c	0.21393675
70	0x3dbc687d	0.09199617
71	0xbb472e84	-0.0030392716
72	0x3d97c642	0.074108616
73	0xbdbcebf5	-0.09224693
74	0xbe22e56a	-0.15907827
75	0x3e6176b8	0.22017944
76	0xbe95c3f3	-0.2925106
77	0xbe39daae	-0.18149826
78	0x3de53368	0.111914456
79	0x3e0c3e67	0.1369568
80	0x3e7c583d	0.24643035
81	0xbda5994d	-0.080858804
82	0xbdc4a9c3	-0.09602692
83	0x3dc76531	0.097360976
84	0xbe21c23c	-0.15796751
85	0xbe381be3	-0.17979388
86	0xbda428a5	-0.08015565
87	0x3d1d05c7	0.038335588
88	0xbdef4730	-0.116835
89	0xbd985e87	-0.07439905
90	0x3ec309e8	0.38093495
91	0xbd7e5173	-0.062089395
92	0xbe37e3e2	-0.17958024
93	0xbe9bc6c2	-0.30425078
94	0xbe389404	-0.18025213
95	0x3d619b8a	0.055079974
96	0xbd5ff02b	-0.0546724
97	0x3df7b672	0.120953456
98	0x3d018b47	0.031626966
99	0x3ead5154	0.3385111
100	0x3f2cf9ce	0.6756867
101	0x3e892187	0.26783392
102	0xbeee5129	-0.46546295
103	0xbf5dae46	-0.86594045
104	0xbf35a56a	-0.70955527
105	0x3e9087ae	0.28228515
106	0x3edc0770	0.42974424
107	0x3dc4f67e	0.09617327
108	0xbd154fe9	-0.03645316
109	0xbe8a1b8f	-0.2697415
110	0x3d7a8eec	0.061171457
111	0x3e8733db	0.2640675
112	0x3ec84b20	0.39119816
113	0x3e826779	0.25469568
114	0x3e0721b1	0.13196446
115	0xbdbb7a22	-0.09154154
116	0xbea2c7b9	-0.31793
117	0x3f0b93c8	0.5452237
118	0x3f175998	0.59121084
119	0x3d6e28eb	0.05814449
120	0xbfb34f0b	-1.4008497
121	0xbfb4c539	-1.4122688
122	0xbf295c15	-0.6615613
123	0x3f4e5de7	0.80612034
124	0x3f4a2506	0.78962743
125	0x3ef7df4a	0.48412544
126	0x3e5d7602	0.21627048
127	0x3ed41528	0.4142239
128	0x3e585e20	0.21129656
129	0xbdf380d8	-0.11889809
130	0xbf06c41e	-0.52643
131	0xbe7bc221	-0.24585773
132	0xbd73486f	-0.05939525
133	0xbeb61639	-0.3556383
134	0xbd31eb81	-0.043437485
135	0xbd650d76	-0.05592104
136	0x3d082705	0.033240337
137	0xbccd07dd	-0.025028164
138	0xbdcb9947	-0.09941345
139	0xbe89fe8d	-0.2695202
140	0xbf375ef5	-0.7162927
141	0xbe3eb94f	-0.18625377
142	0xbed9b34b	-0.42519602
143	0xbd1c9405	-0.0382271
144	0x3e39507c	0.18097109
145	0xbde71783	-0.112837814
146	0x3ed70c4a	0.42001563
147	0xbb93b5a9	-0.0045077396
148	0x3d4773de	0.048694484
149	0xbdafd790	-0.08586037
150	0x3d898a7b	0.06715866
151	0x3e5879ef	0.21140264
152	0x3ed5e8ca	0.41779166
153	0xbe32236b	-0.17396323
154	0xbd88ac6f	-0.06673514
155	0xbe5157ae	-0.20443603
156	0x3d9f7a21	0.07786966
157	0x3e5e891e	0.21731994
158	0x3ea1d62b	0.3160871
159	0x3f4c93e1	0.79913145
160	0x3f886145	1.0654684
161	0x3f0211d9	0.50808483
162	0xbeadabdd	-0.33920184
163	0x3eb1c900	0.34723663
164	0x3eccedf3	0.4002529
165	0xbedf32c0	-0.43593407
166	0x3e5c771a	0.21529809
167	0x3e60f734	0.219693
168	0xbe816430	-0.2527175
169	0xbea89285	-0.32924286
170	0x3e141159	0.14459743
171	0x3d8a717c	0.06759927
172	0x3e660ae4	0.22465092
173	0xbee10d18	-0.43955302
174	0x3f126511	0.57185465
175	0x3e0e0384	0.13868529
176	0x3e53a24c	0.2066738
177	0xbcc93c80	-0.024564981
178	0x3c56511a	0.01308086
179	0x3e93c233	0.288591
180	0xbd2e5ead	-0.04257076
181	0xbe6749e6	-0.22586784
182	0xbe6177d9	-0.22018375
183	0xbdd41685	-0.10355858
184	0xbd8862d0	-0.06659472
185	0xbf027bd8	-0.5097022
186	0xbc9d6b85	-0.019216308
187	0xbf226f5e	-0.6345118
188	0xbe680bdd	-0.22660775
189	0x3f3e52dd	0.7434519
190	0x3c63154a	0.013860056
191	0xbe1e8235	-0.15479358
192	0x3e95e50e	0.29276317
193	0xbeb840a8	-0.3598683
194	0x3c4d1113	0.012516278
195	0xbd433571	-0.047658388
196	0xbe541788	-0.20712101
197	0x3f1dbc09	0.61615044
198	0xbef686a6	-0.48149604
199	0xbf4f190e	-0.80897605
200	0xbee1a7e8	-0.44073415
201	0xbedd48da	-0.43219644
202	0xbf91b7ef	-1.1384257
203	0xbf3fbb50	-0.7489519
204	0x3e8a5cf2	0.27024037
205	0xbe3e9a94	-0.18613654
206	0x3eadc0da	0.33936197
207	0xbf01b073	-0.50659865
208	0xbe805cf5	-0.2507092
209	0xbc197bd6	-0.009367904
210	0xbf66bd34	-0.9013245
211	0xbf4019c5	-0.7503932
212	0xbf4487f9	-0.7676998
213	0xbf0d5df9	-0.55221516
214	0xbe42d50f	-0.19026588
215	0x3de49a2b	0.11162218
216	0x3ea767b3	0.32696304
217	0xbee94a13	-0.45564327
218	0x3e95c55d	0.2925214
219	0x3e9367ea	0.28790218
220	0xbf874593	-1.0568107
221	0xbf01131c	-0.50419784
222	0x3e88e508	0.26737237
223	0xbeaa68f8	-0.3328321
224	0x3d41876c	0.04724829
225	0xbec02c3f	-0.37533757
226	0xbb5b8029	-0.0033493137
227	0xbdf61267	-0.12015229
228	0xbdeabc45	-0.11461691
229	0xbe9bfcb6	-0.3046624
230	0xbdc97b3b	-0.098379575
231	0xbf2c01f7	-0.671905
232	0xbee996be	-0.4562282
233	0xbd13c475	-0.036076028
234	0x3e986edc	0.2977208
235	0x3ecb89ba	0.39753515
236	0xbdf7e9fe	-0.12105177
237	0x3f93b1bb	1.1538614
238	0x3f74a772	0.95568
239	0x3ec6c037	0.38818523
240	0x3f702c16	0.9381727
241	0x3f34e650	0.7066393
242	0xbebf786b	-0.3739656
243	0xbe6993cf	-0.22810291
244	0x3edd2fb2	0.4320045
245	0x3ec0f181	0.37684253
246	0x3eb3ad54	0.35093176
247	0x3eca712a	0.39539462
248	0x3f2981f3	0.6621391
249	0x3d78708c	0.060654208
250	0xbcb6a758	-0.022296593
251	0xbf6ac46f	-0.91705984
252	0x3f1e9007	0.6193852
253	0x3dd294a0	0.10282254
254	0xbd5d4f5e	-0.05403077
255	0x3ec19429	0.3780835

Variable_8/read/_46__cf__46:0 f4 [1, 16, 1, 1]
0	0x3e95966e	0.2921633
1	0x3e803349	0.25039127
2	0x3e5f74f7	0.21821962
3	0x3e789740	0.24276447
4	0x3e7548d1	0.23953559
5	0x3e69979e	0.22811744
6	0x3e5bc89f	0.2146325
7	0x3e621cb2	0.22081259
8	0x3f068686	0.52549016
9	0x3e84e30f	0.25954482
10	0x3e7e3df6	0.24828324
11	0x3ebaf667	0.36516115
12	0x3f2232d8	0.6335883
13	0x3f2ecd3a	0.682819
14	0x3e4e7eb6	0.20165524
15	0x3edf020b	0.43556246

Variable_7/read/_45__cf__45:0 f4 [1, 16, 1, 1]
0	0xbc1b2350	-0.009468868
1	0xbd5ccd97	-0.053907003
2	0x3d5b3166	0.053513907
3	0xbd001e13	-0.03127868
4	0xbd766af9	-0.06016061
5	0xbd5c072b	-0.053717773
6	0xbf0fae53	-0.5612537
7	0x3b96904b	0.004594838
8	0xbf8f62e9	-1.120206
9	0xbdb8a681	-0.09016133
10	0xbc983f18	-0.018584773
11	0x3d459ce3	0.048245322
12	0xbfb488d3	-1.4104255
13	0xbd60b574	-0.054860547
14	0x3c243d45	0.010024373
15	0xbeaa8dec	-0.33311403

Variable_6/read/_44__cf__44:0 f4 [16, 8, 3, 3]
0	0xbe22fbf9	-0.15916432
1	0xbe88e927	-0.2674038
2	0x3e8d98a5	0.2765552
3	0xbea477d6	-0.32122678
4	0xbe09776e	-0.13424465
5	0x3efa3afd	0.4887313
6	0xbf22a0aa	-0.63526404
7	0xbe29cce9	-0.16582073
8	0x3eee34fe	0.46524805
9	0xbf15c21b	-0.58499306
10	0x3f3b0e95	0.73069125
11	0x3e9b6962	0.30353838
12	0xbf2368d2	-0.6383182
13	0x3f13f468	0.5779481
14	0x3e2a3c2a	0.16624513
15	0xbf0aae0d	-0.5417183
16	0x3f2fd038	0.6867709
17	0xbb91dd72	-0.004451447
18	0xbf80d623	-1.0065349
19	0x3e5c9a84	0.21543318
20	0x3f123cba	0.5712391
21	0xbf53db84	-0.8275683
22	0x3eaa8452	0.33304077
23	0x3ed5d4a8	0.41763806
24	0xbf388901	-0.7208405
25	0x3d90e553	0.0707499
26	0x3f1a5338	0.6028323
27	0x3cd4dd8f	0.025984554
28	0xbedc9486	-0.43082064
29	0xbe444490	-0.1916678
30	0x3e53a8f7	0.20669924
31	0xbe382fa5	-0.17986925
32	0xbed69fa8	-0.41918683
33	0x3ec2275e	0.3792066
34	0xbdf30caf	-0.118676536
35	0xbebc91d9	-0.36830023
36	0xbe5ac3a0	-0.21363688
37	0xbec2e0e2	-0.38062197
38	0xbddb54a4	-0.10709503
39	0xbec2f9c9	-0.38081196
40	0xbf3544a0	-0.7080784
41	0xbe2dceb1	-0.16973378
42	0xbe47eded	-0.19524355
43	0xbf0285e5	-0.50985557
44	0xbdc1dc46	-0.09465842
45	0xbe2ea0c4	-0.17053515
46	0xbdb6db6d	-0.08928571
47	0x3e518eda	0.2046465
48	0xbe87394a	-0.26410896
49	0xbe3bec5c	-0.18351883
50	0x3d40e527	0.047093537
51	0x3eaded09	0.33969906
52	0xbe1d1a15	-0.15341981
53	0xbe2058e9	-0.15658917
54	0xbf106377	-0.5640177
55	0xbefafe40	-0.49022102
56	0x3e8edad5	0.2790133
57	0xbf0394f9	-0.5139919
58	0xbe7b6efc	-0.24554056
59	0x3e3e10d1	0.18561102
60	0xbe9d6cdf	-0.30747125
61	0xbe1faea9	-0.15593971
62	0x3edd1a31	0.43184045
63	0x3ead811a	0.3388756
64	0x3ec0b888	0.37640786
65	0xbd95a075	-0.073059954
66	0x3d0641f4	0.03277774
67	0xbe12fbc0	-0.14353848
68	0x3e55f4e9	0.20894207
69	0x3db2cefb	0.08730885
70	0xbdd737b1	-0.10508669
71	0x3e7e0059	0.2480482
72	0xbe90d64d	-0.282885
73	0xbe8a527f	-0.27016065
74	0x3e5a58b0	0.21322894
75	0x3e41c4d6	0.18922743
76	0x3e6e87ab	0.2329394
77	0x3edfa5b7	0.43681118
78	0xbe2a0594	-0.1660369
79	0x3e5a7d27	0.21336804
80	0x3e43663f	0.19081973
81	0xbf8c63af	-1.0967921
82	0xbe14a379	-0.14515485
83	0x3ead0043	0.33789262
84	0xbe039fb1	-0.12853886
85	0xbf53025b	-0.8242547
86	0xbdf572a6	-0.11984758
87	0x3ed6e53c	0.41971767
88	0xbe2af45f	-0.16694783
89	0xbf5e2257	-0.8677115
90	0xbe1be7ff	-0.15225218
91	0xbea810ca	-0.3282531
92	0xbee651a4	-0.44984162
93	0x3e884b1a	0.26619798
94	0x3d182b74	0.037150815
95	0xbeed07c7	-0.46294996
96	0x3e64b01a	0.22332802
97	0x3eea50ad	0.45764676
98	0x3c6ba1ef	0.01438187
99	0xbe9fd44c	-0.31216657
100	0x3c3c40fa	0.011490101
101	0x3e0a9bba	0.13535967
102	0xbc8c37c9	-0.017116444
103	0x3f01414f	0.5049028
104	0x3f2fb61e	0.68637264
105	0xbe06d923	-0.13168769
106	0xbd2d93b9	-0.042377207
107	0xbd1405d1	-0.03613836
108	0xbf4099a2	-0.75234425
109	0x3e6e5f8a	0.23278633
110	0x3c80c084	0.015716799
111	0xbd1c3d98	-0.038144678
112	0x3c9088be	0.017643329
113	0xbdb84996	-0.089984104
114	0x3e4c8ad1	0.1997483
115	0xbc4e3d90	-0.01258792
116	0xbe544e5d	-0.20733018
117	0xbe6ccdb1	-0.2312534
118	0x3da3d240	0.079990864
119	0xbcaa5df7	-0.020796759
120	0xbe6eb672	-0.23311785
121	0xbe3c1353	-0.18366747
122	0xbf0fa265	-0.5610717
123	0x3f3f52f5	0.7473596
124	0xbde462f9	-0.1115169
125	0xbee93c9e	-0.4555406
126	0xbe92602d	-0.28589
127	0xbeebb385	-0.460354
128	0xbede1db7	-0.43382046
129	0xbd26593b	-0.04061244
130	0xbebcfa65	-0.36909786
131	0xbeca5ffd	-0.39526358
132	0x3e9a3a4e	0.30122608
133	0x3d802f5c	0.06259033
134	0xbdcdb4d2	-0.10044254
135	0xbea20ef7	-0.31652042
136	0x3f113f0c	0.56736827
137	0x3f5add35	0.85493785
138	0xbe8f0860	-0.27936077
139	0x3ee7b246	0.452532
140	0x3ee98408	0.45608544
141	0x3e0ae7ef	0.13565038
142	0xbd427071	-0.047470514
143	0x3e70e119	0.23523368
144	0x3f6c3227	0.92264026
145	0x3e987a38	0.29780746
146	0x3ec66fc8	0.38757157
147	0x3e1c0656	0.15236792
148	0x3f00ff48	0.5038953
149	0x3ef41e93	0.47679576
150	0xbf618f04	-0.8810885
151	0xbf43bd99	-0.7646118
152	0x3d475a18	0.048669904
153	0x3eafe1a6	0.34351844
154	0x3bc1216e	0.0058938777
155	0xbdd6d2cd	-0.10489426
156	0x3e246cf9	0.16057195
157	0x3dd38bb3	0.1032938
158	0x3e00354b	0.1252033
159	0xbf451f33	-0.7700073
160	0x3da88070	0.082276225
161	0x3e96a727	0.29424402
162	0x3e9d0d5c	0.30674255
163	0x3ecedac9	0.40401295
164	0x3e31c9db	0.17362158
165	0xbea59f7a	-0.32348233
166	0xbe264000	-0.16235352
167	0x3e33b2b3	0.17548637
168	0xbf2cd2a7	-0.6750893
169	0xbf3d1dd1	-0.7387362
170	0xbefb46b8	-0.49077392
171	0x3f1c56da	0.61070025
172	0x3d42003c	0.047363505
173	0xbeae3490	-0.34024477
174	0x3ec96f66	0.39342803
175	0x3e8f3800	0.27972412
176	0x3e76707a	0.24066344
177	0xbdc00829	-0.093765564
178	0x3d0d36ef	0.034476217
179	0x3ee741e8	0.4516747
180	0x3cec3ad4	0.028836645
181	0xbe276b4d	-0.16349526
182	0xbd9d226c	-0.07672581
183	0x3dade064	0.08490065
184	0xbe1019d7	-0.14072357
185	0xbdad184e	-0.084519014
186	0xbd370b33	-0.044688415
187	0xbf18cf3e	-0.59691226
188	0xbedb1eac	-0.42796838
189	0xbe1d8847	-0.15384017
190	0x3db461e9	0.088077374
191	0x3d61b158	0.05510077
192	0xbe162b48	-0.14664948
193	0xbeb32e41	-0.34996226
194	0xbeaf9f45	-0.343012
195	0x3eaa8cf7	0.33310673
196	0xbe509150	-0.20367932
197	0xbed7cfc7	-0.4215071
198	0x3f4d7424	0.8025534
199	0x3f02343d	0.5086096
200	0x3f093f24	0.5361197
201	0x3f0fdc65	0.5619567
202	0x3ef63b3c	0.48092067
203	0x3f0fc945	0.5616649
204	0xbef2db7e	-0.47433084
205	0xbf1a1dc7	-0.60201687
206	0xbe1d3661	-0.15352775
207	0xbd28eb4e	-0.04124003
208	0xbf0798c2	-0.52967465
209	0xbec1e0c9	-0.3786681
210	0xb9c80cee	-0.00038156606
211	0xbd8a84c1	-0.06763602
212	0xbe46d140	-0.1941576
213	0x3f17b863	0.59265727
214	0x3ed88fe5	0.42297283
215	0x3e9ee2d2	0.31032425
216	0xbdc1b01c	-0.09457418
217	0xbe07edf3	-0.13274364
218	0xbc6c659b	-0.0144285215
219	0xbe27c9c0	-0.16385555
220	0x3e1e2588	0.15444005
221	0x3cc0d917	0.023541017
222	0xbe9c9fdf	-0.30590722
223	0x3e30ca2f	0.17264627
224	0xbd7823f0	-0.060581148
225	0x3ed27825	0.41107288
226	0x3ec683f2	0.3877254
227	0xbf8066a0	-1.0031319
228	0x3efedb6c	0.4977678
229	0x3ed5c0b6	0.4174859
230	0xbf9ca465	-1.2237669
231	0x3e8797d5	0.26483026
232	0x3e032503	0.12807088
233	0xbf04e3a7	-0.5190987
234	0x3df170c1	0.11789084
235	0x3f1e381d	0.6180437
236	0xbeb94bc0	-0.36190605
237	0x3e5ccffc	0.21563715
238	0x3ec72874	0.3889805
239	0xbe993c82	-0.29928976
240	0x3eb1c558	0.34720874
241	0x3e8c779c	0.27435005
242	0xbe44431e	-0.19166228
243	0x3dc58e7c	0.09646317
244	0xbcccf628	-0.02501972
245	0xbe011876	-0.12606987
246	0x3e5fd1d6	0.2185739
247	0xbed9c5f9	-0.42533854
248	0xbf2091c0	-0.62722397
249	0x3ea924cb	0.33035883
250	0xbef4e22d	-0.47828808
251	0xbe2fb664	-0.1715942
252	0xbecd2ebd	-0.4007472
253	0xbe47857c	-0.19484514
254	0x3effe60c	0.499802
255	0xbf17f9c2	-0.59365475

Variable_5/read/_43__cf__43:0 f4 [1, 8, 1, 1]
0	0x3fa255dc	1.2682452
1	0x3ff3a8f3	1.9035934
2	0x3f63c646	0.88974416
3	0x3f4c242b	0.7974269
4	0x3f052be2	0.52020085
5	0x3f579ec5	0.8422664
6	0x3f5b09c8	0.855618
7	0x3f392279	0.72318226

Variable_47/read/_42__cf__42:0 f4 [1, 3, 1, 1]
0	0x3e57fcb5	0.21092494
1	0x3e89031a	0.2676018
2	0x3eda85ad	0.42680112

Variable_46/read/_41__cf__41:0 f4 [1, 3, 1, 1]
0	0x3e84d895	0.2594649
1	0xbcdefd4f	-0.027220396
2	0xbf094c2e	-0.53631866

Variable_45/read/_40__cf__40:0 f4 [3, 4, 9, 9]
0	0xbd8fc45b	-0.07019874
1	0xbd62b52c	-0.05534856
2	0xbd83c1ed	-0.06433473
3	0xbe008b63	-0.12553172
4	0xbd9601dd	-0.07324574
5	0x3e03435d	0.12818666
6	0x3db51e3a	0.08843656
7	0xbd5b0b33	-0.053477477
8	0xbe4a6ac0	-0.19767284
9	0xbac9f0ec	-0.0015406883
10	0xbd44a5e7	-0.04800978
11	0xbe2483cc	-0.16065902
12	0xbe70751e	-0.23482177
13	0xbde81638	-0.11332363
14	0x3d979740	0.074018955
15	0xbcdc2008	-0.026870742
16	0xbd97c136	-0.07409899
17	0xbea64652	-0.32475525
18	0xbd482754	-0.04886563
19	0xbe149971	-0.14511658
20	0xbe887725	-0.266534
21	0xbe8da658	-0.27665973
22	0xbdeb9669	-0.11503298
23	0xbdfe7a1c	-0.12425634
24	0xbe3af4b3	-0.18257408
25	0x3e94f738	0.29094863
26	0x3e21f3f7	0.15815721
27	0xbcd2feb1	-0.025756212
28	0xbc764b80	-0.015032649
29	0xbda79363	-0.08182409
30	0xbdbf634a	-0.0934511
31	0xbca0b9ee	-0.019619908
32	0xbebfce24	-0.3746196
33	0xbf180f28	-0.59398127
34	0x3f0e5299	0.55594784
35	0x3f2ad64a	0.6673323
36	0x3de188e0	0.11012435
37	0x3e35fc55	0.17772038
38	0x3de823e8	0.113349736
39	0x3d67bfd7	0.056579437
40	0x3e050236	0.12989125
41	0xbf2d93b3	-0.67803496
42	0xbfabd9a1	-1.342579
43	0x3dee1164	0.11624411
44	0x3f225d51	0.6342364
45	0xbd94b074	-0.07260218
46	0xbbb332cc	-0.005468702
47	0xb8784a22	-5.919685e-05
48	0x3d3a8b1d	0.045542825
49	0x3eebf604	0.46086133
50	0xbd998645	-0.07496313
51	0xbf7bf7de	-0.9842509
52	0x3d9d0f35	0.07668916
53	0x3f1f9dc6	0.6235012
54	0xbdc60e3c	-0.09670684
55	0xbd64d9b6	-0.055871688
56	0xbddede51	-0.10882247
57	0xbdd9035a	-0.105963424
58	0x3edc9232	0.43080288
59	0x3e1843c9	0.14869608
60	0xbf50fd3f	-0.8163642
61	0xbead633a	-0.33864766
62	0x3de7bd43	0.11315396
63	0x3b775b85	0.003774376
64	0xbb9b96fc	-0.0047482233
65	0xbdfeb398	-0.124365985
66	0xbe84f175	-0.25965467
67	0x3d3f88e0	0.046761394
68	0x3d239a15	0.039941866
69	0xbf21da3b	-0.6322362
70	0xbf144c3a	-0.5792881
71	0xbe9f2c49	-0.31088474
72	0xbd0be01e	-0.03414928
73	0xbdc6f6b0	-0.09715021
74	0xbe53e373	-0.20692234
75	0xbeaad038	-0.33361983
76	0xbe44158e	-0.19148847
77	0x3d6ee5be	0.058324568
78	0xbdae46bb	-0.085095845
79	0xbe099a4c	-0.13437766
80	0xbe076c2e	-0.13224861
81	0x3cd5776c	0.026057921
82	0x3d89848b	0.06714734
83	0xbbadc6f2	-0.005303257
84	0xbe03148c	-0.12800807
85	0xbf13a4a3	-0.5767309
86	0xbfb4c6cf	-1.4123172
87	0xbfb36afc	-1.4017024
88	0xbf50c9bd	-0.8155783
89	0xbebb9d1c	-0.36643302
90	0x3d95f87e	0.07322787
91	0x3e6d8229	0.23194183
92	0x3e139922	0.14413884
93	0xbe43f9c9	-0.19138254
94	0xbf53d87f	-0.8275222
95	0xbfe65d59	-1.7997237
96	0xbfc9e268	-1.5772219
97	0xbf476486	-0.7788776
98	0xbed40dc9	-0.41416767
99	0xbc9d1691	-0.0191758
100	0x3dda2ba9	0.10652859
101	0xbab296f4	-0.001362531
102	0xbed23425	-0.41055408
103	0xbf17842e	-0.59186065
104	0xbf38656a	-0.72029746
105	0xbe1a6318	-0.15076864
106	0x3ef61132	0.48059994
107	0x3e1f8cbc	0.1558103
108	0x3bdff9fc	0.0068352204
109	0x3dc903b8	0.098151624
110	0xbe2cedbf	-0.16887568
111	0xbf42ac67	-0.76044315
112	0xbf2b4cba	-0.6691395
113	0xbee1d176	-0.4410512
114	0xbe187bd8	-0.14890993
115	0x3e464fe8	0.1936642
116	0xbd9b127d	-0.07571886
117	0x3d8b86d4	0.06812826
118	0x3ead6926	0.33869284
119	0x3e456ea4	0.19280487
120	0xbf026553	-0.5093586
121	0xbe9754dc	-0.2955693
122	0xbd7c8970	-0.061654508
123	0xbea5a946	-0.32355708
124	0xbe85ccea	-0.261329
125	0xbe96699d	-0.29377452
126	0xbdf405a3	-0.119151376
127	0x3e409887	0.18808185
128	0x3e2c93db	0.16853277
129	0xbedaad1d	-0.427102
130	0x3df011f4	0.11722174
131	0x3ebc50a4	0.36780274
132	0xbe994215	-0.2993323
133	0xbda6083b	-0.081070386
134	0x3d86b853	0.06578126
135	0xbdbe6901	-0.09297372
136	0x3e23373b	0.15939038
137	0x3d78a88b	0.06070761
138	0xbec89478	-0.39175773
139	0x3e5aaef5	0.21355803
140	0x3eb6022a	0.35548526
141	0xbedd236f	-0.43191096
142	0xbdbb05cd	-0.09131966
143	0x3e37aeaa	0.17937723
144	0xbe36564e	-0.1780636
145	0x3a5e9bcd	0.0008491844
146	0xbc76455a	-0.015031183
147	0xbe840183	-0.25782403
148	0x3e7a00f6	0.24414429
149	0x3decf942	0.1157098
150	0xbf0f88b8	-0.5606799
151	0xbd93519b	-0.071932994
152	0x3e557e90	0.20849061
153	0xbe518855	-0.20462163
154	0xbe21a835	-0.15786822
155	0xbe057140	-0.13031483
156	0xbe49177d	-0.19637866
157	0x3db96449	0.09052331
158	0xbdd030ae	-0.10165535
159	0xbef55d11	-0.47922567
160	0xbdd13629	-0.10215408
161	0x3df5ff69	0.12011606
162	0x3e107403	0.14106755
163	0x3e93e88d	0.2888836
164	0x3e1c6d47	0.15276061
165	0x3e1d082b	0.15335147
166	0x3ebdf4fd	0.37100974
167	0x3eee09be	0.46491808
168	0x3f3453a5	0.7044013
169	0x3f2ca644	0.674412
170	0x3e992a1d	0.29914942
171	0xbdb27c44	-0.08715108
172	0x3ce3d9c0	0.027813792
173	0xbe531371	-0.20612885
174	0xbd6cf98a	-0.057855166
175	0x3e7cf29d	0.24701925
176	0x3eb41148	0.35169435
177	0x3f6681e0	0.90041924
178	0x3f4a6a01	0.79068
179	0x3e3f5e4e	0.18688318
180	0xbdec8c85	-0.115502395
181	0x3ce9f5af	0.028559534
182	0xbe1aa499	-0.15101852
183	0xbd7fc6fe	-0.062445633
184	0xbe7ef787	-0.24899112
185	0xbf0c4dc1	-0.54806143
186	0x3d22180b	0.03957371
187	0xbc3a8bdd	-0.011385885
188	0xbee80919	-0.4531944
189	0x3d223521	0.03960145
190	0x3e3d0e81	0.18462564
191	0x3d892c66	0.066979215
192	0x3e7444d3	0.2385438
193	0xbe3d03fa	-0.18458548
194	0xbf28c16d	-0.65920144
195	0x3e093e9e	0.13402793
196	0x3e827c72	0.2548557
197	0xbec886fe	-0.3916549
198	0xbd1b19b4	-0.03786631
199	0xbd0f07d3	-0.03491957
200	0xbdfb253f	-0.122629635
201	0x3e1a3835	0.15060504
202	0xbe36eb36	-0.17863163
203	0xbef24290	-0.47316408
204	0x3ed6d4b9	0.4195917
205	0x3f00bac4	0.5028498
206	0xbea1ef80	-0.31628036
207	0x3d8317d0	0.06401026
208	0x3dad1b27	0.084524445
209	0x3d9054a5	0.07047395
210	0x3e7fee4e	0.2499325
211	0xbcefd764	-0.029277511
212	0xbe9e54cb	-0.30924067
213	0x3ea080c0	0.31348228
214	0x3e822b77	0.25423786
215	0xbee90aa7	-0.4551594
216	0x3dc60eeb	0.09670814
217	0x3e2e50e7	0.1702305
218	0x3e68de3f	0.2274103
219	0x3ec3ae72	0.3821903
220	0x3e71c416	0.23609957
221	0x3c1f514e	0.009723974
222	0x3e9c97dd	0.30584612
223	0x3e3df192	0.18549183
224	0xbe99271c	-0.2991265
225	0xbcf0aa2a	-0.029378016
226	0x3d69fa34	0.057123378
227	0x3e054ed9	0.13018359
228	0x3e8962fc	0.26833332
229	0x3e92941c	0.28628623
230	0x3e5c5754	0.21517688
231	0x3e9db1bb	0.3079966
232	0x3d86bc0e	0.06578837
233	0xbe63a280	-0.22229958
234	0xbdf39d24	-0.118952066
235	0xbd171c32	-0.036892124
236	0x3d5fd4f9	0.054646466
237	0x3dbd1008	0.09231573
238	0x3e11c3d6	0.14234862
239	0x3e099b17	0.13438068
240	0x3e2a4a94	0.16630012
241	0xbcf1e497	-0.029527945
242	0xbe27ff04	-0.16405874
243	0x3cbd4ca7	0.02310784
244	0x3d865f3d	0.06561134
245	0x3d5ab722	0.053397305
246	0xbde44d02	-0.111475006
247	0xbde6a864	-0.11262587
248	0xbe9eb1af	-0.30994937
249	0xbe918b74	-0.28426707
250	0xbc3b319a	-0.0114254
251	0xbdaf793a	-0.08568044
252	0x3e2d23e0	0.16908216
253	0x3eb628a2	0.35577875
254	0x3eb073dd	0.34463397
255	0x3d3826c0	0.04495883

Variable_44/read/_39__cf__39:0 f4 [1, 4, 1, 1]
0	0x3f91dd09	1.139558
1	0x3f843dcd	1.033136
2	0x3f8724ee	1.0558145
3	0x3f56d3fb	0.83917207

Variable_43/read/_38__cf__38:0 f4 [1, 4, 1, 1]
0	0xbd3102b3	-0.043215465
1	0x3f10c207	0.5654606
2	0x3edd7744	0.43255055
3	0x3eafeb11	0.3435903

Variable_42/read/_37__cf__37:0 f4 [8, 4, 3, 3]
0	0xbed8e581	-0.42362598
1	0xbf09a44c	-0.5376632
2	0xbdd9b0ac	-0.106294006
3	0xbe3000b9	-0.17187776
4	0xbf03cc66	-0.5148376
5	0x3e90d3f8	0.2828672
6	0xbf2f8cc1	-0.6857415
7	0xbe86c3e1	-0.2632132
8	0x3e2c2b99	0.16813506
9	0x3d1b93ea	0.03798286
10	0x3efb9f55	0.49144998
11	0xbe1d8ad7	-0.15384994
12	0x3f9dcab0	1.232748
13	0x3e786bbd	0.24259849
14	0xbe47e688	-0.19521534
15	0x3ef76b8c	0.4832424
16	0xbe394f11	-0.18096568
17	0xbf129a3e	-0.57266605
18	0xbd11bf32	-0.03558273
19	0x3d81de9a	0.06341286
20	0x3e8b03ed	0.27151433
21	0xbdd092c8	-0.10184246
22	0xbe4802c9	-0.19532312
23	0x3d24f081	0.040268425
24	0xbe93b60c	-0.28849828
25	0x3f08aec3	0.53391665
26	0xbe85847e	-0.26077646
27	0x3e89a7d0	0.26885843
28	0xbeb22abc	-0.3479823
29	0xbe2fa393	-0.17152242
30	0x3ed34a27	0.4126751
31	0x3e6493a6	0.22321948
32	0xbeaa412c	-0.33252847
33	0xbd594cdb	-0.05305181
34	0xbe995f96	-0.2995574
35	0xbd03107d	-0.031998146
36	0x3ebae779	0.36504725
37	0x3d06beae	0.03289669
38	0xbec18b9e	-0.37801832
39	0x3f044f1d	0.5168322
40	0x3f610083	0.87891406
41	0xbe4e0c31	-0.20121838
42	0x3f04433b	0.51665086
43	0x3e8f0c19	0.27938917
44	0xbd9a3e80	-0.07531452
45	0x3f27e5f7	0.65585274
46	0xbf0ea715	-0.55723697
47	0x3e09ee5a	0.1346983
48	0x3d8f20a3	0.06988647
49	0x3e83c3ee	0.2573542
50	0xbebbdc2f	-0.36691424
51	0x3ece7ecc	0.40331113
52	0xbe114e88	-0.14190114
53	0x3e1d868f	0.15383361
54	0x3b82cc1d	0.0039916174
55	0xbf384d2c	-0.71992755
56	0xbe511540	-0.20418262
57	0xbe38fe35	-0.18065722
58	0xbe5956a0	-0.21224451
59	0x3e3ea59d	0.18617864
60	0xbc210a17	-0.009829066
61	0xbe91c672	-0.28471714
62	0xbd54f589	-0.051991973
63	0xbeaaee7d	-0.33385077
64	0x3d6fd38d	0.05855136
65	0x3e5f8bbf	0.21830653
66	0x3eb497a7	0.35271952
67	0xbe3217d3	-0.173919
68	0xbf30beed	-0.6904133
69	0xbd645cfd	-0.055752743
70	0xbbeaca48	-0.007165227
71	0xbe3f6c9e	-0.18693778
72	0x3c9a0f51	0.018806132
73	0x3e8507f4	0.2598263
74	0x3d73488b	0.059395354
75	0xbd91a063	-0.071106695
76	0xbdd73bce	-0.10509454
77	0x3e27b22e	0.16376564
78	0xbe5752ff	-0.21027754
79	0x3d210103	0.039307605
80	0xbe5efa72	-0.21775225
81	0xbd6d9475	-0.058002908
82	0xbef67762	-0.48137957
83	0x3d3e9eb9	0.04653809
84	0xbe9a5120	-0.30140018
85	0xbef06a2c	-0.46956003
86	0xbf06e1df	-0.526884
87	0x3d60edab	0.054914158
88	0xbe88df0a	-0.26732665
89	0xbd95a798	-0.073073566
90	0xbf0fd33a	-0.5618168
91	0xbf40d1a1	-0.7531987
92	0xbf07fc93	-0.5311977
93	0xbee8b775	-0.45452467
94	0xbf5cc846	-0.86243093
95	0xbf18d29f	-0.5969638
96	0xbeaab105	-0.3333818
97	0xbf4aeba1	-0.7926579
98	0xbeb99990	-0.3624997
99	0xbca6ca3f	-0.02036011
100	0xbf29a4a6	-0.6626686
101	0xbdace528	-0.084421456
102	0xbe6d57d4	-0.23178035
103	0x3e62c9d8	0.2214731
104	0x3e11264a	0.14174762
105	0xbf098ab2	-0.5372726
106	0xbf5def05	-0.8669284
107	0x3ecd42b9	0.40089968
108	0xbe1100e1	-0.14160492
109	0x3da1fd1b	0.07909604
110	0x3e4ec831	0.20193554
111	0xbec5336b	-0.3851579
112	0x3d1c9117	0.038224306
113	0x3e37b2da	0.1793932
114	0xbd6df17f	-0.058091637
115	0xbd9af858	-0.07566899
116	0x3dbd7d97	0.0925247
117	0x3da15f50	0.078795075
118	0xbe61bdc3	-0.22045045
119	0xbe2fb59e	-0.17159125
120	0x3d0bdbf4	0.03414531
121	0x3ed3a246	0.41334742
122	0x3e470b1e	0.19437835
123	0x3e0e2b7b	0.13883774
124	0x3f6eaa51	0.9322863
125	0x3e7ac96c	0.24490899
126	0x3cc7df3d	0.02439844
127	0xbd0ff540	-0.035145998
128	0xbe1e9ac6	-0.15488729
129	0xbe530a94	-0.20609504
130	0xbe379422	-0.17927602
131	0xbe97066c	-0.29497087
132	0xbe3db40a	-0.1852571
133	0xbf36c819	-0.71399075
134	0xbed5599c	-0.4166993
135	0xbe2ad5cf	-0.16683124
136	0x3dd1c71f	0.102430575
137	0x3d812f35	0.06307832
138	0x3dcbcec2	0.09951545
139	0x3e40ca8f	0.1882727
140	0x3e0170cf	0.1264069
141	0x3f031252	0.5119983
142	0x3ede155d	0.43375674
143	0x3f048b3d	0.5177496
144	0x3f10e913	0.56605643
145	0x3ed8e80e	0.42364544
146	0x3e7a49d4	0.24442226
147	0x3e7125ab	0.23549525
148	0x3f6dffe0	0.9296856
149	0x3e91b5cb	0.2845901
150	0xbe9eccb1	-0.31015542
151	0x3e8ac20c	0.2710117
152	0x3f27752b	0.6541316
153	0x3e698d4f	0.22807811
154	0xbe374e19	-0.17900886
155	0xbcb6a98f	-0.022297649
156	0x3caacc63	0.020849412
157	0x3e766b1b	0.24064295
158	0xbe756687	-0.23964892
159	0x3e3471c2	0.1762152
160	0xbdc04d93	-0.09389796
161	0x3c3d7ac1	0.011564911
162	0x3edf0b06	0.43563098
163	0x3dcc2ac7	0.09969097
164	0xbe04c300	-0.12965012
165	0xbe0f3941	-0.13986684
166	0x3f220555	0.63289386
167	0xbee13538	-0.43985915
168	0x3ebc0a44	0.36726582
169	0x3e9dd050	0.30822992
170	0xbd763e5b	-0.06011806
171	0xbee1a249	-0.44069126
172	0x3ed76d19	0.42075422
173	0x3e7ba0d3	0.24573068
174	0x3eab74ba	0.33487493
175	0x3e828512	0.2549215
176	0x3f4ea9c6	0.80727804
177	0xbe321fed	-0.17394991
178	0x3eebb72c	0.46038187
179	0x3e166d2f	0.14690088
180	0x3ee60b7e	0.44930643
181	0x3e204006	0.15649423
182	0xbefe4d31	-0.49668267
183	0x3ee33799	0.44378355
184	0x3cf498cf	0.029858021
185	0x3ec2bdab	0.3803533
186	0x3d540bdf	0.051769134
187	0x3ed8c4c7	0.4233763
188	0x3e7d56c3	0.24740128
189	0xbdb3af91	-0.08773721
190	0x3e5be78e	0.2147505
191	0x3d686a75	0.05674215
192	0xbe497c01	-0.1967621
193	0xbe7bd2a9	-0.24592079
194	0xbedc5127	-0.43030664
195	0xbd96f868	-0.073715985
196	0x3ec0f8ff	0.3768997
197	0x3e652376	0.22376809
198	0x3ea78cae	0.32724518
199	0x3e121a04	0.14267737
200	0x3d9ba641	0.0760007
201	0x3e77c49a	0.24196091
202	0xbe798084	-0.24365431
203	0x3e3ee870	0.18643355
204	0xbdd2f276	-0.10300152
205	0x3e16c34c	0.14722937
206	0x3d9156bd	0.07096622
207	0xbf24ce36	-0.6437715
208	0xbeba1022	-0.36340433
209	0x3ea4d630	0.32194662
210	0xbebbd36b	-0.36684737
211	0xbee40dbe	-0.44541734
212	0xbf3709d0	-0.7149935
213	0x3ed07ada	0.40718728
214	0x3eb6b460	0.3568449
215	0xbeee7fd6	-0.46581906
216	0x3dcd9a62	0.10039212
217	0x3e90d7f3	0.28289756
218	0xbd826fa4	-0.0636895
219	0x3e103929	0.14084305
220	0xbea81d2f	-0.32834765
221	0x3d40bd32	0.04705543
222	0xbf35d035	-0.71020824
223	0xbe5e7195	-0.21723016
224	0x3d849e29	0.06475479
225	0xbeccc12a	-0.39991122
226	0xbdc8e1eb	-0.098087154
227	0xbed67ad1	-0.41890576
228	0xbe4fe2b2	-0.20301321
229	0xbf21801f	-0.6308612
230	0xbdbf66f2	-0.09345807
231	0xbe354a07	-0.1770402
232	0xbe536515	-0.20644028
233	0xbe9da333	-0.30788574
234	0xbe71bbf1	-0.2360685
235	0x3f0d318d	0.55153733
236	0x3ecf90f1	0.4054027
237	0x3e889518	0.2667625
238	0xbe0cbfb9	-0.13745011
239	0x3e9a7399	0.3016632
240	0xbd6b6569	-0.05746976
241	0x3f335c19	0.70062405
242	0x3ed21a32	0.4103561
243	0xbd2d7044	-0.042343393
244	0xbdca6629	-0.09882767
245	0x3cb6405e	0.02224749
246	0xbece135f	-0.40249154
247	0xbf34ac17	-0.7057509
248	0xbca71183	-0.020394092
249	0xbdc0c380	-0.09412289
250	0xbf25f28c	-0.6482322
251	0x3df6f514	0.12058464
252	0xbe280908	-0.16409695
253	0xbe0a21d4	-0.13489467
254	0x3ec49de2	0.38401705
255	0xbe4e0c42	-0.20121863

Variable_41/read/_36__cf__36:0 f4 [1, 8, 1, 1]
0	0x3f8c8cc9	1.0980464
1	0x3f90ad2a	1.1302845
2	0x3f90a359	1.129985
3	0x3f768af4	0.96305776
4	0x3f9b2c44	1.2122884
5	0x3f65e4ce	0.89802253
6	0x3f730772	0.94933236
7	0x3f6de51b	0.9292771

Variable_40/read/_35__cf__35:0 f4 [1, 8, 1, 1]
0	0xbf103d62	-0.5634366
1	0xbdb906c8	-0.090344965
2	0x3f330b64	0.69939256
3	0x3debcc0b	0.115135275
4	0xbda381dc	-0.07983753
5	0x3caee987	0.021351589
6	0xbe1b7c10	-0.15184045
7	0x3e84b53c	0.2591952

Variable_4/read/_34__cf__34:0 f4 [1, 8, 1, 1]
0	0x3da7e7b6	0.08198492
1	0x3f16de54	0.58932996
2	0x3f75dc43	0.9603922
3	0x3e863788	0.26214242
4	0xbf68f72b	-0.9100215
5	0x3e53a3d4	0.20667964
6	0x3e40b008	0.1881715
7	0x3dd0a959	0.101885505

Variable_39/read/_33__cf__33:0 f4 [16, 8, 3, 3]
0	0x3d7164b8	0.058933944
1	0x3ea52f63	0.32262716
2	0x3e7625a6	0.24037799
3	0x3ef316f8	0.4747846
4	0x3e75324b	0.23944966
5	0x3d83c8f8	0.06434816
6	0x3e231a90	0.15928102
7	0xbc6242a8	-0.013809837
8	0xbef59302	-0.4796372
9	0xbe3f28dc	-0.1866793
10	0x3efa7ea7	0.48924753
11	0x3e4d36c2	0.2004042
12	0xbee33374	-0.44375193
13	0xbf1b0b7e	-0.6056441
14	0xbf5837b0	-0.8445997
15	0x3f080537	0.5313296
16	0xbeef4f03	-0.4673997
17	0xbe877d1e	-0.26462644
18	0x3deca2b4	0.11554471
19	0x3e09f6b5	0.13473018
20	0xbea210c6	-0.31653422
21	0x3bf2e8fd	0.0074130283
22	0xbdaa0611	-0.08301938
23	0xbdb5f53e	-0.08884667
24	0x3d9cabe2	0.076499715
25	0x3ee284ae	0.44241852
26	0xbd306916	-0.043068968
27	0x3ef1489c	0.4712571
28	0x3d633e40	0.055479288
29	0xbd38a0b3	-0.04507513
30	0x3f25d132	0.6477233
31	0x3eef1622	0.46696573
32	0x3c242ae6	0.010019993
33	0x3f02a67b	0.5103528
34	0x3e45caa0	0.19315577
35	0x3d363634	0.044485286
36	0xbe1663bd	-0.14686485
37	0x3edd6acf	0.4324555
38	0xbe2b675c	-0.16738647
39	0x3c599d15	0.01328208
40	0x3ef03f84	0.4692346
41	0xbe986e48	-0.29771638
42	0x3eee6172	0.4655872
43	0x3d5f2de8	0.05448714
44	0xbd7334bf	-0.059376474
45	0xbea71c91	-0.32638982
46	0xbf48eb5a	-0.7848412
47	0xbedfc8ed	-0.43707982
48	0xbf6c50e9	-0.9231096
49	0xbf2459d3	-0.6419956
50	0xbe8b750a	-0.2723773
51	0x3eff369b	0.49846348
52	0xbf156779	-0.5836101
53	0xbdaee05a	-0.085388854
54	0x3ddd9be6	0.10820751
55	0x3ec68a21	0.3877726
56	0x3f0eeab2	0.55826867
57	0xbccd3593	-0.02504996
58	0xbe926005	-0.28588882
59	0x3d9ee9f5	0.077594675
60	0xbf29eba4	-0.66375184
61	0xbd420e66	-0.047377013
62	0x3e6a15ee	0.22859928
63	0xbe486f2c	-0.19573659
64	0x3e27a03f	0.16369723
65	0x3ded5d08	0.1159001
66	0x3e76d41b	0.2410435
67	0x3f0e4fb9	0.555904
68	0x3efcec75	0.49399152
69	0xbeaf7841	-0.34271434
70	0xbed9434e	-0.42434162
71	0xbeff756f	-0.49894282
72	0x3e0da947	0.13834105
73	0xbe6f2454	-0.23353702
74	0xbe313b33	-0.17307739
75	0xbcee6120	-0.029099047
76	0xbe27a670	-0.16372085
77	0x3da7e27e	0.08197497
78	0x3ed964ac	0.4245962
79	0xbdbe3b25	-0.09288625
80	0x3d89fab5	0.06737272
81	0xbc6257cc	-0.013814878
82	0xbea603e2	-0.32424837
83	0xbe172f59	-0.14764155
84	0xbe9b22e7	-0.30300066
85	0xbf01eccc	-0.5075195
86	0xbeb98442	-0.36233717
87	0x3e2c1db9	0.16808213
88	0xbe258960	-0.16165686
89	0x3e930db5	0.28721395
90	0xbdf01c42	-0.1172414
91	0xbdc8d0ce	-0.09805451
92	0x3db0cf11	0.08633245
93	0xbe9f217d	-0.31080237
94	0xbeb86fe0	-0.36022854
95	0xbded3411	-0.115821965
96	0x3e48f86b	0.19626014
97	0x3d7bc3af	0.061465915
98	0xbd90766e	-0.07053839
99	0xbf0d9814	-0.5531018
100	0xbf25de03	-0.6479189
101	0x3d130afb	0.035899144
102	0xbf434971	-0.7628394
103	0x3ee2ddfd	0.4430999
104	0x3e85305a	0.26013452
105	0x3c48b18a	0.01224936
106	0x3e73a862	0.23794702
107	0xbe53a6ce	-0.206691
108	0xbe93f477	-0.2889745
109	0x3d373257	0.044725742
110	0x3e579caf	0.21055864
111	0xbf02ed78	-0.511436
112	0x3ed0e4ab	0.4079946
113	0x3e16107b	0.14654724
114	0xbe8bf3ac	-0.27334344
115	0x3e73d452	0.23811463
116	0x3e5e90c6	0.21734914
117	0x3ec0c8ed	0.37653294
118	0x3f3d1298	0.73856497
119	0xbe2352d8	-0.15949571
120	0x3e9c374e	0.30510944
121	0x3ef4c215	0.47804323
122	0xbe134e0d	-0.14385243
123	0x3f13bffa	0.5771481
124	0x3ef8ab5a	0.4856823
125	0xbdf15f97	-0.117858104
126	0x3f228034	0.6347687
127	0x3f2becfa	0.6715847
128	0xbe4dc40b	-0.20094316
129	0x3e318fce	0.17340013
130	0x3ed90d49	0.42392948
131	0x3dc45a82	0.095875755
132	0x3f1cc49e	0.61237514
133	0x3e9b6b17	0.3035514
134	0x3e31dc9e	0.17369315
135	0xbdb0d1a6	-0.08633737
136	0x3e7afe93	0.24511175
137	0x3e6ea546	0.23305234
138	0x3d8b6115	0.06805626
139	0x3ca3bef1	0.019988509
140	0x3cbc353a	0.0229746
141	0xbe83e19d	-0.25758067
142	0x3ea231ba	0.31678563
143	0x3e36b40c	0.1784212
144	0xbe21360a	-0.1574327
145	0x3cf9e95d	0.030506784
146	0x3b8de4c6	0.0043302504
147	0xbe7bc54d	-0.24586983
148	0xbe657933	-0.22409515
149	0xbe9a7fd5	-0.30175653
150	0x3ef397af	0.47576663
151	0xbeeefba8	-0.46676373
152	0xbb8da3b8	-0.0043224953
153	0x3e1d234f	0.153455
154	0xbeb6f2c4	-0.3573209
155	0x3eae49d7	0.3404071
156	0xbe29e2c0	-0.16590405
157	0x3eb837f2	0.35980183
158	0x3e3d230e	0.18470404
159	0xbf1e484c	-0.61829066
160	0x3eab4ad8	0.3345554
161	0xbda8ffeb	-0.082519375
162	0x3bb95d69	0.0056568873
163	0xbf05feda	-0.52342
164	0x3e2823f4	0.16419965
165	0xbeae0a7c	-0.33992374
166	0xbdbc96d1	-0.092084534
167	0xbe49410e	-0.19653723
168	0x3e8b816f	0.27247187
169	0xbeda2e8f	-0.42613646
170	0x3dce9cb3	0.10088482
171	0x3ee52b16	0.44759434
172	0x3f09b120	0.53785896
173	0xbcbdc4a2	-0.02316505
174	0x3ea974ef	0.33097026
175	0x3f9327ee	1.149656
176	0x3f0c624b	0.54837483
177	0x3e04d453	0.1297162
178	0x3e899de3	0.2687827
179	0x3e88f6a8	0.26750684
180	0x3ed2f03c	0.4119891
181	0x3e022dd3	0.12712793
182	0x3e58c89a	0.21170273
183	0x3f659721	0.8968373
184	0xbd084be8	-0.033275515
185	0xbe742792	-0.2384322
186	0xbd50c36a	-0.05096761
187	0xbe6205cb	-0.22072522
188	0xbe1a31e2	-0.15058091
189	0xbd5a991a	-0.053368665
190	0xbe18f92b	-0.149388
191	0xbe6da12d	-0.23206015
192	0xbe594e0c	-0.21221179
193	0x3da27a4b	0.07933482
194	0x3dbbb8e5	0.09166125
195	0xbdafd5b5	-0.08585683
196	0xbe12a598	-0.14320982
197	0xbc9381c9	-0.018006222
198	0x3f1358ee	0.5755757
199	0x3e9b57b4	0.3034035
200	0x3f57ad3b	0.84248704
201	0x3ed12d3e	0.4085483
202	0xbdc231b3	-0.094821356
203	0x3e14e64a	0.14540973
204	0xbe98b0ae	-0.29822296
205	0xbe50b156	-0.20380148
206	0x3ec788d6	0.38971585
207	0xbd1e3c0d	-0.038631488
208	0x3eeed08a	0.46643478
209	0x3e05d6ee	0.1307027
210	0xbc5ee14a	-0.013603518
211	0xbd5f1473	-0.05446286
212	0x3e62de6e	0.22155163
213	0x3dd6fc88	0.10497385
214	0xbe84e4b9	-0.25955752
215	0xbdb186c5	-0.086682834
216	0x3ebe2582	0.3713799
217	0xbf22736c	-0.6345737
218	0xbd28fe15	-0.041257937
219	0xbd75fd7d	-0.0600562
220	0xbe6f0329	-0.23341049
221	0x3cc1bd96	0.023649972
222	0xbebefff0	-0.3730464
223	0xbd98e017	-0.07464617
224	0xbe4c67da	-0.19961491
225	0x3e0fb4b1	0.14033772
226	0xbeb271a8	-0.34852338
227	0xbe12f5d7	-0.14351593
228	0xbe1bebb6	-0.15226635
229	0xbdec281d	-0.115310885
230	0xbf8536ec	-1.0407386
231	0x3e335728	0.17513716
232	0xbd8c957b	-0.06864449
233	0xbf411227	-0.75418323
234	0xbf5b2f96	-0.85619485
235	0x3e964995	0.29353014
236	0xb8f65508	-0.000117460324
237	0x3ef9db57	0.48800156
238	0xbf1b5c3c	-0.60687613
239	0x3ea190c5	0.31555763
240	0x3d6e909d	0.058243383
241	0x3f19125b	0.59793633
242	0xbe5f71bc	-0.2182073
243	0xbdd033cf	-0.10166132
244	0xbe133771	-0.14376618
245	0xbee3964d	-0.44450608
246	0xbeb5018e	-0.3535275
247	0x3d52f9ae	0.051507644
248	0xbee5f1e2	-0.44911104
249	0x3cd343d0	0.025789171
250	0xbe399a8c	-0.18125361
251	0xbe6724a1	-0.22572567
252	0xbe8736a9	-0.2640889
253	0xbf293fa8	-0.66112757
254	0x3e756723	0.23965125
255	0xbec1e66b	-0.37871107

Variable_38/read/_32__cf__32:0 f4 [1, 16, 1, 1]
0	0x400921f9	2.1426985
1	0x3fdbe64d	1.7179657
2	0x3fe7a970	1.8098583
3	0x40113e03	2.26941
4	0x3ff87fb3	1.9413971
5	0x4010f9c2	2.265244
6	0x40123e98	2.2850704
7	0x401dbca9	2.46464
8	0x3ff1d605	1.8893439
9	0x40035d7a	2.0525804
10	0x3fd68bb1	1.676138
11	0x3ff6eaa0	1.9290352
12	0x3fe639a6	1.7986343
13	0x4000acc1	2.010544
14	0x40119738	2.2748547
15	0x4012eaf8	2.2955914

Variable_37/read/_31__cf__31:0 f4 [1, 16, 1, 1]
0	0x3cd8d747	0.02646984
1	0x3cead1b7	0.028664453
2	0xbe5d2976	-0.21597847
3	0x3e6af14c	0.2294361
4	0x3d5e72db	0.054308753
5	0xbe1cd664	-0.15316159
6	0x3d8c6c81	0.06856633
7	0x3ddb9dd0	0.1072346
8	0xbca553a6	-0.020181488
9	0xbd988bbe	-0.07448529
10	0x3d5f479c	0.05451165
11	0x3e83013e	0.25586885
12	0xbe43cc13	-0.19120817
13	0x3eababf9	0.33529642
14	0x3e86393c	0.2621554
15	0xbe6babfd	-0.23014827

Variable_36/read/_30__cf__30:0 f4 [16, 16, 3, 3]
0	0xbf0d331e	-0.55156124
1	0xbeabedf5	-0.33579984
2	0x3ddb539b	0.10709306
3	0xbe950e2e	-0.2911238
4	0x3f5f7b28	0.87297297
5	0x3e40a9ee	0.18814823
6	0x3d10cbed	0.03535073
7	0x3e6be769	0.23037495
8	0x3e74a09c	0.23889393
9	0xbec9f170	-0.39442015
10	0x3f26c623	0.6514608
11	0xbcf45850	-0.029827267
12	0xbe826701	-0.2546921
13	0x3f0fbba3	0.56145686
14	0x3ef5aa35	0.4798142
15	0xbec0e69e	-0.37675947
16	0xbd155597	-0.036458578
17	0x3ec05b1f	0.3756952
18	0xbf010902	-0.5040437
19	0x3df8469c	0.12122843
20	0x3d291805	0.041282672
21	0x3ccc621d	0.024949128
22	0xbc21ff15	-0.009887476
23	0x3e97f7bf	0.29681203
24	0x3eabbf35	0.33544317
25	0xbd6f8a3b	-0.058481436
26	0xbe923ea7	-0.28563425
27	0xbe35f3bb	-0.17768757
28	0x3eaff713	0.3436819
29	0x3ea17522	0.31534678
30	0x3e1e7546	0.15474424
31	0xbe14b316	-0.14521441
32	0xbe73549e	-0.23762748
33	0x3e33cd77	0.17558847
34	0xbe14bfcf	-0.14526294
35	0xbd148df9	-0.03626821
36	0x3f218aa9	0.63102204
37	0xbe657b8e	-0.22410414
38	0xbeca782a	-0.39544803
39	0xbe33050e	-0.17482397
40	0x3df876ab	0.12132009
41	0x3df56d8c	0.11983785
42	0xbef29d5e	-0.47385687
43	0x3ed88f6f	0.4229693
44	0xbf64c5ca	-0.893643
45	0x3d805902	0.06266977
46	0xbed845ea	-0.4224084
47	0x3e1b69a2	0.15177014
48	0x3e602ae4	0.21891361
49	0xbeed34b0	-0.4632926
50	0x3e6a4469	0.22877659
51	0x3e59f111	0.21283366
52	0xbd32a88d	-0.043617774
53	0x3eaf5626	0.34245414
54	0x3e960c76	0.29306382
55	0xbb174785	-0.00230834
56	0xbe3062a2	-0.17225125
57	0x3e42605a	0.18982068
58	0x3f82bc81	1.0213777
59	0xbe308da9	-0.17241539
60	0xbe3d33dd	-0.18476816
61	0x3d86824d	0.06567822
62	0xbdd54ade	-0.104146704
63	0xbefeb0dd	-0.4974431
64	0xbe0b8694	-0.13625556
65	0xbeec3f55	-0.46142069
66	0xbe435688	-0.19075978
67	0x3f03dcb6	0.51508653
68	0xbea0a4db	-0.31375775
69	0xbe5665fa	-0.20937338
70	0x3e3798ff	0.17929457
71	0xbe8f760d	-0.28019753
72	0x3f117a28	0.5682702
73	0x3cd57010	0.026054412
74	0x3ed38bff	0.41317746
75	0xbd352812	-0.044227667
76	0x3d1b764b	0.03795461
77	0x3de5f796	0.11228864
78	0x3f26b6d9	0.65122753
79	0xbdd26888	-0.10273844
80	0x3e60ad21	0.21941043
81	0x3e93d3ce	0.28872532
82	0xbf0e62d4	-0.5561955
83	0xbe866ccb	-0.26254877
84	0x3d5404b1	0.051762287
85	0xbe2d9f50	-0.16955304
86	0x3cbf1f4a	0.02333035
87	0xbe3fe646	-0.18740186
88	0xbf83ad26	-1.0287216
89	0xbee65ce9	-0.4499276
90	0xbe44b0ba	-0.19208041
91	0x3e436afc	0.1908378
92	0x3f292904	0.6607821
93	0xbc81e0cb	-0.01585426
94	0x3ebcc4d9	0.36868933
95	0x3f5d87ad	0.8653515
96	0x3d8774c6	0.0661407
97	0xbf05aa0c	-0.52212596
98	0x3db52614	0.088451535
99	0x3df8f4bb	0.12156054
100	0x3f0b4192	0.5439693
101	0x3f5430bd	0.8288687
102	0xbee711d3	-0.45130786
103	0x3e00ff07	0.12597285
104	0x3ecacf4d	0.39611283
105	0xbee1f2b9	-0.44130495
106	0xbdcdfc54	-0.100578934
107	0x3f87bf07	1.0605172
108	0x3eea85e3	0.45805272
109	0x3edefb96	0.4355132
110	0xbe8f774b	-0.280207
111	0x3eb85c71	0.36008027
112	0x3f09e81d	0.538698
113	0x3f2ac3d8	0.66705084
114	0x3ebb7590	0.3661313
115	0xbe1d5342	-0.15363792
116	0xbec71c2f	-0.3888869
117	0xbe248af0	-0.16068625
118	0xbf012a47	-0.50455135
119	0xbe623dff	-0.22093962
120	0x3e93ae86	0.28844088
121	0xbee45568	-0.4459641
122	0xbd847a1f	-0.06468605
123	0x3df5d4cc	0.120034784
124	0xbe0547e4	-0.13015705
125	0xbca5e93c	-0.020252816
126	0xbca43295	-0.02004365
127	0xbebace39	-0.3648546
128	0xbe88a28a	-0.26686507
129	0xbf088477	-0.53327125
130	0x3b8110fa	0.0039387913
131	0xbda1ea8e	-0.07906066
132	0xbf023a87	-0.50870556
133	0x3e4661f4	0.19373304
134	0xbed1b547	-0.40958616
135	0x3e90fc5c	0.28317535
136	0xbde9e2b3	-0.114201926
137	0x39dc0b92	0.0004197029
138	0x3ea5d01c	0.32385337
139	0x3f176c57	0.5914969
140	0xbe59cf46	-0.21270475
141	0x3ea2e521	0.31815436
142	0x3d600274	0.05468984
143	0x3ef54b97	0.47909233
144	0x3f5133d7	0.81719726
145	0x3fbaf1b8	1.4605017
146	0x3ea3e024	0.32006943
147	0x3e84fb42	0.25972944
148	0xbf465408	-0.7747197
149	0x3f2e7c94	0.6815884
150	0x3d6cd338	0.05781862
151	0x3ed9eb8f	0.4256253
152	0x3e86660a	0.26249725
153	0xbea04083	-0.3129922
154	0xbcf3b0a7	-0.02974732
155	0xbdd8e176	-0.10589878
156	0xbf2385b3	-0.63875884
157	0x3f8e4722	1.1115458
158	0x3ecaa437	0.3957841
159	0xbda2a379	-0.07941336
160	0xbd23189c	-0.03981839
161	0xbcdb3d3f	-0.026762603
162	0x3ded36c1	0.11582709
163	0x3db52f0a	0.088468626
164	0xbd55b633	-0.05217571
165	0xbd2d4851	-0.042305294
166	0xbc84672f	-0.016162483
167	0xbec9b3da	-0.39395028
168	0xbe481ecd	-0.19543
169	0x3e87b924	0.2650844
170	0x3dcae154	0.09906259
171	0xbe978a92	-0.29597908
172	0xbf3e6221	-0.7436848
173	0x3f3674eb	0.7127215
174	0xbd8fd708	-0.07023436
175	0x3e8a273a	0.26983052
176	0xbd72d790	-0.059287608
177	0x3eecc1fd	0.4624175
178	0xbdac5847	-0.08415275
179	0x3d191722	0.037375577
180	0x3e56f885	0.2099324
181	0xbf87e2ea	-1.0616124
182	0xbeb40990	-0.35163546
183	0xbd887d7b	-0.066645585
184	0xbec2e086	-0.38061923
185	0x3f261382	0.64873517
186	0x3e2d6344	0.16932398
187	0xbea73db4	-0.32664263
188	0x3f3efa57	0.7460074
189	0xbdb589f7	-0.08864205
190	0xbf064140	-0.52443314
191	0xbe645bec	-0.2230069
192	0xbe919f51	-0.2844186
193	0xbe8aabd3	-0.27084216
194	0x3e34356f	0.17598508
195	0x3eab3e51	0.3344598
196	0x3cd0391a	0.025417853
197	0xbdcbf49c	-0.09958765
198	0x3ed45dcb	0.41477808
199	0x3d7a176e	0.0610575
200	0x3f34fb61	0.70696074
201	0x3da2f2a1	0.07956434
202	0x3ec834f2	0.39102894
203	0x3ef79959	0.48359182
204	0x3e01d6ee	0.12679645
205	0x3b8a2ca8	0.004216749
206	0xba82143f	-0.0009924247
207	0x3e3c9a41	0.18418218
208	0x3ec3e758	0.3826244
209	0xbe766e87	-0.240656
210	0xbed63f43	-0.4184514
211	0x3ee4d8d4	0.44696677
212	0x3d97d99b	0.07414552
213	0xbe39cbf8	-0.18144214
214	0x3e8d6382	0.2761498
215	0xbe6c5776	-0.23080239
216	0xbd95c6a4	-0.07313278
217	0xbe889c8c	-0.26681936
218	0x3effd8ae	0.4997
219	0x3e8b85f1	0.27250627
220	0x3ee4c70b	0.44683108
221	0x3e55b92f	0.20871423
222	0x3ca71cd2	0.020399485
223	0x3e44751e	0.19185302
224	0x3f210bda	0.6290871
225	0x3e46bcd6	0.19407973
226	0x3e998427	0.29983637
227	0xbee37770	-0.4442706
228	0x3dfefcc3	0.12450554
229	0x3e3bf14c	0.18353766
230	0xbe766fc8	-0.24066079
231	0x3e88dbdc	0.2673024
232	0x3d97e9b5	0.07417623
233	0x3daeeec6	0.08541636
234	0xbe54b1de	-0.20770976
235	0xbd96720a	-0.0734597
236	0x3e8debb6	0.27718896
237	0xbea29bbd	-0.31759444
238	0x3eab44d4	0.3345095
239	0x3e96f0a4	0.2948047
240	0x3c25b54f	0.010114028
241	0x3c8d1237	0.0172206
242	0x3e39a447	0.18129073
243	0xbeaf40b4	-0.34229052
244	0x3c9509d6	0.018193167
245	0xbe301cc4	-0.17198473
246	0x3ec025fd	0.37528983
247	0xbe7a1e6e	-0.2442567
248	0xbebad252	-0.36488587
249	0xbe8fdac0	-0.2809658
250	0xbe94550c	-0.28971136
251	0x3e99c602	0.3003388
252	0x3f0b4ef5	0.54417354
253	0xbd94bf39	-0.07263035
254	0x3eb354ca	0.35025626
255	0xbef74952	-0.48298126

Variable_35/read/_29__cf__29:0 f4 [1, 16, 1, 1]
0	0x3f87fd9b	1.0624269
1	0x3f91ad09	1.1380931
2	0x3f3ea344	0.74467874
3	0x3f7e95b0	0.99447155
4	0x3f64387b	0.8914868
5	0x3f86563e	1.0495069
6	0x3f94bc23	1.1619915
7	0x3f82f445	1.0230795
8	0x3f668197	0.9004149
9	0x3f5e2848	0.86780214
10	0x3f72e9b7	0.9488787
11	0x3f5b05c3	0.85555667
12	0x3f15d0b9	0.5852161
13	0x3f49a64a	0.7876936
14	0x3f5956cf	0.84898084
15	0x3f54e60d	0.8316353

Variable_34/read/_28__cf__28:0 f4 [1, 16, 1, 1]
0	0xbf83832e	-1.0274408
1	0xbfa4ddbe	-1.288017
2	0xbead071f	-0.33794495
3	0xbf2be57f	-0.6714706
4	0xbf7e8fbe	-0.99438083
5	0xbf0184d7	-0.5059332
6	0xbfb527ac	-1.4152732
7	0xbebf3fca	-0.37353355
8	0xbe8a37a4	-0.26995575
9	0xbe3a9f6a	-0.18224874
10	0xbf563833	-0.83679503
11	0x3c81be95	0.015837947
12	0x3ea7f33d	0.32802764
13	0xbe3e399b	-0.18576662
14	0xbd8a714f	-0.06759893
15	0xbf0899a9	-0.53359467

Variable_33/read/_27__cf__27:0 f4 [16, 16, 3, 3]
0	0xbcb9c281	-0.022675755
1	0x3ba0bae6	0.0049050925
2	0x3e9ab152	0.3021341
3	0xbe0d2c82	-0.1378651
4	0x3e5c46ea	0.21511427
5	0x3dca221b	0.09869786
6	0x3cb38a51	0.02191654
7	0xbef47692	-0.47746712
8	0xbf00bde9	-0.5028978
9	0xbf1938a9	-0.5985208
10	0xbe6f54b9	-0.23372163
11	0xbc453c54	-0.012038309
12	0xbee705a7	-0.451215
13	0x3cd2d02b	0.025734028
14	0xbe2582e5	-0.16163214
15	0x3f022bc2	0.5084802
16	0x3f5e080c	0.8673103
17	0x3eca522d	0.3951582
18	0xbd11aad7	-0.035563316
19	0x3e5b53c2	0.2141867
20	0x3e23063c	0.15920347
21	0x3eb8d2e9	0.36098412
22	0xbdfe3b85	-0.12413696
23	0xbdb0751a	-0.08616085
24	0xbe9e8382	-0.30959707
25	0xbdf86f26	-0.12130575
26	0xbdd79195	-0.105258144
27	0x3e2182b8	0.15772521
28	0x3ed1681c	0.40899742
29	0x3e8ce53a	0.27518636
30	0xbf2497ef	-0.6429433
31	0xbefe81a7	-0.49708292
32	0xbec817fc	-0.390808
33	0xbf863919	-1.0486175
34	0xbe9797aa	-0.29607898
35	0xbe51059c	-0.20412296
36	0x3d3bf1e0	0.045884967
37	0x3e2ae774	0.16689855
38	0xbcd88159	-0.026428865
39	0xbe2bf3bc	-0.16792196
40	0x3d9bd74e	0.076094255
41	0x3efcb396	0.49355763
42	0x3d34edb4	0.044172004
43	0x3ddf51bc	0.109042615
44	0x3ef0034e	0.4687752
45	0x3ea153e8	0.31509328
46	0xbc9d6778	-0.019214377
47	0x3ddd1c50	0.10796416
48	0x3f246143	0.6421091
49	0x3eba80aa	0.36426288
50	0xbeb77a58	-0.35835528
51	0x3eb16098	0.34644008
52	0xbea660d9	-0.32495764
53	0xbe542212	-0.20716122
54	0xbe0e90a9	-0.13922371
55	0xbb860d2a	-0.0040909247
56	0xbda599d1	-0.08085979
57	0x3dc68b46	0.09694533
58	0xbebc070c	-0.36724126
59	0xbf48a1cf	-0.783719
60	0x3de1ec20	0.110313654
61	0xbe5dc1ee	-0.2165601
62	0x3e0c7e13	0.13719968
63	0x3bba4ab2	0.005685174
64	0x3ef8f2df	0.48622796
65	0x3eef17a8	0.46697736
66	0xbdf0983a	-0.11747785
67	0xbe67f8ec	-0.2265355
68	0xbe57870b	-0.21047609
69	0xbee8026b	-0.45314345
70	0xbea03ece	-0.31297916
71	0x3ea0268a	0.31279403
72	0xbf2a79d6	-0.66592157
73	0x3df61286	0.12015252
74	0x3e74bc94	0.23900062
75	0x3ed1cb5f	0.40975472
76	0x3f0d34f0	0.551589
77	0xbdacdad3	-0.08440175
78	0xbeeb3073	-0.459354
79	0xbc91f18f	-0.01781538
80	0x3f12d5d7	0.57357544
81	0xbe6c44d8	-0.23073137
82	0x3f352116	0.7075361
83	0x3e8c1764	0.27361596
84	0xbe3cca4e	-0.18436548
85	0x3edbe27a	0.42946225
86	0x3ed2b0cd	0.41150513
87	0x3c6b45dd	0.014359918
88	0xbf800933	-1.0002807
89	0xbf85d298	-1.0454893
90	0xbe410a3a	-0.18851557
91	0xbee59f3e	-0.44848055
92	0xbea226d4	-0.31670249
93	0xbea5de98	-0.32396388
94	0x3e06a1ca	0.13147655
95	0xbe4629dd	-0.19351907
96	0x3e4835d2	0.19551781
97	0xbeb6637c	-0.35622776
98	0xbf115c3a	-0.5678135
99	0xbde7b977	-0.113146715
100	0x3f412f14	0.7546246
101	0xbe2f328e	-0.17109129
102	0xbe7aa70c	-0.24477786
103	0x3e87724d	0.26454392
104	0xbd61b878	-0.055107564
105	0xbed48e34	-0.41514742
106	0xbf0f33ff	-0.55938715
107	0xbd028bae	-0.03187149
108	0xbe3fb7fc	-0.18722528
109	0xbf00e958	-0.50356054
110	0xbf4b1cf4	-0.79341054
111	0x3e2e59e9	0.17026486
112	0x3f2d7a08	0.6776433
113	0x3f6d1cb2	0.9262191
114	0xbe54608e	-0.20739958
115	0x3f0b9a4b	0.5453231
116	0x3ec97932	0.39350277
117	0xbc9eecd3	-0.019400036
118	0xbe4e2f06	-0.20135126
119	0x3db4e8ea	0.08833487
120	0xbdcc04c7	-0.09961849
121	0xbdc6f271	-0.09714211
122	0xbe6e4dab	-0.23271815
123	0x3e0350f8	0.12823856
124	0x3e31c956	0.1736196
125	0x3e9221f6	0.28541535
126	0xbe3d09a0	-0.18460703
127	0x3f157518	0.58381796
128	0xbe34c456	-0.17653021
129	0xbed50fe7	-0.41613695
130	0xbf3139ca	-0.69228804
131	0x3dec6cdf	0.11544203
132	0x3e778469	0.24171604
133	0xbe122ccd	-0.14274903
134	0x3f4ebfac	0.8076122
135	0xbe9508d3	-0.29108295
136	0x3ef40f00	0.47667694
137	0x3eac1ae1	0.33614257
138	0x3edaaa16	0.4270789
139	0xbeefadc0	-0.46812248
140	0xbed6c2de	-0.41945547
141	0xbec02496	-0.37527913
142	0xbe2c4c8f	-0.1682608
143	0x3d840780	0.06446743
144	0xbd21c66a	-0.039495863
145	0xbdd5f4be	-0.104470715
146	0xbbac4ae5	-0.0052579516
147	0xbe847384	-0.2586938
148	0x3d383bc2	0.044978864
149	0x3ea4ac2c	0.32162607
150	0xbe1e90a8	-0.1548487
151	0xbe6c23c5	-0.2306052
152	0xbe9ad61b	-0.30241475
153	0xbd167e0b	-0.036741298
154	0xbec6f0f3	-0.38855705
155	0xbccc6150	-0.024948746
156	0xbe87c821	-0.26519874
157	0x3cbecf82	0.023292307
158	0xbf0ad820	-0.5423603
159	0xbe743c12	-0.2385104
160	0xbf31f24a	-0.6951033
161	0x3ea37a61	0.31929305
162	0x3ccf1873	0.025280213
163	0xbb533649	-0.0032228401
164	0xbe3427ab	-0.17593257
165	0x3df75833	0.120773695
166	0xbef8a4ec	-0.48563325
167	0xbed67d71	-0.4189258
168	0xbe847778	-0.25872397
169	0xbcacec2b	-0.021108707
170	0x3e9ac6fb	0.30229935
171	0x3cb9c7e6	0.022678327
172	0xbe8c72ae	-0.27431244
173	0xbee44c91	-0.44589666
174	0xbe88d051	-0.26721433
175	0xbf479748	-0.7796521
176	0x3e5026b2	0.20327261
177	0xbe80e5db	-0.25175366
178	0x3e174dc8	0.14775765
179	0x3f59735b	0.84941643
180	0x3ea2657e	0.31718057
181	0xbd232bd0	-0.039836705
182	0xbe43e277	-0.19129358
183	0xbed8e658	-0.42363238
184	0xbe5e0ef4	-0.21685392
185	0x3d509d0b	0.050931018
186	0xbea47336	-0.3211915
187	0xbec22178	-0.3791616
188	0x3e991274	0.2989689
189	0x3f1218e6	0.5706924
190	0x3c3d04ac	0.011536758
191	0x3e8e9587	0.27848455
192	0xbf2a50f5	-0.6652978
193	0x3ed4f684	0.41594326
194	0xbe87f03d	-0.26550475
195	0x3eb55a4d	0.35420457
196	0xbf416781	-0.7554856
197	0xbf30d5ab	-0.6907603
198	0xbd110f0f	-0.03541475
199	0x3f1c0554	0.6094563
200	0xbd297691	-0.04137284
201	0x3ee499f1	0.44648698
202	0xbf8df434	-1.109015
203	0xbf03d5e8	-0.5149827
204	0xbf77a0dd	-0.9672983
205	0x3cd0a3ff	0.025468824
206	0x3e81aada	0.25325662
207	0xbd117b09	-0.035517726
208	0x3e56e5af	0.20986055
209	0x3e3da378	0.1851939
210	0x3e39b119	0.18133964
211	0xbf0429a0	-0.51626015
212	0xb9e35b26	-0.00043364725
213	0xbee069f3	-0.43830833
214	0x3e2a3660	0.16622305
215	0x3e207228	0.15668547
216	0xbe8ef7e2	-0.27923495
217	0x3d3edee4	0.046599284
218	0x3f06b375	0.5261758
219	0xbf097c3f	-0.5370521
220	0x3f0de998	0.5543456
221	0x3eba8804	0.36431897
222	0xbcbf60d6	-0.023361605
223	0x3e160164	0.14648968
224	0x3ea15872	0.3151279
225	0xbdfbf6a4	-0.12302902
226	0xbf41a5e6	-0.75643766
227	0xbe3f1836	-0.1866158
228	0x3d6c01a0	0.057618737
229	0x3cde1b23	0.02711255
230	0x3e9915b6	0.29899377
231	0xbecdcd78	-0.40195823
232	0x3e8e9dd0	0.27854776
233	0xbca9fe03	-0.020751005
234	0x3eba25fe	0.3635711
235	0xbeae2010	-0.34008837
236	0xbeaa1791	-0.33221105
237	0xbef75eb4	-0.4831444
238	0xbd258f87	-0.04042008
239	0xbeee3585	-0.46525207
240	0x3e9eb15c	0.3099469
241	0xbe1b5129	-0.15167679
242	0x3e3327f5	0.17495711
243	0x3e836025	0.2565929
244	0x3e304467	0.17213593
245	0x3ea12bc4	0.31478703
246	0xbcbaa09b	-0.02278166
247	0xbd73fba8	-0.05956617
248	0xbf1ad66c	-0.6048343
249	0xbe304da7	-0.17217122
250	0xbf289d1c	-0.6586473
251	0xbedae275	-0.42750898
252	0x3c172514	0.009225149
253	0x3ec66c11	0.38754323
254	0xbe4c1b79	-0.19932355
255	0x3e2a6e94	0.16643745
