examples/style_transfer/model/la-campesinos.tflite (tflite, 150728 bytes, 52 tensors)

Conv2D_12_bias f4 [16]
00000000: 0000 0000 0000 0000 0000 0000 0000 0000
00000010: 0000 0000 0000 0000 0000 0000 0000 0000
00000020: 0000 0000 0000 0000 0000 0000 0000 0000
00000030: 0000 0000 0000 0000 0000 0000 0000 0000
0.0 0.0 0.0 0.0 0.0 0.0 0.0 0.0
0.0 0.0 0.0 0.0 0.0 0.0 0.0 0.0

Conv2D_13_bias f4 [3]
00000000: 0000 0000 0000 0000 0000 0000
0.0 0.0 0.0

Conv2D_1_bias f4 [8]
00000000: 0000 0000 0000 0000 0000 0000 0000 0000
00000010: 0000 0000 0000 0000 0000 0000 0000 0000
0.0 0.0 0.0 0.0 0.0 0.0 0.0 0.0

Conv2D_bias f4 [4]
00000000: 0000 0000 0000 0000 0000 0000 0000 0000
0.0 0.0 0.0 0.0

Variable/read f4 [4, 9, 9, 3]
00000000: 051f a2bd 74b3 3f3d 06b8 193e 2c58 523d
00000010: 8572 1dbd df8a 1fbd ace4 62bd 1b64 09be
00000020: 2a4d 1dbe d5ad 1c3e 38d1 5cbd 4e19 a0bc
00000030: 042b 763d e46e 763d 2b6e a43d b19a 0c3e
00000040: 16c7 093d a362 3a3e 553e 713d 225d 4f3d
00000050: cbb5 6abd b9ba 13bd e056 8c3d 3858 3c3e
00000060: b1f3 c9bb 802a bcbc dda9 763d a796 a23c
00000070: 7241 3cbc 83e6 fabd 8345 0f3e f828 d1bd
00000080: 781a f5bd a51a 373b 7da1 053e a21e 153c
00000090: 6f40 563d a288 e73d 5d3b db3c ec17 053e
000000a0: c944 8b3d c12a 4dbd c2f2 7e3d ac79 11be
000000b0: 0ef4 99bb 9994 08be bcb5 fbbd 1efb 3c3e
000000c0: de79 e73d 8542 00be 256d 0dbd 08d4 97bd
000000d0: 00f7 83bd 0816 2e3e 6f69 573c 0b1c aa3d
000000e0: f43a 04be e31b 2d3e 2929 2abd fc37 26bd
000000f0: 9851 a93d d900 083e 8d7d 913d 9321 f1bc
00000100: 8e6a 71bd c099 6b3e 8b5f 02be 3664 cd3d
00000110: 8559 a23c fade c9bd 805f 4ebd d318 25bd
00000120: c2d9 6bbd bc8d df3d 0d40 453e 3cea b2bc
00000130: 92a7 ed3d 9ee1 863c 7439 8cbc aa4d 8abd
00000140: 83b8 13bd f0bb 35bd b406 623d 540e 7a3d
00000150: ab19 80bd 9977 18be b94f 103d 382e c9bd
00000160: 9195 0b3d 53a0 bc3d d6e8 9abd 7a7b 84bc
00000170: 7f96 14be cea6 d93c 1f2b eabb 063d 02bd
00000180: 7c9b bc3d 5488 223e 29fb 16be 9bbe 33be
00000190: 0725 a4bd 9c92 123e 97a4 a9bd a7df 673c
000001a0: f96c c6bd 529a 5f3d c69b 06be f7e4 79bd
000001b0: 8bf3 f03d ade8 b3bd df24 a9bc b0b9 1239
000001c0: 1292 d63d 0668 a93d cb1c 91bc 0843 013e
000001d0: bf12 a9bd f7e1 f1bd f860 083e 1f29 233e
000001e0: 12fc 2abb f32e ac3d 48e6 dcbc e57a ee3d
000001f0: b4c5 5f3b 3103 993c 811e d3bc 9c2a 31bb
00000200: 473f 573d 6508 053d 4ed8 533c dddf 08bc
00000210: 6fb3 0b3d fc0a 1bbe e61a a53d be13 1abe
00000220: 2319 0ebd 33fb 6b3e 90e3 443c 520e 47bd
00000230: 0aee 303e c423 90bd f4f7 163d 612f 753d
00000240: b293 52be 1237 a4bd 0417 00be 5650 9ebd
00000250: 1725 bbbb 6763 16bd 730c f9bc b353 e3bd
00000260: 18f9 b53c 6788 143c 09f4 ac3c 84ec 2abe
00000270: b2b0 51be db47 9abd 05af fc3c 90b7 3635
00000280: bdbd 34bd 4a77 743e de8a e73d 6c49 913c
00000290: 4295 963d fb2d 47bd 8eef f63d 97f7 823b
000002a0: 8abd 20be 0a0c 073d dd88 913d 43e6 49bc
000002b0: faec 7d3d 1248 bb3b fb3d 9cba e6ba 5bbd
000002c0: 1938 27be 9a74 69bb 836f 0bbe b049 59bc
000002d0: e485 3fbe 376c 01be 706a 933c 4f77 00be
000002e0: fef3 debd ecba 113d e8e7 323e 7153 dfbd
000002f0: a7db 19bc dec2 563c 12cf 8dbd 0ed7 523d
00000300: 4400 95bd 529f 33be fe28 8fbd 57c3 5dbe
00000310: a598 c53c 980e a63c 72cb 36be 1369 8ebd
00000320: b40e 153d 301c f2bb 9731 2ebd cb14 b43d
00000330: d320 7e3c 9a7b e83d b99e b33d 701d 4ebe
00000340: 59ae e93c 3fa8 263e 2835 0dbd c22e bd3b
00000350: 94dd a13d 1d76 2ebc 8efd 663d 0d0f 073e
00000360: 0241 69bd ff9f ecbd 8429 233d ad96 1fbd
00000370: c0d2 28bc d38f 8a3d 5ffb 0a3e 14b5 d73d
00000380: 17a9 f63d 5a7b 9ebd 0b86 d5bc e07e 1cbe
00000390: 62a9 fabc 107e 09be 5e00 923d 5427 c6bd
000003a0: 6330 6abe 38b8 163c ed95 a73d ee66 44be
000003b0: 056a 863d 495f 313d e6b7 0cbd 6084 4d3d
000003c0: eb47 0b3e 8dd7 e33d ce9f 4a3e 00e8 133e
000003d0: 13ee 3b3e aab0 aa3d b217 57bd eef9 0ebc
000003e0: 1ead afbc 07da 783c af7c 3d3c 9889 6b3d
000003f0: 9e9c 4e3c 4a16 88bd ee1f cebd 3221 9dbc
-0.07916073 0.046802 0.15011606 0.05135362 -0.038439292 -0.038950797 -0.05539386 -0.13417093
-0.15361467 0.15300687 -0.053910464 -0.019543316 0.060099617 0.060164347 0.08028825 0.13730885
0.03363713 0.1820169 0.058897335 0.050625928 -0.057302278 -0.036066744 0.068525076 0.18393028
-0.0061630835 -0.022969484 0.060220588 0.019847227 -0.011490213 -0.12250998 0.1399136 -0.10212892
-0.11967939 0.0027939465 0.13049884 0.009101542 0.052307542 0.113053575 0.026761705 0.12997407
0.06800229 -0.0500896 0.06224323 -0.1420657 -0.004698283 -0.13337936 -0.122905225 0.18455169
0.11302541 -0.12525375 -0.034527916 -0.074134886 -0.06443596 0.17000592 0.013147696 0.0830613
-0.12913114 0.16905169 -0.04154316 -0.040580735 0.08267516 0.13281573 0.07104025 -0.029434955
-0.05893951 0.2300787 -0.12731759 0.10028879 0.019818077 -0.098569825 -0.050384045 -0.040306877
-0.057580717 0.109157056 0.19262715 -0.021840207 0.11604227 0.016465005 -0.01711724 -0.067530945
-0.036064636 -0.044368684 0.055182174 0.06104882 -0.06254896 -0.14889373 0.03523228 -0.09823269
0.034078185 0.09210267 -0.07563941 -0.01617216 -0.14510535 0.026568796 -0.0071462537 -0.031796478
0.09209344 0.15872318 -0.14744247 -0.17553179 -0.08014875 0.1431374 -0.08283346 0.014152444
-0.09688754 0.05459053 -0.1314536 -0.061009374 0.11765202 -0.08784614 -0.020647464 0.00013992819
0.104770795 0.08271794 -0.017713925 0.12623227 -0.08255529 -0.118106775 0.1331824 0.15933655
-0.0026090187 0.08407392 -0.026965275 0.11644534 0.003414494 0.01867828 -0.025771381 -0.0027033454
0.05255058 0.03247871 0.012929989 -0.008354154 0.034106668 -0.15140909 0.08061771 -0.15046594
-0.03469194 0.23045044 0.012017146 -0.04859764 0.17278305 -0.07038072 0.03685756 0.059859637
-0.20564154 -0.08018316 -0.1250878 -0.077301666 -0.0057112086 -0.03671589 -0.030401444 -0.11099949
0.022213504 0.009065724 0.021112459 -0.16691786 -0.2047756 -0.075332366 0.030845175 6.80674e-07
-0.04412626 0.2387363 0.11305784 0.017735206 0.073526874 -0.048627835 0.1205741 0.0039968
-0.15697303 0.032970466 0.07106183 -0.012322965 0.061993577 0.0057153786 -0.0011920327 -0.053645037
-0.16329993 -0.0035622478 -0.13616757 -0.013262197 -0.18703419 -0.12638937 0.01799509 -0.12545513
-0.108863816 0.035578653 0.17471278 -0.10904587 -0.009390748 0.013107983 -0.06924261 0.051474623
-0.07275441 -0.17541245 -0.069902405 -0.21656547 0.024120638 0.02027063 -0.17851046 -0.06953635
0.036390975 -0.007388614 -0.04252776 0.087930284 0.015510756 0.113517 0.08770508 -0.20128417
0.028525518 0.16275118 -0.034474522 0.005773396 0.07903591 -0.010648278 0.056394152 0.13189335
-0.056946762 -0.11553954 0.039834514 -0.038962055 -0.010304153 0.067657135 0.13572453 0.10532585
0.1204397 -0.07738371 -0.026064893 -0.15282774 -0.030598346 -0.13426995 0.07128976 -0.0967547
-0.2287002 0.009199195 0.08182893 -0.1917989 0.0656319 0.04330376 -0.034355067 0.05017507
0.13601653 0.111250974 0.19787523 0.1444397 0.18352537 0.08334477 -0.052512832 -0.00872658
-0.021444853 0.0151887005 0.011565371 0.057504267 0.012610583 -0.06644876 -0.10064684 -0.019180868

Variable_1/read f4 [4]
00000000: 2d1d 5f3e 2d62 993e 0948 5b3d 73f7 953e
0.21788473 0.29957715 0.053535495 0.2929035

Variable_10/read f4 [16]
00000000: bf79 583e 59f4 0e3e da0c 9dbe 7c51 b53e
00000010: 9191 7d3d 136f 3e3e a9b1 ea3e 859a 0b3e
00000020: b610 0c3e 90a2 e9be dcab 53bb f6bd e0be
00000030: 719a 713e aabe a63c ef02 94bc c240 a4ba
0.21140192 0.13960399 -0.30673867 0.3541373 0.0619064 0.18597059 0.4583867 0.13633163
0.1367825 -0.45631838 -0.003229848 -0.4389493 0.23594071 0.020354588 -0.018067805 -0.0012531506

Variable_11/read f4 [16]
00000000: 93c0 833f 7d0b 7a3f 18ff 743f e9a8 833f
00000010: 0a8b 623f ddd5 843f f661 863f 3eeb 6d3f
00000020: c574 5e3f aa51 773f 47d0 9a3f 8003 793f
00000030: e2e7 8e3f 9c3c 5b3f 59de 593f 709c 803f
1.0293144 0.9767378 0.9570174 1.0285922 0.88493407 1.0377766 1.0498645 0.92937076
0.86896926 0.96608984 1.2094811 0.97270966 1.1164515 0.8563936 0.851049 1.0047741

Variable_12/read f4 [16, 3, 3, 16]
00000000: c30b 3cbd 003b 1fbc be08 e3bd ce3b 71bb
00000010: c9d5 3b3d 85bd 25bc bdfb a9ba 7bf3 323d
00000020: 14bd 09be b56b 253d 4eac 07be c812 cd3c
00000030: 4f54 0f3e 6076 8b3d 08d3 98bd 829c af3d
00000040: fbe8 ab3b 60af 8cbc 6c7c c3bd 1085 473d
00000050: 4511 a8bc d971 bebc e4f9 813d 3d66 0abe
00000060: a257 bd3d 8658 67bd 9a60 8abe bd7b 3b3e
00000070: 3c93 8c3d 1e48 e9bc 36c0 143d 0ab7 123e
00000080: b7cb 3e3d 6af1 483d dc08 183d d704 ad3d
00000090: fba5 02be a089 9e3c f7f6 e23d 120d dbbd
000000a0: 02c0 fabd 0031 5b3d bba9 91bc be4a de3d
000000b0: bd8f 7ebe e9fb d1bd 84c2 9ebd 0492 0c3c
000000c0: 84cb 08bd 400d 14bd 25d5 75bc 60fc 463d
000000d0: 570e fd3c f43e fd3d 822a c038 c7a4 40bd
000000e0: 63ea 7c3c 8219 ba3c d658 a2be f2c1 ab3d
000000f0: bc61 493b 3735 143c 4c8e 69bd 5a43 b7bc
00000100: d35e fdbb 0289 2bbc 64c8 683d 131f 043d
00000110: f4c2 babd ab5e 06bc f564 5b3e f63c 60bc
00000120: c87d 933d bedb cdbb 3718 293e c608 f4bd
00000130: a6e6 b1bd d517 edbc 3ca6 1d3e a552 6d3c
00000140: a6b9 ffbc 5ee2 3ebc 0571 a83d 5455 613d
00000150: 30ae de3d 7255 353c fdef b2bd 2215 39bd
00000160: ce15 073e 0698 8a3d 1ae4 6a3e 76dd 863d
00000170: 628b 65bd e22e c0bc 6d55 94bd 65f6 0abe
00000180: 03ba 9bbc eaec 78bd 60a4 283e 3d95 df3c
00000190: b1cc eabd 2607 29bd aa02 083e 402e 26bd
000001a0: 42d8 a4bd 65f0 963c 7b2f 163e a551 cbba
000001b0: 0b83 5abe cb84 5b3b 14f8 e2bc f894 debd
000001c0: 76de 583d df33 96bd 60f0 173e 282d 353d
000001d0: e9bf 46bd 4396 fcbc 6562 05be b209 c93d
000001e0: 085c 413e 482d 963d 6ff0 5b3e 6309 6abd
000001f0: 79ce 4e3d 678a cb3c d823 27be 6f90 07be
00000200: cf5a e03c 1da3 6abc 138d d7bc f024 223e
00000210: 3e42 92bd cd58 44bd 3751 31bc f402 e83c
00000220: 4143 4ebc 51d3 da3c 6328 1cbe 8839 923d
00000230: c254 c23d 78d7 f03d 6e64 d6bd eadd f43c
00000240: 5422 c93d 0be9 c3bd d157 bbbb 9505 de3d
00000250: 2586 04be 00a6 14bb a7e9 653c 8ca1 233d
00000260: e87b eb3d b0c0 393c b447 d2bd b0fd acbd
00000270: 6c6a 003c 0431 043e a2ac 353e c4c7 da3d
00000280: a0e9 ba3c 7e73 d0bd 4cdd 213e a80e 08bd
00000290: 2681 113e 40b4 05bd ea35 83be 0981 393e
000002a0: 812f cbbd 9e74 9b3d cc4e c7bd f256 0abd
000002b0: ec4a bfbd cc3e f4bd b71c 9a3d 254d 083e
000002c0: 2abc 3abe afe2 17be 2324 b9bb 4edf 4fbc
000002d0: 3554 14bc f6dd 1c3e 532f 19bd c555 0e3e
000002e0: 47cb fd3c ba15 7bbd b27b 4bbe 16b7 183d
000002f0: 9a14 c4bd 0bab 9cbc 6882 093e fc2b e2bd
00000300: 7112 debd a8fb 06be a5d4 633d b6f0 f63d
00000310: 2d13 2cbe 572c c63d 77df d13a 3e8f ef3d
00000320: 3034 f3bd fd0e 723d 0c07 debc 9f13 423c
00000330: b891 c5bd 935f bb3c 8d2e 003d 928f 38be
00000340: 5b14 9dbd 8b48 36bc 178a 7b3a 533a 2bbe
00000350: 0d5a b23d 963f 073e 033b a23d feba 083d
00000360: 72de 35bc 1edb ecbd bdb2 4bbc 15ce 4cbe
00000370: aa29 02bd c2e7 7bbd c287 c43d 15cd 9abd
00000380: edc8 edbc 2b18 3fbc 6f0e 67bc a434 ab3d
00000390: 9e7c 80bc 36f7 e43c 761f 893c 4a7a 193e
000003a0: 9594 16bd 4ac2 19bb 3c62 303e bf3f 98bc
000003b0: c182 273d 4e88 bc3c 55a7 97bd 5165 00bd
000003c0: 1884 2c3d d325 853d b5d9 5e3c a188 ec3d
000003d0: dc40 79bd 248f 143e 6837 993c eb30 d1bd
000003e0: 6993 7d3d 5c5f 23be 9ba7 013e 866b 08be
000003f0: 2c44 943d 83e6 bdbd 04d8 973d 7964 13be
-0.045909654 -0.009718657 -0.11085652 -0.0036809328 0.04585818 -0.010115986 -0.0012968701 0.043689232
-0.13451034 0.04038592 -0.13249323 0.02503337 0.13997005 0.068096876 -0.07462126 0.08574773
0.0052462793 -0.017173469 -0.09545216 0.048710883 -0.020516047 -0.023247646 0.06346491 -0.13515563
0.0924523 -0.056480907 -0.27026826 0.18308921 0.0686402 -0.028476771 0.03631612 0.14327636
0.046580996 0.049058355 0.037117824 0.08448189 -0.12758629 0.019352734 0.11082261 -0.10695852
-0.12243654 0.053513527 -0.01778113 0.108541 -0.2485952 -0.10253126 -0.07751945 0.008579735
-0.033397213 -0.03614545 -0.015004431 0.048580527 0.030890627 0.12365523 9.163191e-05 -0.047032144
0.0154367415 0.022717241 -0.317084 0.083866015 0.003072842 0.0090458905 -0.05702047 -0.022370983
-0.007732251 -0.010469677 0.056831732 0.032256197 -0.091192156 -0.008201282 0.21425231 -0.013686409
0.07201725 -0.006282299 0.16513143 -0.11915736 -0.08686571 -0.028942028 0.15395445 0.014485036
-0.031216454 -0.01165065 0.08224682 0.055013016 0.108730674 0.011067735 -0.087371804 -0.04518617
0.13191912 0.067672774 0.22938576 0.06585209 -0.05604113 -0.023459855 -0.07242856 -0.13570555
-0.019009596 -0.060772814 0.16468954 0.027292842 -0.11464823 -0.041266583 0.13282266 -0.04057145
-0.080490604 0.018425176 0.1466655 -0.0015512003 -0.21339051 0.0033495899 -0.027706183 -0.10868257
0.05294653 -0.073341124 0.1483779 0.044232517 -0.048522864 -0.03083337 -0.13025816 0.09816302
0.18882763 0.073328555 0.21478437 -0.057137858 0.050489876 0.024846269 -0.16322267 -0.13238691
0.02738705 -0.014321116 -0.026312387 0.15834403 -0.07141541 -0.04793625 -0.010822586 0.02832172
-0.012589277 0.026712092 -0.15249781 0.071398795 0.094888225 0.117598474 -0.10468374 0.029890973
0.09821001 -0.09565934 -0.0057172556 0.108409084 -0.12941797 -0.0022681952 0.014032758 0.039948985
0.114982426 0.011337444 -0.102675825 -0.084468246 0.007837873 0.12909323 0.17741635 0.106826335
0.02281648 -0.101782784 0.15807074 -0.033217102 0.14209422 -0.032642603 -0.2562707 0.1811563
-0.0992117 0.07590602 -0.09731826 -0.033774324 -0.09340462 -0.1192604 0.07525008 0.13310678
-0.18235841 -0.14832567 -0.00565006 -0.012687517 -0.00905328 0.15319046 -0.037398648 0.13899906
0.03098072 -0.061300017 -0.19871405 0.03728398 -0.09574242 -0.019124528 0.13428652 -0.110435456
-0.10843361 -0.13181937 0.055622716 0.12057631 -0.1680419 0.09676426 0.0016012032 0.11697243
-0.11875188 0.059096325 -0.02710297 0.011845498 -0.09646934 0.022872722 0.031294394 -0.18023518
-0.07669898 -0.011125694 0.0009595467 -0.16721468 0.08708582 0.1320785 0.07921412 0.033381455
-0.011100398 -0.11565231 -0.012432751 -0.20000489 -0.031778015 -0.06150032 0.09596206 -0.075586475
-0.029026473 -0.011663477 -0.014102562 0.0835965 -0.015684422 0.02794991 0.016738635 0.14988056
-0.036762793 -0.0023461753 0.17224973 -0.018585084 0.04089618 0.023014214 -0.07404963 -0.031346623
0.042118162 0.06501355 0.01360171 0.115494974 -0.06085287 0.14507729 0.018703178 -0.102144085
0.06190816 -0.15954345 0.12661593 -0.13322267 0.07239565 -0.09272482 0.074142486 -0.14393796

Variable_13/read f4 [16]
00000000: 368e 453e 12cc 8cbc c752 6abd 959e 833d
00000010: cc03 ff3d 9171 ae3d 1033 dd3d 1063 423e
00000020: 6e50 843d a295 29bd 70f8 523e 5ea4 ea3c
00000030: 2c3d 19be 15cd 7a3d 6094 4fbd f72d 283e
0.1929253 -0.017187152 -0.05720785 0.064267315 0.12451896 0.08517755 0.10800755 0.18983102
0.06460653 -0.041402467 0.20602584 0.02864283 -0.14964741 0.061230738 -0.05067861 0.16423784

Variable_14/read f4 [16]
00000000: 0bc1 813f ade0 5a3f 88e5 473f c9d8 463f
00000010: 4bb1 7a3f c88f 5b3f e4e2 403f fa31 613f
00000020: 1ef4 4b3f 3377 533f d77f 663f 8eee 6e3f
00000030: 54c4 533f 9def 4e3f c67a 5e3f 3ffd 593f
1.0137037 0.8549908 0.7808461 0.7767454 0.9792678 0.8576627 0.7534621 0.87966883
0.7966937 0.8260376 0.9003882 0.93332756 0.8272145 0.8083437 0.8690609 0.8515205

Variable_15/read f4 [16, 3, 3, 16]
00000000: 84fb d2bd 8ef9 5bbd fdc8 8cbd 1c36 cabb
00000010: 11be c03d edf4 5dbd de7a 0fbe 7e11 9d3d
00000020: 2c72 c4bd b60c af3d b324 2d3d 16f1 c2bc
00000030: 9950 043e 687e 6fbd 6b07 68bd c29b aa3d
00000040: 032b 033d fb14 aabc 634c 9bbc 07ab a83d
00000050: 7422 b6bb 935d 64bc 6543 04bc 33e5 9dbd
00000060: 6461 853e 5589 71bd f467 01be 864c 353e
00000070: 5114 213e ff9e fdbd 1ba7 bd3c 1402 e83c
00000080: 678a 0a3c e152 883d b560 c23d 9a4c bd3d
00000090: 974c 18be f15f 803d 4e94 923d 4352 86bd
000000a0: e6c3 ae3c 51ed 023e 23a8 9bbd b7ed f23d
000000b0: 79e0 f8bd 433a 1ebe db8f a8bd 7dac 9fbd
000000c0: 50c2 003e ed37 2e3c d982 e33c ea5c 703d
000000d0: 09cf d93d a0c3 903d bd34 e1bd b854 c33c
000000e0: 9e47 cc3d 2431 c43d e738 54be 8c84 823d
000000f0: 8d70 0b3e 2b4e d2bc 425b c6bd d2bd fe3c
00000100: 2908 2d3d 0fc5 133d c37a c33d 9589 99bd
00000110: 8f16 a2bc b17d b9bc f86f a03d 9a98 a23d
00000120: c52d 5b3e 975e 933a 6e04 b2bc ce6a 96bd
00000130: f8b2 a53d e52a cfbd 038f 793d b5c5 6d3d
00000140: 98a4 70bd 8cae b63d 8a92 263e 8842 cabc
00000150: 0225 273e dd89 1a3d 1af6 98bd 8b6f 873d
00000160: d103 0d3e c1e1 c53d eaf8 173e 5f9e eb3d
00000170: 9d9c 003b d9ec 04be c59d e0bb 862e 0c3d
00000180: b591 22bd cd8f c3bd 1e91 db3d a7fa 453d
00000190: f139 febd 37b9 95bd 428d c73c b320 c5bd
000001a0: af6d b3bd d44d a93d 38b9 643d 24bb 96bc
000001b0: 28e4 d1bd 05a5 413d 95e9 6abe 5dc1 cebd
000001c0: aacc 64bd f854 cdbd d6b0 383d ed59 3dbd
000001d0: dd95 cebd 77d7 2b3b aaf5 48be a078 be3d
000001e0: 00aa 023e 9e3f 2f3d c015 f0bc 2056 8ebd
000001f0: 747f f1bb 1f37 52bd 52c7 9cbe 74ff 2bbd
00000200: b35b 98bd ad4d 0ebd 366f 88bc 6829 853d
00000210: 93a9 b6bd cab9 9dbc cf0a 83bb 1e7a af3d
00000220: c2b6 3f3d bef2 e3bb f79e 35be 4918 873d
00000230: 6a5b e8bb 8375 9d3d dcb1 fbbd d646 bbbb
00000240: 87dd ae3d e9be b4bc 3de4 e73d 96da 1d3d
00000250: cd17 d2bd 9fd9 66bd 1b20 f2bd 649f 15bd
00000260: b025 24bc 121b 8abd 195d ecbb 67b7 02be
00000270: 5b02 3b3e c4f5 373d 9f7d 0f3d f9fb 1d3e
00000280: c428 393d f781 76bd 3347 163e 35bb f2bc
00000290: f30c fa3c cd48 19bd 6b1c 50be e4d2 fc3d
000002a0: a480 923c cad4 123d b327 ce3c ad2a 5abd
000002b0: 2ffe 363d f5c2 3ebe 2d22 7f3b 9a82 283d
000002c0: e303 8d3c 310d aabd 8bb4 463d 4b23 6d3d
000002d0: 2ebe 223d d85a 823d fc9c bfbd be54 113d
000002e0: 566d 5f3e 39b6 9dbb dfa0 96bd 4828 943d
000002f0: 414c f83d fe9a 18bc 8c76 b23d 50ae 1cbd
00000300: aef7 26bc f827 04be 2360 983d dcec 9d3d
00000310: 8f58 c9bd a08d ab3d b2b6 cdbd 82b5 e03c
00000320: 1b6c 74be 05c8 4c3d b9d1 fbbc 28b8 0bbb
00000330: cf60 c23c 5a34 73ba a6e6 b03c c86a fabd
00000340: dae1 da3d dd51 e0bb 2050 afbd d0bf f4bd
00000350: bb7e 193d b62d 1a3d 3af1 083e 929a bebd
00000360: d21c 1f3c 12c5 02be 114f c6bc 4151 2dbe
00000370: 2727 60bd a808 86bd cb27 9c3d 3767 96bc
00000380: a33a 223e 1e88 b6bc ecb4 8fbd 185d 8b3d
00000390: 5a8e 1abd 92cc 92bd 7fa1 4ebd 6cbf 163e
000003a0: 8164 9c3c dd61 153d 30ae a93d 59a8 d8bd
000003b0: d24d 023e b303 af3d e05c 30be b727 193e
000003c0: cd7a 44b9 3eab a33d 8c06 15bd 252f 7f3d
000003d0: 6899 b03d 293e f73d 7553 8c3d 86a2 80bc
000003e0: df96 91bb 5ec9 d1bd 39ea 383e f9d2 1dbe
000003f0: fc4d f43c e276 f9bc 2bd9 4c3e e288 b3bd
-0.10301879 -0.05370479 -0.06874273 -0.006171001 0.09411252 -0.054188658 -0.14011714 0.07669352
-0.09592089 0.08547346 0.042271327 -0.0237966 0.1292137 -0.05847016 -0.0566477 0.0833049
0.03202344 -0.020761957 -0.018957322 0.08235746 -0.0055583064 -0.013938325 -0.008072709 -0.07709732
0.26050866 -0.05896886 -0.12637311 0.17704973 0.15730406 -0.12383842 0.023150971 0.028321303
0.008455849 0.06656433 0.09491102 0.09243126 -0.14872967 0.06268299 0.07157193 -0.06558659
0.021333646 0.12785842 -0.07600429 0.11861747 -0.1215219 -0.15451913 -0.08230563 -0.077965714
0.12574124 0.010633451 0.027772354 0.05868236 0.10635192 0.070685625 -0.10996387 0.023844108
0.099745974 0.09579685 -0.20724832 0.063729376 0.13617153 -0.025672039 -0.09685375 0.031096373
0.04224411 0.0360766 0.09544899 -0.07496945 -0.019786147 -0.022642942 0.07833856 0.07939263
0.21404178 0.00112434 -0.021730628 -0.0734459 0.08090776 -0.10115603 0.060927402 0.058049876
-0.05875072 0.08920011 0.16266838 -0.024689928 0.16322711 0.037729133 -0.07468815 0.06613072
0.13770987 0.096622 0.14841047 0.11504816 0.0019624599 -0.12980975 -0.006854745 0.034224056
-0.03968974 -0.09548912 0.10721038 0.048334744 -0.12413395 -0.073107176 0.02435935 -0.096253775
-0.08761155 0.08266798 0.0558407 -0.018399782 -0.102485955 0.047276516 -0.22940667 -0.10095475
-0.055859245 -0.10025972 0.04509052 -0.046228338 -0.10087178 0.0026220956 -0.19624963 0.09300351
0.12760162 0.04278528 -0.029307246 -0.06950021 -0.00736993 -0.0513221 -0.3062082 -0.041991666
-0.07439365 -0.034742046 -0.016654592 0.06502038 -0.089190625 -0.01925363 -0.003999091 0.08568214
0.04680515 -0.0069564274 -0.17736422 0.06596429 -0.0070909755 0.07688429 -0.12289783 -0.0057152314
0.08538347 -0.02206369 0.1132283 0.038538538 -0.10258446 -0.056359883 -0.1182253 -0.03652896
-0.010018751 -0.067434445 -0.0072132465 -0.12765275 0.18262617 0.044912115 0.03503191 0.15428151
0.045204893 -0.060182538 0.14675598 -0.029630283 0.030523753 -0.037422944 -0.2032334 0.12344912
0.017883606 0.035847463 0.025165414 -0.053263355 0.044676002 -0.18629058 0.0038930282 0.041140176
0.017213767 -0.08303297 0.048512023 0.057894986 0.03973215 0.06364983 -0.09356114 0.035481207
0.21819052 -0.0048129824 -0.073549025 0.072342455 0.12123919 -0.009314297 0.08714017 -0.038252175
-0.010190887 -0.12905872 0.074402116 0.07711193 -0.09831344 0.08376622 -0.10044612 0.0274303
-0.23869364 0.04999544 -0.030739652 -0.0021319482 0.023727803 -0.00092775153 0.021594357 -0.12227398
0.10687609 -0.0068456964 -0.085602045 -0.11950648 0.037474375 0.03764125 0.1337327 -0.09306826
0.009711461 -0.12770489 -0.024207624 -0.16925527 -0.05472484 -0.0654462 0.076247774 -0.018359764
0.1584268 -0.022281703 -0.0701693 0.068048656 -0.037733413 -0.07167925 -0.050446983 0.14721459
0.019090893 0.036470283 0.08285177 -0.10578985 0.12724999 0.085456274 -0.17222929 0.14956556
-0.00018737763 0.07991646 -0.036383197 0.06230082 0.0862301 0.12072403 0.06851856 -0.015702497
-0.004443034 -0.10243486 0.18058099 -0.15412511 0.029822342 -0.030452196 0.20004718 -0.08766343

Variable_16/read f4 [16]
00000000: 5446 7d3e c9c5 6c3e c4f0 e8be f3d4 c5bc
00000010: b986 04bf 8714 e73e fca2 653e dde1 3a3e
00000020: f066 783e cd18 583e db51 6f3d 0b51 2fbe
00000030: 6310 bb3e 0f58 2ebf e252 9e3d b589 65be
0.2473386 0.23122324 -0.4549619 -0.024149394 -0.5176807 0.4513285 0.22425455 0.18250223
0.24258018 0.21103211 0.058427673 -0.17120759 0.3653594 -0.68103117 0.077306524 -0.22415812

Variable_17/read f4 [16]
00000000: fd70 6d3f 747e 793f 4bfe 733f becc 7f3f
00000010: dcec 613f 0e60 813f 4952 8c3f c8cc 703f
00000020: f16f 773f 8640 7a3f 52de 823f 3ef0 733f
00000030: b574 883f ad95 5f3f ed46 943f 43e6 6d3f
0.9275053 0.9745858 0.95309895 0.99921787 0.88252044 1.0107439 1.0962611 0.9406247
0.96655184 0.97754705 1.0224097 0.95288455 1.0660616 0.8733776 1.1584145 0.92929476

Variable_18/read f4 [16, 3, 3, 16]
00000000: faf5 a93c cc6f cf3b 413a 2dbe 20af a83d
00000010: 40f2 b63d 7fdc 873d 32f5 2f3d aa5b 573d
00000020: f5ed a6bd 05aa 8cbd 5a10 143d 70a7 c13c
00000030: 6748 cf3d 5d14 71bd 4e40 d7bd 2d94 973d
00000040: 0682 e93c 5f15 58bc f720 0ebe 3846 c93d
00000050: e46f 2a3d 3018 6fbc b270 4a3d 1535 bbbd
00000060: 428a 263e 4d87 19be ed0c 76bc 64ec 233e
00000070: 165e fc3d a464 debd 8073 943c 9ddc 753d
00000080: 4198 133d 4d25 643d eef9 37bd 8014 183e
00000090: 3106 9fbd be78 173c a8a2 bbbb c90a 28be
000000a0: 2c43 a8bd e888 2b3d 1896 ffbd f584 2d3e
000000b0: 6fb2 2cbe bcf5 1ebe 7765 90bd cfc4 f7bc
000000c0: 2dd9 a43b d9c8 46bc c7f9 4e3d 5b52 7f3d
000000d0: 4b9f 263e d76f bf3d a13e f6bd 587e 6c3d
000000e0: d003 803d 6b64 e0bc 07e0 4abe 0232 fe3c
000000f0: 992d 5f3d 2f95 babd d198 67bd 9d2d 0ebd
00000100: 8b47 203a de61 e53b d2c5 aebc 294c ecbd
00000110: ae93 4abd ec51 8dbd 480b 863b 3d74 71bc
00000120: 3626 cb3d 4c69 5dbd 0e66 253e 5613 37be
00000130: 31d0 ac3c 9d42 a1bd 92cd 5a3e 1cec 983a
00000140: b589 b7bd d068 1e3d a914 203d c933 003d
00000150: 2b69 2c3e fab9 e23c 20ac d4bd 0f0d 90bd
00000160: 0578 893d 56d7 b23d 5dc8 f33d e577 c83d
00000170: f211 54bd 4215 97bd 4fc4 aebd ff0e ccbc
00000180: d7bc 31bd 7730 cc3b 8942 303e c002 d1bc
00000190: e298 9dbc da62 d2bd 45ce 89bd 2be5 8dbd
000001a0: 4cc7 e5bd dcf2 473d 8dd1 0abb b9e9 9cb8
000001b0: 39cf 39be aef7 30bd 4639 55be 53d9 d4bd
000001c0: 6f54 8f3c f572 87bc c2dd 883d fa10 cbbd
000001d0: ce79 19be e1ad e4bc 8820 98bd 563e fe3c
000001e0: 639e d73d 7225 3b3d 5963 ed3d 79a9 1dbe
000001f0: 1421 013d fe5d 92bc f5bb 13be 718e 17bd
00000200: 9713 e4bb 0fa3 a43d adbb debd 6973 473e
00000210: 34db bfbd b05a b0bd 7a59 a5bd b025 4cba
00000220: fddf 15bd faed 563d 100a 2fbe 1639 973d
00000230: 5f2e 663d 779b b63d 4be9 7dba 25c9 50bd
00000240: ca26 1a3d 1a23 2abe ae2d 8ebd 5331 54bd
00000250: 8579 13be f68a 2b3d b80f 793d 9f8f 97bc
00000260: 3e02 49bd 7a92 28be e8db bebc 90a7 48be
00000270: 16ad be3d cd06 2ebd 5e19 de3d b6da 4f3e
00000280: 6f82 013d b5ec 0cbe c95a 2c3e 2a95 0a3d
00000290: 5d42 e83d 5ce9 f53c f06c 2cbe 4e90 de3d
000002a0: 42df 5cbe a743 9a3d aaa4 d5bc 3cec c3bd
000002b0: 8a6e 633c 70a2 79be 3c78 793d 7716 813d
000002c0: c153 81bd d173 1ebe 10d7 d9bc 0902 9cbd
000002d0: 25d9 573d 1f49 453e 7461 e63d d01b 34bd
000002e0: 89de a23d ef8f c6bb 4877 36be 1a26 babc
000002f0: 9fc8 80bd 2e11 ffbd 33cd 263e 9f94 f0bd
00000300: 3801 33be 5615 e6bd b4c3 983d 8978 353d
00000310: 4985 0ebe 4e7f e93d 11c0 af3d 0a22 923d
00000320: 4b78 4dbe 5186 093e 46c5 ddbb c9b7 893d
00000330: 1ff2 68bd 1b46 1f3d 278b 2ebb 30d3 12bd
00000340: 8503 adbc 0d2a 263d 44ab 5d3d 32f3 85bd
00000350: 7670 333e 1de7 593d 913b 683e 71a4 aabc
00000360: 2f70 9ebd 3169 d7bc c874 7cbc 5a0a 6fbd
00000370: 0815 d4bd 1df1 e83b 62a4 343d 0d5c b63c
00000380: c695 20bb 386d de3c d5ad 133a 1a81 d3bb
00000390: c0d5 8e3d 311b 7bbd ab1f 9b3d f8c1 af3d
000003a0: a435 663d e5bc 343d 4a01 073e f5d0 973d
000003b0: 2ce7 bcbd 0089 aa3d c1f6 16be d838 f73d
000003c0: b2f7 4abd cc27 80ba dda2 313a 672a 2dbd
000003d0: d8ab 7d3d 1910 c23d 4af1 d3bd 715b cabb
000003e0: 8ecc 293d a20d f8bd 05b8 d53d 2d3f 2bbd
000003f0: f4af 6c3d 2690 95bd 1887 903d 0299 2b3c
0.020747174 0.006330466 -0.16916753 0.082365274 0.08932924 0.06633853 0.042958446 0.052577652
-0.081508555 -0.06868366 0.036148407 0.02363941 0.101212315 -0.05885731 -0.10510312 0.07401309
0.028504383 -0.013188689 -0.13879763 0.09827846 0.041610613 -0.014593169 0.04942388 -0.09140984
0.16263679 -0.1499302 -0.01501773 0.16008145 0.12322633 -0.108590394 0.018121481 0.060024846
0.036033873 0.055699635 -0.044916086 0.1485157 -0.07764853 0.009245096 -0.0057261772 -0.16410364
-0.08215937 0.04187861 -0.124798 0.1694525 -0.16864942 -0.15523428 -0.07050603 -0.030245213
0.005030772 -0.012132847 0.050531175 0.0623344 0.16271703 0.09347504 -0.12023664 0.05773768
0.06250727 -0.027391633 -0.19812022 0.031029705 0.054486845 -0.09110486 -0.05654222 -0.03471147
0.00061141764 0.007000192 -0.021334562 -0.11537964 -0.049457245 -0.06900391 0.0040907003 -0.014737186
0.099193975 -0.054055497 0.16152212 -0.1787847 0.021095367 -0.078740336 0.21367481 0.0011667046
-0.089618124 0.038674176 0.039082203 0.031299386 0.16836993 0.027676571 -0.10384393 -0.07033741
0.06712345 0.08732478 0.11903451 0.09788493 -0.051774926 -0.073771015 -0.08533537 -0.024909494
-0.043392982 0.0062313634 0.17212881 -0.025514007 -0.01923794 -0.10272761 -0.06728796 -0.06928476
-0.112196535 0.048815593 -0.002118203 -7.482194e-05 -0.18145455 -0.043204956 -0.2082263 -0.10393014
0.017496316 -0.016534308 0.06682922 -0.099153474 -0.14987871 -0.027914943 -0.0742808 0.031035583
0.10528257 0.045690008 0.11591215 -0.1539668 0.031525686 -0.017867085 -0.14427169 -0.037001077
-0.006960343 0.080389135 -0.1087564 0.19477619 -0.093679816 -0.08611047 -0.08073707 -0.00077875983
-0.036590565 0.052473046 -0.17093682 0.07383935 0.056196567 0.08916371 -0.00096859474 -0.050973076
0.03763465 -0.16614953 -0.069423065 -0.05180485 -0.14401825 0.04188057 0.060806006 -0.018501101
-0.049074404 -0.16462126 -0.023298219 -0.1959517 0.09310357 -0.042486954 0.10844682 0.20298275
0.03161853 -0.13762172 0.16831507 0.03383366 0.11340783 0.030018501 -0.16838431 0.10867368
-0.21569541 0.07532435 -0.026079495 -0.095665425 0.013881335 -0.24378371 0.06090568 0.06303113
-0.06314803 -0.15473868 -0.026591808 -0.07617576 0.05269732 0.19266175 0.112490565 -0.043971837
0.079526015 -0.0060596387 -0.1781894 -0.022723246 -0.062882654 -0.12454449 0.16289215 -0.11747097
-0.17480934 -0.11234538 0.074592024 0.044304404 -0.13918032 0.114012346 0.08581556 0.07135399
-0.2006542 0.13430144 -0.0067679016 0.06724507 -0.05687153 0.038885217 -0.0026633234 -0.035845935
-0.021119842 0.040567447 0.05411841 -0.065405264 0.17523369 0.053198922 0.22678973 -0.020830365
-0.07736241 -0.026295276 -0.015408702 -0.05835948 -0.10355574 0.007108821 0.04410208 0.02226069
-0.0024503334 0.027151689 0.0005633508 -0.006454599 0.06974363 -0.06130523 0.075743996 0.085819185
0.0562035 0.044125456 0.13184085 0.07412902 -0.0922378 0.08326912 -0.14742567 0.12071389
-0.049552627 -0.0009777485 0.00067762827 -0.042276766 0.06193146 0.09475727 -0.103487566 -0.0061754514
0.041454844 -0.12111975 0.104354896 -0.041808296 0.05778499 -0.07302885 0.07057017 0.010473492

Variable_19/read f4 [16]
00000000: 218e 453e 88cb 8cbc 9152 6abd 979e 833d
00000010: c603 ff3d 9a71 ae3d 1733 dd3d 0963 423e
00000020: 6c50 843d b895 29bd 6ef8 523e 7da4 ea3c
00000030: 293d 19be dacc 7a3d 7a94 4fbd f02d 283e
0.19292499 -0.017186895 -0.057207648 0.06426733 0.124518916 0.085177615 0.1080076 0.18983091
0.06460652 -0.04140255 0.20602581 0.028642887 -0.14964737 0.061230518 -0.050678708 0.16423774

Variable_2/read f4 [4]
00000000: 10ad 863f 4457 813f 54ae 5d3f 9d79 603f
1.0521564 1.0104756 0.8659413 0.8768557

Variable_20/read f4 [16]
00000000: be6d 613f 22fa 683f e315 573f c0f2 6d3f
00000010: c3b3 663f 4573 733f 1eca 783f 2d62 803f
00000020: f647 893f 93ad 833f f95a 803f 965b 763f
00000030: 0419 7b3f b5bc 873f 22d3 823f 320c 613f
0.8805808 0.9100667 0.8401777 0.9294853 0.90118045 0.9509776 0.97183406 1.0029961
1.0725086 1.0287346 1.0027763 0.962335 0.98085046 1.0604464 1.0220683 0.87909234

Variable_21/read f4 [16, 3, 3, 16]
00000000: 871f 0fbe 44c9 87bd 08c7 9ebd 11dd 5fbd
00000010: 8075 0a3e 0b11 8abd 13e7 29be ca7d 843b
00000020: 0713 9abd d48e 1f3d b4fb e6bd b250 7ebc
00000030: 6678 153e 2a1a f3bd c60a 3cbe c58c 54bc
00000040: 12c3 e8bd 007d 54bd 96c4 7ebd c4a8 fe3c
00000050: ee64 c2bc f31e 97bd 2e23 bfb7 5e4a 40be
00000060: 2a75 053e b661 b2bd a13b e6bd c7df 223e
00000070: e71f 043e ef0a 04be 6d83 41be b0f1 a53b
00000080: 9315 213d 0b2c 08bd 5d77 5dbd 85d7 b33c
00000090: 71bc 37be 1cb4 c33b ff5d 433b af1e 74bd
000000a0: 11ea d5bc 0943 363d 6348 4fbe 6eaa 23bd
000000b0: 347e d9bd ec5a b2be ce30 54bd de66 22bd
000000c0: 9173 11ba 5407 17bd 166e 8f3d 9d56 55bc
000000d0: 028d 073e 8204 7c3d 8a9c d5bd a49a a9bd
000000e0: 513f 9e3d 6ff6 01bc 44bc 82be 1dc8 9b3d
000000f0: f203 ce3d 1d5a cbbc 28c3 90bd 0e56 65bd
00000100: f450 47bc f7c7 533d cc2f 8c3d ab4f f5bd
00000110: 9866 893d 137b 54bd 3d2e 693d a96c 16bc
00000120: 1349 523d 787e 9cbc 212f 1f3d bee4 11be
00000130: e429 433d 9374 7bbd e161 253d 051f 10bd
00000140: 25a5 85bd 3b04 483c f635 68bc 7cd1 0ebe
00000150: 6c9b 0b3e 787f b23d 4bff fbbd e3b9 59bd
00000160: a716 1a3e 8c51 a03d a2f4 6e3d 6e7a dcbc
00000170: 216c cf3c fcc7 d2bd d9ce 9fbd e294 19bd
00000180: 8f46 f6bc cb98 23bd 609d 523e 5117 04bd
00000190: f6f9 533d 59fa ebbd 5478 e03c 95ea 74bc
000001a0: 28fc e0bd 82c5 0bbd fc35 bdbd 1b7d dcba
000001b0: cd96 23be 1514 4bbd a594 83bd 8d2e 26be
000001c0: 9fe6 703d 16ba e83c 221b 8b3b 746a 9fbd
000001d0: 9c33 cb39 491c f3bc 399f 6ebe ff05 3c3d
000001e0: a43d c23c af62 843d fda1 bf3c ee2e 1bbe
000001f0: 34e0 6d3c a3c2 adbc 8dcb 2fbd bb0e 5bbc
00000200: 0559 803d 8fdc 4d3d d70e 0cbe 2f97 b33d
00000210: 82ea 84bd 8ba9 e1bd 6bb6 87bd 83b5 ea3c
00000220: eea6 76bc bd3a 8a3d a521 04be 85cd d2bd
00000230: 76e9 0e3e 7071 10bd 3243 d43d b9dc 1fbd
00000240: 449a b93d 588d 973c 74fb 80bc be57 513d
00000250: f1fd 29be 0fd3 7e3d 4fc0 d4bc ac5c a7bd
00000260: 1156 b1bc 39b2 79bd 9d1f fcbd 1dd5 4ebd
00000270: 104e f53c 0a14 6c3d 3d14 073e b8cd 6f3d
00000280: 98e1 693d fcb3 3cbd 9591 bd3d d722 e4bc
00000290: b27b a73d e5b1 feba 6e24 5cbe 0abb 213e
000002a0: 232d f0bd a59e 803d 69b8 ed3c 36a5 9ebd
000002b0: f2e9 26bd 882b cfbd d0f9 f73b 7866 f4bc
000002c0: 576a 323e 95d9 3ebe 7b13 42bc 411d a8bd
000002d0: e4d4 263e b85f 33bd a29d d7bd bfa2 dc3d
000002e0: d0d3 393e b7f9 343d 16fd 2abe 9a3e 363d
000002f0: 2310 933d e86f f03d d7ff 6c3d dd74 49be
00000300: d335 d3bd 439a a9bc c276 6b3d 9742 883d
00000310: 9fdf 07be 5fab 383e 3660 3dbc f1d0 bd3c
00000320: 2410 37be bea3 333d dc6b c8bb 4533 9e3d
00000330: 73c8 ddbd b2d2 8c3c d728 9bbd d1b6 34be
00000340: aa0b 9b3d e88e 8e3d 9186 50bd f3bb 8ebd
00000350: fabb d13d 5a24 ff3d 2ca5 023e 0a4c 90bd
00000360: 5d42 c3bd 81b3 cfbd dd6e c03b 92a0 adbd
00000370: eaa6 9dbd f019 3a3c c859 713d fcbd 6b3c
00000380: 55f2 743e 65fc 87bc 6eb3 9fbd 6d1c 033d
00000390: e59c 663d a5ff cc3a a1a1 98bd 7c7a 1c3e
000003a0: 241e 8a3d a152 053e fa09 a83c 141e 323c
000003b0: 3bb6 013e 3c6b 233e 72db adbd bb50 b83d
000003c0: 90a3 cfbc 09e7 723d 00e0 0bbb 401e febb
000003d0: bb1a fa3d 0f51 203e 4fc1 16be df7c 01be
000003e0: 423b abbc e757 60bd 8c3d 3c3e 6aaf 04be
000003f0: dd83 88bd a754 b1bd 83ff ee3d 7a9f 353d
-0.1397687 -0.06630185 -0.07752806 -0.054654185 0.13521385 -0.06741532 -0.16592054 0.0040433155
-0.075231604 0.03895457 -0.11278477 -0.015522169 0.1459671 -0.11870225 -0.18363485 -0.012973015
-0.11365332 -0.05187702 -0.062199198 0.031086333 -0.023729768 -0.0737895 -2.2785356e-05 -0.18778369
0.13032976 -0.08710043 -0.11241842 0.15905677 0.12902795 -0.12894796 -0.18897791 0.005064212
0.039327215 -0.033245128 -0.05406891 0.021953354 -0.17942978 0.0059723984 0.0029810665 -0.059599575
-0.026112588 0.044497523 -0.20242457 -0.039957456 -0.106197745 -0.34834993 -0.051804356 -0.039648883
-0.0005548532 -0.036872223 0.07003419 -0.0130211385 0.13237384 0.061527736 -0.10430248 -0.082814485
0.077269204 -0.0079322895 -0.2553426 0.07606528 0.10059346 -0.024823243 -0.07068473 -0.05599027
-0.012165297 0.051704373 0.06845054 -0.11978086 0.06709021 -0.051875185 0.056928862 -0.00918118
0.05133922 -0.019103274 0.038863305 -0.14247414 0.047647372 -0.06139047 0.040376548 -0.035185833
-0.065256394 0.01220804 -0.014173022 -0.139471 0.13633507 0.08715719 -0.12304553 -0.05315579
0.15047704 0.07828054 0.05833877 -0.026913848 0.025320115 -0.1029205 -0.07803125 -0.0374955
-0.030062942 -0.039940637 0.20567846 -0.0322488 0.051752053 -0.115223594 0.027401127 -0.014948507
-0.10985595 -0.034123905 -0.09238812 -0.0016821952 -0.15975495 -0.0495797 -0.06424836 -0.16228695
0.058813687 0.028409045 0.004245178 -0.07783976 0.0003875763 -0.029676573 -0.23302926 0.045904156
0.023711033 0.06464135 0.023392672 -0.15154621 0.014518786 -0.021210974 -0.04291873 -0.013370211
0.06266979 0.05025917 -0.13677536 0.0876907 -0.06490041 -0.11018666 -0.0662659 0.028651005
-0.015054448 0.06749485 -0.1290346 -0.10293106 0.13956246 -0.035264432 0.10364379 -0.039028857
0.09062627 0.018500015 -0.015744902 0.051109068 -0.16600777 0.062213 -0.025970606 -0.08171973
-0.021647485 -0.060960982 -0.12310717 -0.05049621 0.02994445 0.0576363 0.13191314 0.058545798
0.05709991 -0.046070084 0.09256283 -0.027848644 0.0817789 -0.0019431679 -0.21498272 0.15794006
-0.11727359 0.06280259 0.029018598 -0.07746355 -0.04075045 -0.10115725 0.007567622 -0.029834017
0.17423378 -0.18637688 -0.011845465 -0.08208705 0.16292149 -0.043792456 -0.10528113 0.10773229
0.18147206 0.04418346 -0.16698107 0.044493295 0.07180812 0.117400944 0.057861175 -0.19673486
-0.103130005 -0.02070344 0.057486303 0.06653326 -0.13268898 0.18034123 -0.011558583 0.02317092
-0.17877251 0.04385733 -0.0061163735 0.07724623 -0.10829248 0.017190311 -0.07576149 -0.17647864
0.07570584 0.06960851 -0.050909583 -0.06969442 0.10240932 0.124581054 0.1275832 -0.07045753
-0.09534142 -0.101416595 0.005872591 -0.08477892 -0.07697852 0.011358723 0.058923513 0.0143885575
0.23920567 -0.016599843 -0.07797895 0.03200953 0.05630197 0.0015640153 -0.07452703 0.15281099
0.0674403 0.13019802 0.02051257 0.010871429 0.12667172 0.15958875 -0.084891215 0.08999773
-0.025346547 0.059302364 -0.0021343231 -0.007755071 0.1221213 0.15655921 -0.14722179 -0.12645291
-0.02090228 -0.05477133 0.18382853 -0.1295754 -0.06665776 -0.08658724 0.11669829 0.04434154

Variable_22/read f4 [16]
00000000: fe32 9cbe 3201 2d3e dd48 0cbc dcf6 3f3d
00000010: 5b23 a5bb df1d ba3d b966 be3e 0d6c 823e
00000020: cabf 463e 7921 3a3e de3b 1e3e 7668 3b3e
00000030: 5ec2 e33d 2b4e 25bf 15a4 563d b124 8cbf
-0.30507654 0.16894987 -0.008562294 0.046866283 -0.005039615 0.09087729 0.37187746 0.2547306
0.19409099 0.18176831 0.15452525 0.18301567 0.11121057 -0.645724 0.052402575 -1.0948697

Variable_23/read f4 [16]
00000000: 2ea7 743f cc20 5d3f 189a 543f b348 6e3f
00000010: 5255 843f 061a 873f 59e4 653f cc85 713f
00000020: 98c0 753f cd4d 823f 7b99 7b3f 65db 883f
00000030: 7e66 5f3f c920 623f b784 853f c95e 433f
0.95567596 0.8637817 0.8304763 0.9307968 1.0338538 1.0554817 0.89801556 0.9434478
0.95997 1.0179993 0.9828107 1.0691954 0.87265766 0.88331276 1.0431126 0.76316506

Variable_24/read f4 [16, 3, 3, 16]
00000000: 74c8 e3bc ace6 703c 75ff 18be 40f8 423d
00000010: d84f b43d 5cb5 9abd 901a 74bd 7732 593c
00000020: 2116 f8bd 0dbb 513d b0b0 fd3d bdad ca3c
00000030: e877 8f3d dd4e 8bbb 93fc 20bd 6ca0 fcbc
00000040: 4ea9 fbbc 79e9 7e3d a9a4 9ebd 952e b73d
00000050: 3530 d43c c73a 2dbe fbd1 21bb eec2 f6bd
00000060: aecb e33d 9c27 16be 18e9 d9bd 86bb 0f3e
00000070: ee82 013e 8507 a0bd b4b3 f0bc 9327 15bd
00000080: f589 0a3c 1aba f23d 65ec 8f3c 2520 9b3d
00000090: 8480 1bbd 30c8 ce3d 635e 353d e3ae 82be
000000a0: 3902 e5bd 1355 35bd b9dc ffbd 5b45 353b
000000b0: 619e eabd 8abb c0bd 95e9 02be 89f3 d6bd
000000c0: 346c c0b9 fe4c c1bc f146 3c3d 6809 373e
000000d0: 12b3 843d d86b e93d bfef e6bb 18f9 f43c
000000e0: c260 c93d ed7e 1ebd a9f0 1bbe 496c 0a3d
000000f0: ef92 683d 32b3 b8bc a5db 38be 0739 a0bd
00000100: e83c 92bc 57e7 853c 6b40 e43b eb2e 6dbd
00000110: ec0c 50bd 8f9b f13d 71a9 b33d 229c e9bc
00000120: 06da 3a3e e707 03bc 3406 8d3d afaa cdbd
00000130: e603 873d e48e d5bc b0a1 2f3e efc3 86bd
00000140: ae2c 7cbd bcdc 223d 5a93 4f3d f9c3 96bc
00000150: a332 0f3e b83c 143b b0d3 19be ba03 623c
00000160: bf48 b73d 0211 673d f111 6d3e e57e d93d
00000170: 5405 183d af2b 28bb 569f 143d 7cda b6bd
00000180: ed2f 8ebd 2fc5 29be 0a6b fb3d 1c4f cd3d
00000190: 469d 1dbe 4520 13bb 50ff a13d 1786 80bb
000001a0: bd45 68bd 088f fabc 6b16 f13d 0479 26bd
000001b0: 77b8 10be 6f2f 01bc 2790 a6bd 3012 47be
000001c0: 6311 cb3c 3589 103a c7ed 383d 523c 45be
000001d0: 5cdc c3bd 7112 323d ca58 39be 4da0 113d
000001e0: fdd2 a73d ce12 083e 93da cd3d b474 8cbc
000001f0: 3d41 113d 73ca 8fbc 2807 fdbd 4223 99bd
00000200: fad8 debb a6fe a93b fd08 babd 5e8f 98bb
00000210: 1ea3 e3bd f82a 43be b196 e8bd a562 283d
00000220: 1918 74bd 6520 cbbd f8c2 14bd 84e7 403e
00000230: 78c1 3a3d c8b1 3e3e 1112 8fbc de78 c0bd
00000240: 4587 493d e119 08be 24dd 8c3c 8aba bb3c
00000250: e140 57be e94f 183d 6f5c 0f3d d111 893d
00000260: 2b6a bb3d bc4d fe3d e590 90bd ff3e 10be
00000270: 6c04 003d e9a7 d13c c2c4 5a3e 250d 0d3e
00000280: 67c5 0abd d960 13be 456d 2b3e 3ec0 ce3b
00000290: d169 b33c 22cf b2bc 02f2 4cbe c0cc c43d
000002a0: 4c62 97bd 7513 793c 69b0 233d 6997 a0bd
000002b0: cdd5 66bd 712f 30be df2b 23bd 9d39 d83d
000002c0: 5727 35bd 77a5 42be dcec efbc 105d cf3a
000002d0: 1ef2 093c 7997 d73d 926d 973c 0ec2 8b3d
000002e0: ec62 1d3e ef65 9dbd 4e95 afbd 7161 ae3b
000002f0: 69d6 4b3d 83a1 27bd 9c37 543e 2d2b acbd
00000300: f7a6 dbbd 5bdf 19bd a2fe af3d 14c9 533d
00000310: 3af9 30be d9cc c93d 113e 273d b565 35bd
00000320: 1f78 b8bd 78ae 0d3d edc5 d7bd 203e 0ebc
00000330: 2b8e 1cbd df26 ce3c ad32 49bd f963 86bd
00000340: 0e8c 213d fb56 14bc 248b 903d a763 a1bc
00000350: 7b9b be3d 2697 8d3d a553 4a3e fe8a 6ebd
00000360: e115 b93c 10d0 ffbd fdf4 d4bd 95b0 74be
00000370: 7416 3ebc 7f34 ce3c f271 a83d b1d6 8e3d
00000380: b283 e83d 0ffd b8bc bf63 423d fd08 e73d
00000390: e51e 523b f1d2 063e 547d 6bbc 5975 733d
000003a0: 42b0 acbc 62d7 5d3d 8ac0 873d be62 9dbd
000003b0: 07b1 6f3d 5b40 b73d 9857 8a3d 5736 3b3e
000003c0: ef76 19be f655 a73d 5f77 b13b 023c 10be
000003d0: 5bf7 19bd 2909 923e 0d7d 00bd b0b1 0c3d
000003e0: eb36 d53d 7e4a 4bbe cbe1 cb3d 9795 15be
000003f0: 5d5d 9f3d eb59 c2bd 50a1 993c 7779 88bd
-0.027805544 0.014703434 -0.14941199 0.04760003 0.088042915 -0.07554123 -0.059595644 0.013256661
-0.12113596 0.051203776 0.12387216 0.024741048 0.07005292 -0.0042513446 -0.039303374 -0.030838214
-0.03072038 0.062234376 -0.0774625 0.08944432 0.025901893 -0.16916953 -0.0024691809 -0.12048899
0.11122833 -0.14663547 -0.10640162 0.14036378 0.12647602 -0.07813934 -0.029382564 -0.036414694
0.008455743 0.11851902 0.017568776 0.075744905 -0.03796436 0.100967765 0.044279467 -0.25524053
-0.111820646 -0.044270586 -0.124932714 0.0027659747 -0.1145599 -0.0941077 -0.12784417 -0.104956694
-0.0003670171 -0.023596283 0.045966092 0.17874682 0.064794675 0.11397523 -0.007047623 0.029903933
0.09832908 -0.038695265 -0.15228523 0.033794675 0.05678075 -0.022546384 -0.18052538 -0.07823377
-0.017851308 0.016345663 0.006965687 -0.057906073 -0.050793573 0.117972486 0.08772553 -0.028516833
0.18247232 -0.0079974895 0.06885949 -0.10042321 0.065925404 -0.026069112 0.17151523 -0.0658034
-0.061566047 0.03976129 0.050677635 -0.018403994 0.1398416 0.00226192 -0.15022159 0.013794834
0.08949422 0.056412704 0.23151375 0.10619906 0.037114456 -0.0025660803 0.036284767 -0.08928391
-0.06942735 -0.16579126 0.122762755 0.100248545 -0.15392026 -0.0022449654 0.07910025 -0.0039222348
-0.056707133 -0.03058578 0.11771854 -0.040642753 -0.14132868 -0.007884844 -0.08132964 -0.19440532
0.024788564 0.00055136095 0.045148637 -0.19261292 -0.095635146 0.04347462 -0.18100277 0.035553265
0.0819454 0.13288423 0.10051455 -0.017145492 0.035462607 -0.01755259 -0.123548806 -0.07477428
-0.006800768 0.005187827 -0.09083746 -0.0046557626 -0.111150965 -0.1905936 -0.11356867 0.0411097
-0.059593294 -0.09918288 -0.03631875 0.18838316 0.045594662 0.18622506 -0.01746467 -0.093980536
0.04920127 -0.13291122 0.017195292 0.022916097 -0.21020843 0.037185583 0.03500026 0.06692851
0.09151109 0.124171704 -0.070588864 -0.14086531 0.031254217 0.025592761 0.2136412 0.13774545
-0.033879664 -0.14392413 0.16740902 0.006309538 0.021901043 -0.021827284 -0.20014194 0.096093655
-0.073917955 0.015202393 0.03996316 -0.07841379 -0.05635624 -0.17205597 -0.03983676 0.10557864
-0.04422697 -0.19008432 -0.029287748 0.0015820581 0.008419542 0.10526938 0.018484864 0.06824122
0.15369767 -0.07685458 -0.085733995 0.0053216745 0.049765024 -0.040925514 0.20724338 -0.084066726
-0.107252054 -0.037566524 0.08593489 0.051705435 -0.17282572 0.09853525 0.040830676 -0.04428645
-0.09007286 0.034590214 -0.10535798 -0.008681804 -0.03822152 0.02516502 -0.049120594 -0.06562037
0.039440207 -0.009053941 0.07057789 -0.019700838 0.09306999 0.06913595 0.1975847 -0.058238022
0.02259344 -0.12490857 -0.1039829 -0.23895486 -0.011602033 0.025171516 0.08224858 0.06974543
0.11353244 -0.022581605 0.047458407 0.11281011 0.0032061872 0.13166405 -0.014373142 0.059438083
-0.02108014 0.054160483 0.06628521 -0.07684849 0.058518436 0.08947822 0.067549884 0.18282448
-0.14986776 0.081706926 0.0054158415 -0.14085391 -0.037589412 0.28522614 -0.031369258 0.034349144
0.104108654 -0.19852635 0.09955176 -0.14607845 0.077814795 -0.09489807 0.018753678 -0.066637926

Variable_25/read f4 [16]
00000000: 1f8e 453e 9bcb 8cbc aa52 6abd 979e 833d
00000010: bf03 ff3d 9571 ae3d 0233 dd3d 1163 423e
00000020: 7550 843d a595 29bd 76f8 523e 79a4 ea3c
00000030: 223d 19be d9cc 7a3d 7b94 4fbd f52d 283e
0.19292496 -0.01718693 -0.05720774 0.06426733 0.124518864 0.08517758 0.108007446 0.18983103
0.064606585 -0.041402478 0.20602593 0.02864288 -0.14964727 0.061230514 -0.05067871 0.16423781

Variable_26/read f4 [16]
00000000: a6a0 923f 423b 7b3f 21b0 8e3f ac78 5d3f
00000010: 6388 643f f738 6f3f b082 883f 1f43 803f
00000020: 77ff 893f 4285 833f b3e4 823f 4cc4 783f
00000030: 1ef6 7f3f 03dd 893f c793 873f 32ae 853f
1.1455276 0.98137295 1.11475 0.86512256 0.8927061 0.93446296 1.0664883 1.0020484
1.0781087 1.0275042 1.0226043 0.97174525 0.9998492 1.0770572 1.0591973 1.0443785

Variable_27/read f4 [16, 3, 3, 16]
00000000: d4b3 4cbd 224b 18bd 2383 a6bd 0fa3 623d
00000010: 7835 d93d de29 55bd 5f41 bcbc 0ef4 533d
00000020: 2c08 11be edc8 913d c020 403d f8e2 523e
00000030: ac76 7a3d 4ecf 8cbd f257 d9bd 0e65 5ebe
00000040: 8684 fabc 8200 05bd b9ed 8fbd 3aa7 e73d
00000050: f7e5 743c 64e2 a2bd 2b6c 3d3d 6d91 f1bd
00000060: b4f5 8a3d 26bc cdbc 1843 aebd 2294 933e
00000070: c4df c63d 6528 0dbe 3244 093b cb9f 59be
00000080: ed57 fc3c 2719 cebb 3ee2 0fbd 020b cb3d
00000090: 607c 08be 2f9a 5ebd d28b 2c3c 46e2 84bd
000000a0: d2ab aabd aa1c f93d 1ab9 74bd 5898 603e
000000b0: 2822 1cbe 8a3d 8fbe 9b58 dbbb 0758 c5be
000000c0: 89b2 6fba 9168 a43c beb7 9e3d 3d32 703d
000000d0: df2c c63d 4040 9e3d 5cd2 48bb 4e1e 1a3d
000000e0: e475 633b 53bc 363d 20e8 4abe 8e75 363e
000000f0: eb86 ec3c cbc2 263b 8fd8 83bd b813 79be
00000100: b919 e63d 94be 743d b12c 6e3d bad6 7fbd
00000110: c8f6 07bd 1b49 1dbd 7b86 dd3d 1598 3b3a
00000120: a29c c73d 4ba8 453d fdff 163d a0da 37bc
00000130: 03b9 253d 69fd 59bc 4326 973d 07bb 01be
00000140: cc41 893d f727 513d dfc6 b63c 04bb 74bc
00000150: 5782 2b3e 7c28 28bb 5560 ccbd f91f 8abb
00000160: 5315 463d a6cd 2b3e f931 413e 44fb 4a3e
00000170: d4db ccbb 731a 67bd 5813 b63d 71de 81be
00000180: 7d28 883c 96a1 d1bc fe0d 243e d10f d03b
00000190: a022 6ebd 775b e7bc aa57 5f3d 7e45 b7bd
000001a0: a776 8dbd 3edc 263d 4b43 993b 3ed5 bd3c
000001b0: f559 36be b2f1 623d 9a20 53bd b35f b4be
000001c0: 2e2f c13d cbcc 0abc c61a 9d3d dfda aebd
000001d0: 0aa0 49bd cd79 07bc 2413 07be 69a4 2dbc
000001e0: 754d c33d 2999 bb3d 9b5b fd3c 0c2b edbd
000001f0: 390f d93c d641 513d a680 0d3c 082f 1bbe
00000200: c8de 80bc bab8 183d cc97 aebd 4dfa fd3d
00000210: 408e dfbc 7fa3 12be 9e7b 22bd 232e 5ebd
00000220: ee62 3dbd 69fd 463d a6b0 98bd 187a 623c
00000230: f923 923d 8ba0 023e 1c6b 6f3d 25d2 80be
00000240: 2cfb 293e 95e0 b83c 2d83 a1bb 00de 443d
00000250: 766d bfbd 295f 89bc 9ecb 203c a020 4d3c
00000260: e7b6 e5bc f880 e9bd 84a7 bfbd c7c9 a0bd
00000270: 315b cf3d 769b fb3d e452 d73d 8865 693d
00000280: 03dc 9abd a737 98bd 8948 383e 86a0 eabc
00000290: 2330 da3d abbd 9dbd 7e3b 49be 0167 473e
000002a0: f172 fa3c 231d a93d eec3 443c 1ad3 56bd
000002b0: a071 96bd 37d1 21be a210 e0bc f4cb 8abd
000002c0: 0173 42bd a0cf 38be 11aa 06bd a51a 88bc
000002d0: d928 463e fa37 01bd d2a6 7dbd 1adc 4a3d
000002e0: 8512 373e f41a e93c 3ac2 b4bd 7a99 dd3d
000002f0: 0ab6 7f3d bf93 65bd 4233 733e 2fe8 4dbe
00000300: 9b0b 4fbe aab7 80bd b3e9 0e3e ee4b 433d
00000310: 847d d8bd 7d68 763d 8ff2 473d 938c 033e
00000320: a733 2ebe a9cd a03c 34e1 28bd 3c23 a1bc
00000330: 8bc6 bdbd f64c 5b3d 48f9 9a3c 8007 f5bd
00000340: 55ca d9bd eb92 603d 3e41 9b3d 1ccc 10be
00000350: a660 433c b86d 0d3d 2e58 e63d b961 d7bd
00000360: 7b00 d03d 68e5 0abe b36a e1bd 6201 09be
00000370: ccf3 82bd 6bf8 96bc 64f5 1f3d 1ce6 4ebd
00000380: 10a6 243d c614 1e3c ff5b e3bd d8b5 f13c
00000390: 7715 fe3b b02b dabd 5503 c4bd 9f2e 823d
000003a0: ba80 d73d 7489 593d 3009 483d ecbf ed3c
000003b0: 6cbf fb3d 7459 753d a396 cd3c facb b33d
000003c0: 01f6 76be d8c3 8c3d f9d6 6d3d edfd 25bd
000003d0: 1f0a 13bd 3a3c e03d 6b99 04bd 3aa3 603a
000003e0: 0a35 1bbd 429b 83bd 61da 353e 1c4e 27be
000003f0: 6e94 1f3d 7202 cfbd ddd5 ca3d ccd9 573a
-0.049976185 -0.037181027 -0.08130481 0.055331286 0.106059015 -0.05204188 -0.02298039 0.05174642
-0.14163274 0.07118402 0.046906233 0.20594394 0.06114833 -0.06875478 -0.10612477 -0.21718237
-0.03058077 -0.032471187 -0.07027764 0.11311193 0.014947406 -0.07953337 0.046245735 -0.11795316
0.067851454 -0.02511413 -0.08508891 0.28823954 0.09710649 -0.1378494 0.0020945189 -0.21252362
0.030803645 -0.0062896195 -0.03512787 0.09914209 -0.13328695 -0.05434626 0.010531383 -0.06488471
-0.083335534 0.1216367 -0.05974684 0.21933115 -0.15247405 -0.27976638 -0.006693912 -0.38543722
-0.000914373 0.020069392 0.0774989 0.05864166 0.09676527 0.077270985 -0.0030642962 0.037626557
0.003470772 0.044613194 -0.19815111 0.17818281 0.028872928 0.0025445696 -0.0643779 -0.24323928
0.11235375 0.059752062 0.05814809 -0.06246064 -0.033194333 -0.038399797 0.10816666 0.0007156146
0.09746672 0.0482562 0.036865223 -0.011221558 0.040459644 -0.013305047 0.07380345 -0.12669002
0.06702003 0.051063504 0.022311626 -0.014937166 0.1674894 -0.0025658896 -0.099793114 -0.004215237
0.04836018 0.16777667 0.1886672 0.19822413 -0.0062517915 -0.05642171 0.08890408 -0.25365022
0.016620869 -0.025589745 0.16020963 0.0063495417 -0.05813849 -0.028241856 0.054526962 -0.089488015
-0.06907397 0.040737383 0.0046772114 0.02317297 -0.17807753 0.05540628 -0.051544763 -0.35229263
0.09432827 -0.008471678 0.07671122 -0.0853784 -0.04922489 -0.008268786 -0.13190895 -0.0105982805
0.09536258 0.09160072 0.03092747 -0.11580476 0.026496517 0.051088177 0.008636629 -0.1515466
-0.01573123 0.037285544 -0.08525047 0.12401257 -0.02728951 -0.14320181 -0.03966867 -0.05424322
-0.046236925 0.048581515 -0.07455568 0.013823055 0.071357675 0.12756555 0.058451757 -0.25160328
0.1659972 0.022568027 -0.0049289674 0.04806328 -0.0934705 -0.016769009 0.009814171 0.012519985
-0.028041316 -0.11401552 -0.09358123 -0.07850986 0.10124815 0.12285511 0.10513857 0.056981593
-0.07561495 -0.0743249 0.1799642 -0.028640997 0.106537126 -0.07702192 -0.196516 0.19472887
0.030572386 0.082575105 0.012009604 -0.052447416 -0.07345891 -0.15802465 -0.027351681 -0.06777182
-0.047472958 -0.18047953 -0.03287703 -0.016614268 0.1935152 -0.031547524 -0.06192667 0.04952631
0.17878158 0.028455235 -0.08826108 0.10820289 0.062429465 -0.056049105 0.23750022 -0.20108102
-0.20219271 -0.06285031 0.13956337 0.047679834 -0.10570815 0.06015824 0.048815306 0.12846594
-0.17011891 0.019629316 -0.041230395 -0.019670121 -0.09266385 0.053540193 0.018917695 -0.11964321
-0.10634295 0.054827612 0.07580803 -0.14140362 0.011924898 0.034528464 0.11247288 -0.10516686
0.10156342 -0.13564074 -0.110066794 -0.13379434 -0.06394157 -0.018429002 0.039052382 -0.05051242
0.040197432 0.009648507 -0.11101531 0.029505655 0.0077540237 -0.10652864 -0.09570948 0.063565485
0.105225995 0.0531096 0.048836887 0.02902218 0.1229237 0.059899762 0.025096243 0.0877914
-0.2411728 0.06873292 0.058066342 -0.040525366 -0.035898324 0.10948987 -0.032372873 0.00085692445
-0.03789238 -0.064260975 0.17759086 -0.1633839 0.038959913 -0.10107888 0.099040724 0.00082340534

Variable_28/read f4 [16]
00000000: b6df 92bf 71df 5a3e e065 0bbf 9f30 8e3d
00000010: cee6 20be a6f4 e63d b3ec 5c3f 951e 74bd
00000020: 6e75 5b3d 5c9a 103e 95bd 583e bfe9 903e
00000030: 0c9f 84be 97cf 88bd f8f7 8a3b 55af 3dbf
-1.1474521 0.21374299 -0.54452324 0.069428675 -0.15713045 0.11277132 0.86298674 -0.059599478
0.053578787 0.14121383 0.2116607 0.28303334 -0.25902593 -0.066802196 0.004240986 -0.7409566

Variable_29/read f4 [16]
00000000: 6430 683f 7b81 5b3f ce74 633f 545e 6e3f
00000010: 911f 833f 129f 7a3f f907 3d3f 0712 873f
00000020: 9387 6b3f f1ac 783f 0b64 813f 1e1b 8a3f
00000030: d130 663f b9b7 723f 8621 8e3f 0890 643f
0.9069884 0.85744447 0.88850105 0.93112683 1.0244008 0.9789897 0.7384029 1.0552377
0.92003745 0.9713889 1.0108656 1.0789526 0.8991824 0.9481159 1.110398 0.89282274
