examples/style_transfer/model/la-campesinos.onnx (onnx, 133987 bytes, 48 tensors)

Variable_9/read/_47__cf__47:0 f4 [16, 16, 3, 3]
00000000: dd65 84bd 6822 40bd ee78 6cbb 1eb1 b9bc
00000010: 5242 88bc 3a6e 52bc c9be bb3c 1285 b13d
00000020: 9fd8 b83d cdfd 90bd 0917 91bd 11dc a23c
00000030: f588 323d 0f9d 7b3d 1abf 5d3d 8c4c ae3d
00000040: f4ba 9dbc 5387 99bb 2321 38be 34c0 ecbd
00000050: edaf 683c 39e8 6b3d eba7 113e 7afa bb3d
00000060: 0f7b 073e cc48 9b3d 5bfe 2cbe 76b9 bd3d
00000070: b398 a93d 9e8b 773a 9bee 873d 6676 e5bd
00000080: 86d0 6cbc 920a eebc 0723 28bd 760c 7d3e
00000090: be27 91bd 2bac 22be 03d2 06be 29cb 603d
000000a0: f676 55bd e02f 273e 430b a5bd e888 0bbd
000000b0: e398 c8bd 8e96 15be 086c eebd 97a0 723d
000000c0: 6c84 973d 5f00 6bbd e647 dcbc 0f3c b8bb
000000d0: 29f4 793b 37c0 d5bd 2147 c1bc ef6e 313d
000000e0: 5782 e43a 8dd8 383c 940b e63d e9c5 d4bd
000000f0: 0bb8 183d 184c 01be 9c5d ccbd b27e 29bd
00000100: 9eed 17be 401d 06be 769d b63c 81d2 423d
00000110: 3e13 f0bb e028 78bd 63f4 b93d 8c1b 343c
00000120: bf32 f2bd 34a3 c93d 13d1 2ebe b95b d53d
00000130: 24f3 2b3e b2de e83d 9938 1a3c 3b1a 393e
00000140: 7a93 05bb 5b5f 313d 6fd8 8cbd 3cd2 223d
00000150: ee64 a6bc 424d abbd e994 b1bb 9568 6dbc
00000160: 8471 83bb 0d7a 67bd 2dfc 583c 71ec 07bc
00000170: 0a1a a8bd 1c8b 29be 2fc4 833d 0f84 823d
00000180: 17fb 5bbd 8cd3 cfbd 3e86 15be 91c6 29bd
00000190: 1d17 9cbb e5a2 48bc 90f3 73bc 0fb1 26be
000001a0: bce1 663e 291a 3a3d 490d ca3c e97e 663d
000001b0: 7d1a 8a3d c1bd e43d 0491 c0bd 4ad6 fe3d
000001c0: c6ba d83d 2ca3 a03c 3acd 8cbd 1480 003e
000001d0: 21b2 aa3d 4d1a 163d 7942 88bd b065 fdbd
000001e0: afcd a7bc a791 f1bc 9bcb 12be 5d36 9f3d
000001f0: ac2d a3bc 2cc2 273e 09c4 c5bd 923e 483c
00000200: 6268 1cbd 0f77 32bd 4603 053e e5d6 1ebd
00000210: 6e7d 083d a35d 30be 3d27 95bd 417c 883d
00000220: 5804 b73d 971c 25bd e9f3 4cbc c327 883d
00000230: 6392 c0bc 1eda fbbd 1bfd 97bd f080 58bd
00000240: 1ab5 383e b93d 0f3d fd44 89bd fb22 a5bd
00000250: 6716 bcbd a347 05bc 809f 1cbe 7f57 8dbb
00000260: 74e9 b73c 74f9 d6bd 722f b7bd a0c6 c5bd
00000270: b01f d1bd 12a9 f93c 86b6 aa3d 1f98 c6bc
00000280: daa1 b13d ca91 8b3e 1cb9 14bd 0fcf c13d
00000290: 60c2 1bba 7377 923d e6d3 90bb ea09 7dbd
000002a0: 9806 653c 8d8c 6abc b3e2 1cbd e53b a23a
000002b0: 30c2 57bd f5c8 073d bbd1 87bd 5b73 febd
000002c0: 24e7 3e3e 64d1 b4bd cc22 733d 19e7 f73d
000002d0: e3fc 3fbe c40b 53bd c59b bb3d 389b 0dbe
000002e0: da9a 6a3d c5ef ebbb 8e47 713c a243 98bc
000002f0: 2867 49bd 9e6e f2bd b0cc bbbd 7118 3e3c
00000300: bb7d 4b3d b6a5 c63d 22b5 ba3d 5223 d53d
00000310: 9c21 42bd 24e3 fc3c f6ff 4a3b dca6 78be
00000320: f90f abbb 3502 bbbc 3068 b83d 3a90 b43c
00000330: a430 0fbe bebe 34bd 7351 413e 8206 8bbd
00000340: 024c 8e3d 8087 46bd 311f b23d 1ae9 87bd
00000350: 110a 043d 6699 083c ac61 39bd 3621 0cbb
00000360: 2a60 abbd da5d 1cbe a5d3 e63d 8dae 2ebe
00000370: e741 e2bd a03b 6b3d 7c8e 1cbd 5ff8 a2bd
00000380: 32f4 853e 359d 1f3d 0ef2 ef3d 5555 07be
00000390: 72c2 343e fd5c 9abd 00fe 20be 7663 1fbd
000003a0: 0ff8 9ebd 6681 91be e262 d1bb a5fa 0c3d
000003b0: 5c69 cbbd 84b7 823b aafc 03bc e8f8 93bd
000003c0: ff8a 853d 887d fcbd 562c 5cbe db9c 5dbd
000003d0: 6270 87bd dea3 fe3c 1123 81bd 294f 2ebe
000003e0: 4db8 02be 89d1 4dbd b330 5cbd a587 6ebe
000003f0: 9ed7 2e3d 3bfd 59bc 2acd 353d 13e6 4fbd
-0.064647414 -0.046907812 -0.0036082822 -0.022667464 -0.016633186 -0.012843663 0.022918122 0.08667959
0.09025692 -0.07079659 -0.07084472 0.019880326 0.043587644 0.06142908 0.054137327 0.08510694
-0.019254185 -0.0046853214 -0.1798139 -0.11560097 0.0142021 0.05759451 0.14224212 0.09178634
0.13230537 0.07582244 -0.16893904 0.092638895 0.08281078 0.0009443107 0.06637307 -0.11204223
-0.014454013 -0.029057775 -0.04104903 0.24711785 -0.07087658 -0.1588599 -0.1316605 0.05488125
-0.052115403 0.16326857 -0.080587886 -0.03406611 -0.09794786 -0.14608213 -0.11641699 0.05923518
0.07398304 -0.0573734 -0.026889753 -0.005622394 0.0038139916 -0.10437053 -0.023593487 0.043318685
0.0017433864 0.0112820985 0.11232677 -0.10389311 0.037284892 -0.12626684 -0.09978792 -0.04138059
-0.14836738 -0.13097095 0.02229188 0.047564033 -0.0073265126 -0.060585856 0.09079816 0.010992896
-0.11826085 0.09845582 -0.17071943 0.10417885 0.1679197 0.11370601 0.009412908 0.18076412
-0.0020382092 0.04330383 -0.06877219 0.039751276 -0.020311799 -0.08364345 -0.005419363 -0.014490266
-0.004011335 -0.05651288 0.013243717 -0.008296118 -0.082080916 -0.16556972 0.064339034 0.063728444
-0.053706255 -0.10147771 -0.1460199 -0.041449133 -0.0047634975 -0.012245868 -0.014889613 -0.1627848
0.22547048 0.045435105 0.024664538 0.056273375 0.067433335 0.11169005 -0.094026595 0.12443216
0.10582499 0.019609056 -0.06875081 0.12548858 0.08334757 0.036646176 -0.06653304 -0.12372911
-0.02048382 -0.029488398 -0.14335482 0.07774041 -0.019919239 0.16382664 -0.09656531 0.012221949
-0.038185485 -0.043570574 0.1298953 -0.03877916 0.033322744 -0.1722322 -0.07282875 0.066643246
0.089363754 -0.04031047 -0.012509325 0.06648209 -0.023507303 -0.12297462 -0.07421323 -0.05285734
0.18037835 0.034970973 -0.067026116 -0.080633126 -0.091839604 -0.008134755 -0.1529522 -0.004313409
0.022450186 -0.10496798 -0.08944596 -0.09657025 -0.10211122 0.030476127 0.08335595 -0.024242459
0.08673449 0.27259666 -0.036309347 0.094633214 -0.0005941745 0.071516894 -0.0044197915 -0.061777033
0.013978623 -0.0143157365 -0.038302135 0.0012377469 -0.052675426 0.033150632 -0.066318 -0.12424346
0.1864286 -0.088290006 0.059359357 0.12104625 -0.18748812 -0.051524892 0.0916057 -0.13828743
0.057276584 -0.0072002136 0.014726533 -0.018586937 -0.049170643 -0.11837505 -0.091699004 0.011602507
0.049680453 0.096995756 0.091165796 0.104071274 -0.047395334 0.030870028 0.0030975319 -0.24282402
-0.00522041 -0.0228282 0.09004247 0.022041429 -0.13983399 -0.04412722 0.18878727 -0.06788351
0.06948091 -0.048469067 0.086973555 -0.066362575 0.032236163 0.008337354 -0.045259163 -0.00213821
-0.08367951 -0.15270177 0.11270837 -0.17058773 -0.11047726 0.05742991 -0.03822182 -0.07957529
0.2616287 0.038968284 0.1171609 -0.13216145 0.176523 -0.07537267 -0.15721893 -0.038913213
-0.07762157 -0.28419036 -0.0063899616 0.03441872 -0.09932205 0.003989162 -0.008055845 -0.072252095
0.06520652 -0.12328631 -0.21501288 -0.054104667 -0.06613232 0.031083997 -0.063055165 -0.17022385
-0.12765618 -0.050248656 -0.05375738 -0.23293932 0.042686097 -0.013305004 0.044385113 -0.050756525

Variable_8/read/_46__cf__46:0 f4 [1, 16, 1, 1]
00000000: 3c68 3e3f 7543 4e3f a662 333f 283b 7c3f
00000010: 470c 263f 0a31 3b3f d6b5 5c3f b2fc 393f
00000020: cfe6 433f 58ce 403f b16c 333f ef0a 4b3f
00000030: d964 393f f323 3f3f b96d 233f e42f 2c3f
0.743778 0.8057168 0.700724 0.98527765 0.64862484 0.731217 0.8621496 0.7265121
0.7652406 0.75314856 0.70087725 0.7931356 0.72419506 0.7466423 0.638393 0.67260575

Variable_7/read/_45__cf__45:0 f4 [1, 16, 1, 1]
00000000: 2294 8c3d e19a e13b 4746 cfbd f515 fbbd
00000010: 4325 f03c 2c23 a53d f624 8bbe f4b7 903d
00000020: cc01 bfbd 246a 4f3d 0103 ffbc b983 14be
00000030: 377e c0bd 581a 143c 0f7f c13c 4680 0bbd
0.068641916 0.006884918 -0.10120826 -0.12260047 0.029314643 0.08063349 -0.27176636 0.07066336
-0.093265146 0.050638333 -0.031129362 -0.14503373 -0.093990736 0.009039484 0.023620157 -0.034057878

Variable_6/read/_44__cf__44:0 f4 [16, 8, 3, 3]
00000000: 1657 2dbd ec3d 0dbe c92b a2bd 70dc c43d
00000010: 1bd8 6dbd ce90 f5bd 88b9 5bbc 700b dc3c
00000020: 8804 f0bc d2f4 0fbe 5faa 3d3e 441f 2f3e
00000030: 8b4e 26be d7e3 333e 8ea3 043e ac30 10be
00000040: 6275 493d 8034 1f3e 4d11 9ebd a1bf a23b
00000050: 2865 123b bfb7 18bd d9da 15bc 1b8a a83b
00000060: b83b ccbb db09 9fbd e78e 283d f92a 063d
00000070: b9a5 32bd 38bf 123d f2bb 4e3d 8a46 a13d
00000080: 0163 eb3c 0658 5bbc f8b1 063d 402f e7bd
00000090: 0620 683d 7183 233e 77d5 bfbd f903 ae3d
000000a0: e199 cebd 70d9 5fbe ca40 81bb f839 e13d
000000b0: 89e7 3fbe 962d 98bd 0819 f7bc 15c4 ad3c
000000c0: 1b7b babd a817 753d 262d 29bd 0a97 003d
000000d0: 4bae 823c f7c8 403a 070a 30be 59a7 14be
000000e0: ab92 363e eb9a dcbd d274 21bc 2871 203d
000000f0: 75c5 36be fe41 6cbd 538f 3b3e ae00 c6bc
00000100: bcc2 a03d 554d 3bbe d103 3d3c 69d1 20be
00000110: 75f1 86bd bf9c 9bbd ec80 17be 85e4 83bd
00000120: 0441 eb3d 79da 703d 47ca b0bd fa4c d4bd
00000130: 90f2 a9bd 8677 ae3d e925 05be 8217 48be
00000140: 054a 75bd 6bec e73c 9d82 09bd 88f0 1dbe
00000150: 3e93 2a3e a87b b6bd 04e9 a6bd 2130 a83d
00000160: ede7 143e f633 8a3d ed66 173e 9053 b53d
00000170: 9926 513e 4fc9 053e 1404 a03d 1f93 a03d
00000180: b6b5 173e 1db5 2c3d 2d01 2e3d 5d38 d73d
00000190: fcfb d2bd 11a8 3a3d 609e 0cbd 4ad3 44bc
000001a0: b6b9 103d d7d1 b03d e52d fa3c 16e1 0ebe
000001b0: 4e43 21be 69c8 1d3d 9c4f 9d3d ae42 193d
000001c0: a88a 5c3d 60be 953d 5211 97bd 59a7 613c
000001d0: 7462 e03d c38b 263d d99b 0d3e 5d8a 303d
000001e0: 8484 3cbd 4646 be3d 8dca 563d fcbe 093e
000001f0: 1f97 bdbc 2bec 023e c69b 753d 1e8b 2e3e
00000200: 6ea5 4bbe 8771 9b3c 6cec 9b3c 44db 9b3c
00000210: d9b0 6ebc d1c6 b13c e1a3 fa3d 4648 09bd
00000220: b9f8 8a3d 6ed6 253e a224 e83c ecba 8f3d
00000230: ffec 52bd d5d2 593e 2418 353d 6582 b93d
00000240: d5f4 d4ba 1fb6 12be fad8 c63d 9c45 06be
00000250: 011b be39 c313 0fbe 4220 b7bd ac22 14be
00000260: 6685 64be c818 0c3e 4bb5 d63c d0f3 0c3d
00000270: a36c d53d 94ab a03d 433d f73d 7d5f 57bd
00000280: 90de d7bc 0c34 b63d e9cc e03d 17fb e83c
00000290: e3c4 52bc fba8 c43d 1613 de3c 58f5 283a
000002a0: 93b0 113e e99e 9bbc 2d73 64bc ee69 22bd
000002b0: 88c9 9ebd 83dc 0cbe 4205 b43d f516 1a3e
000002c0: d205 943d 0765 193e 336a d03d 486f f83d
000002d0: 5896 e0bd 63b9 9fbd fa5e 693a c425 033e
000002e0: 47f9 02bd a8f2 ce3d 9a17 893d de7b 143d
000002f0: c758 143d 94c8 633d 679c a93d 3fdc 18bd
00000300: 1b90 c13d db36 ecbc 3154 d1bd 18a3 603e
00000310: b08d 80bd 55e2 3bbd d48d 973d c24b 8d3c
00000320: df6c a2bc 2389 0cbd 59c5 ad3b ee77 d5bd
00000330: 882b 82be d779 93be 4dcf 10bd dd10 803d
00000340: 1737 8d3d 6f1d 253e cece e53c ccd5 013e
00000350: d3d9 163d 8313 053e f49d a83d 3fd6 f43c
00000360: 3491 53bd 0380 273d fbfa 4a3d 8d33 0cbe
00000370: 0b41 133d eb46 973d 692e 19bd 5f3a c73d
00000380: b066 3dbd 9909 883d 2d77 c73d e432 c23d
00000390: 6bc8 fb3c c973 de3d 1997 32be eb5b 00bc
000003a0: 88ea acbd 63fa 20be 2057 643c 82b4 953d
000003b0: 8839 49bf 69cc 86bc 2a0f 31bd f085 e33c
000003c0: 3b44 48bd b25e b73b 0de6 dabc f501 e0bd
000003d0: 85b1 323d 4336 5abd 45a7 9cbb 3cfd b13c
000003e0: a5ec 73bd dfa3 213d 9c5a b1bd ea9b 0e3e
000003f0: b10c e5bc 2252 a83c 398e a9bc 5314 253c
-0.04231938 -0.13793153 -0.079185076 0.096123576 -0.058067422 -0.1199051 -0.013410933 0.026860923
-0.029299036 -0.14058235 0.18522023 0.1710177 -0.162409 0.17567383 0.12953016 -0.14081067
0.04918421 0.15547371 -0.077181436 0.0049666916 0.0022338126 -0.03728461 -0.009146416 0.0051434166
-0.006232705 -0.07765552 0.041151907 0.032755826 -0.043615077 0.03582689 0.050472207 0.078747824
0.028733732 -0.013387686 0.032884568 -0.11288309 0.056671165 0.1596811 -0.09366887 0.084968515
-0.10087944 -0.2186029 -0.003944491 0.10997385 -0.18740667 -0.0743057 -0.030163303 0.021211663
-0.09105512 0.059837013 -0.041302823 0.031394042 0.01595225 0.0007354165 -0.17191325 -0.14516963
0.17829387 -0.10771736 -0.009854512 0.039170414 -0.17848761 -0.057680123 0.18316393 -0.024170246
0.07849643 -0.18291219 0.011536554 -0.15704884 -0.06589023 -0.07598256 -0.14795274 -0.06440071
0.1148701 0.0588021 -0.08632331 -0.103662446 -0.08298218 0.08518891 -0.13002743 -0.19540218
-0.059885044 0.028310975 -0.03357183 -0.15423787 0.16657731 -0.08910304 -0.08149913 0.08212305
0.14541598 0.06748192 0.14785357 0.08853829 0.2042488 0.13065074 0.07813278 0.07840561
0.14815411 0.04216491 0.04248159 0.10508797 -0.103019685 0.045570437 -0.034330726 -0.012013266
0.035333358 0.08633774 0.030539462 -0.13953051 -0.15748331 0.038521204 0.076812 0.037417106
0.05384317 0.07311702 -0.073763505 0.013772809 0.109562784 0.04066063 0.13828982 0.043100704
-0.046024814 0.09290747 0.05243926 0.13451761 -0.02314335 0.12785403 0.05996301 0.17045256
-0.19887325 0.018975032 0.019033633 0.019025452 -0.014568531 0.021701248 0.12238289 -0.03351619
0.06785721 0.1619508 0.02833778 0.070180744 -0.05149555 0.21271832 0.044212475 0.09058074
-0.0016247282 -0.14327286 0.09709354 -0.13112491 0.00036259744 -0.13972382 -0.089416996 -0.14466351
-0.22316512 0.13681328 0.026209494 0.034412205 0.104211114 0.07845226 0.120722316 -0.0525813
-0.026351243 0.08896646 0.109765835 0.028440041 -0.012864324 0.09602543 0.02710871 0.00064452505
0.14227514 -0.018996673 -0.013943476 -0.039651804 -0.07753283 -0.13755994 0.08790065 0.1504782
0.07227673 0.14979945 0.10176506 0.121306 -0.10966176 -0.077990316 0.0008902397 0.12807375
-0.03197601 0.10104877 0.06693955 0.03625094 0.036217477 0.055611208 0.082817845 -0.037319418
0.09451314 -0.02883475 -0.10221136 0.21937215 -0.06277025 -0.045870144 0.074000984 0.017248038
-0.019827304 -0.03431047 0.0053030667 -0.104232654 -0.25423837 -0.28803894 -0.035353947 0.062532164
0.06895273 0.1612451 0.028052714 0.12679213 0.036828827 0.12995724 0.08233252 0.029887317
-0.05165215 0.040893566 0.04955576 -0.1369154 0.0359507 0.073865734 -0.037397776 0.0972793
-0.04624051 0.066424556 0.09739528 0.09482363 0.030735215 0.10861928 -0.17440452 -0.007834415
-0.08443171 -0.15720515 0.013936788 0.0730982 -0.7860341 -0.016454892 -0.043227352 0.027773827
-0.048893195 0.0055960054 -0.026721025 -0.10937873 0.043626327 -0.053274404 -0.0047806823 0.021727197
-0.059551854 0.03946292 -0.086598605 0.13926664 -0.027960153 0.020546976 -0.0206977 0.010075646

Variable_5/read/_43__cf__43:0 f4 [1, 8, 1, 1]
00000000: 81c6 6a3f f5d1 883f 5573 8b3f 1d6f 663f
00000010: 9799 653f a9fb 7d3f 865d 743f eeab 833f
0.9170914 1.0689074 1.0894572 0.90013295 0.89687485 0.9921213 0.95455205 1.0286844

Variable_47/read/_42__cf__42:0 f4 [1, 3, 1, 1]
00000000: f196 513f 8655 0d3f de49 353f
0.81870943 0.55208623 0.7081584

Variable_46/read/_41__cf__41:0 f4 [1, 3, 1, 1]
00000000: 98bc d33d dee5 4e3b 659d ccbe
0.10338706 0.0031570117 -0.39963832

Variable_45/read/_40__cf__40:0 f4 [3, 4, 9, 9]
00000000: 41b2 ecbc a174 663d f8fb 2f3d 2f9b bc3d
00000010: c3b5 8d3d 21ed 2e3c 7959 f73c 3749 853c
00000020: 3d13 85bd dbe1 623d 5325 b93d 8f19 7b3d
00000030: dbae 7d3d 03a5 de3d f095 443d fefb 00bd
00000040: 95c8 9c3d 3b63 9abc 1bfd 4f3d bc29 a03d
00000050: 34f4 103d 98b8 1d3d 97ff cebc 4fbb f0bc
00000060: 24b7 ef3c d46f 0a3e 5bee e23d 9ab6 793b
00000070: 350f 093d c1e0 e3bc 59de 9cbd 9f44 7f3c
00000080: 05f8 d63c a887 d4bd 4691 a63d 6928 e13d
00000090: 0f72 a2bd ec8a 1dbe 5dad 45be ae1e 52be
000000a0: 6920 a2bd 9207 b1bd cae1 28be b643 3ebd
000000b0: 275d 1d3d 60b1 aabd 8775 6bbe 527e 34be
000000c0: 625f 4fbe 673c 8cbd 1726 d4bd 4b87 94bd
000000d0: 8d92 85bd 395c 98bc 912f 823d 84cc dcbd
000000e0: 3e17 89be 92f4 6fbe 007b 26bc ce6f 073d
000000f0: 83f5 11be 7a67 87bd dc67 a2bd 5436 023d
00000100: 0088 873c 0250 78bd 6596 19be 2460 883c
00000110: b80a db3c 6042 a9bd 00c2 a3bb 7494 15bd
00000120: 9bcd 78bc 33da 913d 5f8b dc3d bde0 b73c
00000130: 280a a73c a945 323b d31e 40bd 72bc fb3c
00000140: 0ec4 023e 6bc5 a13b d457 9c3b d145 06bd
00000150: 8ef3 40bd fca4 88bd 9283 3abe 8794 39be
00000160: 6ee9 9bbd 5755 13bd 47ef a3bc 1c5c f4bc
00000170: 6a38 3fbd 1e58 233d cb0e ea3d 4e0a 8bbd
00000180: 4591 11be e29b b2bd 0a40 93bd 2e2c aa3d
00000190: 2c4c e03c 15bd 9cbd 3ab7 763d 897c 373e
000001a0: a520 593d ead3 babc 2ede c8bd cca9 2bbe
000001b0: f872 0e3e 555a ce3c e742 23be 1051 5ebd
000001c0: 00ce 523d 50e3 8fbc a395 b83c 28e2 07be
000001d0: 14ab 84be ebf0 f43d def6 863d 6984 eabc
000001e0: 2dfa 5e3d 0c96 953d 7765 293d 0de5 1c3e
000001f0: 0288 c93b 8bd5 45be 2099 123d 9d3a 9a3c
00000200: 83c8 d43d c2aa 773e 49a0 9e3d 4170 f0bd
00000210: 5127 8a3c 446a 93bd c194 2ebe f240 56bd
00000220: 98a1 4cbd 24b2 063e 706d a73e bfbb 713d
00000230: 32d5 77be c0bc 1bbe 2176 2ebe 5d60 fcbd
00000240: afcb 39bd f154 5ebd cd59 d43d b26f 8d3e
00000250: 43bc 5e3d 0dab cabd 99f7 80bb 8612 163d
00000260: 9401 ad3d 5e2b bfbc 979b 6ebd 61ef b33c
00000270: 92fd 8a3d a459 8abd 61af 83bd 3e51 723c
00000280: dfc1 903d 1266 bf3d 4518 18bd ad6c 09bd
00000290: fcda e6bb 7c3e 223d 32a2 483c 7b9f 9039
000002a0: 0178 5dbc e750 3cbd d8b5 a13d 258a 6cbd
000002b0: e4bd 91bd da80 cdbd 8145 923c 6d8f ba3d
000002c0: efed f4bc 4489 2f3d a63d eaba 931b 9dbb
000002d0: 1237 51bb 3c73 83bc 8ee7 123d 5930 343d
000002e0: 55a2 4bbd f6cc 8dbd 4b29 ddbc 8660 a7bd
000002f0: b64e 85ba 5478 8bbd abe7 d33c 46bc 143e
00000300: 2ebb 5d3e b26f 2ebe ab7e 8dbd 1bc1 353e
00000310: 8aea a4bd d4be debc 4f17 0fbe d9ed 023d
00000320: d6f8 44bd ec9f a0bd 6829 b7bc a8a0 09be
00000330: 8d65 83be 56b6 6abe 8c51 24be 1c27 f3bc
00000340: afd9 a63d 4e09 52be e367 07bd bf5e 933e
00000350: d416 803e 89f8 78be 19f2 32be 028e 263d
00000360: 3886 20be 4311 7ebc c146 363d db3d a43d
00000370: 0ab4 5abd 613c 06be 1c2f aebd c211 14be
00000380: c606 35be 7087 e2bd a3af 54bd b149 b33c
00000390: 13e8 673d a4da 59be 233f 2cbe bed5 e83d
000003a0: 60db bebc 7c66 35be 2ba5 f3bc 6ffa 3b3d
000003b0: b3b5 cd3b 3b05 f7bd 53a3 3a3d 7055 793d
000003c0: eaf9 47bb 8255 59b9 65de 82bd a59f b5bc
000003d0: fdd4 c5bd 42dd 96bd 2215 01be 1bd0 d5bd
000003e0: df1c 25bc a734 8d3d 5db2 003d f7ab a3bd
000003f0: c1b0 d8bd 5b4a 04be 1e67 b7bd 1c60 42be
-0.028893592 0.05626357 0.042964906 0.092092864 0.06919434 0.010676653 0.030194031 0.016270263
-0.0649781 0.055391174 0.09040322 0.06130367 0.061934333 0.10871317 0.047994554 -0.03149032
0.076554455 -0.018846145 0.05077849 0.0782046 0.03538914 0.03850612 -0.02526836 -0.02938619
0.029262133 0.13519222 0.11080619 0.0038103224 0.03346177 -0.027817132 -0.07659597 0.015580325
0.026241312 -0.10377437 0.081331775 0.10994036 -0.07931911 -0.15385026 -0.19304414 -0.20519516
-0.07916338 -0.08644022 -0.16492382 -0.046451293 0.038418915 -0.08334613 -0.22994052 -0.17626312
-0.2025123 -0.06847458 -0.103588276 -0.072523676 -0.06522093 -0.018598663 0.06356729 -0.10781196
-0.26775545 -0.2343314 -0.010161161 0.03306561 -0.14253812 -0.066115335 -0.07929966 0.031790093
0.016544342 -0.060623176 -0.14998777 0.016647406 0.02673851 -0.08264613 -0.004997492 -0.03651853
-0.015185739 0.07121696 0.107687704 0.02244603 0.020390585 0.0027202165 -0.046904396 0.030729506
0.12770101 0.004936864 0.004771212 -0.032781426 -0.04710727 -0.06672093 -0.18214253 -0.18123065
-0.076128826 -0.03597006 -0.020011557 -0.029829077 -0.04668466 0.039878957 0.11428603 -0.06789075
-0.14215572 -0.087211385 -0.07189949 0.08309208 0.027380072 -0.07653252 0.060233332 0.179186
0.053009648 -0.022806127 -0.098080024 -0.16763991 0.13911045 0.025189558 -0.1594349 -0.054276526
0.05146599 -0.017564446 0.02253229 -0.13269866 -0.25911772 0.11960014 0.06590055 -0.028627591
0.054437805 0.0730401 0.04135653 0.15321751 0.0061502466 -0.19319741 0.035790563 0.018826777
0.10389807 0.24186233 0.07745416 -0.11740161 0.01686445 -0.07198003 -0.17048933 -0.05230803
-0.049958795 0.13153893 0.32700682 0.05901694 -0.24202421 -0.15208721 -0.1703725 -0.12323067
-0.045360263 -0.054280225 0.10368691 0.2762428 0.05437876 -0.098959066 -0.003935766 0.03663876
0.08447567 -0.023336109 -0.05825385 0.02196473 0.06786646 -0.06755379 -0.06429935 0.014789877
0.07068228 0.0934564 -0.03713252 -0.033550907 -0.007045148 0.03961037 0.012245702 0.00027584643
-0.013517381 -0.045975592 0.07896012 -0.057748932 -0.07116297 -0.10034342 0.017855408 0.091093875
-0.029898612 0.042855516 -0.0017871156 -0.004794547 -0.0031923694 -0.016046159 0.03586536 0.04399142
-0.04971536 -0.06923859 -0.02699723 -0.08172707 -0.0010170552 -0.0681006 0.025867304 0.14524946
0.21653435 -0.17034796 -0.069089256 0.17749445 -0.08052547 -0.027190603 -0.13973735 0.03196511
-0.04808887 -0.07843003 -0.022358611 -0.13440192 -0.25663415 -0.22921118 -0.16046733 -0.029681735
0.081469886 -0.20511362 -0.03305806 0.28783223 0.25017416 -0.24313559 -0.17475165 0.040662773
-0.156762 -0.015507045 0.04450107 0.080196105 -0.053394355 -0.1310897 -0.08505079 -0.14459899
-0.17678365 -0.11060989 -0.051925313 0.021885725 0.056617808 -0.21274811 -0.1682096 0.11368893
-0.023297966 -0.17714876 -0.029741844 0.04589313 0.0062777638 -0.120615445 0.045565914 0.060872495
-0.003051395 -0.00020726587 -0.06390075 -0.022170851 -0.09659765 -0.0736642 -0.12605718 -0.104400836
-0.010077684 0.06894808 0.0314201 -0.07991784 -0.10580588 -0.1291899 -0.08955215 -0.18981975

Variable_44/read/_39__cf__39:0 f4 [1, 4, 1, 1]
00000000: 2bf3 443f 4016 7a3f 39d1 713f 321b 7c3f
0.76933545 0.976902 0.94459873 0.98478997

Variable_43/read/_38__cf__38:0 f4 [1, 4, 1, 1]
00000000: 1e06 123e 8d16 d03e 491a 0cbf be5e 893e
0.14260146 0.40642205 -0.5472761 0.26830095

Variable_42/read/_37__cf__37:0 f4 [8, 4, 3, 3]
00000000: 7db7 80bd 45f0 94bd 2f30 c6bc d6b1 0abc
00000010: 6096 b4bc 3d0b 9c3c 37e5 0fbe 0ceb a5bd
00000020: 63ef 9ebd 6133 a43d 05f6 c03d 6b2d 8e3d
00000030: 1334 223e 75e6 203e a582 753d 868d 033d
00000040: 5022 303d e71f d8bd f6bb 15bd 8259 ccbc
00000050: f03f f5bd d11e 0fbd aed3 16bc b31b 8bbd
00000060: b05d c3bd b499 94bd aa47 01be 97fc 3abd
00000070: f0fe 12bd c068 f4bc b09a 14bc 2927 9c3c
00000080: b098 243b 63ae 65bd 6f43 8dbc 943d ecbb
00000090: b209 633e 9ce2 823d e3ef efbd 4b88 203d
000000a0: fd5b 97bc 0f07 d0bd 273b 8a3c 326e b43d
000000b0: 55c7 323d ffbf e23d dda7 01bd 8924 5cbd
000000c0: bf65 1d3d d050 17be c5bc f2bd a04f 06bd
000000d0: eb87 00be d36c 64be 70f4 56bd 959d 953c
000000e0: 6149 043e bdea 0ebd 34ce 15bc 8cfe 02be
000000f0: 38fd 003e 7038 8bbc 7134 a7bc 5b82 adbc
00000100: 73cc 3dbe e336 923c cbe4 23bb 69bd f5bd
00000110: 2428 4abe d57c bf3d f6b0 b1bc 47ca 49bd
00000120: 9884 7c3d 2984 a53a 63b8 c8bd 1a2f f03c
00000130: 6d3f 493d b25a 933d c668 0fbe 18be 9bbd
00000140: 1440 b13d a1c7 20be e2cc 043e 4a21 aa3d
00000150: af65 52bc f01b 8abd 96d4 b6bc f34b 8b3d
00000160: dbb9 8cbd 17cd edbc 1965 583d 803a fa3c
00000170: 5c5c 933d acec bbbd e0e4 b1bc c336 bcbd
00000180: 72d3 773d 4240 03be a186 80bd 312e 943c
00000190: 15c4 b53c db9a 463d 734e 483d acfc 163e
000001a0: 6adb f43d 7b3f 2cbd 60bc ee3b 65fd b5bd
000001b0: 8ff5 ce3c c242 ddbb efe7 0dbc 4caa 693c
000001c0: 23df 193d 4a70 ff3b b7b4 403d bad8 f03c
000001d0: 5637 b63c 1f99 973b 033e 173d 5a13 d7bc
000001e0: 8565 403d 1e16 373e 7aec a03d a947 063e
000001f0: 0143 083e 6345 ee3d 4163 693d a49c 393d
00000200: ba00 95bd d0be 53bd b4e4 733d eef9 173d
00000210: 9d9d c63d 5c93 033d 9d67 4f3d 8db3 4d3d
00000220: 56d4 fe3c eab1 da3b 1b85 683d 60a3 de3d
00000230: 52f8 ab3d 3ceb 773d f94d a73d e1ea 8d3d
00000240: 2e46 2c3e b135 533e 633f 173d 34e8 2cbd
00000250: b621 d03d fe37 d93c b92b fd3c 6184 fb3d
00000260: 8d80 723e 18e0 83bc cba8 23be 3773 f6bc
00000270: 6c2d 96bd 307f 07be e10c 9fbd 033c 61bd
00000280: 3fed 80bb 6b52 d93d 6fb8 b5bd b4f8 673d
00000290: 4aba 013e 00fe dcbd 375d e13d c354 1bbe
000002a0: c596 613e 1890 3c3d 7eee acbd ca2c 8dbd
000002b0: d570 563e 31cf 993e 2a94 003d 410f 183e
000002c0: cd94 b13d c234 133e a4d4 ee3c b327 15bd
000002d0: 76a9 0e3e 6900 093e 6d31 963d 92a7 093e
000002e0: c6bd 073e 0d4b 913d 3811 203d 90d4 803d
000002f0: db71 97bc 26c9 09be 12c4 08be bacc 32bd
00000300: 5da1 1e3b 514e 85bd 2b44 b5bd 829b 973c
00000310: 6e77 883d e2b4 dc3c 6204 603d 517b 9cbc
00000320: a217 80bd 8d76 64bd ad78 8c3d 9aa6 46bd
00000330: 0b64 03be b0f7 aa3c bb34 103d 66d3 fb3a
00000340: bf17 acbd 5f95 fabd 98ea 86bb a04f 37bd
00000350: 5a67 41bd 4da8 6dbc bc7d 7bbb 1c2f 01bd
00000360: 393d c23c a8b6 40bd f401 8c3d a47f 13bc
00000370: 7932 b8bd 1696 ac3d ac68 08bd e677 c03b
00000380: 734d e63d d6ed 05be 607f 16be e03b 0fbe
00000390: 67b5 d0bd 4ef2 0dbd 73a3 17bc 94d0 d9b9
000003a0: 5e18 83bc 4466 593e f7f8 8a3d 8e73 dbbc
000003b0: 2a8f 683e d190 51bd 21c6 d7bd b7bb 12bd
000003c0: 0549 033e 7b60 7fbc f4af ca3d fd4a e33c
000003d0: 127e 11be f126 4bbc 4b9d f0bd 19a2 65be
000003e0: 2083 b0bc 11b8 273e d635 1eb9 c7fe aabc
000003f0: 924a 963b a397 ff3d 7733 9b3d 2b75 e43d
-0.062849976 -0.0727239 -0.024192898 -0.008465251 -0.02204436 0.019048328 -0.14052282 -0.08101472
-0.07760503 0.08017612 0.094219245 0.069422565 0.15840177 0.15712912 0.059939045 0.03211739
0.043001473 -0.1055296 -0.036556207 -0.024945024 -0.11975086 -0.0349415 -0.009205742 -0.067923926
-0.09539354 -0.07255879 -0.12624994 -0.045651045 -0.03588766 -0.029835105 -0.0090700835 0.019061642
0.0025115423 -0.05607451 -0.017244069 -0.007209489 0.22171667 0.063908786 -0.11715677 0.03919248
-0.01847648 -0.10157596 0.01687391 0.088100806 0.04364713 0.110717766 -0.031654228 -0.05374578
0.03842711 -0.14776921 -0.11852411 -0.03279078 -0.12551849 -0.22307138 -0.052479208 0.018263618
0.12918617 -0.034891833 -0.009143401 -0.12792414 0.12596595 -0.016994685 -0.020410748 -0.021180322
-0.18535022 0.017848438 -0.0025008197 -0.11999018 -0.19741875 0.09349982 -0.021690827 -0.049265172
0.06164989 0.0012627888 -0.09800794 0.029319335 0.049132753 0.07195033 -0.14004812 -0.07604617
0.086548 -0.15701152 0.12968782 0.08307131 -0.012841626 -0.0674361 -0.022318166 0.068015955
-0.068713866 -0.029028459 0.05283079 0.030545473 0.071953505 -0.09176001 -0.021715581 -0.091901325
0.060504384 -0.12817481 -0.062756784 0.018088432 0.022188226 0.048487525 0.04890294 0.14744824
0.119559124 -0.042052727 0.0072856396 -0.08886222 0.025263576 -0.006752343 -0.008661254 0.014261793
0.037566315 0.0077953683 0.047047343 0.029400218 0.022243183 0.0046264078 0.036924373 -0.026254345
0.046971817 0.17879531 0.07857604 0.13113274 0.1330681 0.11634328 0.05697942 0.0453154
-0.07275529 -0.051695645 0.05954428 0.037103586 0.09698031 0.032122955 0.050635923 0.05022006
0.031107109 0.006674041 0.056767564 0.10871005 0.08396973 0.06052707 0.08169169 0.06929565
0.16823646 0.2062595 0.036925685 -0.042213634 0.1016268 0.026515957 0.030904638 0.12281109
0.2368185 -0.016098067 -0.15982358 -0.030084236 -0.07332882 -0.13232112 -0.07766128 -0.054988872
-0.003934532 0.10611423 -0.088730685 0.056633666 0.1266872 -0.10790634 0.110041074 -0.15169053
0.2203017 0.046035856 -0.08443926 -0.068933085 0.2094148 0.30040887 0.0313913 0.14849569
0.086709596 0.14375594 0.02915413 -0.036414813 0.13931832 0.13379063 0.07333646 0.13442829
0.13255987 0.07094393 0.03907892 0.06290543 -0.018486908 -0.13455638 -0.13356045 -0.043652274
0.0024205067 -0.06509078 -0.08850893 0.01850677 0.066634044 0.02694172 0.05469168 -0.01910177
-0.062545076 -0.05577712 0.068589546 -0.048498727 -0.12831132 0.02087006 0.035206538 0.0019212782
-0.08402967 -0.122355215 -0.004117321 -0.04475367 -0.047217704 -0.014505458 -0.0038374504 -0.031539068
0.023710834 -0.047049195 0.0683631 -0.0090026 -0.08994002 0.08427064 -0.033302948 0.005873668
0.11245241 -0.13079008 -0.14697027 -0.13987684 -0.1019085 -0.034654908 -0.009255278 -0.00041544868
-0.01600283 0.21230417 0.067857675 -0.0267885 0.22710863 -0.0511635 -0.10535837 -0.03582355
0.12820823 -0.015586968 0.09896842 0.027745718 -0.14208248 -0.012399421 -0.11748751 -0.22425117
-0.0215469 0.1637881 -0.0001508811 -0.02087344 0.004586526 0.12480094 0.075781755 0.111551605

Variable_41/read/_36__cf__36:0 f4 [1, 8, 1, 1]
00000000: f0f9 783f 5afb 7b3f e16d 6f3f a3e0 6c3f
00000010: 31b7 843f 0d92 813f 59d9 843f e74d 703f
0.97256374 0.9843041 0.93527037 0.9253027 1.0368406 1.0122696 1.0378829 0.9386887

Variable_40/read/_35__cf__35:0 f4 [1, 8, 1, 1]
00000000: 8ba3 dd3d a73e 0ebe d1e7 81bb 3e34 8d3e
00000010: 3963 993d 20ab 3e3e 8378 88be 8753 d23e
0.10822209 -0.13891087 -0.0039644022 0.2757892 0.07489628 0.18619967 -0.26654443 0.4107935

Variable_4/read/_34__cf__34:0 f4 [1, 8, 1, 1]
00000000: 7172 cbbc 61ed 123e e3cf d43d c049 5a3e
00000010: 9dda 783e bd5e cb3d c34a 663e 6d74 43bc
-0.024834843 0.14348365 0.10391214 0.21317196 0.24302144 0.09930179 0.22489457 -0.011929614

Variable_39/read/_33__cf__33:0 f4 [16, 8, 3, 3]
00000000: c50c 39bd 6901 78bd 0e7f 3e3b b641 d73d
00000010: f626 193c 5731 c73b f972 d33b 1e81 ad3d
00000020: d571 5c3d ecaa 58bd 88f5 56bc 10a4 293c
00000030: 65a6 a3bd 947b 81bd 45c1 cb3d 61bd 023d
00000040: 14a2 653b 3f86 623d 3bd9 32be 832b ceba
00000050: dd92 b9bd 9eee c2bd c30d a53d 8714 23ba
00000060: c6a5 993d 6238 b3bd 6f90 913d 7c42 f73d
00000070: 8636 2cbd 3955 a43d fa01 5d3e 08a2 503e
00000080: 6c53 d33d 0b41 903d 7350 783c e707 2cbe
00000090: c7bc 70bd f259 8ebd 97df 13bd 7089 903c
000000a0: 54e4 1bbd 7643 63bd 50ec 35be 27fd 1dbe
000000b0: df40 aabd 9b67 7abd 9711 1ebe 1d16 61bd
000000c0: a6fc 02be 0a3f 04be 623a bdbd 7389 8a3b
000000d0: 2020 20bc b164 50bd 43f6 ccbb c391 bd3c
000000e0: 5d09 00be 6e36 a53d bc31 713c bd7f a0bb
000000f0: bbc5 bebd 5b5d 96bd 5227 c4bc 4d3f 473c
00000100: e1e4 4e3d ec72 36be 2ea0 dcbd 1c47 70be
00000110: a0a3 68bc 8b65 e53c 9d18 0e3e 2f35 043e
00000120: e810 293e b0d1 0f3e a359 0cbd f167 acbd
00000130: be1f 63bd adc2 093e 334f 04be f6c8 47be
00000140: 70ba a4bc 7a21 e8bd 0111 f23c ff35 abbd
00000150: 03b8 a63d 5e6e d8bd 8cf6 69bd d63b 50be
00000160: fb87 983d 37dd 28bd 33fa 80bd a42b bcbd
00000170: e94a c13d 2cdd fdbb dc44 00be aa47 27bd
00000180: 43d8 c43c 6aa8 99bd 89ad 3fbd 87bf fbbd
00000190: f418 393b 1541 1dbd 9997 e1bd 2dcb 5bbd
000001a0: 2b3a 493d 65c0 d63d b40b 073d b3d6 d3bd
000001b0: 1011 dcbd a6bf 183e cc4f 34bd 6e5c 0a3d
000001c0: 9576 cbbd 13eb f7bc 33b0 b6bd 198f 04bb
000001d0: 6e83 103d 21b3 bebd 1c8f e73d 03d8 10bd
000001e0: 4700 82bd 3081 6e3c b6bf 693d 641d 133e
000001f0: 3db3 c63d 0f4f f33d 6bfa 42bd 7641 783c
00000200: b451 15be 8753 e23c bee9 8bbd 5d8e 803c
00000210: ad8c d0bd e05e 2bbe 5b14 fb3d 8c1b ce3d
00000220: d4e5 e33c 2a14 083e ec39 9abc 7c28 a23d
00000230: 7ee8 23be b41e 1e3d 3f89 7cbd 4d9c acbd
00000240: 7a0d b43d 7fd0 10bd 002a b23d 9f08 143d
00000250: 6ae1 993c 3ce4 b8bd c505 f1bc 3a74 b0bd
00000260: a8b5 debd 70d2 613c 2c22 47bc 0104 90bb
00000270: bbe8 503d 08ca fc3d 733e 5c3d b30f 0cbc
00000280: d2ce 853c cdc1 9cbd 1205 6f3d 6228 933c
00000290: cb16 77bc e0e2 9d3d 59fa 623d 7fc2 39bd
000002a0: 09fa 153e 248c e33d 5bc6 31bd 5846 aabc
000002b0: 00a5 e53d 51db 25bb 7379 e93d cfad 263e
000002c0: d95e b93d 3758 2b3d cf4b 0a3e e196 593d
000002d0: 2c2b 1fbd eca9 6b3d 6c96 253c da23 d83c
000002e0: b262 9e3d 4e81 943d dfd3 df3d 517d da3d
000002f0: fb5c 583d 35c3 df3c 4aa4 4b3d 7bc2 36bb
00000300: 2865 c13a 8b17 933b cc0d e4bc 1d31 9e3d
00000310: 969f fe3d 78c0 b63c 7620 8f3d a4be 9d3d
00000320: d455 e9bc a5c8 c03d a2c2 193d 0119 af3d
00000330: 33be 813d c662 08bd f4eb 293e 1570 b93d
00000340: 5708 c03d 33b2 0a3e 2eb2 b8bc 71bd a93d
00000350: e52a 99bd b1b5 173e 6f1e 9c3e 6c3a 093e
00000360: bb04 0c3d 622c 223e 6e79 203d e4aa a2bd
00000370: 5f7a b93d ba53 89bd 0708 ccbd 12e7 c83d
00000380: 5d05 dabd 4d28 2cbe ccf1 9ebd 7374 13be
00000390: 19d8 353d 5159 aabc 135a 04be ec7b b3bd
000003a0: 5ac6 7f3d 813c 81be 48ae 24be 41fd 1a3d
000003b0: f48f 6cbe a1df 21be c69f 2fbe 8625 dcbc
000003c0: 9fcb 1ebb 5633 bbbd 2d6c 7fbd f1a9 68be
000003d0: 9d43 4fbd fc65 3abe 7c55 81bd 77a5 97bd
000003e0: 3777 af3c 9d8d 573d b989 49be 9cd9 d83d
000003f0: 0df7 33be 514b cebc a2fc 64be 0a52 22bd
-0.045178194 -0.06054822 0.002906743 0.1051058 0.009347668 0.00607888 0.006452915 0.08471893
0.053819496 -0.05289738 -0.013120063 0.010354057 -0.079907216 -0.06322399 0.099489726 0.031918887
0.0035039233 0.05530381 -0.1746568 -0.001572952 -0.09061215 -0.09518169 0.080592655 -0.00062210154
0.07502322 -0.087509885 0.07107627 0.12073228 -0.042044185 0.080240674 0.21582785 0.2037431
0.10318646 0.07043656 0.015155899 -0.1679989 -0.058773782 -0.069507495 -0.036101904 0.01764366
-0.038059548 -0.055484258 -0.17765927 -0.15428601 -0.083131544 -0.061133962 -0.15436397 -0.05495273
-0.1279169 -0.12914672 -0.09239651 0.004227811 -0.009773284 -0.050877277 -0.0062549426 0.023140794
-0.12503572 0.08067022 0.01472133 -0.00489804 -0.09315058 -0.07342025 -0.02394453 0.012161088
0.050511245 -0.17817277 -0.10772739 -0.23464626 -0.0141991675 0.028002521 0.13876577 0.12910913
0.16510355 0.14044833 -0.03426517 -0.08418263 -0.055450194 0.13453169 -0.12920837 -0.19510254
-0.020108432 -0.1133451 0.029549124 -0.08359908 0.08140566 -0.10567926 -0.05711989 -0.20335326
0.07447811 -0.041226592 -0.06297722 -0.09188011 0.09438116 -0.007747313 -0.12526268 -0.04083983
0.024028903 -0.075028256 -0.046796355 -0.1229239 0.0028243633 -0.038392145 -0.11015243 -0.05366056
0.04912774 0.10485915 0.032970145 -0.10343685 -0.10745442 0.14916858 -0.044021413 0.033779554
-0.09934727 -0.03026346 -0.08920326 -0.0020226894 0.03528159 -0.0931151 0.11306593 -0.035362255
-0.06347709 0.014557168 0.057067595 0.1436668 0.09702156 0.118803136 -0.0476021 0.015152326
-0.14581949 0.02762772 -0.06831692 0.015692884 -0.10183082 -0.1673541 0.12259742 0.10063848
0.027819552 0.13288942 -0.018826447 0.07917878 -0.16006657 0.0386035 -0.061654326 -0.084282495
0.08791633 -0.035355087 0.08699417 0.036141034 0.018784244 -0.09027907 -0.029421696 -0.086159185
-0.10874492 0.013783082 -0.012154143 -0.0043950086 0.0510032 0.12343222 0.053770494 -0.008548665
0.016333971 -0.07654152 0.058354445 0.017963592 -0.015081118 0.077092886 0.05541453 -0.0453515
0.14646162 0.11110714 -0.043402057 -0.020785496 0.11213112 -0.0025307725 0.11400118 0.1627724
0.09051294 0.041832175 0.13505481 0.053122405 -0.03885953 0.057535097 0.010106664 0.026384283
0.077336684 0.072512254 0.10929083 0.106684335 0.052823048 0.027314762 0.049717225 -0.0027886915
0.0014754878 0.0044888905 -0.02783861 0.07724211 0.12432782 0.022308573 0.06988613 0.077023774
-0.028483309 0.0941327 0.037539132 0.08549691 0.06335106 -0.033297323 0.16593915 0.09054581
0.09376591 0.1354454 -0.0225459 0.08288086 -0.074788846 0.14815404 0.3049197 0.13401192
0.0341842 0.15837243 0.039178304 -0.07942751 0.090565436 -0.06705423 -0.099624686 0.09809698
-0.10645554 -0.16812249 -0.07760963 -0.1439989 0.04439554 -0.020794543 -0.12924986 -0.087638706
0.062445022 -0.25241473 -0.16082108 0.037839178 -0.23101789 -0.15807964 -0.17150792 -0.026873361
-0.0024230254 -0.09140651 -0.062359024 -0.22721078 -0.05060159 -0.18202966 -0.06315133 -0.07404607
0.02141915 0.052625287 -0.19681443 0.10588381 -0.17574711 -0.025182398 -0.22361997 -0.03962902

Variable_38/read/_32__cf__32:0 f4 [1, 16, 1, 1]
00000000: 5cc5 933f cbfa a93f aaad 983f d285 c33f
00000010: 33c2 9b3f 72d8 a03f 9f0c b03f 1201 a53f
00000020: 64dc b43f d2b2 ab3f 60d6 a53f 51bc b43f
00000030: 8809 9b3f af92 b43f d6dd a93f 0e23 b63f
1.1544604 1.3279661 1.1927998 1.5275214 1.216864 1.2566054 1.3753852 1.2890952
1.4129758 1.3413947 1.2956047 1.411997 1.2112284 1.4107264 1.3270824 1.4229448

Variable_37/read/_31__cf__31:0 f4 [1, 16, 1, 1]
00000000: d04a b53d e6e3 b2bc 60e1 febc fb10 d33d
00000010: 0ace ed3d 296b d03d 0e02 973b 2004 093e
00000020: 0b14 843d e6d1 603a 8df5 873d 104a c53c
00000030: 56a7 babc 4440 d73c f333 f9bc 08f2 5e3e
0.0885216 -0.021837186 -0.031113327 0.10305973 0.116115645 0.10176689 0.0046083992 0.1338048
0.064491354 0.0008576199 0.06638632 0.024083167 -0.02278487 0.026275761 -0.03042028 0.21772015

Variable_36/read/_30__cf__30:0 f4 [16, 16, 3, 3]
00000000: 7357 10bd 1336 abbd 7f5f 813d 53a5 ecbc
00000010: 9488 98bd 7fb0 eabd 71f3 bfbc 4a28 5f3d
00000020: cd5f 993c d2e1 5abd 3a73 82bd 2b56 7d3d
00000030: a6d8 6fbd 563f 853d a667 e33b a0e4 493d
00000040: dab1 ceba 5351 583d 6400 a5bd ce5f debc
00000050: d71e a1bd 3911 ad3d 837e f33c 742a c53c
00000060: a1b4 c73d 30cf aa3c bc9c b1bd 1629 943d
00000070: 109e cf3c d0eb 6cbd f4f9 d33c ee58 97bd
00000080: 3845 473d c578 e73c 284f 2ebd a194 0a3e
00000090: f3d4 8f3d ffb6 1abb a020 9cbd 200e 253d
000000a0: e968 04be c0c9 8f3c 1fd0 8dbd 1564 d6bd
000000b0: 855d 9bbd f0cf b7bd 6bea 0ebe 0afd e8bb
000000c0: 8fc0 af3d 0c0b 9fbd 82d6 32bc 16cb c43c
000000d0: 9af3 943d 5b91 e8bd a5e1 1abe 2a88 07be
000000e0: 2cc5 04be 2cb5 92bd 7d6c 543c ef4d 53be
000000f0: 4063 23bd 8e06 07be eab8 1cbe 3ccd 26bc
00000100: fc85 e5bd c854 2fbd cc63 633d 5b94 403d
00000110: 2340 783b d54b 143d 694c 1f3e 4abd af3c
00000120: f153 abbd fb34 d83d bd61 95bd 76f0 6f3d
00000130: c46d 023e 12e5 953d 08c6 3bbc 9b15 c83d
00000140: bd4d 53bd 9e12 0fbe 64eb 14be 489e 233d
00000150: 241d 5abd c0f4 c3bd 00b2 fbbb e73d d4bc
00000160: 6a8f 323c aa00 60bd 9f20 6b3e caf4 2ebd
00000170: 4ea1 adbd 571f 05be e78d a4bd 3ac7 663e
00000180: 7c1b 6ebe 2499 e9bd 5565 e3bd eaa0 23bd
00000190: ca19 fb3d daea 083d e005 043d cf95 11be
000001a0: cf3f d8bc e50f 95bd 1400 41be 7720 a8bd
000001b0: a5d4 0c3d 84a2 f83d 0a9d e8bd a36a fa3d
000001c0: d19b 1b3e 8e22 1cbc 0903 b3bd 6cc1 ca3d
000001d0: e0ed 363e a1bd c5bd 5e00 04be 1a45 33be
000001e0: 25a8 8bbd 5771 d2bd d25d f2bd b2ea 193d
000001f0: 7074 71bd 6e76 df3d ee23 a73c 8b8b 943d
00000200: 8114 5dbd ef8a a03c 3a76 7d3e 3469 df3d
00000210: 1e90 9cbd bd8f 93bd 42aa 0abd 0541 a13d
00000220: 1a4c 593d 856c 5bbd 0783 3f3c fdda 7d3d
00000230: 21a8 373a 0944 2dbe 9d2e 94bd aa56 dfbd
00000240: 6c14 8b3d ef48 9dbc 6f63 e1bd 926b dabd
00000250: 7ba0 133c 7a05 bdbc 2c62 d1bd a1fa 35bd
00000260: cc19 863d 8fde 533d 5daf bf3c 2e88 be3a
00000270: aeb6 fa3d f271 153d 0171 c73c 0c68 bbbc
00000280: ea13 273e 5921 9a3c c905 12bd ed60 bb3d
00000290: 1657 6b3c 5b21 bd3d 786a 043d 7e6a b3bd
000002a0: 4200 053e ec1f 0f3c da65 3bbe 5bb1 043d
000002b0: 7cf0 de3d 079f 84bc c121 053e 1853 1dbe
000002c0: 11e4 49b9 12cb b9bd 6019 bcbd 67aa 713e
000002d0: 6537 433c 1fc2 983d 69cb 65bd 655f b3bd
000002e0: 2aff f63d 2476 84bc c477 523d 16d9 afbc
000002f0: 0a4a a83d 82c3 a23d d7c0 8a3d 227e 223c
00000300: 38f2 943d 2b0e dc3c 2c57 173d 8268 c2bc
00000310: 1a97 03be 4224 2abc efc1 bc3d 90be 50be
00000320: 2c4c 41bc 3131 2bbe 3a77 8ebd 3c02 7cbe
00000330: a625 cebd a575 52be 5010 2b3e 5bb2 1a3d
00000340: ed4c 4d3e 0c80 883c ca7e 8d3d d917 143d
00000350: f4c5 4d3e d450 303d ce55 02be d5b1 cc3d
00000360: 7d4b 8e3d 0f11 0bbe 674c d23c 7840 debd
00000370: f893 78bd 0dd2 97bd 57a6 923c 20b4 ccbd
00000380: 1b30 4b3e a380 e1bd 458c 123e 0ee5 ffbc
00000390: e69c c73d 0e13 6d3d bd8a ae3d 820b adbc
000003a0: fdb0 e63d 05f5 2aba 30fb edbd e7ce 983d
000003b0: c3c3 e3bc 2b10 02be 5738 76bd 15d6 cb3d
000003c0: 19a8 523e 5e4c 10be 7aad 76bd 5011 ebbc
000003d0: bda8 9c3c 6f54 0abd 49cb 32bd 4ccf 62be
000003e0: 93e4 46bc 7eaf 63bd 1e52 3bbd 57d9 c9bd
000003f0: 7d70 983d 4c99 4ebd 9151 b0bd 480c c4bd
-0.035239648 -0.08359923 0.063170426 -0.028887426 -0.07447925 -0.11459445 -0.023431512 0.054481782
0.01872244 -0.053438015 -0.06369634 0.061849754 -0.05855622 0.06506221 0.006939846 0.0492903
-0.0015769557 0.05281193 -0.08056715 -0.027145293 -0.0786721 0.084505506 0.029723411 0.024068095
0.09751249 0.020850748 -0.08672473 0.07234399 0.025343925 -0.057842076 0.025876023 -0.07390009
0.048649997 0.02825583 -0.042555958 0.1353326 0.07023039 -0.002360761 -0.0762341 0.040296674
-0.12930645 0.017552257 -0.069244616 -0.10468308 -0.07586197 -0.08975208 -0.13956611 -0.0071102427
0.085816495 -0.07765779 -0.0109154 0.02402262 0.07273026 -0.11355849 -0.15125139 -0.13235536
-0.1296584 -0.07163462 0.012965319 -0.20635198 -0.039889574 -0.13186094 -0.15304914 -0.010180768
-0.11207196 -0.042805463 0.055515096 0.047016483 0.0037880025 0.03620513 0.15556492 0.021452565
-0.0836562 0.1055698 -0.07294033 0.05857893 0.12737185 0.07319082 -0.011460789 0.09769746
-0.05158781 -0.13971946 -0.1454292 0.03994587 -0.053250447 -0.09568167 -0.0076811314 -0.025908424
0.01089845 -0.054688133 0.22961663 -0.042713918 -0.08478032 -0.13000236 -0.08034878 0.22536936
-0.23252672 -0.114061624 -0.11103312 -0.03994838 0.12260778 0.033427097 0.032232165 -0.14217304
-0.026397614 -0.07278422 -0.18847686 -0.08209317 0.03438248 0.121403724 -0.11358078 0.122273706
0.15196158 -0.009529723 -0.08740813 0.099001735 0.1786418 -0.096553095 -0.12890765 -0.17506829
-0.068191804 -0.10275524 -0.11834301 0.03757734 -0.058948934 0.109112605 0.020402875 0.07253178
-0.053974632 0.019597499 0.24752131 0.10908738 -0.07644676 -0.0720515 -0.033853777 0.078737296
0.05305109 -0.05357029 0.011688954 0.06197642 0.0007005949 -0.16920485 -0.07235453 -0.10905202
0.067910045 -0.019199817 -0.110052936 -0.10665049 0.0090104295 -0.0230739 -0.10223803 -0.04442847
0.06547889 0.05172592 0.02339905 0.0014536434 0.12241875 0.03648562 0.024345877 -0.022876762
0.1631619 0.01881473 -0.03565005 0.091493465 0.014364025 0.09234878 0.0323281 -0.08760546
0.1298838 0.008735638 -0.18300572 0.0323957 0.108857125 -0.016189111 0.13001157 -0.15363729
-0.00019253815 -0.09071936 -0.091845274 0.2360016 0.011915063 0.07458901 -0.05610219 -0.087584294
0.120603874 -0.016169615 0.05138375 -0.02146582 0.08217247 0.079474464 0.067750625 0.009917768
0.07272762 0.026862225 0.036948368 -0.023731474 -0.1285061 -0.010384621 0.092166774 -0.20385194
-0.011797946 -0.16717984 -0.069563344 -0.24610227 -0.100657746 -0.2055269 0.16705441 0.03776775
0.20048876 0.01666262 0.06908949 0.036155555 0.20095044 0.043045834 -0.12728044 0.09994856
0.06947992 -0.13580726 0.025671197 -0.1085214 -0.06068799 -0.07413111 0.017901583 -0.099952936
0.1984257 -0.11010864 0.14311321 -0.031237151 0.09746723 0.0578795 0.08522556 -0.021123651
0.112642266 -0.0006521496 -0.11620176 0.074613385 -0.027803307 -0.1270148 -0.060112324 0.09952942
0.20571937 -0.14091632 -0.060224034 -0.028694779 0.01912343 -0.03377193 -0.0436509 -0.2214939
-0.012139457 -0.055587284 -0.04573261 -0.098559074 0.074433304 -0.050439164 -0.086093076 -0.09572655

Variable_35/read/_29__cf__29:0 f4 [1, 16, 1, 1]
00000000: ef61 743f 455e 823f bf5f 633f 94a5 8a3f
00000010: b25b 6d3f 2960 733f ba20 6a3f 056b 693f
00000020: f8bc 713f f600 8e3f f866 843f 6d8a 8a3f
00000030: 0d26 7e3f b7f5 6e3f cde2 823f 7b96 843f
0.95461935 1.0185019 0.8881797 1.083178 0.9271804 0.95068604 0.91456187 0.91178924
0.9442897 1.1094043 1.0343924 1.0823494 0.9927681 0.9334368 1.0225464 1.0358423

Variable_34/read/_28__cf__28:0 f4 [1, 16, 1, 1]
00000000: c73b a9be 1210 263d c762 9fbd f266 e33c
00000010: cee0 37be 7d22 5cbd 17f0 7c3f 38e7 433e
00000020: d34b 7fbe 0b87 683e 176e 213e 5e65 613e
00000030: 5310 f23d 66df b43d 1944 a93c b614 d6be
-0.3305342 0.04054267 -0.07782512 0.02775905 -0.1795685 -0.053743828 0.9880385 0.19131172
-0.24931268 0.22707765 0.15764652 0.22011325 0.1181952 0.08831672 0.020662354 -0.41812676

Variable_33/read/_27__cf__27:0 f4 [16, 16, 3, 3]
00000000: 51b2 e53c 1bdb 2fbd 9a6b fdbd 8051 4e3d
00000010: e7d1 62bd 59ad 47bd 1051 ecbd db6e 36bc
00000020: 0850 b9bb c3dd 7e3c 9f8c 83bc b45b cebc
00000030: e3ed 383c e873 e43b fd32 5b3b a7a5 f0bc
00000040: 1a1f 35bd c001 0dbc bd6f ac3d 43ca 4bbc
00000050: 487f 503d 8037 353e 630e 333e 8c03 8d3d
00000060: 5ae7 853e 70bf 773d 0566 0fbe 7997 e43d
00000070: b4f0 bc3d b99b d63d 0dda 403d 24c3 fbbb
00000080: b431 98bc bd27 1abd 3b92 bdbd 2a79 ec3c
00000090: 35f3 ff3c 6874 a1bc ab39 03be dcb3 ea3d
000000a0: 4437 613b 7e35 4b3e 08d6 8dbd 19d4 50bd
000000b0: f30c e5bc 0fde 13bd 6674 71bd 1695 663c
000000c0: f330 f93d e20d 993c 70e2 103e ee23 88bc
000000d0: 2717 9e3d bcdd 23bd 4140 72bc d441 423d
000000e0: b387 98bb da89 9cbd 61a6 4a39 390c 67be
000000f0: fec1 1b3d 9df3 44bc ec25 cf3d 219c a83d
00000100: 6ff2 35be 131d 0ebd 4a78 6e3d a3b2 dabd
00000110: 6b34 66bc 5b5a 96bd 7f6d 94bd 824b 9c3d
00000120: 0a84 1abd 8f7e 043e e626 ecbd 2221 bd3c
00000130: 767a b73d e8a2 5aba c37b b6bd 1d0d 963d
00000140: 8227 75bd f59d 323c a519 dbbc 09f8 673d
00000150: b438 87bd 54b4 cdbc 2053 fd3d b369 58bd
00000160: 345c 803d d2a1 65bd 6823 0dbd 458b 0bbe
00000170: 73fe 47be 024b 85be d5dd b4bc d4f7 963d
00000180: 7f0f c73c 0663 023e 0ccb 58bc e355 0abd
00000190: 6972 e03d fedd fa3d 48d5 283e cbfb 983d
000001a0: b0f5 533e 2afc b73d 4513 81bc 9b26 b33c
000001b0: 1bf4 983d 58d4 9b3d b133 23be ca62 a83d
000001c0: 7487 a23d 6b97 ee3c 2191 31be 9b4d f6bc
000001d0: 7ae3 6f3d 751a 94bd d053 9cbd 0b8f 61be
000001e0: 1055 12be a384 11be b8e1 2ebe 8c73 1f3d
000001f0: 5c8b b43b 7ab5 c63d 91de 223d 4c97 af3c
00000200: c0bf dabd ed98 c7bd b82e 4b3c 4b37 a7bd
00000210: b843 c5bd 72d0 28be 7cf0 0ebe 5de2 d83d
00000220: e215 2c3d 5703 afbc fa4e d63c 1887 ff3d
00000230: 779e 693b 3924 ffbc e46a e2bd b2fd 85bd
00000240: 34a4 5f3d 1419 893c a86e bb3c b9c2 f9bd
00000250: 00d6 a73d b807 1c3c d652 e9bd 5b47 d3bc
00000260: 0c39 243d 06fc f4bc 87c6 6bbd 64e2 bebd
00000270: 8552 01be 4ec5 b03d 05e0 373c 0c7c b83c
00000280: fcc2 8f3c a1d2 f33d d066 4f3c 15e3 0a3e
00000290: 3fec 5b3d 7c60 523e c0ac b43d 01d4 193d
000002a0: 7ee9 e23d 82cf 253c f4c3 513c 00dd 73bd
000002b0: 3fa6 babb 20c9 3c3c 7f9a 8d3d 6c3f 8ebd
000002c0: f312 fc39 5f51 d2bd 8f23 62be 9950 7fbd
000002d0: aa7c 1fbe 6e4f f63c 89c4 ff3c 9718 46be
000002e0: 5660 1b3d 9d6e 8a3c c21b 823c aaaf d7bc
000002f0: 64fb a53c 077a 11bd 4500 1fbe b8d7 cc3d
00000300: a021 a63c 5823 103e 9b01 ab3d d472 fc3d
00000310: 4678 89bd c73d 14be 3a8a 47bb 3a28 b9bd
00000320: b220 873d 6a75 9c3c fc26 11bb 5876 83bd
00000330: 1a91 bcbd 070c 8ebd a06a 5f3d bea8 d2bc
00000340: 231b 823e 1eae 903d fc39 713e c35e bbbd
00000350: 55d0 8c3d a5b3 f2bc 3c89 aebd a6eb 8f3d
00000360: 3deb 23bd 797c 1dbe 8ddc 3e3e e0e3 9fbe
00000370: bc5f db3d c1ca 073e 663a 583d 0a60 c43d
00000380: 5a2a 413e 9c41 03bc 9780 943c 50d1 aa3d
00000390: d854 863d 3fc3 9e3d 8634 783e 012d 033d
000003a0: 7935 8c3d 0bc5 cbbd 497f af3b ef34 423d
000003b0: 2efb fdbd 17b1 52bd 3f2a f1bc 0a99 213e
000003c0: ee99 153e fff8 dbbc 2988 f3bd 8c0d 78bd
000003d0: 3fc2 aebd 349e 9a3d eba6 dfb8 1423 1fbe
000003e0: f7ff 02bd 144a 093c 8b22 fdbd aae4 3ebe
000003f0: 42e1 123d fb2d 25bd 470f be3d 5a2c a2bd
0.02803913 -0.042933565 -0.12374039 0.050370693 -0.05537596 -0.0487493 -0.11538899 -0.011134828
-0.0056552924 0.015555802 -0.016058264 -0.025190212 0.011287185 0.006971825 0.003344714 -0.029375864
-0.044219114 -0.008606374 0.0841975 -0.01243836 0.050902635 0.17696953 0.17485957 0.06885442
0.2615307 0.060485303 -0.14003761 0.111617036 0.09225598 0.104789205 0.04708295 -0.0076831747
-0.018578388 -0.037635554 -0.09256407 0.02886637 0.0312439 -0.019708827 -0.12814967 0.11460087
0.0034365216 0.19844624 -0.06925589 -0.050983522 -0.027960276 -0.036100443 -0.058948897 0.014073631
0.121675394 0.018683378 0.14148879 -0.016618695 0.0771926 -0.040006384 -0.014785827 0.04742606
-0.0046548485 -0.076434806 0.00019326202 -0.22563256 0.038026802 -0.012020973 0.10114655 0.08232904
-0.17768262 -0.034695696 0.058220185 -0.106786035 -0.014050583 -0.07341453 -0.07247447 0.076315895
-0.03772358 0.12938903 -0.11530857 0.023087088 0.089589044 -0.0008340315 -0.089103244 0.0732672
-0.05985213 0.010901918 -0.026745627 0.05663303 -0.06602612 -0.025110401 0.123693705 -0.052835178
0.06267586 -0.056062527 -0.034457594 -0.13627346 -0.19530658 -0.2603379 -0.022078434 0.07371488
0.024299381 0.12733087 -0.013232004 -0.033773314 0.10959322 0.12249373 0.1648761 0.07469901
0.20699191 0.08983643 -0.015756259 0.021868994 0.074684344 0.07608861 -0.15937687 0.082219675
0.07935992 0.029124936 -0.17340519 -0.030066302 0.058566548 -0.07231609 -0.076331735 -0.22027223
-0.14290261 -0.14210753 -0.17078292 0.038928553 0.005509777 0.09702583 0.039763037 0.021434449
-0.10681105 -0.09745965 0.012401275 -0.08164843 -0.09632057 -0.16485766 -0.13958925 0.1059005
0.042013057 -0.021363897 0.026160706 0.12476939 0.003564743 -0.031145202 -0.11055544 -0.06542529
0.054599956 0.016735591 0.022879913 -0.121953435 0.08195114 0.009523325 -0.11392753 -0.02579086
0.040093467 -0.02990533 -0.057562377 -0.09320524 -0.12629135 0.08631383 0.011222844 0.022520088
0.01754903 0.11905409 0.01265879 0.13563187 0.0536921 0.20544618 0.08822012 0.0375557
0.11079691 0.0101202745 0.0128030665 -0.059536934 -0.0056960876 0.011522561 0.069142334 -0.069456905
0.00048079304 -0.102694266 -0.22083877 -0.062332723 -0.155749 0.030067172 0.031221645 -0.19345318
0.03793367 0.016898448 0.015882377 -0.02632888 0.020261474 -0.035516765 -0.15527447 0.100020826
0.020279706 0.14075983 0.083499156 0.12326589 -0.067123935 -0.14476691 -0.003044738 -0.09040876
0.06598033 0.019098956 -0.002214848 -0.06419057 -0.092073634 -0.06935888 0.054545045 -0.025715228
0.2541133 0.0706446 0.23557276 -0.09148934 0.06875674 -0.029626677 -0.08522269 0.07027368
-0.040019263 -0.15379514 0.18638821 -0.31228542 0.10711619 0.13260938 0.052790068 0.095886305
0.18863812 -0.008011248 0.018127723 0.083407044 0.065591514 0.07752084 0.24238786 0.03202534
0.068461366 -0.09949692 0.0053557497 0.047413763 -0.12401424 -0.051438417 -0.02943909 0.15781036
0.14609501 -0.026852129 -0.11891205 -0.060559794 -0.08533143 0.07549706 -0.000106645595 -0.15540725
-0.03198239 0.008379478 -0.12360104 -0.18641916 0.035859354 -0.040327054 0.09280258 -0.07918616

Variable_32/read/_26__cf__26:0 f4 [1, 16, 1, 1]
00000000: 53b6 913f 8c8f 8c3f c3cd 893f cc33 a13f
00000010: 00dd 8d3f 7b59 993f 01b3 8c3f c893 903f
00000020: 19b6 933f 6499 a03f 1a84 8c3f d398 973f
00000030: d6ca 9e3f a6a8 a43f 693a 903f 8ade 873f
1.1383766 1.0981307 1.0765918 1.2593932 1.1083069 1.1980432 1.0992128 1.1295099
1.1539947 1.2546811 1.0977814 1.1843513 1.2405651 1.2863967 1.1267825 1.0614789

Variable_31/read/_25__cf__25:0 f4 [1, 16, 1, 1]
00000000: c54a b53d e2e3 b2bc 64e1 febc 0111 d33d
00000010: 0cce ed3d 3c6b d03d d901 973b 2404 093e
00000020: 0d14 843d fed2 603a 83f5 873d 1a4a c53c
00000030: 62a7 babc 4c40 d73c e333 f9bc 06f2 5e3e
0.08852152 -0.021837179 -0.031113334 0.103059776 0.11611566 0.10176703 0.0046083746 0.13380486
0.06449137 0.0008576362 0.066386245 0.024083186 -0.022784892 0.026275776 -0.03042025 0.21772012
