examples/style_transfer/model/red-vineyards.tflite (tflite, 150728 bytes, 52 tensors)

Conv2D_12_bias f4 [16]
000000 00 00 00 00 00 00 00 00 00 00 00 00 00 00 00 00
       0.0 0.0 0.0 0.0
000010 00 00 00 00 00 00 00 00 00 00 00 00 00 00 00 00
       0.0 0.0 0.0 0.0
000020 00 00 00 00 00 00 00 00 00 00 00 00 00 00 00 00
       0.0 0.0 0.0 0.0
000030 00 00 00 00 00 00 00 00 00 00 00 00 00 00 00 00
       0.0 0.0 0.0 0.0

Conv2D_13_bias f4 [3]
000000 00 00 00 00 00 00 00 00 00 00 00 00
       0.0 0.0 0.0

Conv2D_1_bias f4 [8]
000000 00 00 00 00 00 00 00 00 00 00 00 00 00 00 00 00
       0.0 0.0 0.0 0.0
000010 00 00 00 00 00 00 00 00 00 00 00 00 00 00 00 00
       0.0 0.0 0.0 0.0

Conv2D_bias f4 [4]
000000 00 00 00 00 00 00 00 00 00 00 00 00 00 00 00 00
       0.0 0.0 0.0 0.0

Variable/read f4 [4, 9, 9, 3]
000000 3d eb 41 bf d8 03 06 3e c2 83 cf 3e f0 9e bb be
       -0.7574957 0.13087404 0.4053021 -0.36644697
000010 1b 54 f0 bd d1 20 5f 3d d8 92 22 be ee 5b 10 be
       -0.11734792 0.054474656 -0.15876329 -0.14097568
000020 36 5d 6c 3d ac 09 d6 3c 4e be fa bd c7 01 96 3e
       0.05770608 0.026127659 -0.12243329 0.2929823
000030 12 51 ff bc a0 ce 5c 3d 37 41 0b 3f 46 15 56 3d
       -0.031166587 0.05390799 0.54396385 0.05226638
000040 3d 35 e0 bc 94 8a 0d 3f 31 30 c3 bc af bd b7 bd
       -0.027369136 0.5528958 -0.02382669 -0.08971726
000050 04 e9 52 3d 0c b0 2f be b8 26 85 bd 30 bb 55 3d
       0.051491752 -0.17157 -0.06501526 0.05218047
000060 94 52 a1 be 4d 03 62 be df 40 a9 bc 29 51 32 bf
       -0.31508315 -0.22071572 -0.020660816 -0.6965509
000070 08 ee 42 be ed 0b 8c be 47 22 3c be 65 e8 9d be
       -0.19036114 -0.2735285 -0.18372451 -0.30841365
000080 0e d6 9d be 36 cf 1c 3e f9 16 6f 3e b0 f8 77 3e
       -0.30827373 0.1531342 0.23348607 0.2421596
000090 4d 48 52 3e c6 a6 03 3e 63 87 6e 3e 39 e8 a7 3e
       0.20535393 0.12856588 0.23293833 0.3279436
0000a0 d1 dd 0e 3d e4 62 bc 3d 91 08 90 3e 2a 45 35 be
       0.03487951 0.091985494 0.28131536 -0.17702165
0000b0 06 58 96 3e b1 a8 e1 3c 2e 0c 0a be 5e 57 db 3e
       0.29364032 0.027546259 -0.13481209 0.42840093
0000c0 c5 9b b9 3e 74 e1 4a bd 44 ca f6 3c 92 e0 93 3b
       0.36251655 -0.049531415 0.030125745 0.004512855
0000d0 55 47 60 bd f9 26 18 3e 4e 4a 93 be 0d e3 b7 3d
       -0.054755528 0.14858617 -0.28767627 0.089788534
0000e0 dd 19 39 be 8f d2 41 3e a3 06 d2 bd 7c b9 01 be
       -0.18076272 0.18927978 -0.10255172 -0.12668413
0000f0 c5 8f 01 3f 72 70 c4 3e 33 46 95 3e c9 ac ae 3e
       0.5061 0.3836704 0.2915512 0.341162
000100 8d 66 26 ba 91 f9 76 3e c6 85 19 3e 0e fd 52 be
       -0.0006347679 0.2411864 0.14992437 -0.20604345
000110 1f 0c 8a be e5 a3 83 3e 57 77 5e be f2 a5 10 3e
       -0.26962373 0.2571098 -0.21725212 0.14125803
000120 ec 23 82 3e f4 da ed 3d 4e 24 01 3f 6c fd af 3e
       0.2541803 0.116140276 0.5044602 0.34373033
000130 23 8a 37 3e 7a 24 bd 3d 1a cb 09 3e f4 53 11 be
       0.17923789 0.09235473 0.13456383 -0.14192182
000140 94 fc 86 be 48 da 90 bd 9a 7d 01 3e 0d e6 84 bd
       -0.26364577 -0.07072884 0.1264557 -0.06489191
000150 58 b0 42 3e 37 b3 be bd ab 29 01 be 9c 3e d5 3e
       0.19012582 -0.09311526 -0.12613551 0.4164933
000160 a4 dc 90 3e 15 d2 ac 3d e5 af a9 3e b1 00 17 be
       0.28293335 0.084385075 0.3314201 -0.14746358
000170 2d c6 ee be bc 41 97 3e 10 da 31 bf 1e 0f 2b bf
       -0.4663557 0.2954234 -0.6947336 -0.6681994
000180 11 d6 9a 3e fd ec d8 be 6a 47 db be 0e 21 1f 3e
       0.30241445 -0.42368308 -0.42827922 0.15539953
000190 95 5c d1 bd 28 13 99 3e a5 5b 8d 3e 85 98 04 3e
       -0.10222737 0.29897428 0.27608982 0.12948807
0001a0 8e c0 97 3c 39 11 74 3e a6 11 45 be 54 65 8f be
       0.018524434 0.23834695 -0.19245014 -0.28006995
0001b0 31 3e 9e 3e 1d ca fe 3d 14 7f 26 bc 3f bf b9 3e
       0.30906823 0.12440894 -0.010162134 0.36278722
0001c0 af df bc 3e 77 26 01 3e 99 15 e9 3e 74 31 9a 3e
       0.36889407 0.1261233 0.4552429 0.30115855
0001d0 a4 e6 52 be c2 39 9e 3e c0 84 42 be bc 51 ba be
       -0.20595795 0.3090344 -0.18995953 -0.36390483
0001e0 ea f8 74 3e 29 12 60 bf 62 a8 54 bf 8c 49 81 3e
       0.23923078 -0.8752771 -0.8306943 0.25251424
0001f0 f0 35 72 bf b1 99 22 bf 1b 32 25 3e 22 c2 81 be
       -0.9461355 -0.63515764 0.16132395 -0.25343424
000200 29 cb 14 be 8b af 91 3e 19 e2 40 3d 2c e4 67 3c
       -0.14530624 0.2845424 0.047090624 0.0141535215
000210 71 54 2e 3e 07 cf 65 be 80 6e fc bc 70 eb 1d 3e
       0.170244 -0.22442256 -0.03081441 0.15421844
000220 c5 73 92 3e 10 96 d9 3e 30 aa c5 3e 72 d5 98 3e
       0.2860395 0.424973 0.38606405 0.29850346
000230 07 bf f1 3e 69 a7 a7 3e 68 b5 1c 3e 9d 4c a2 bc
       0.47216055 0.3274491 0.15303576 -0.019811923
000240 b3 72 44 3e 3e 96 12 bf 0e 8f 46 bf 89 8f a4 bc
       0.1918438 -0.572605 -0.77562034 -0.020087974
000250 41 8a a3 bf 51 04 7d bf 1a a5 4e be 5d fd c1 bf
       -1.2776567 -0.9883471 -0.20180169 -1.5155445
000260 ea 58 6c bf 1e 9e f2 bd f4 a6 41 bf d4 d5 4f bf
       -0.9232317 -0.11846565 -0.75645375 -0.8118565
000270 eb 0e a7 be 8a 62 af be 00 47 36 bd d7 2e 50 be
       -0.3262857 -0.34254867 -0.044501305 -0.20330368
000280 01 90 85 be 11 c2 1f 3e a6 53 71 3e 07 43 39 3e
       -0.2608643 0.15601374 0.23567066 0.18091975
000290 bc 09 dc 3d 4b 44 99 3e f0 71 cc 3e 49 54 b1 3e
       0.10744044 0.29934916 0.39930677 0.34634617
0002a0 97 18 1b 3e 85 7d 8a 3d c7 1b 0e 3e 99 4d 30 3e
       0.15146099 0.06762222 0.13877784 0.17217101
0002b0 04 07 29 bf 7c d3 27 bf 1a 05 19 be d8 a9 b6 bf
       -0.6602633 -0.65557075 -0.14943352 -1.4270582
0002c0 0c 87 9a bf 89 fb 94 be 94 ea b9 bf 8f d9 65 bf
       -1.2072463 -0.29098156 -1.4524713 -0.89785093
0002d0 67 2e e0 be 3f 41 85 bf ec 6b 03 bf f2 bb cd be
       -0.43785402 -1.0410537 -0.5133655 -0.40182453
0002e0 d6 5e 12 bf d0 5e 4b bd 5c 7a 0b be 96 c3 8e be
       -0.5717596 -0.049650967 -0.13620895 -0.27883595
0002f0 c9 32 f4 3d 04 d8 1f be 12 d4 26 bd cd 27 58 3c
       0.11923749 -0.15609747 -0.04072959 0.013193083
000300 36 7b 1d 3e ed 0e cd 3d c1 bc 92 3e 06 fa 18 3c
       0.15379032 0.100126125 0.28659633 0.009336954
000310 ba 30 18 3e fb aa a6 3e bf 81 1e be 46 5f 25 bf
       0.14862338 0.32552323 -0.15479182 -0.645985
000320 9c 4a 97 be 9d c3 7b be 86 69 87 bf 96 5b 12 bf
       -0.2954911 -0.2458634 -1.0579078 -0.57171
000330 16 bd 1b be 90 0b 2b bf 64 6a 7a be 80 cb f8 bd
       -0.1520885 -0.6681452 -0.24454647 -0.121481895
000340 54 72 a1 be 46 17 99 3e 18 12 cc bc 00 6f df 3c
       -0.31532538 0.2990057 -0.024910972 0.027274609
000350 66 5d 0f 3f 0a b8 97 be f7 05 0e 3e 37 0c 1b 3f
       0.5600189 -0.29632598 0.13869463 0.60565513
000360 73 e6 d8 be 06 57 bc bd 7f 07 db 3d 15 b7 24 3d
       -0.4236332 -0.09196286 0.10694789 0.040213663
000370 f0 95 22 3e a3 f6 a8 3e d4 95 ab 3e 17 69 81 3e
       0.15877509 0.3300067 0.33512747 0.2527549
000380 a3 54 dc 3e 77 18 2d 3d 55 83 22 be 88 92 a4 bd
       0.43033323 0.04225966 -0.15870412 -0.08035761
000390 e0 c5 6b bd 75 c4 01 bf df ce 49 3c 6b 04 69 bd
       -0.057561755 -0.50690395 0.012317388 -0.05688898
0003a0 ca 52 03 bf c4 02 aa 3d 4a 0c fd 3e 9e d7 67 3d
       -0.512982 0.08301309 0.49423438 0.056602113
0003b0 7c 7f 39 3f 41 29 f6 3e 74 ba 27 3f d7 c1 97 3f
       0.7246015 0.4807835 0.6551888 1.185603
0003c0 6e eb d9 3a 1b ee fb 3e c1 10 70 3f bb 15 04 bf
       0.001662595 0.49205098 0.93775564 -0.5159566
0003d0 e0 76 85 3e 2f 71 4f 3e 7e 64 0b bf 65 a4 a7 3d
       0.26067257 0.2025802 -0.54450214 0.08185653
0003e0 26 4b a9 3e d2 dc 0f bf 3a 5f 2c 3d 48 11 cf 3e
       0.33065146 -0.5619632 0.042083003 0.40442872
0003f0 b5 7b 91 be d5 2b d4 3d 6c 41 c7 3d 1f 2b 77 be
       -0.28414693 0.10359923 0.09729275 -0.24137543

Variable_1/read f4 [4]
000000 39 8f 5c 3f 1a 5a 8d 3f 77 3e db bd f0 48 33 3f
       0.8615604 1.1043122 -0.107052736 0.7003317

Variable_10/read f4 [16]
000000 6c b1 ca 3d 15 48 12 3f a6 be fb bd cf b9 bd 3d
       0.09897122 0.5714124 -0.12292223 0.09263956
000010 a0 a2 be 3b cd 7f 7b 3f 6c 9b de bd 3f fc 0e 3e
       0.0058177263 0.98241884 -0.10869488 0.13963412
000020 81 b8 b9 bc 17 df 1d bf 13 c9 a0 3e 82 89 41 bd
       -0.022670986 -0.61668533 0.31403407 -0.04725028
000030 97 34 77 3d b0 b5 b8 bd a1 1c fe be 8f db 66 3f
       0.060352888 -0.09019029 -0.49631217 0.9017877

Variable_11/read f4 [16]
000000 2a 20 5b 3f 94 c9 29 3f 47 9f 49 3f ea 5a ae 3f
       0.85595953 0.6632321 0.7875866 1.3621495
000010 89 c1 72 3f f8 12 8b 3f 81 1d fd 3f de 7b ad 3f
       0.9482656 1.0865164 1.9774629 1.3553426
000020 64 f1 8a 3f c6 d0 4e 3f 20 bb 19 3f cf 27 69 3f
       1.0854917 0.80787313 0.60051155 0.9107637
000030 78 5a a0 3f 5f 2f 9b 3f 7c 7f 71 3f ed 9d 33 3f
       1.2527609 1.2123832 0.9433515 0.7016285

Variable_12/read f4 [16, 3, 3, 16]
000000 f0 c0 28 3e 60 eb 0b 3e d4 69 99 be 5b 9d c7 be
       0.1647985 0.13664007 -0.29963553 -0.3898724
000010 97 57 d2 3d 31 17 c0 3d f5 43 b6 be ba a8 d4 3e
       0.10270613 0.093794234 -0.35598722 0.41534978
000020 9a 1a 37 be b4 d6 68 be 6b b8 2a 3d 55 74 07 bf
       -0.17881241 -0.22738153 0.04167978 -0.52911884
000030 cd 95 86 3d 42 06 1d bf 89 50 29 bf 38 b3 4f 3e
       0.06571541 -0.61337674 -0.6613851 0.2028321
000040 2f b6 3f bf db ba 50 be 0c 85 56 be a8 a0 26 3f
       -0.74887365 -0.2038378 -0.20949191 0.6508889
000050 4c a5 63 bd bc 53 15 3d f3 a7 1e 3d 04 85 9e 3d
       -0.05557756 0.03645681 0.038734388 0.077402145
000060 76 24 3e 3e 40 55 72 be 31 f3 04 bf c2 d5 d7 be
       0.18568596 -0.23665333 -0.5193358 -0.42155272
000070 93 d4 a0 be 6b 48 bb be 67 67 ad be 90 78 3c be
       -0.3141218 -0.36578688 -0.33867952 -0.18405366
000080 b8 ce 4d 3e 00 65 0e bf 9b 9f bd 3d 43 74 cd 3e
       0.20098388 -0.55622864 0.09258958 0.40127763
000090 8b a0 49 bf 22 e7 d9 3d 83 a0 9b 3e 27 bc 22 bf
       -0.78760594 0.10639788 0.30395898 -0.6356835
0000a0 3a e1 da 3d 64 c1 98 3e fe 66 77 bc 2c 7c 8e be
       0.1068749 0.29835045 -0.015100239 -0.2782911
0000b0 a4 69 b3 be d4 b2 35 be 61 d9 af bc 4d 4f 58 bf
       -0.35041535 -0.17743999 -0.021465959 -0.84496003
0000c0 21 d7 53 3e bb 3a 59 3d 98 a8 37 be f6 ec 66 bf
       0.20687534 0.053034525 -0.17935407 -0.90205324
0000d0 51 5e da 3e 0a 19 93 be d4 95 ab 3d 54 ba de 3e
       0.42650083 -0.2873004 0.08378187 0.43501532
0000e0 84 76 23 be 5f 3b d8 3d 75 2e fd 3d ec 94 b0 3e
       -0.15963179 0.10558199 0.123623766 0.34488618
0000f0 2c 27 0d 3f 8c 22 f1 3d 27 60 c0 be f5 ad d1 bc
       0.55137897 0.117741674 -0.37573358 -0.025595644
000100 d2 ce de 3e 65 0b e1 3e 85 07 73 3e 99 0c 43 bf
       0.43517166 0.43954006 0.23733337 -0.761911
000110 0d a8 d0 3c 08 06 95 be d0 0b ed bd 13 44 65 3f
       0.025470758 -0.29106164 -0.11574519 0.89557
000120 d0 c5 41 be da 3a 84 3d c7 c9 c1 3e c7 e6 43 bf
       -0.18923116 0.064565375 0.37849256 -0.76524013
000130 63 e7 ea bd 4d da ae be 20 79 10 3e 24 74 e7 bc
       -0.11469915 -0.34150925 0.14108706 -0.028253622
000140 c1 90 6f be 64 e6 bd 3c 95 ed ad 3e b0 dc 2c 3f
       -0.23395063 0.023181148 0.33970323 0.6752424
000150 0f 90 97 3d 26 48 5c 3e 97 55 0b be 71 b1 fc 3c
       0.07400524 0.21511897 -0.13606869 0.03084633
000160 13 73 2d be 35 f9 6a be da 34 39 be 58 43 2a bc
       -0.16938429 -0.22946627 -0.18086568 -0.010392033
000170 43 73 48 bf 69 3e 21 be 61 90 ee bc 2a a3 96 3e
       -0.78300875 -0.15746464 -0.02912158 0.2942136
000180 2d 14 86 3e 00 2d b4 bd 5a 2e 60 be ea f7 25 3f
       0.26187268 -0.087976456 -0.21892682 0.6483141
000190 30 7d 02 3e c8 13 04 bf 31 0f b0 3e 45 1b 04 bf
       0.12743068 -0.51592684 0.3438659 -0.5160411
0001a0 f3 7a 07 bd 06 11 6b be e5 89 b3 3d 5c f1 3d 3f
       -0.033076238 -0.22955713 0.08766536 0.7419641
0001b0 f8 23 43 3d a0 f0 ae 3e a4 6f cc bd 0b 65 eb bd
       0.047641724 0.34167957 -0.09982231 -0.11493882
0001c0 29 39 d4 3d be cc 48 be 40 29 a1 3e 4f e8 f0 be
       0.10362465 -0.19609353 0.31476784 -0.47052237
0001d0 e9 46 94 3e 6b af 77 be 90 df 89 bd e8 14 33 3e
       0.2896035 -0.2418801 -0.06732094 0.17488444
0001e0 51 88 a6 be 50 d6 a4 3e 52 4c 21 bd 02 aa fa 3e
       -0.32525876 0.32194757 -0.039379425 0.4895783
0001f0 16 8a 0d 3f 01 e2 0e 3e 4e bb a4 3e a1 47 b0 3e
       0.5528883 0.13953401 0.32174152 0.3442965
000200 3c 75 fa 3e 66 83 98 3e 52 ae e8 3c 1b 9f 85 bf
       0.48917568 0.2978775 0.028403435 -1.043918
000210 9f 6f 18 3f 5e fa 0b 3e 26 e5 b4 bd 61 5f 2f 3e
       0.5954532 0.13669726 -0.08832769 0.17126228
000220 8b a3 7d be b4 0f 80 be 1e 75 91 be d2 32 b2 be
       -0.24769418 -0.2501198 -0.28409666 -0.34804398
000230 ed b1 a0 be 12 b6 cd bd 6d ab 5f bd a6 f4 ff 3e
       -0.31385747 -0.10044493 -0.054606844 0.4999134
000240 c9 fb bd 3e 9f 65 82 3e d6 a3 d1 be 08 b1 7e 3d
       0.3710616 0.25468156 -0.4094531 0.06218055
000250 5c ef bf 3e d0 3d 00 3f ec 2b 5a 3e 97 cb 18 bf
       0.37487304 0.5009432 0.21305817 -0.59685653
000260 f6 c7 9d 3e 15 6b ac 3e 5b 76 0f 3e f7 7a 0f bf
       0.3081662 0.33675447 0.14009993 -0.56047004
000270 8f 33 97 3e aa 2f 20 3f 07 dd 45 3f ab 3c 83 3e
       0.29531524 0.6257273 0.77290386 0.25632223
000280 c7 42 d7 3e e0 47 d1 3e de 09 ae 3e c4 e1 0e be
       0.42043135 0.4087515 0.33991903 -0.1395331
000290 dd 85 15 3f 8a e0 dd 3d 74 5c bc be ad 46 a1 3e
       0.58407384 0.10833843 -0.36789286 0.31499234
0002a0 40 55 36 3e 61 b5 19 3d 94 3b e3 3e 1f 48 fc be
       0.17805958 0.037526492 0.44381392 -0.49273774
0002b0 cc 9c c4 3d 0e a8 07 3e ba e2 58 3f 7e 48 a1 3e
       0.09600219 0.13247702 0.8472096 0.3150062
0002c0 93 bd 17 3e 1c b6 c9 3e 1c 78 be be 30 5b 52 be
       0.1481841 0.3939675 -0.3720101 -0.20542598
0002d0 12 c7 ce 3e 19 00 9f 3d 19 f6 38 bd 58 96 39 3d
       0.40386254 0.077636905 -0.045156572 0.045309395
0002e0 4b 9c 80 3e 4e a1 e5 be 0b ca 03 3e 1b f9 09 3e
       0.25119242 -0.44849628 0.12870042 0.13473932
0002f0 a0 a6 df 3e 0e 70 a1 be eb d6 cc 3e 3f f6 83 3e
       0.43681812 -0.31530803 0.4000772 0.25773808
000300 05 30 49 bd b9 45 34 3e f4 99 49 bd c6 7d 06 3e
       -0.04911806 0.17604722 -0.049219087 0.13133916
000310 bc d9 b2 3e 75 a6 69 3e a2 cb bf be 18 02 f9 3e
       0.34931743 0.22817405 -0.37460047 0.4863441
000320 ca e1 d1 bc f0 93 9f bd a7 43 06 bf 00 ca ec bd
       -0.02562036 -0.07791889 -0.5244698 -0.11561966
000330 92 1c 10 3e 17 1d 86 3e 04 4e 68 3f fd e2 98 3d
       0.14073399 0.2619407 0.9074404 0.074651696
000340 81 49 12 3e 19 1e 75 3f c9 88 ea bd 82 b2 fa 3d
       0.14285852 0.9574905 -0.11451871 0.12241079
000350 f5 3d 25 3f 97 a1 ad 3e 2e 57 25 3e c0 d9 95 3d
       0.64547664 0.33912346 0.16146538 0.07316923
000360 43 4d cc 3e 37 d8 00 bd 62 53 04 be 46 ec 8d bc
       0.39902696 -0.0314562 -0.12922433 -0.017324578
000370 e8 7c bd 3b 31 f4 c6 3e af 34 4c 3f 2c 83 17 3f
       0.0057827123 0.38858178 0.7976789 0.5918453
000380 de b3 ac be 86 5a 3b 3f 0d 6d de 3d d7 3a c1 be
       -0.33730978 0.73185 0.108606435 -0.37740204
000390 0d 8f d3 3e 22 79 a0 3e 9e 4b c8 3d 67 d3 9a bc
       0.41320077 0.31342417 0.09780048 -0.018899633
0003a0 f3 58 b9 be 7b 84 43 3f 3a a1 bd bd 9f 5e 7b 3e
       -0.36200675 0.76374024 -0.09259267 0.24547814
0003b0 29 1f f3 3e 5c 3b 94 3e fc c7 f0 3e bf 33 be bd
       0.4748471 0.28951538 0.47027576 -0.092872135
0003c0 83 47 c5 be 31 18 e3 3e 7c 79 6f be 2f 3c be 3b
       -0.38531122 0.44354394 -0.23386186 0.0058055143
0003d0 f1 88 0d 3f cd 83 50 3f 3d e7 fd 3e bb 50 b7 3e
       0.5528708 0.8145111 0.49590483 0.3580378
0003e0 ee 26 b1 bd 42 0d cd be 98 72 6a be d6 28 af be
       -0.086500034 -0.40049177 -0.22895277 -0.34210843
0003f0 0b d0 2c be c8 33 ba bb 53 38 5a 3e aa a9 6c be
       -0.16876237 -0.0056824423 0.21310548 -0.23111597

Variable_13/read f4 [16]
000000 c6 1a 15 bd f6 ca a2 bd 7e 29 90 3c fe 5a 9a 3c
       -0.036402486 -0.07948868 0.01759791 0.018842217
000010 b4 3b f8 bd d0 46 cd bc cc 76 9b 3d 8e 70 b1 3d
       -0.121207625 -0.02505818 0.07591018 0.08664046
000020 a5 44 3f bd e6 b6 ce 3d 99 90 89 3d 78 bc 13 3d
       -0.046696324 0.10093479 0.06717033 0.03606841
000030 26 ae bb 3c 9d 91 3e 3e 09 14 bb 3e 84 f8 12 3c
       0.022910189 0.18610235 0.36538723 0.008970384

Variable_14/read f4 [16]
000000 1d ae 28 3f 09 a7 1e 3f 05 00 f4 3e 72 ae 23 3f
       0.65890676 0.61973625 0.47656265 0.6393806
000010 dc de 1d 3f ba e9 12 3f 4b 7e 20 3f 88 b3 ec 3e
       0.6166818 0.5738789 0.6269271 0.4623072
000020 95 01 2d 3f f8 e6 24 3f ae c0 17 3f 7d 50 50 3f
       0.6758054 0.6441493 0.5927838 0.81372815
000030 24 2f 06 3f 1d 1d 0a 3f 95 19 16 3f 72 dc 97 3f
       0.5241568 0.53950673 0.58632785 1.186415

Variable_15/read f4 [16, 3, 3, 16]
000000 78 c4 83 bc a4 ba ed 3e be 62 1a be 09 6e f0 3d
       -0.016084895 0.46431458 -0.1507673 0.117397375
000010 a2 3d 46 3d 4e a0 9e be 1c 1a 4c be 10 a6 1d 3f
       0.04839862 -0.30981678 -0.19931835 0.61581516
000020 5d 0c 99 bd 47 d8 03 bd 39 39 6f 3e f7 36 40 bf
       -0.07473061 -0.03218868 0.23361672 -0.7508387
000030 f7 01 ec 3e 45 23 ca be ad 42 0d bf 1e 56 75 3d
       0.4609525 -0.39480034 -0.55179864 0.05989658
000040 96 bd 5f 3e c7 0a f0 3e d6 e6 ff be 2c 49 06 3f
       0.21849665 0.46883222 -0.499808 0.524554
000050 32 ec 24 be 96 cf 4a 3e b3 f9 d2 be 4b 2a cb bd
       -0.16105726 0.1980575 -0.4120613 -0.09920176
000060 52 00 64 3e eb 27 6b bd fe 6f 87 be 36 62 08 bf
       0.22265747 -0.057411116 -0.2645263 -0.5327486
000070 6b c5 3a 3f 69 aa e5 be ca d2 29 3e 49 78 19 3f
       0.72957486 -0.44856575 0.16584316 0.59949166
000080 22 11 82 bd 2a cc af 3e f8 ee 93 be 69 de 4b 3f
       -0.06350924 0.34335452 -0.28893256 0.79636246
000090 4a 29 be be a0 0c 20 3e 7a 43 7f 3e dd 71 72 3e
       -0.37140876 0.15629816 0.24928084 0.23676248
0000a0 97 cb b9 3e 5f dc 0b be 0c d5 99 be 95 57 42 bf
       0.3628814 -0.13658284 -0.30045354 -0.7591489
0000b0 48 01 88 3e a8 97 86 be 51 01 06 3f e5 c4 4f 3d
       0.26563478 -0.2628758 0.5234576 0.050724883
0000c0 02 74 21 3f 76 1b 4e 3d 19 66 83 bb 0d 87 fc 3c
       0.6306764 0.050319158 -0.0040099737 0.030826116
0000d0 5a 95 0c be 4b f6 8d 3e 76 7d 90 be 94 20 5d 3d
       -0.13728848 0.2772697 -0.2822072 0.053986147
0000e0 b2 da 6a be 76 29 f4 bd f1 cf e7 be 4e 29 5a 3c
       -0.22934988 -0.119219705 -0.45275834 0.013315512
0000f0 0c 99 6b bd 9a 42 a9 3d 28 0f c9 be 67 32 a8 be
       -0.057519004 0.08264656 -0.39269376 -0.32850954
000100 a8 43 b6 3e 5d e0 d0 3d 27 00 ef bd 6d 86 58 3e
       0.35598493 0.10199044 -0.11669951 0.2114503
000110 a0 7f 09 3e a7 6d 88 3e bd 36 6e be 63 5f 3f 3e
       0.13427591 0.26646158 -0.23263068 0.18688731
000120 fa 30 c5 3e da 5d 7a 3d e7 6a fc be 1a 26 4a be
       0.3851393 0.06112466 -0.4930031 -0.19741097
000130 7f 81 1a be 5e 0b 86 3d ce fe 47 3e e0 1a 3c 3e
       -0.15088461 0.06545137 0.19530794 0.18369627
000140 22 4f be bd 56 8c 56 bd c1 67 98 be ef 18 71 3e
       -0.09292437 -0.05237993 -0.29766658 0.23544668
000150 86 58 a8 3e 8c e8 c1 3e fc 55 74 bf 13 60 ed bc
       0.32880038 0.37872732 -0.954437 -0.028976476
000160 a3 cd e7 3e d1 11 c1 be a9 e7 61 be 94 12 01 3e
       0.45274076 -0.37708905 -0.22061028 0.12604743
000170 e3 b9 4f 3c aa 1e da 3e 4f 71 d8 3e 75 ff 13 3f
       0.012678596 0.4260152 0.42273948 0.5781167
000180 7e ac 5c be aa 6e b5 be ac 0c a6 3d 1e 7c ca 3d
       -0.21550176 -0.35435992 0.08107886 0.09886955
000190 33 72 5e 3e ef d9 07 3f ef fa ff 3b 38 c4 4f 3e
       0.21723251 0.53066915 0.007811896 0.20289695
0001a0 2c 50 ca 3d c8 1b ad be 49 e6 22 3f 82 f1 70 3e
       0.09878573 -0.33810258 0.6363264 0.23529628
0001b0 1c 37 55 be f7 b0 ab 3e 8d ef f1 be 8f 05 86 be
       -0.20821804 0.3353345 -0.47253075 -0.26176116
0001c0 b6 75 97 bd b2 41 b1 be 04 ca e4 be a5 8b 6a 3c
       -0.073954985 -0.34620434 -0.44685376 0.01431552
0001d0 ee 39 67 3e b9 af 31 3f a2 d1 0c be ac 03 ab bd
       0.22580692 0.69408756 -0.13751844 -0.0835031
0001e0 fa 7f 49 3c 5b a6 81 3e b8 f4 c1 3d 6c 09 fa 3d
       0.012298578 0.25322232 0.094705045 0.12208828
0001f0 54 60 7f be 04 b1 fa 3e 05 91 78 bd 55 26 4d bd
       -0.2493909 0.48963177 -0.060685176 -0.050085384
000200 bb 21 12 bf 39 8d 5a bf e2 dc 36 bf 37 32 19 bd
       -0.5708272 -0.8537174 -0.7143079 -0.037401404
000210 e6 98 c1 3e d4 fd 27 3f c9 39 03 3e b1 fa 35 3f
       0.37811965 0.65621686 0.12815012 0.7108565
000220 e6 5b e1 3e fe 75 38 bd 2c 6d b9 3c f3 3b 2a 3f
       0.44015425 -0.0450344 0.022635065 0.66497725
000230 3c 2f 2f bf 04 93 80 3f 9a 5b d5 3e a9 24 a4 be
       -0.6843145 1.0044866 0.4167145 -0.3205922
000240 35 8b 35 3f 1b c3 98 be eb d8 20 3d 6b 44 33 3b
       0.7091554 -0.29836354 0.03926937 0.0027354013
000250 18 d1 4f 3e cf c0 d9 be 0a 01 71 be 0c 9e 9f bd
       0.20294607 -0.42529914 -0.23535553 -0.07793817
000260 2e 13 16 be b8 0b 90 3e b3 29 21 3e 04 bb 51 be
       -0.14655754 0.2813394 0.15738563 -0.20481497
000270 49 ef 97 bd cd 70 7a bd 7b 02 b1 3e 10 12 74 3f
       -0.07418687 -0.06114273 0.34572205 0.9534006
000280 78 31 a6 3e 65 90 0e bf c8 c9 89 bc 72 47 67 be
       0.32459617 -0.5568908 -0.01681985 -0.22585848
000290 62 06 2b 3f 79 fa be bd b9 82 cc 3c d5 ce 0d 3f
       0.66806614 -0.093251176 0.024964677 0.55393726
0002a0 4c 38 a2 3d 04 47 e3 3e 5d 42 e1 3c 08 04 19 bd
       0.07920894 0.44390118 0.027497465 -0.03735736
0002b0 52 51 bf 3d e6 7f 75 be ac bd bd be 8b 38 94 be
       0.093416825 -0.2397457 -0.3705877 -0.2894939
0002c0 7b f9 e6 3d 63 7b 22 bf 04 41 0d bf bc 7d 45 3e
       0.112780534 -0.63469523 -0.5517733 0.19286245
0002d0 62 a2 0c 3e 72 78 d5 3d e3 db 9f 3e ff 93 02 bf
       0.13733819 0.10423364 0.31222448 -0.51007074
0002e0 55 80 d1 3e bd ec 9f 3e a0 4d bf be 46 0b bb 3d
       0.40918222 0.31235304 -0.3736391 0.091330096
0002f0 f4 a4 e7 3e 14 ed 35 bf 42 ae 83 be 6f 83 9f bf
       0.45243037 -0.7106488 -0.25718886 -1.2461985
000300 5a 83 20 be 52 9c b6 3e 7c 00 7f be fd f8 2d 3e
       -0.15675107 0.35666138 -0.24902529 0.16989513
000310 5b c5 43 3d 36 1e 40 3f c6 c4 f0 3d 4a e1 8d 3d
       0.047795635 0.750461 0.117562816 0.06927736
000320 b3 25 b9 3d 3a 92 06 3e a5 7b e7 be ea c8 23 3d
       0.09040394 0.13141719 -0.4521152 0.03998653
000330 b6 16 a6 be d6 a0 2b 3c d1 c7 e9 bd 55 ce 66 bf
       -0.32439202 0.010475358 -0.11415065 -0.9015859
000340 d9 4e 80 3e 31 f7 03 3d 37 b1 2f be 56 c2 d6 3d
       0.25060156 0.032218162 -0.17157446 0.104862854
000350 1a de 55 3f 7b 5a 82 3e 45 87 82 3e 80 44 b2 be
       0.83542025 0.25459656 0.25493827 -0.34817886
000360 31 71 98 3d 8a cc e8 bc 26 37 03 be f7 23 54 be
       0.074434645 -0.028417844 -0.12814006 -0.20716844
000370 7d 7a cc be 90 ef b4 3d 9d 6c e3 3e 5c 48 33 bd
       -0.399372 0.088347554 0.44418803 -0.04377018
000380 0d 5c 78 3e bc 64 d4 be 4b de 65 be 3e de 57 bb
       0.24253865 -0.41483104 -0.2244808 -0.0032938863
000390 a8 44 ac 3e 63 a1 25 be f6 c9 11 bf e0 ff b6 be
       0.3364613 -0.16174845 -0.5694879 -0.35742092
0003a0 a7 6b 26 bd 21 bc 4d 3e 80 91 4a 3e 23 47 28 3e
       -0.04063001 0.20091297 0.19782066 0.16433387
0003b0 b9 f2 23 3e d2 be 5f bc 1b 9e 9c 3e 6e 95 69 3f
       0.1601056 -0.013656335 0.30589375 0.91243637
0003c0 d8 65 f0 be 57 d9 5f bd 41 06 f6 bc 68 c3 34 3f
       -0.469527 -0.05465063 -0.030032279 0.70610666
0003d0 23 5e 64 3e 61 a9 e8 3d 36 fa a9 be aa 1d c2 3e
       0.22301535 0.113604315 -0.33198708 0.37913257
0003e0 a2 a6 50 bc 79 c2 f4 bd 2f 73 1e bf ec 77 b0 3b
       -0.012735041 -0.11951155 -0.61894506 0.0053853896
0003f0 0a 98 93 3d 88 f8 35 bf 19 59 e0 3e bd 35 4a 3f
       0.072067335 -0.71082354 0.43817976 0.7898825

Variable_16/read f4 [16]
000000 32 6c c7 3e 41 a3 78 3e 0a 5d 11 bf 95 b5 ba 3e
       0.38949734 0.24281026 -0.5678259 0.3646666
000010 95 a2 99 bf 82 04 34 3f 0b 57 48 bc cb ff 1c be
       -1.2002741 0.7031938 -0.012227784 -0.15331952
000020 3c e6 b0 be 49 59 bb be fe 57 a3 bd 6d 8c 27 3e
       -0.34550655 -0.36591557 -0.079757676 0.16362162
000030 ca 87 01 bf 02 69 37 be 3f 5a 44 3e e8 b3 ea bf
       -0.5059782 -0.17911151 0.19175051 -1.8336153

Variable_17/read f4 [16]
000000 c9 a2 42 3f 0a e9 63 3f c6 75 38 3f 38 d4 b9 3f
       0.7602964 0.89027464 0.7205471 1.4517889
000010 63 ae 6d 3f 8f 55 41 3f 64 3f 42 3f bc c4 9e 3f
       0.9284422 0.7552118 0.75877976 1.2403789
000020 df 46 3a 3f b1 da 5d 3f b8 89 39 3f 18 d3 2f 3f
       0.7276439 0.8666182 0.7247577 0.6868148
000030 71 fe ad 3f 04 79 69 3f 0e 60 46 3f 91 40 88 3f
       1.3593274 0.9120028 0.7749032 1.0644704

Variable_18/read f4 [16, 3, 3, 16]
000000 97 03 45 3f e6 ec 8c 3e 9c ed e4 3c 63 2d e1 3e
       0.769586 0.2752449 0.027945332 0.4397994
000010 73 af eb 3d fe 99 95 3c f8 2b ae 3d 7a 39 da bc
       0.11508074 0.018261906 0.0850448 -0.026638735
000020 ea 2c e2 3b e9 c0 75 bd a2 6b 1c be a8 db 42 3e
       0.006902327 -0.059998427 -0.15275434 0.19029105
000030 ba 3a 60 3e 7a 6c 39 3e 44 96 2d be f0 cd c4 be
       0.21897402 0.18107787 -0.16951853 -0.38438368
000040 e5 92 ff be 19 29 e4 3e 83 bb 1b bd 6a 23 81 3e
       -0.4991676 0.44562605 -0.038020622 0.2522233
000050 70 2d 8e bf fb 31 4b bf 41 33 72 bd 6b c4 54 bb
       -1.1107616 -0.7937314 -0.05913091 -0.0032465707
000060 ad 52 00 be 76 2a da be ce 4e 84 3e 55 c0 c9 3e
       -0.12531538 -0.4261052 0.25841373 0.3940455
000070 b8 37 2e 3e 10 a7 81 bd 13 a0 da be a9 90 50 bf
       0.17013443 -0.06330693 -0.42700252 -0.81470734
000080 5e a5 b5 bd f3 6e 1c 3f a2 31 39 3e be 74 7f 3d
       -0.08869432 0.61106795 0.1808534 0.062367193
000090 77 f7 86 bd 5a 05 fc be 2f 4c 03 be b8 0c 07 bf
       -0.06590169 -0.49222833 -0.1282203 -0.5275378
0000a0 e8 25 2c bf f5 a6 9d be 78 75 80 be 69 05 37 3f
       -0.6724534 -0.3079144 -0.25089622 0.7149263
0000b0 7a 07 01 bf 13 7b 5d be 4e 78 37 be eb 2f 38 bf
       -0.50402033 -0.2162898 -0.17916986 -0.71948117
0000c0 57 ec 69 3e d3 82 a8 bb f9 f2 4f be b3 a4 17 bd
       0.22844063 -0.0051425486 -0.2030753 -0.037022304
0000d0 9c 19 db bd 8f 9d 52 be 35 70 cf 3d 59 5f 26 3d
       -0.10698244 -0.20567916 0.10128824 0.040618274
0000e0 70 1a 1f be be ec 8f be 55 6f d3 be 94 59 0a 3e
       -0.15537429 -0.28110307 -0.41295877 0.13510734
0000f0 5a 3e 62 bc f1 2c 12 3f 0a 9e a0 bc 9d 8d e2 be
       -0.013808811 0.57099825 -0.019606609 -0.44248667
000100 f2 0b 85 3e 10 2a 0d 3c d0 31 e6 bd 1a 23 32 3c
       0.25985676 0.0086159855 -0.1123997 0.010872627
000110 52 60 29 bf 5a 20 9d be 1e f3 b4 be 01 22 4b 3e
       -0.661626 -0.30688745 -0.35341734 0.1983719
000120 62 79 b3 bd f9 d0 ae bd 4e b6 70 3e 93 ca 58 3e
       -0.08763386 -0.08535952 0.23507044 0.21171026
000130 02 1b 38 bd f7 ae 1e be 55 d2 de 3d 81 51 a5 be
       -0.04494763 -0.15496431 0.108799614 -0.32288745
000140 b0 1c f9 3d 19 86 1b 3f ec 97 ce bc 38 33 0e be
       0.12163675 0.6075149 -0.025218926 -0.13886726
000150 5f 86 5d 3f 37 7e 0e bf c1 a4 00 bf f5 f3 2c bf
       0.8653316 -0.5566134 -0.50251395 -0.6755975
000160 dc 10 e8 3e 37 f1 2a be ba 02 02 be 50 f0 05 3f
       0.45325363 -0.16693579 -0.12696353 0.5231981
000170 c9 d9 17 bf 33 7e 15 bf b6 3c d5 3e 24 98 5f bf
       -0.5931669 -0.5839569 0.4164788 -0.87341523
000180 4f 1f 97 bd 56 8b ed be 36 e9 8a 3e 80 25 2e be
       -0.073790185 -0.46395367 0.2713105 -0.17006493
000190 ff f3 dc be 41 3f 9a bd f6 54 7d be 64 8d 0e be
       -0.43154904 -0.07531596 -0.24739441 -0.13921124
0001a0 10 6f ee be ed c5 8c be a9 ba ca bd 97 74 79 bd
       -0.4656911 -0.27494755 -0.09898884 -0.060902204
0001b0 48 01 92 3e 9e bc 1b bf 68 6b 00 3f af 47 3c bf
       0.28516603 -0.6083468 0.5016389 -0.7354688
0001c0 13 d4 19 3e dd 13 fd be da 8d 80 be 3c 5b 37 be
       0.15022306 -0.49429217 -0.25108224 -0.17905897
0001d0 e6 28 36 bf e1 6c 00 3e f9 33 1d bf 78 16 4f 3c
       -0.71156156 0.12541534 -0.6140743 0.012639634
0001e0 04 90 25 bf 0e 76 34 be 7f 81 2d 3d 04 fc 8f 3e
       -0.64672875 -0.1762316 0.042359825 0.2812196
0001f0 84 41 e9 3e 35 85 77 be be 22 df 3e e9 27 92 be
       0.45557797 -0.24171908 0.43581194 -0.28546074
000200 98 af 8c 3e cb f1 06 3e 27 d1 99 be cc d9 16 bf
       0.27477717 0.13178174 -0.30042383 -0.5892608
000210 31 8f c6 3e 52 27 b8 be 7a 8d 1e bf 85 c7 8e be
       0.3878112 -0.359675 -0.61934626 -0.27886596
000220 ad 7d 05 3e a1 8c 66 be 88 25 68 bf 0f 8f 0a 3f
       0.13036223 -0.22514583 -0.9068227 0.5412454
000230 ac 4b 98 3c bb b0 8f bd ff 77 09 3f b1 92 1a bf
       0.01859077 -0.070161305 0.53698725 -0.60380083
000240 cd ca 02 3f ff 9c 9a 3d f2 7d 5a bf eb 1d cb bc
       0.510907 0.07549476 -0.8534843 -0.02479454
000250 f4 7e 6b 3e 15 fa 00 be 73 c6 a5 3d 26 8e 1d bd
       0.22997648 -0.12595399 0.08094492 -0.03846564
000260 60 27 a6 be 3d 1d 5b be a9 f5 99 3e 7a 59 34 be
       -0.32451916 -0.21397872 0.30070236 -0.17612258
000270 74 ea a7 3e 11 28 1b 3d aa 55 3a 3e 7c 3e b8 3e
       0.3279606 0.037880007 0.18196741 0.35985172
000280 1d b9 b1 3e d0 79 f1 be f8 b3 66 3e 93 53 d1 3e
       0.34711543 -0.47163248 0.2252959 0.40884075
000290 78 e0 19 3d d0 5c 9c 3d 11 f3 df 3e 56 a4 5b 3f
       0.037567586 0.0763489 0.43740132 0.8579763
0002a0 37 62 fe be a1 cf 9f be 60 14 c1 3e f7 5e 83 be
       -0.49684307 -0.31213096 0.37710857 -0.2565839
0002b0 2e 58 08 3f c4 f9 0c 3e a5 76 7a 3e 8d ea b9 bc
       0.5325955 0.13767153 0.24459322 -0.02269485
0002c0 57 5e 90 bd fc 19 1c be 04 a6 8e 3e 16 07 f0 3e
       -0.07049244 -0.15244287 0.27861035 0.46880406
0002d0 b2 62 a8 3c 63 8a ff 3d 85 13 8b 3f d5 ba 4d 3f
       0.020554874 0.12477567 1.0865332 0.8036321
0002e0 62 d5 01 3d ce c5 20 3e a6 a3 a0 3e 62 bc b9 be
       0.03169764 0.15700457 0.31374854 -0.36276537
0002f0 e6 e3 f0 3e 83 bc 49 bc 72 16 05 3d 7d bf a8 3e
       0.47048873 -0.012313011 0.03249211 0.32958594
000300 bf e6 87 3e f6 80 b7 ba b0 19 88 be 2e e2 a2 3d
       0.26543233 -0.0014000225 -0.26582098 0.079532966
000310 f7 c6 47 bd 7b 59 f6 3e 09 89 fd bc e4 69 78 3d
       -0.048773732 0.48115143 -0.030949133 0.06064786
000320 06 5b 34 bf 44 74 9f 3e f4 7c 5e bb cb e5 8c 3e
       -0.7045139 0.3114339 -0.003394899 0.27519068
000330 e6 2e 01 bf 18 53 fc bc 65 26 ae bd a9 31 5b bd
       -0.50462186 -0.030801341 -0.08503417 -0.053514156
000340 40 dd bd 3e dd 3d d6 bb 3b 2b e2 3c 09 af fa 3d
       0.37082863 -0.0065381364 0.027608505 0.122404166
000350 d6 5d 89 3e 7f 3f 21 3f fc b0 3b 3e 69 d7 a1 be
       0.26829404 0.6298751 0.18329233 -0.31609657
000360 ca da 94 be 99 dc 0b be 32 a5 84 be 2a 9a a1 bd
       -0.29073173 -0.1365837 -0.25907284 -0.078907326
000370 2b 32 2c bf 9c 3c 3e bd 44 6e 5e 3e b9 98 5d be
       -0.6726405 -0.04644452 0.2172175 -0.2164029
000380 77 12 6b be 7f 02 8d bc 35 de fa 3d 29 e3 27 bf
       -0.22956263 -0.017213104 0.12249414 -0.65580994
000390 58 28 ac 3e 5e 57 05 3f 5f 49 54 bd 68 c2 dc bd
       0.3362453 0.52086437 -0.051827785 -0.107792675
0003a0 9e a6 82 3e c3 ca d8 bd 61 3b a9 3e de 7f 7d 3e
       0.25517744 -0.10585549 0.33053115 0.24755809
0003b0 d2 15 b8 be 18 c2 2a 3d 03 71 b2 3e 2d 50 ab 3e
       -0.35954148 0.04168901 0.34851846 0.33459607
0003c0 15 db 6f be 87 f9 f0 3e b4 0f bb 3d ce 62 3f bf
       -0.23423417 0.47065374 0.091338545 -0.7476014
0003d0 a7 41 3f 3d de 28 84 3d e7 1c d3 be d3 19 82 bf
       0.04669347 0.06453107 -0.41232988 -1.0164131
0003e0 a6 02 80 be 4b cc 8f bd 4e e7 0e 3e f9 b9 fe 3e
       -0.2500202 -0.07021388 0.13955423 0.4975126
0003f0 f2 cf 4e bf e1 3d d0 bc ab e6 1f 3f 20 0b 24 3e
       -0.8078605 -0.025420131 0.62461346 0.16019869

Variable_19/read f4 [16]
000000 a2 19 15 bd 51 cb a2 bd b4 29 90 3c 98 5b 9a 3c
       -0.0364014 -0.07948936 0.01759801 0.018842503
000010 b7 3b f8 bd 3a 45 cd bc 7f 77 9b 3d 47 71 b1 3d
       -0.12120765 -0.025057424 0.075911514 0.08664184
000020 92 46 3f bd ab b6 ce 3d 93 90 89 3d 9c bc 13 3d
       -0.04669816 0.10093435 0.067170285 0.036068544
000030 15 ad bb 3c 9e 91 3e 3e 30 14 bb 3e 5a ee 12 3c
       0.02290968 0.18610236 0.3653884 0.00896796

Variable_2/read f4 [4]
000000 27 c5 38 3f 9f cd c2 3e c7 f8 16 3f f3 e3 98 3f
       0.7217583 0.380475 0.58973354 1.1944565

Variable_20/read f4 [16]
000000 55 6a 2a 3f 5d 5a 5a 3f c3 56 22 3f df 7a 19 3f
       0.665685 0.85294133 0.6341364 0.5995311
000010 10 56 17 3f 1b e2 0d 3f 04 2f 2a 3f 5a 69 87 3f
       0.59115696 0.55423135 0.6647799 1.0579026
000020 69 ba 17 3f ba 22 46 3f 80 bb 0a 3f 22 da 07 3f
       0.59268814 0.7739674 0.5419235 0.5306722
000030 67 3c 2a 3f 93 01 30 3f 92 da 2d 3f 44 df 5b 3f
       0.66498417 0.687524 0.67911637 0.8588755

Variable_21/read f4 [16, 3, 3, 16]
000000 d9 3e cd bd c2 0b 6b be 52 97 06 bf a9 55 94 be
       -0.10021753 -0.22953704 -0.52574646 -0.28971604
000010 36 13 5a bd 1f a7 97 3e 9f 85 6e be 44 73 cc 3d
       -0.053240977 0.2961969 -0.2329316 0.09982923
000020 ba 22 16 3e ad ae d2 3c fe 63 02 3f b1 fc 37 be
       0.14661685 0.025718058 0.50933826 -0.17967488
000030 92 39 cc bd f8 76 07 3f f2 3d 62 3e 31 27 21 3d
       -0.09971918 0.52915907 0.22093943 0.039344016
000040 45 63 56 3d 09 ae 6e 3e 13 6b 21 bf aa a4 9a be
       0.052340765 0.23308577 -0.6305401 -0.30203754
000050 de bd ad 3d f9 ff f6 bd e6 5a 9f 3c 35 0f f6 be
       0.0848348 -0.12060542 0.019452523 -0.48058477
000060 b6 8a 1f 3e 30 29 d3 be 81 c2 94 be 89 b8 bf be
       0.15580258 -0.4124236 -0.29054645 -0.37445477
000070 14 de f2 bc 38 9f fc 3e eb 1c 09 ba 12 6b 10 3f
       -0.02964691 0.49340224 -0.00052304444 0.56413376
000080 89 41 f5 3e d7 31 06 3f 33 6a 79 bf 4e ea 10 bc
       0.47901562 0.524198 -0.9742767 -0.008844925
000090 d5 6d f9 be 8e da 20 bd 21 ce 9b 3e ca 1a 64 3e
       -0.48716608 -0.03927093 0.304307 0.22275844
0000a0 6b 8c 4f bf 55 50 84 be 77 7b 20 3d 0f 0c 30 be
       -0.81073636 -0.25842538 0.039180245 -0.171921
0000b0 1a 95 9a be 5c 2a e9 3e e4 d3 ec be b8 c6 46 3e
       -0.3019188 0.4554013 -0.4625541 0.19411743
0000c0 6b 3b 60 be f9 48 b9 be 49 95 d3 be e2 54 50 be
       -0.21897666 -0.36188486 -0.41324833 -0.2034488
0000d0 7c de d1 bd 52 5f 8a 3e ca 38 9c 3d d7 86 50 3d
       -0.10247514 0.2702585 0.07628019 0.050909843
0000e0 b4 90 80 be 38 3f 34 3e f1 60 40 be e4 a8 17 bf
       -0.251104 0.17602241 -0.1878698 -0.5924208
0000f0 9b b2 6c 3d 60 43 32 3d cd a1 00 3f 17 b3 b6 be
       0.05778752 0.043521285 0.5024689 -0.3568351
000100 6d 48 61 be 7e 92 d9 3d f9 68 60 be 97 94 93 3e
       -0.22000284 0.10623644 -0.21915044 0.28824303
000110 9b a9 18 bf af 15 dc 3d 70 eb 29 3e 24 36 db 3e
       -0.596338 0.10746323 0.16593719 0.42814744
000120 86 e1 19 3e ac 63 41 3e d5 a8 ab bd 67 1a 03 bf
       0.15027437 0.18885678 -0.083818115 -0.5121216
000130 1f b4 e4 3e cc 07 08 3e cf 70 8b 3e 7c f8 b8 be
       0.4466867 0.13284224 0.27234504 -0.3612708
000140 e9 42 88 bd 25 0f 9d bf c0 26 f2 be 2b 7b 9a 3d
       -0.06653387 -1.2270247 -0.4729519 0.07543024
000150 14 c6 47 bf 43 17 8b 3e 01 59 3a 3f f2 62 9b 3f
       -0.7803662 0.27166185 0.7279206 1.2139571
000160 52 3e 87 bd 20 be 1b 3e 71 36 19 3f ff fd 02 bd
       -0.066036835 0.15209246 0.59848696 -0.03198051
000170 a9 cf 28 3f 02 c2 cd 3e 4a 41 a9 3e 36 14 6a be
       0.65941864 0.4018708 0.33057624 -0.22859272
000180 2d 91 23 3e cc c3 d8 3e e6 a1 20 be 40 6d c0 3e
       0.15973349 0.4233688 -0.1568676 0.3758335
000190 33 81 e0 3d 08 df 79 bd 79 e6 06 bf ef d3 cd 3e
       0.10962143 -0.061003715 -0.52695423 0.40200755
0001a0 f3 be 0d be 8d b4 40 3e 38 b1 38 3d 29 7d 82 be
       -0.13842373 0.18818875 0.045090884 -0.25486115
0001b0 c6 35 6f be 7f 64 28 be 37 ed c8 3e 8b e7 c2 be
       -0.23360357 -0.16444586 0.3924348 -0.38067278
0001c0 06 95 42 3e 0e e8 1b 3e b5 5f d4 be e5 17 82 3e
       0.1900216 0.1522524 -0.4147927 0.25408855
0001d0 62 5b 2e 3e 5a 87 64 3e 38 02 eb be db cd 12 be
       0.17027047 0.22317258 -0.4590013 -0.1433634
0001e0 71 aa 2c be 9e 1d 74 3e 82 b2 a6 bc b5 3f d5 be
       -0.16861893 0.23839423 -0.020348791 -0.41650167
0001f0 5a eb 5c bd 26 a1 24 be c1 23 64 3e 19 40 7f 3e
       -0.053935386 -0.16077098 0.22279264 0.24926795
000200 e9 1d ac 3e ef ea ab 3f 2d 85 49 bf ba 37 cb 3a
       0.3361657 1.3431071 -0.78718835 0.0015504279
000210 74 8d 45 be 51 95 d8 3e 53 d5 63 3e 9c 86 26 bf
       -0.19292241 0.4230142 0.22249345 -0.6504915
000220 c4 6a 52 3c 70 5e 3f 3e c3 48 78 3b 75 01 0f 3e
       0.012842838 0.18688369 0.0037885166 0.139654
000230 98 49 41 bf 40 a4 c2 3e d5 19 00 bf 0b 80 8f be
       -0.7550292 0.38015938 -0.50039417 -0.28027377
000240 f8 60 c3 3e 21 4a 22 3e e3 a1 10 bf 42 8f 75 bd
       0.3815992 0.1584859 -0.5649702 -0.059951074
000250 0d 92 9a be ab c0 97 be 57 12 99 3d 55 00 7d be
       -0.30189553 -0.29639181 0.07474201 -0.24707158
000260 20 af d5 3e 3b a0 8b bf 76 45 cf bd a9 ff 64 be
       0.41735172 -1.0908273 -0.101206705 -0.22363152
000270 7b bf aa 3e 25 a7 d0 3e 2e a8 92 3e ce 5a 3f 3f
       0.33349213 0.4075252 0.28643936 0.7474793
000280 77 aa 8d 3e 7a b2 6c 3e 6d 88 20 3e 56 8e 1b be
       0.27669117 0.23114958 0.15677042 -0.15191016
000290 c5 bd 6a 3d 30 ab 60 be 23 62 a6 be 41 54 b1 3e
       0.057309885 -0.21940303 -0.32496747 0.34634593
0002a0 7d bd e5 3e f5 86 17 3c 87 92 30 3e 3f 08 62 3d
       0.4487113 0.009248485 0.17243396 0.055183645
0002b0 94 ae cb be 6e c2 e3 be ea 1a bd be 8e 38 8b 3e
       -0.3978163 -0.44484276 -0.36934596 0.27191585
0002c0 99 9b 26 3d c6 4e ed be 6b 0a e7 be 91 4d b0 be
       0.040675733 -0.46349162 -0.45125136 -0.34434178
0002d0 9f f9 ea bc 79 61 de bd 28 9d b7 3b b1 44 c8 3d
       -0.028683482 -0.10858435 0.0056034513 0.09778727
0002e0 3e 73 65 3e c2 b9 47 3e 9c 22 db 3e db a6 4f 3e
       0.22407243 0.19504455 0.42799842 0.20278494
0002f0 77 47 ac 3d 37 22 de 3d 3e d1 eb 3e aa 04 43 be
       0.08412068 0.1084637 0.46058077 -0.19044748
000300 3a fa 39 bd f8 2b 08 be a4 aa 0a 3e 78 6f 81 be
       -0.04540465 -0.13298023 0.13541657 -0.25280356
000310 04 be 32 be 88 4a 18 bd b5 ce 02 3f d5 3d 78 bf
       -0.17455298 -0.037180454 0.5109666 -0.9696935
000320 89 f8 85 3c 2b 3e 9f be 8a 38 aa be 1b 65 00 bf
       0.016353862 -0.31102118 -0.3324626 -0.50154275
000330 13 ee 86 3d a3 5d c1 bd 1b c7 a7 3e c8 83 10 bf
       0.06588378 -0.09441688 0.32769093 -0.5645108
000340 e3 dd 1c be de dd eb be 25 8f 14 3e 1d 86 aa bd
       -0.15319018 -0.4606771 0.1450773 -0.08326361
000350 cc be 09 3e ad 5a bf be c2 56 a6 3e dc 3e 8a be
       0.1345169 -0.37373868 0.32488066 -0.27001083
000360 ae d1 c1 be 23 66 21 bd ee dc b7 3e ad fa 20 3d
       -0.37855285 -0.039404046 0.35910743 0.039301563
000370 ba 95 88 bd 71 98 8c 3d f9 16 42 bc 6a d6 e8 be
       -0.06669183 0.068650134 -0.011846297 -0.45476085
000380 a9 2b 92 3e 42 47 98 bd 34 a7 3e bf 12 08 9d bd
       0.28548935 -0.07435466 -0.7447388 -0.07667555
000390 e7 e2 12 3d 46 d7 ab be f5 5b 19 bf 17 da 2e 3f
       0.035860922 -0.33562678 -0.5990594 0.6830153
0003a0 d0 12 ba 3d 34 0f dc be 1e c2 c2 3e a8 99 5a 3e
       0.090856194 -0.4298035 0.38038725 0.21347678
0003b0 f1 0c 90 3e b3 84 77 3e 8b 5e 90 be c4 d6 55 be
       0.28134874 0.24171714 -0.2819713 -0.20882708
0003c0 4e 0e 1a be 3e 13 7d 3f 78 59 64 bd 38 51 e2 bc
       -0.1504452 0.98857486 -0.055749387 -0.027626619
0003d0 3a 6c b3 be f0 e4 1f 3e c7 d7 89 bf 32 5f 8f bf
       -0.35043508 0.15614676 -1.0768975 -1.1200926
0003e0 58 39 5d bf f7 1f a9 be fd 9e 0b be a7 4c 09 3d
       -0.86415625 -0.330322 -0.13634868 0.033520367
0003f0 9c a8 cf 3d 00 c9 ca 3d ae 94 15 3f de 23 37 3f
       0.101395816 0.09901619 0.5842999 0.71539104

Variable_22/read f4 [16]
000000 aa 35 07 bf 4f da 73 be b2 5a 6d be ef b2 05 bd
       -0.5281626 -0.23813747 -0.23179129 -0.032641347
000010 1a 44 22 c0 cd 75 c2 bd f9 70 64 be eb a8 8d 3e
       -2.5354066 -0.09495125 -0.2230872 0.27667937
000020 21 34 b0 be 24 fc 80 3f e0 fe c5 3d c5 67 98 be
       -0.3441477 1.0076947 0.09667754 -0.2976667
000030 6e dc cb 3d cd 92 6e be 39 2e 48 3f a8 97 58 bf
       0.09954153 -0.23298188 0.7819553 -0.8460641

Variable_23/read f4 [16]
000000 20 f7 8a 3f 98 f7 6b 3f 2a 9d 66 3f ed e4 81 3f
       1.0856667 0.92174673 0.90083563 1.0147988
000010 01 cb 8b 3f da 19 89 3f 66 c1 7f 3f a2 e5 39 3f
       1.0921327 1.0711014 0.9990448 0.72616017
000020 90 63 1a 3f 69 8f 1a 3f 1f a2 6f 3f 0e 0c 89 3f
       0.6030817 0.60375077 0.9360675 1.0706804
000030 e0 86 2c 3f bc 61 4a 3f 01 70 23 3f d5 43 55 3f
       0.673933 0.7905538 0.6384278 0.8330663

Variable_24/read f4 [16, 3, 3, 16]
000000 03 02 66 be b1 36 b8 be cf 51 17 3f 2c a0 91 bd
       -0.22461705 -0.35979226 0.59109205 -0.071106285
000010 14 e2 42 bf cf a7 00 3e 4e 92 59 bf ce c9 09 3e
       -0.7612622 0.12564014 -0.8498887 0.13455889
000020 87 37 28 3f cd f6 26 bf 38 c2 c7 3e 0a f6 f2 bb
       0.6570973 -0.6522034 0.39015365 -0.007414584
000030 93 81 0a be fd 3c 8f 3e 1d b4 34 bf a4 92 28 3f
       -0.13525991 0.27976218 -0.7058733 0.65848756
000040 3c e4 38 bd fc 52 12 bf 45 8f a2 3e c5 39 99 be
       -0.045139536 -0.57157874 0.3174993 -0.29926887
000050 f3 ec 7d bd c5 78 ca bd 15 27 d8 3e 07 5c 04 3b
       -0.06199355 -0.09886316 0.42217317 0.0020196454
000060 0d 45 10 3f 9e b2 c3 be 60 c5 9b bd d5 af 34 be
       0.56355363 -0.38222212 -0.07606006 -0.176452
000070 f0 07 89 3e 39 cf b3 be 49 9a 4d bf 58 f2 d2 3e
       0.26763868 -0.35119036 -0.80313545 0.4120052
000080 90 d6 0f 3f 9f 15 97 be 8b 10 60 be 75 96 81 3e
       0.5618677 -0.29508683 -0.2188131 0.25310102
000090 de 32 af 3b 4d d9 bf be 85 60 1b 3f f9 78 60 3d
       0.00534664 -0.37470475 0.6069415 0.05480287
0000a0 9c e0 64 3f 43 83 1b 3d 00 bb cf be 32 2e 18 bc
       0.89405227 0.037966978 -0.40572357 -0.009288358
0000b0 5f 86 6b 3d 63 65 fc 3e 7a 36 60 bf 0c 83 fc 3e
       0.057501193 0.49296102 -0.87583125 0.4931873
0000c0 b4 8c d0 3b a1 05 dc be 4f bf ac bd ef 27 be be
       0.0063644294 -0.42973045 -0.08434927 -0.37139842
0000d0 f1 cc 00 bd 4d 2c cc bc 60 c8 a8 3e 4c d8 e5 3d
       -0.031445447 -0.024923468 0.32965374 0.11222896
0000e0 04 19 3b 3f 23 5c 56 be 34 2d f5 bd cd 7a 93 be
       0.73085046 -0.20933585 -0.119715124 -0.28804627
0000f0 dc 64 fe 3c 23 c9 8a bd ad 1d 0a bd ff 04 1e 3f
       0.031053953 -0.06776645 -0.033719707 0.61726373
000100 39 ed 4c 3e df c0 23 3e 32 10 36 3e fe 7d 51 be
       0.20012368 0.15991543 0.17779616 -0.20458218
000110 47 70 80 be 04 da 89 3d 69 d9 32 bd ea 5a a1 3e
       -0.2508566 0.06731036 -0.04366437 0.31514674
000120 12 49 8f 3e 6f 5b 58 be 5e 07 ac 3e 12 92 18 3d
       0.27985436 -0.21128629 0.3359937 0.03724868
000130 d6 39 6a 3e 03 77 6b bf 5f 53 ad 3d e0 47 48 be
       0.22873625 -0.9197847 0.084631674 -0.19558668
000140 33 6c 8b 3e 3c ca f4 3d 62 74 f3 bd b5 22 8a 3d
       0.27230987 0.11952636 -0.11887433 0.06744901
000150 3f 16 0b 3e be 51 2d 3f 4e fe d9 3d d4 3e e9 3e
       0.13582705 0.67702854 0.10644208 0.45555747
000160 bc f9 d4 bd 80 61 09 bf aa 8f 3f 3e 82 d7 92 3e
       -0.103991956 -0.536644 0.18707147 0.28680044
000170 93 21 b1 3e 44 3d 39 3f 58 e7 05 bf 52 90 d5 3e
       0.34595928 0.7235911 -0.5230613 0.4171167
000180 44 f4 8a 3e 77 db 9f bd 77 f0 02 3f e9 26 4b be
       0.27139485 -0.078055315 0.5114817 -0.19839062
000190 03 4b f3 bc bc 4d 3a bd 27 c4 1c 3f bd 93 98 be
       -0.029698854 -0.04548429 0.61236805 -0.29800215
0001a0 5f 40 2a 3f 93 88 ce 3b ed 1d 17 3f 49 b1 d6 be
       0.6650447 0.006302902 0.5903004 -0.41932133
0001b0 60 6e 1f 3e d8 8a b1 3b 31 ad 4e bd 8c 07 88 3e
       0.15569448 0.005418163 -0.050458137 0.26568258
0001c0 b1 9a 04 3e a2 f2 06 3e 1e d1 3b 3f 0a f1 c9 3e
       0.12949635 0.13178495 0.7336596 0.3944171
0001d0 4e d5 95 3d 1f a3 18 bd 61 a3 32 3e 9e 0a 23 3f
       0.07316075 -0.03726494 0.17445137 0.63688076
0001e0 4c f0 24 bd 73 01 14 3f a1 f0 d7 3c fd 97 90 3e
       -0.040268227 0.5781471 0.026359858 0.28240958
0001f0 26 4a 98 3e ed 0b 0b bf b4 6e b0 be b4 fd e8 3e
       0.2974407 -0.5431507 -0.3445946 0.4550606
000200 90 a3 fe 3e 92 ce aa bd 80 73 9d be 26 57 95 3e
       0.49734163 -0.083401814 -0.30752182 0.2916805
000210 f2 21 a5 be 54 4a e1 be 5b 35 ff 3e c6 14 f3 bc
       -0.3225246 -0.4400202 0.49845394 -0.029672991
000220 e7 07 01 3d f0 f5 98 be f5 c3 32 bf 8d 0d a1 bc
       0.031501677 -0.29875135 -0.69830257 -0.019659782
000230 10 4f b1 3e e5 c9 41 3f 7a 6a 15 bf d7 3e 7e be
       0.34630632 0.7569869 -0.58365595 -0.24828659
000240 24 ee 8c 3e dc 75 0c 3f f7 f7 9f be f1 f9 25 be
       0.27525437 0.5486734 -0.3124387 -0.16208626
000250 e8 f4 df bf 80 4f 49 be 1d 32 78 be f9 a6 1d bf
       -1.7496614 -0.19659233 -0.24237867 -0.61582905
000260 df 47 5b be a6 8d 16 3f 3e f7 11 3e 9c 6e 26 bf
       -0.21414135 0.5880989 0.14254472 -0.65012527
000270 74 e7 bc 3e 09 de ac bb 6c 8b c6 bd 90 7a 4e be
       0.36895335 -0.005275492 -0.09694561 -0.20163941
000280 6d 00 5e 3e 72 ae 3b 3e 19 fd 70 3d b9 5b 3f be
       0.2167985 0.18328264 0.058835123 -0.18687333
000290 bc ab b0 bf fe ca 27 3e 23 3a 9b bd 62 17 a7 be
       -1.3802409 0.16386029 -0.07579448 -0.32635027
0002a0 cc 23 b4 3e 49 14 c7 3e fa ec 10 3f 4c c7 d3 3d
       0.3518356 0.38882664 0.566116 0.10340747
0002b0 23 11 be ba 42 61 a8 be 33 44 06 be 8c 32 95 be
       -0.0014500957 -0.32886702 -0.13111953 -0.29140127
0002c0 50 72 37 be 20 fa 8f 3e 7b 92 8c be d7 58 22 be
       -0.179147 0.28120518 -0.27455506 -0.15854202
0002d0 61 7d 69 3f 3e 6c 8d bd 65 90 ed 3d bd 4e 39 bd
       0.9120694 -0.06905411 0.11599807 -0.045241106
0002e0 00 a2 c8 bd d6 ab c9 3e ec 7c 87 3d 3a e0 31 3d
       -0.09796524 0.39388913 0.06615624 0.04342673
0002f0 9a 50 8c be 25 9a 75 bc f0 23 4b 3e 5d 9c 65 3e
       -0.27405244 -0.014990364 0.19837928 0.22422929
000300 eb 9f c8 bc 20 ae 64 3e df 28 6c be 11 eb 5a be
       -0.024490317 0.22332048 -0.23062466 -0.21378733
000310 4a a3 06 c0 bc 1d 21 3e ae 3f 23 3e 21 45 d7 3c
       -2.1037164 0.15733999 0.1594226 0.02627808
000320 54 7f 41 bf 8d 75 a8 3d a9 d3 16 be 2c 32 5d 3e
       -0.7558491 0.08225546 -0.1472918 0.2160117
000330 02 e1 81 bc 07 bf f9 bd 50 9b 8b be df ca 92 be
       -0.015854362 -0.12194639 -0.27266932 -0.28670403
000340 04 81 1b be f4 01 03 3f fe 72 b5 3d 71 4e 09 bf
       -0.15185934 0.51174855 0.08859824 -0.5363532
000350 ca 82 2a c0 14 44 29 bd f4 f4 2e 3e 1f a7 4d 3c
       -2.6642327 -0.04132469 0.1708563 0.012552052
000360 91 06 87 3e 78 c0 3a be 0a 4d 08 be 93 4c 0d 3e
       0.26372197 -0.18237484 -0.13310638 0.13798742
000370 d6 d9 be bd 2d dc d3 bd 6b 2a 59 3e 49 ce 40 bf
       -0.09318893 -0.103447296 0.21207587 -0.75314766
000380 c2 ef a3 3e 3b 11 0b 3f 70 50 ff 3e f5 dc b6 be
       0.32018858 0.54323167 0.49866056 -0.35715452
000390 15 8b 18 3d 53 08 16 bf 2c 0a 0a be 2f bb 51 3e
       0.037242014 -0.5860645 -0.13480443 0.20481561
0003a0 08 7f f0 3d 4c 0d c7 3e 5f 6e 93 bd 16 9b 4d be
       0.11742979 0.38877332 -0.07198786 -0.20078692
0003b0 98 75 0a be b5 51 49 3e 7e 74 3d 3e 30 a4 e9 3e
       -0.13521421 0.19660075 0.1850147 0.45633078
0003c0 8b 27 a2 be ed e5 78 3e c1 7d 67 3e 60 5f 28 3d
       -0.31670794 0.2430646 0.22606565 0.04110658
0003d0 05 1d 8c be 44 a6 46 be f4 29 2b bf 2d f2 28 3e
       -0.2736589 -0.19399363 -0.6686089 0.16498633
0003e0 63 98 1e bf 40 b5 51 bf a8 1c a9 3d c5 a1 75 bd
       -0.61951274 -0.8191719 0.08257419 -0.05996873
0003f0 54 a6 1e 3e 34 17 db 3d 7a ab 22 be 92 85 3b 3e
       0.15493137 0.10697785 -0.15885726 0.18312672

Variable_25/read f4 [16]
000000 7e 19 15 bd 24 cb a2 bd fc 29 90 3c 18 5b 9a 3c
       -0.036401264 -0.07948902 0.017598145 0.018842265
000010 90 3b f8 bd f0 44 cd bc 76 77 9b 3d 0b 71 b1 3d
       -0.12120736 -0.025057286 0.07591145 0.08664139
000020 12 47 3f bd 9b b6 ce 3d 8c 90 89 3d bf bc 13 3d
       -0.046698637 0.10093423 0.06717023 0.036068674
000030 ee ac bb 3c 9a 91 3e 3e 23 14 bb 3e 75 ef 12 3c
       0.022909608 0.1861023 0.365388 0.008968224

Variable_26/read f4 [16]
000000 f0 e8 87 3f 76 4f 12 3f 90 05 7b 3f 34 99 48 3f
       1.0617962 0.571525 0.9805536 0.7835877
000010 90 73 23 3f af a7 4f 3f 11 33 5b 3f e8 f3 02 40
       0.6384821 0.8111524 0.85624796 2.0461369
000020 db 25 4a 3f 65 6d 9a 3f 88 ef 36 3f 79 66 7c 3f
       0.7896401 1.2064635 0.71459246 0.9859386
000030 65 2d 97 3f 9d 58 86 3f f6 24 42 3f cc f3 83 3f
       1.1810728 1.0495793 0.7583765 1.0308776
