examples/style_transfer/model/red-vineyards.onnx (onnx, 133912 bytes, 48 tensors)

Variable_9/read/_47__cf__47:0 f4 [16, 16, 3, 3]
000000 d4 11 22 be 45 37 19 be b3 d3 e1 3e d5 d4 9d 3e
       -0.15827113 -0.1496249 0.44106826 0.3082644
000010 a4 c8 ba 3e 9f 08 a8 be 7c 70 eb bf ce 01 d5 be
       0.36481202 -0.32819077 -1.8393703 -0.4160294
000020 74 98 e8 3d 4a 4b 39 bf bd 7a 7d be b2 2a c9 be
       0.11357203 -0.72380507 -0.24753852 -0.39290386
000030 47 49 d5 be 24 5e 16 bf 84 08 1b bf c7 bc b8 be
       -0.4165747 -0.587374 -0.6055987 -0.36081526
000040 70 3e 92 be 5e f0 38 bf 32 90 02 bf 0c c4 90 be
       -0.2856326 -0.7224177 -0.51001275 -0.28274572
000050 f1 e3 9b be 07 31 20 3e 84 e7 d1 be ef 7d 8e bf
       -0.30447343 0.15643702 -0.40996945 -1.1132182
000060 8f 4c 30 bd 2a 4d 83 bf 49 0d 3c bf c5 27 60 3e
       -0.043041762 -1.0257924 -0.7345777 0.21890171
000070 65 e0 38 3f 86 31 80 3e dc ec 8d 3e bb 71 a6 3d
       0.722174 0.25037783 0.27719772 0.08127161
000080 fe 1c 80 bc 5b 42 38 3e b0 38 a9 bc 72 1a f8 3e
       -0.015638825 0.17994063 -0.020656914 0.48457676
000090 4e 78 6b be 96 89 7a 3e 62 d6 89 be 31 ca bf 3e
       -0.22995111 0.24466547 -0.26921374 0.37458947
0000a0 fc 1f 2d 3e 09 c1 0e 3e bb 98 24 3e 95 07 7e be
       0.16906732 0.13940825 0.16073887 -0.2480758
0000b0 0b 8a 2f be b3 d3 81 3e 50 e4 dc 3d 1e 03 d1 bd
       -0.17142503 0.25356826 0.10785735 -0.10205673
0000c0 9c c1 37 3d 4c 91 2f be 89 2c 1b 3f ce 69 09 bf
       0.044862375 -0.1714527 0.6061483 -0.5367707
0000d0 33 72 f2 be d6 f0 ea bd 3e b6 a2 bc 97 30 c0 bd
       -0.47352752 -0.11471717 -0.01986229 -0.09384268
0000e0 7a d6 07 bf 8a dd 3a be a6 a3 49 be ea 7d e7 bd
       -0.5306164 -0.18248573 -0.19691333 -0.11303313
0000f0 49 34 5c bf 30 ed 09 be 4a ed f4 3d 08 a2 43 be
       -0.8601728 -0.13469386 0.11959322 -0.19104779
000100 0b d1 d2 3c e8 5d 0e be 95 c9 d1 be 91 25 45 be
       0.025734445 -0.1390301 -0.40974107 -0.19252612
000110 4e d6 0d 3e ce 7e a8 be f1 07 2b bd 30 01 61 3e
       0.13851282 -0.32909244 -0.04175562 0.21973109
000120 ab 32 e5 bc 62 6b 28 be a3 77 00 bd 94 4b 88 3d
       -0.027978262 -0.16447213 -0.031364094 0.066550404
000130 ad b2 6e 3c fb 87 e7 3e 0f c6 f1 bd 64 35 e9 3e
       0.014568967 0.45220932 -0.11805355 0.45548546
000140 c4 bd 29 be 9d 5b 90 3e f2 a6 69 3e ad 18 aa 3e
       -0.16576296 0.28194895 0.22817591 0.3322195
000150 df cc 68 3e 30 50 f8 3e 83 5d 54 3f b2 99 90 bd
       0.22734402 0.48498678 0.8295519 -0.07060565
000160 68 fd 11 3f d7 ea f2 3c c8 6f 0a bd e0 1c 2c 3e
       0.5702729 0.029652996 -0.03379801 0.1680789
000170 ec 20 3f 3c ae 3e 35 bf 64 a2 3d 3e 8f 48 27 3e
       0.011665564 -0.70798767 0.18518978 0.16336273
000180 6f b8 fe be cd 40 c7 be 05 46 60 3d cd fe ee be
       -0.49750087 -0.38916627 0.054754276 -0.46678773
000190 51 20 30 bf ca 7c 1e 3e a6 f2 a9 bd 66 4c 65 3e
       -0.6879931 0.15477291 -0.08298235 0.22392425
0001a0 18 1b 2c bd 31 f1 ab bb 05 72 ee 3e f0 c9 00 3e
       -0.042018026 -0.005247258 0.46571365 0.12577033
0001b0 a7 4d ad bd fd ea f7 be 83 19 74 be 3c 2c fb be
       -0.08462077 -0.4842147 -0.23837857 -0.49057186
0001c0 ad fb 82 be 8b 19 ab be 75 70 b4 bf fd bd 3f bd
       -0.25582638 -0.33417925 -1.4096819 -0.046812046
0001d0 ef 63 04 3f 06 da 1e bd c6 ec 78 3e 92 6e 52 be
       0.51714987 -0.038782142 0.24309072 -0.20549992
0001e0 78 dd e6 bd 29 01 74 be 4e e9 b6 be f3 1e 31 3d
       -0.112727106 -0.23828568 -0.35724872 0.043242406
0001f0 f0 eb d1 bd c6 a4 18 be 5a 09 2b be 3e 77 b9 bd
       -0.1025008 -0.14906606 -0.16702786 -0.09055947
000200 f0 01 be 3d 46 66 27 3e 4c a9 3e 3e 28 f3 8c be
       0.09277713 0.16347608 0.18619269 -0.27529263
000210 44 b2 12 be 1c 44 1f be 63 3b a1 be 7e 26 19 bf
       -0.14325815 -0.15553325 -0.3149062 -0.5982436
000220 6f b8 60 bc 4c d3 cd 3d 0a be 34 bf 2e 29 5b 3d
       -0.013715847 0.10050067 -0.70602477 0.05350607
000230 84 40 d6 3e 77 08 35 bf c6 26 20 bd 83 fe 79 3e
       0.41846097 -0.7071604 -0.039099477 0.24413495
000240 1d 3c 28 be 4a 9a 46 be 65 d0 54 bd 6b 9f 25 bd
       -0.16429181 -0.19394794 -0.051956553 -0.040435236
000250 1d f3 75 be 02 d7 e5 3b 8f 47 2d 3e d2 05 bc 3c
       -0.24018522 0.0070141563 0.16921829 0.022951994
000260 49 7d 6f 3d 3b 2d 18 bf 77 db 4f be 1d 99 2e be
       0.05846909 -0.59444016 -0.20298563 -0.17050596
000270 17 a5 10 bd d1 a6 73 3e a5 9b 88 3c fa f9 f9 3e
       -0.035313692 0.23794104 0.01667578 0.4882353
000280 15 bc 54 3c d9 cd fc be d1 c1 0e be ec 96 1f 3d
       0.012984295 -0.493758 -0.13941123 0.03896229
000290 8b 39 af bd 77 76 a6 3d 45 8b 99 3e ef 02 d7 3d
       -0.08555897 0.08128064 0.29989067 0.104986064
0002a0 24 ac 60 3e df c1 e9 bd c1 04 79 be dc d0 88 bf
       0.21940666 -0.11413931 -0.2431822 -1.0688739
0002b0 c8 b7 3a bf 4b 54 29 bf 49 cf 06 bf f1 fe 51 bf
       -0.7293668 -0.66144246 -0.5266004 -0.82029635
0002c0 d2 3b 3a bf b9 35 31 bf 86 4b 85 bf b9 f6 a3 bf
       -0.7274753 -0.692226 -1.0413673 -1.2809669
0002d0 5e 40 47 be 96 88 11 bf a4 78 c1 be c6 bb fd be
       -0.19458148 -0.5684904 -0.37787354 -0.49557322
0002e0 a1 a4 31 be 92 39 c7 be 2f de 5d bf 8b d2 4c bf
       -0.17347957 -0.3891111 -0.8666715 -0.80008763
0002f0 97 2f 82 bf 80 e4 f5 be 37 cc 37 bf 5c bd 61 bd
       -1.0170773 -0.48025894 -0.7179598 -0.055112228
000300 ea 0c 39 be 41 31 f3 3d b9 3f 16 3f fa f0 79 be
       -0.18071333 0.11874629 0.58690983 -0.24408332
000310 49 69 11 bf e1 4f 74 bd 2f 30 fe be 1b 1f b6 be
       -0.5680128 -0.05964649 -0.49646136 -0.35570607
000320 fe fb d8 be 57 67 c0 be 69 ca c2 3d e3 a7 c5 bd
       -0.42379755 -0.37578842 0.09511263 -0.096511625
000330 e7 92 f2 be ac 38 9a bf 75 8c 13 bf 27 77 85 bf
       -0.47377703 -1.2048545 -0.57636195 -1.0426987
000340 a2 4f eb bd 06 7c a5 bd 67 ec 1b bf ae 25 0b bf
       -0.11489798 -0.08080296 -0.60907596 -0.5435437
000350 43 3b 16 be 6e 47 9c be 03 36 08 bf f0 44 e8 3d
       -0.14671044 -0.30523247 -0.53207415 0.11341274
000360 49 36 0a 3f 9c 4d 0c 3c 9a 7b cb bd 45 dd af bc
       0.5398908 0.008563425 -0.099356845 -0.021467814
000370 26 dd a7 bd 8b 35 24 3e 68 9e 18 bd 00 f8 80 3e
       -0.081964776 0.1603605 -0.037260443 0.2518921
000380 2f 46 08 3f 88 dc 36 bf 95 42 ab be 4a cb 0f bf
       0.5323209 -0.71430254 -0.33449236 -0.5616957
000390 4d 7b 5b be ac bf 44 bc 6a ba 47 bc 82 82 9b be
       -0.21433754 -0.012008589 -0.012190441 -0.30373007
0003a0 61 30 44 be 6f 07 17 bf 84 b3 20 bf 76 13 e7 bd
       -0.1915908 -0.5899572 -0.6277392 -0.11283009
0003b0 63 70 25 bf 01 f8 1d be e6 9c b9 bd 3e e5 92 be
       -0.64624614 -0.15426637 -0.09063129 -0.28690523
0003c0 71 6a 0d be ff ec 38 be 3d bd ce be 1b b3 87 be
       -0.13810135 -0.18059157 -0.40378752 -0.26503834
0003d0 b6 8f f7 3d 34 e8 e1 be de c8 05 3e 37 f3 62 bf
       0.120879576 -0.4412247 0.13064906 -0.88652366
0003e0 24 97 02 bf 96 45 00 bf ae b1 00 3e 61 af b6 3d
       -0.5101187 -0.5010618 0.1256778 0.089201696
0003f0 74 77 19 3e 93 1b 09 be 10 32 06 be 54 59 1f 3e
       0.14986974 -0.13389425 -0.13105035 0.1556142

Variable_8/read/_46__cf__46:0 f4 [1, 16, 1, 1]
000000 da 41 0a 3f 00 82 b3 3e 0d 4a db 3e 3a a1 32 3e
       0.5400673 0.3506012 0.42829934 0.17444316
000010 e8 b4 b4 3e 22 d9 a1 3e 1b 0c a0 3e 40 4e 88 3e
       0.3529427 0.31610972 0.31259236 0.266222
000020 80 fd 60 3e aa a2 8e 3e ce 4d c8 3e 3a 4b 0a 3f
       0.21971703 0.27858478 0.3912186 0.54021037
000030 1f 4f 0f 3f 75 87 82 3e ef 40 c2 3e cb eb 31 3e
       0.55980104 0.2549397 0.37940165 0.17375104

Variable_7/read/_45__cf__45:0 f4 [1, 16, 1, 1]
000000 2f e3 0b 3e 72 c3 40 3c e5 19 4a bf 99 7c 37 3e
       0.13660882 0.011765348 -0.7894576 0.17918624
000010 26 58 1f bc 3c 14 2f 3d 80 03 01 3d 45 f9 83 3e
       -0.009725606 0.042743906 0.03149748 0.25776115
000020 c2 8c 22 bd 1b 25 ab be 61 20 b1 3e 9a fd 0c 3e
       -0.03968502 -0.33426747 0.34595016 0.13768616
000030 5f 56 f5 3d 48 eb 92 bd 54 34 77 3d 49 a6 55 3e
       0.119793646 -0.071737826 0.06035264 0.20864214

Variable_6/read/_44__cf__44:0 f4 [16, 8, 3, 3]
000000 a6 ea 78 3d 0c 28 19 bf a5 55 7e be a7 7f 28 3f
       0.060770653 -0.5982673 -0.24837358 0.6581978
000010 b6 17 e0 3c 1b b9 11 be 95 3e 11 3e fe ef b6 3e
       0.027355056 -0.14230768 0.1418403 0.35729975
000020 19 70 98 be b6 3e 17 bf 15 30 02 3f c7 85 b1 3d
       -0.29773024 -0.59080064 0.5085462 0.08668094
000030 4b 83 52 bd 2c 77 2b bf 02 30 56 3e 23 75 26 3f
       -0.051394742 -0.66978717 0.20916751 0.65022486
000040 82 ff 7d bf ae c9 18 3f c9 b8 d7 be 50 42 f9 3e
       -0.99218 0.5968274 -0.42133167 0.48683405
000050 4b 75 88 3e 0f 0a 58 be a5 9d ef 3e bb 75 9f bd
       0.26651987 -0.21097587 0.4679996 -0.07786127
000060 b2 04 76 3e ac 74 d3 be 9d 91 92 3e 86 08 00 be
       0.24025229 -0.4129995 0.2862672 -0.12503251
000070 6a 0e 04 3e eb cd 24 3f a8 f0 27 bf af d9 31 be
       0.12896124 0.64376706 -0.6560159 -0.17368196
000080 c3 4f de 3e 5f 32 9e be 76 e9 00 be 11 77 49 bd
       0.43420228 -0.30897805 -0.12589058 -0.049185816
000090 7f 64 77 3e 87 a7 7b be 7a 80 1d 3c 0d 99 0a 3f
       0.2415943 -0.24575625 0.009613151 0.54139787
0000a0 c9 04 37 bf dc 78 63 be 87 1d f0 3d 91 31 b1 be
       -0.71491677 -0.22214073 0.11724382 -0.3460813
0000b0 82 55 50 be 64 ec 8c be 20 b8 32 be 98 94 57 bc
       -0.20345119 -0.27524102 -0.1745305 -0.013157986
0000c0 66 de 3c be 39 47 1e 3e 10 e3 d4 bd 06 b1 71 bd
       -0.18444213 0.15456857 -0.10394871 -0.059006713
0000d0 ad bf 82 3e 5c 3f 03 3e 75 3b f7 3d 7a 24 1f bf
       0.25536862 0.12817138 0.120718874 -0.62165034
0000e0 58 13 ab bc e9 76 75 3e 5b 34 de 3e af 92 34 bf
       -0.020883247 0.23971142 0.4339932 -0.7053632
0000f0 40 b7 ec 3d 6d e6 3d 3f 2d e3 a0 be 85 ba 68 3d
       0.1155839 0.74179727 -0.3142332 0.056818504
000100 7a 1e f5 3a 40 a5 d4 be bf be 15 3e 6d 59 1a be
       0.0018701099 -0.41532326 0.14623545 -0.15073176
000110 14 65 d2 bd 95 3e 2e bd 52 2a 13 be 00 20 8e be
       -0.10273185 -0.04254015 -0.14371613 -0.2775879
000120 d0 ae b1 3e ed 92 19 bd 7f d7 a6 be ff ad a5 3d
       0.34703684 -0.037493635 -0.32586285 0.08089828
000130 99 7c fb 3d 9c d5 f9 3d a4 4f 79 be 3d 1f 96 be
       0.122796245 0.12198946 -0.24346787 -0.29320708
000140 1e 1d ce 3d 52 b3 5d 3e 0a 5a 25 3d 0e ff a6 be
       0.100641474 0.21650437 0.04036907 -0.32616466
000150 3d a7 c2 3e 37 9f d8 3e 25 2d 13 bf 3a b1 8a bd
       0.38018218 0.4230897 -0.5749076 -0.067720845
000160 1d 3d 2d 3f b6 0f eb be 32 30 b1 be 9b 11 a3 be
       0.67671376 -0.45910424 -0.34607083 -0.3184937
000170 69 71 ba 3e 75 fb 4c be 47 51 1a 3c 92 73 8d 3e
       0.3641465 -0.20017798 0.009418792 0.27627236
000180 d9 f5 f8 3c 39 11 44 3e 5d 9b 96 3e 65 04 c8 bd
       0.030390667 0.19147195 0.29415408 -0.09766463
000190 d8 09 18 be 59 76 c5 3e b7 4b 84 bd 46 b1 9f be
       -0.14847505 0.38566855 -0.06459754 -0.31189936
0001a0 2e 0e 4f bd 9d 33 12 3f 80 50 cf bb 57 b1 1a be
       -0.050550632 0.57110006 -0.006326735 -0.15106712
0001b0 b2 9a 45 bf ea 1e c8 3e ee aa 21 bc b6 a6 7e be
       -0.7718917 0.39086086 -0.009867413 -0.24868283
0001c0 5c 8c d8 bb 3d 92 4f be f8 1f 4b be 33 e8 c5 be
       -0.006608529 -0.20270629 -0.19836414 -0.38653716
0001d0 69 df 29 bf 0f 83 39 bf 93 06 a3 3e 64 cd 0a 3f
       -0.6635652 -0.72465605 0.31840953 0.5421965
0001e0 62 2c 41 bf 67 d5 6f 3e 61 20 19 3f 42 12 09 bf
       -0.7545835 0.2342125 0.5981503 -0.53543484
0001f0 2c 6b b6 3d b0 ca 30 3f 51 28 1e be c1 04 c9 3e
       0.0890716 0.69059277 -0.15445067 0.3926144
000200 1c e3 a1 be 13 16 a3 be 1b 5b b1 3e 5e f6 d2 3e
       -0.31618583 -0.3185278 0.3463982 0.41203588
000210 6a a9 3c bf d8 3f b2 bd 0b fd d0 3e e6 6d 36 bf
       -0.73696005 -0.087035835 0.40818056 -0.7126144
000220 74 0e 8a 3e 0f 45 31 3f 4d c9 0c bf 52 30 28 be
       0.26964152 0.69246 -0.5499466 -0.16424683
000230 fd 3f 97 3e 43 d0 0f be 02 44 eb bd f2 27 64 3e
       0.29541007 -0.1404429 -0.11487581 0.22280863
000240 30 3e 14 be 99 33 18 3e 88 ea 36 3f c3 b7 07 bf
       -0.14476848 0.14863433 0.71451616 -0.53014773
000250 a4 4a a9 be 9d 98 0e 3f d9 a1 5d be 01 37 f2 be
       -0.3306476 0.5570162 -0.21643771 -0.4730759
000260 17 e6 e7 3e e5 c2 a4 be 1e 57 cf 3e 22 5a a5 3e
       0.45292732 -0.32179943 0.40496153 0.32295328
000270 a7 56 35 bf e0 dc be 3e 26 0d 48 3f 24 bc 84 3d
       -0.70835346 0.3727789 0.7814506 0.064811975
000280 a0 1e 94 3e 27 b2 30 3f 85 24 6d 3e b4 67 55 be
       0.28929615 0.6902184 0.23158462 -0.20840341
000290 b3 5c 84 3b 9f 0e c7 ba c4 bc 36 be f4 4b 08 3e
       0.004039371 -0.0015186853 -0.17845446 0.13310224
0002a0 39 76 e0 bc f8 06 bf be 31 6a bd 3d e7 e8 40 3e
       -0.027400123 -0.37310004 0.0924877 0.18838845
0002b0 06 ac 3d be e2 55 d7 3d 92 73 d8 3e 40 19 a6 3e
       -0.18522653 0.10514428 0.42275673 0.3244114
0002c0 30 25 04 3f 69 c2 ff 3d 8a df 9e 3d 10 fa ac 3e
       0.51619244 0.12488253 0.077574804 0.33784533
0002d0 9a d5 19 3e 3b 93 f3 bd ea 69 01 bd 66 4e 30 3e
       0.15022889 -0.11893316 -0.03159515 0.17217407
0002e0 c9 f3 5b be 79 84 a9 bd 0c ba be 3e 88 d2 95 3d
       -0.21479715 -0.0827722 0.37251318 0.07315546
0002f0 77 d6 ea bd e0 ad e2 3d 45 7e de bd b8 93 26 3d
       -0.11466687 0.1106832 -0.10863928 0.04066822
000300 23 79 1f 3e 10 4a a5 bd 78 b9 25 be f5 4d 81 3e
       0.15573554 -0.08070767 -0.16184032 0.2525479
000310 26 d3 41 be 32 99 af be b4 f1 f0 3e 5f f7 8c bc
       -0.18928203 -0.34296566 0.47059405 -0.0172078
000320 f8 9f fd 3e 26 33 bc 3e c8 7b 70 be 74 17 02 be
       0.4953611 0.36757773 -0.23484719 -0.12704259
000330 a1 e1 6d 3e 87 cd d2 be 76 03 0a bf bb e1 e2 3e
       0.23230602 -0.4117243 -0.5391153 0.44312844
000340 04 b2 95 3e 45 e6 98 bc d0 8b da 3e 7e 3d ba 3e
       0.29237378 -0.018664489 0.42684793 0.3637504
000350 07 41 f9 be db 1d 27 3f 9b b7 1e 3f f3 2d 21 be
       -0.48682424 0.6527993 0.6199891 -0.15740184
000360 5f c1 29 bf 33 71 21 bf 52 7b 0e bf 43 2c 08 bf
       -0.66310686 -0.63063353 -0.5565692 -0.5319254
000370 ba 6e 23 bf d8 1a 0c bf 33 27 46 bd 09 03 c7 be
       -0.6384083 -0.5472846 -0.048377227 -0.38869503
000380 32 97 71 bf 6d 45 2c bf 58 9c 90 be 32 42 1b 3e
       -0.9437133 -0.67293435 -0.2824428 0.1516197
000390 53 86 8a be 15 84 eb 3e 0b 29 59 be 4b fb 01 bf
       -0.27055606 0.45999208 -0.21207063 -0.5077407
0003a0 21 a1 a0 3e 79 4e be be 0e b3 4d 3e a1 12 89 3e
       0.31372932 -0.37169245 0.20087835 0.26772025
0003b0 ff c7 37 3d f7 36 11 be 8d 26 e5 be ff 70 e6 bd
       0.044868466 -0.14181124 -0.44755974 -0.11252021
0003c0 2e 5d 8f be bc de 30 3e 11 57 3b 3d 25 f9 d8 bd
       -0.28000778 0.17272466 0.04573733 -0.105943955
0003d0 18 8a d0 3e 86 2a 5b 3e aa aa e9 bd 44 00 51 bc
       0.40730357 0.2140294 -0.11409505 -0.012756411
0003e0 4e 77 ab be 93 ff 40 be 04 11 9a be 23 72 a3 be
       -0.3348946 -0.18847494 -0.30091107 -0.31923017
0003f0 5f 8d d7 be f6 5e e6 3d 2c 45 cf bd 36 f9 10 bf
       -0.42100045 0.11248581 -0.10120615 -0.56630266

Variable_5/read/_43__cf__43:0 f4 [1, 8, 1, 1]
000000 4a c2 5c 3f 37 58 de 3f 35 bf 21 3f 00 9f 85 3f
       0.8623396 1.7370671 0.63182384 1.0439148
000010 63 14 10 3f 56 5d e6 3e 35 6c 43 3f 06 1d 16 3f
       0.5628111 0.44993085 0.76336986 0.58638036

Variable_47/read/_42__cf__42:0 f4 [1, 3, 1, 1]
000000 09 9b be 3e c1 a9 ac 3e ce b4 7f 3e
       0.37227657 0.33723262 0.24971315

Variable_46/read/_41__cf__41:0 f4 [1, 3, 1, 1]
000000 6d 0e f8 ba d7 c4 a8 bd 25 2c 60 be
       -0.0018925198 -0.08240669 -0.2189184

Variable_45/read/_40__cf__40:0 f4 [3, 4, 9, 9]
000000 1d 20 ba bd cc ec 53 be ed 6a f0 bd f6 8e 61 bd
       -0.09088156 -0.206958 -0.117391445 -0.05506798
000010 53 c0 45 bd 63 7f 31 3d 8f 61 6b 3d f7 1b ce 3c
       -0.048279118 0.043334376 0.057466086 0.025159819
000020 69 f0 94 3b a4 3d 7e bd 9e 3b 16 3a fa 50 56 3e
       0.0045452607 -0.062070504 0.00057309296 0.20929328
000030 01 e0 cf 3d d7 81 fa 3c b7 dd de 3d f8 f7 0d 3d
       0.10150147 0.03057949 0.108821325 0.03466031
000040 58 2c 17 bd f2 63 0f bd 21 1c 03 be 06 a2 ea 3a
       -0.036907524 -0.035007425 -0.12803699 0.001790107
000050 49 0b 53 3e ee c3 18 be 95 fc 80 be 15 0d 9c bd
       0.20609774 -0.14918491 -0.25192705 -0.07619683
000060 a1 14 22 be cb 75 38 be 32 bf 84 bd f2 da 79 be
       -0.15828182 -0.18013684 -0.0648178 -0.24399927
000070 1b 7f 0e be 4c 37 f1 bc 8d da d2 be a9 62 61 be
       -0.13915674 -0.029445313 -0.41182366 -0.22010292
000080 33 dc 9b 3d e0 c7 06 be e0 4e 9e bd b3 59 91 3d
       0.07610359 -0.13162184 -0.07729888 0.07097187
000090 2c 97 a0 be 6b c3 9e be 09 4c a0 be d9 41 10 bf
       -0.31365335 -0.31008467 -0.3130801 -0.56350476
0000a0 30 49 b1 3c 3f 25 8b 3e 63 5a 66 be 52 c9 20 be
       0.021641344 0.27176854 -0.22495417 -0.15701798
0000b0 ca 62 a3 3d 62 bb f4 be 11 1a 29 bf 6a 20 53 bf
       0.07977827 -0.47799212 -0.660554 -0.82471335
0000c0 d2 80 69 bf 06 aa a1 3c 3e 27 91 3e 60 60 d5 be
       -0.9121219 0.019734394 0.28350252 -0.4167509
0000d0 30 ef b7 be f2 37 84 ba d8 2e 8e be cc dd b8 be
       -0.35924673 -0.0010087474 -0.27770114 -0.36106718
0000e0 49 78 13 bf 80 9f 17 bf f8 0c a0 3e cd 3c f3 3e
       -0.57605416 -0.5922775 0.31259894 0.47507325
0000f0 51 df 41 be 2c c2 eb bd 5b c3 e2 3d 14 b9 61 3d
       -0.18932845 -0.11511645 0.11072417 0.055108145
000100 00 09 a2 3e 99 55 7e 3e d1 a7 a5 3d 55 b7 fa 3e
       0.3164749 0.2483734 0.08088649 0.48967996
000110 c0 b1 c1 3e b0 a6 3a be 62 aa 8d bd 4a be d4 3d
       0.37830925 -0.18227649 -0.069172636 0.10387857
000120 92 37 dc 3d aa b7 d1 3e 07 c0 bb 3e 36 4b d8 3d
       0.10752787 0.40960437 0.36669943 0.1056122
000130 5c e3 57 3e dd 86 68 3d 0c c5 72 be 8c 47 c5 bd
       0.21082824 0.05676924 -0.2370798 -0.09632787
000140 09 37 af 3c 7d 6b 76 bc 04 13 2b 3b ee d0 ba 3d
       0.021388547 -0.015040276 0.0026103863 0.091218814
000150 c3 b9 5e 3e 23 bc 2f 3e a6 31 f1 bd 64 67 2d be
       0.2175055 0.17161612 -0.11777048 -0.16933972
000160 70 89 27 be 4f 63 0f be 9c ae 9a 3b 46 f0 4b 3e
       -0.16361022 -0.14002727 0.004720522 0.19915876
000170 ec 5c a9 3e 16 61 d5 3e 52 0c af 3e 2d b5 c8 bd
       0.33078706 0.41675633 0.34189087 -0.098001815
000180 23 0f 87 bd 3f ed 8b bb e0 c4 90 bd b2 c1 94 3c
       -0.06594684 -0.0042702253 -0.07068801 0.018158767
000190 3d 26 a4 3e 71 ad cf 3e 8c 02 a3 3e e9 1c 59 3e
       0.32060423 0.40562013 0.3183788 0.21202435
0001a0 0a 13 6f be a6 d7 67 bd ca c7 bb 3d dc c3 a6 bd
       -0.23347107 -0.056602143 0.09168966 -0.08142826
0001b0 42 5b 23 3e c7 85 17 3f 8e 1c 28 3f 58 b2 b0 3e
       0.15952781 0.59188503 0.6566857 0.34511065
0001c0 dd 54 87 3d a4 53 dc be 71 c2 37 be e0 13 7c 3d
       0.06607983 -0.43032563 -0.17945267 0.06154239
0001d0 e9 ed 2a be 8b 06 97 3e 66 56 6f 3f 04 dd 8d 3f
       -0.16692318 0.2949718 0.9349121 1.1083074
0001e0 0d b6 3d 3f 34 97 b1 3e 09 ef a5 be 21 40 8e be
       0.7410591 0.3468567 -0.32408932 -0.277833
0001f0 05 16 c5 bd 47 5a 62 be d0 8c 43 bd 58 4a f6 3e
       -0.096233405 -0.2210475 -0.04774171 0.48103595
000200 63 61 53 3f 17 0d 1f 3f fd 91 1c 3f 4b 8c 4c 3d
       0.82570475 0.6212935 0.6116026 0.04993848
000210 54 26 5a be 37 37 bf bd c6 f0 20 be 56 0c 67 be
       -0.21303684 -0.09336703 -0.15716848 -0.225633
000220 2c 42 25 3e 79 af 2d 3f 46 d0 4d 3f 15 ff 96 3f
       0.16138524 0.67845875 0.80395925 1.1796595
000230 1a 83 3d 3f 05 29 b4 3d 26 a4 88 3d 74 01 a1 3c
       0.7402817 0.08796886 0.06671934 0.019654013
000240 55 84 97 bd 81 41 62 3e 32 78 fa 3e 1d 41 0f 3f
       -0.07398287 0.220953 0.48919827 0.5595873
000250 99 07 4c 3f cf de cf 3e 0e c3 37 bd 2e 20 aa 3d
       0.79699093 0.40599677 -0.044863753 0.08306919
000260 91 a1 bc 3d 90 41 0d be 78 36 66 bd 93 47 20 bd
       0.09210504 -0.13794541 -0.05620429 -0.03913076
000270 c7 b7 42 be 9f c9 64 bd 9e 37 a9 bd fe c9 06 be
       -0.19015418 -0.055856343 -0.08262561 -0.13162991
000280 47 41 bd 3d 40 58 07 3e 6d 1f bb bc e0 1e c0 bd
       0.09240966 0.13217258 -0.022842133 -0.09380889
000290 dc b0 dd bd 20 b1 0a bd ab 2c b9 3d 5f 5e eb 3d
       -0.10824749 -0.033860326 0.09041723 0.11492609
0002a0 97 45 10 3e 30 c0 9d 3e e7 38 85 3e 10 f6 e5 bd
       0.14089046 0.3081069 0.26019976 -0.11228573
0002b0 7c b3 2f be 57 9c 2d be 14 48 30 be 15 2d ed bd
       -0.17158312 -0.1695417 -0.17214996 -0.11580864
0002c0 d3 e6 1e be b5 83 5c be 6e 41 45 3c 9c 77 18 3e
       -0.1551774 -0.21534617 0.012039525 0.14889377
0002d0 38 b2 72 3d 67 1f 2c 3e 22 f2 58 3e 53 1a b4 3c
       0.059251994 0.16808854 0.21186116 0.021985209
0002e0 bf a7 6b be 55 ca db be 3d d5 0b bf ec fb a1 be
       -0.23013209 -0.42927805 -0.5462225 -0.31637514
0002f0 91 40 78 bd c1 2c c0 3d 76 66 a7 3e e2 e7 b3 3e
       -0.06060845 0.09383536 0.3269536 0.3513785
000300 86 69 26 be 81 48 09 bf c0 50 02 bf 99 ff f8 be
       -0.16251191 -0.5362626 -0.50904465 -0.48632506
000310 f1 5a 9e be 83 d0 a4 bd 31 4e 65 bd 8f c1 24 3b
       -0.30928758 -0.08047583 -0.055982772 0.0025139784
000320 77 a7 34 be 96 ec 6e bf 0f 30 9c bf b8 4d 1d bf
       -0.17642008 -0.9332975 -1.2202166 -0.61446714
000330 46 f7 97 be ad e5 38 be 46 9b 86 3a 62 7c 8f bd
       -0.29680842 -0.18056364 0.0010269664 -0.07006146
000340 c1 33 99 3c 0c 68 c4 bd c1 e0 5d bf e4 d5 99 bf
       0.018701436 -0.09590158 -0.8667107 -1.2018399
000350 b2 60 e6 be b5 aa f5 bd 99 b0 2a be 85 75 44 bc
       -0.44995648 -0.119954504 -0.16668929 -0.011990909
000360 89 c6 8c 3d be 91 b8 3e 2a 1a 1b 3f cb e2 0e 3e
       0.06873805 0.36048692 0.605868 0.13953702
000370 d2 ab 84 be 23 91 69 3d a6 7f cf 3b 82 2f 8f be
       -0.25912338 0.05702318 0.0063323556 -0.27965933
000380 a2 27 1b be 61 9d 94 bc ac b5 32 3e d2 c1 05 3f
       -0.15151837 -0.01814145 0.17452115 0.5224887
000390 aa ab dd 3e 39 2a 89 3e 77 2b da 3e 09 6f 5e 3e
       0.43295032 0.26790026 0.42611286 0.21722044
0003a0 97 7f 08 be c1 b0 9b bd b1 bb e9 bd c5 ba e4 bd
       -0.13329922 -0.076020725 -0.114127524 -0.11168436
0003b0 91 0f a3 3d 07 18 06 3e 1f f0 cd 3d f4 43 8b 3e
       0.079619534 0.13095103 0.10055565 0.27200282
0003c0 81 8e 2b 3e b0 25 be bd da c1 41 bd c4 06 88 bc
       0.1675358 -0.09284532 -0.047304012 -0.016604789
0003d0 26 cc 90 bd f7 09 2f be d3 1f 31 be e2 63 16 be
       -0.07070188 -0.17093645 -0.17297296 -0.1468654
0003e0 d5 ae d0 bd b3 e4 af 3b 9c 4d ae 3d a7 6f a0 3c
       -0.101895966 0.0053678392 0.085108966 0.01958449
0003f0 8f b7 04 3e 43 1c 3a 3e 1d 79 07 3e e0 63 74 3e
       0.12960647 0.18174843 0.13229795 0.23866224

Variable_44/read/_39__cf__39:0 f4 [1, 4, 1, 1]
000000 ae 3a 5b 3f 4a a8 1f 3f 6b 34 9e 3f ad a7 70 3f
       0.85636413 0.62366164 1.2359747 0.9400585

Variable_43/read/_38__cf__38:0 f4 [1, 4, 1, 1]
000000 56 36 96 3e 2f 35 3a 3f 4a 64 fe 3e 89 49 25 3f
       0.2933833 0.727374 0.4968589 0.6456533

Variable_42/read/_37__cf__37:0 f4 [8, 4, 3, 3]
000000 1c 22 3c bf 28 87 1b bf 78 8e 30 be e8 56 61 3d
       -0.73489547 -0.6075311 -0.17241848 0.05501452
000010 ba dd 90 be 72 b3 0b bf d0 d8 c2 bd 3a 79 11 be
       -0.28294164 -0.54570687 -0.0951401 -0.142064
000020 b2 bc 85 be 1c 41 0e 3f 9d 68 97 3e d2 e9 87 bb
       -0.26120526 0.555681 0.29572 -0.0041477466
000030 c7 cb 91 bd d2 f1 ce 3e 14 3c 79 3e 27 4a 55 be
       -0.071189456 0.4041887 0.24339324 -0.20829068
000040 15 55 e1 be 7d a2 2c 3e 39 c0 0b 3f dc f4 08 bd
       -0.44010225 0.1685886 0.54590183 -0.03343664
000050 4d d9 26 bf d3 4f 13 3e 98 61 a4 3e 7a d1 8a bd
       -0.65175325 0.1438592 0.32105708 -0.06778236
000060 2c cf c7 3d 9b b2 9a 3e 53 8c 18 3e 2e 4a cc bc
       0.09756312 0.3021439 0.1489728 -0.024937715
000070 25 d1 95 3d 55 bb e7 3b b0 0a 6a be c4 ea 58 be
       0.07315282 0.0070718923 -0.2285564 -0.21183306
000080 f2 c0 7f bf a6 e7 c4 b9 7f f3 9c bb ed e4 a6 3e
       -0.99903786 -0.00037556625 -0.004789769 0.32596532
000090 ad ed 97 3e 18 1b af be 4b 99 85 be 01 6f 19 be
       0.2967352 -0.34200358 -0.26093516 -0.14983751
0000a0 4d e2 90 be 5e a0 e9 be d6 96 98 be 1a cf cd 3e
       -0.28297654 -0.45630163 -0.2980258 0.40197068
0000b0 cd 09 b0 3e 8d 11 07 bd 9d b5 7a be 4e cf 28 bf
       0.34382477 -0.032975722 -0.24483342 -0.6594132
0000c0 40 a0 da bd 52 10 f8 be 9f c1 cf be 40 fc af bd
       -0.106750965 -0.4844995 -0.4057741 -0.08593035
0000d0 68 bb cc be 3b 2a e4 be 85 9e 2c be 02 ab 18 bd
       -0.3998673 -0.4456347 -0.16857345 -0.03727246
0000e0 ac 18 de be 83 73 bb 3d 4b 51 13 3d da e5 97 be
       -0.43378198 0.091528915 0.0359662 -0.2966755
0000f0 7d 95 66 3e 54 06 17 be 6a bc 8e be af 0b bb be
       0.22517963 -0.14748508 -0.27878124 -0.3653235
000100 d8 e4 f2 be 90 f9 64 bd 83 59 cb be 7d 62 08 bf
       -0.4744022 -0.055902064 -0.3971673 -0.5327528
000110 94 d3 04 bf 3b 73 67 be 5c 8a 8a be a4 2e b8 be
       -0.5188534 -0.2260255 -0.27058685 -0.35973084
000120 0c 70 f9 3d 95 b4 11 3e 89 2f 1b bc 46 f5 8b 3e
       0.12179574 0.14229043 -0.0094717825 0.27335566
000130 10 11 11 3f 3f 3f 12 3f 23 0f 5c bd ba 7c a1 3c
       0.5666666 0.57127756 -0.053725373 0.019712795
000140 1c c5 74 3e e6 18 fc be f7 6a 17 3f d9 ff d3 3e
       0.23903316 -0.49237746 0.5914759 0.41406134
000150 be 83 f4 bd cc b0 e1 be ff 19 38 3c b2 c1 a0 be
       -0.1193919 -0.44080198 0.011236667 -0.31397778
000160 91 aa 89 be 0c 78 df be a6 a6 a3 3d 86 70 04 3e
       -0.26887944 -0.43646276 0.0799077 0.1293355
000170 fc 13 1c bc 79 ea 16 bf 45 01 04 3f 92 08 04 bf
       -0.009526249 -0.58951527 0.5156444 -0.5157558
000180 dc 97 a2 be b1 d2 83 be e0 b4 6f be c5 cf a1 be
       -0.31756485 -0.25746682 -0.23408842 -0.31603828
000190 69 01 b2 3e d4 3b 0c 3f 20 7c 21 bf df 4d 65 3e
       0.347667 0.5477879 -0.63080025 0.22392987
0001a0 08 45 23 3e 47 85 01 be 40 d9 5b 3e 8f 16 d5 bc
       0.15944302 -0.12648498 0.21469593 -0.026011733
0001b0 ec 3c ab bd c1 0d 37 bd 9b e5 8e bd 2c 6d 86 be
       -0.08361229 -0.04469085 -0.069773875 -0.26255167
0001c0 5d 87 c8 3e 60 44 6d 3e c1 1a 76 3e 14 da b2 3e
       0.39165774 0.23170614 0.24033643 0.34932005
0001d0 96 c3 56 3e e6 b0 42 be 5c 67 f8 3e 95 0c c0 be
       0.20973048 -0.19012794 0.48516357 -0.375096
0001e0 66 82 4c 3e e4 18 2f 3f c5 91 75 3e 01 3f ac 3e
       0.19971618 0.68397355 0.23981388 0.33641818
0001f0 ec 75 03 3f c5 f4 66 3e 5c 48 b6 be a1 05 67 be
       0.5135181 0.2255431 -0.3560208 -0.22560741
000200 54 a9 24 bf 2e c6 88 bf 04 58 30 be 8d 96 61 bf
       -0.64320874 -1.068548 -0.17221075 -0.8812035
000210 72 b3 af be 74 6f 5b be 63 9b f7 bd 64 63 f7 bd
       -0.34316593 -0.21429235 -0.120901845 -0.12079504
000220 54 d1 2d be 57 79 3e be 52 8f 3a bf 59 f9 80 be
       -0.16974384 -0.18600975 -0.7287494 -0.25190237
000230 ca bc 07 bd d1 c2 29 3f c9 83 0a 3f 1d 32 06 3e
       -0.033139028 0.6631289 0.5410734 0.13105054
000240 8c fe 8c 3e 6e 23 8a be c7 17 20 3e 05 eb a1 be
       0.27537954 -0.26980156 0.1563407 -0.31624618
000250 34 29 c4 3e a4 61 39 be de ca 70 bc bc 4a 02 3f
       0.38312685 -0.18103653 -0.014696805 0.50895286
000260 e3 a7 c4 3e 0f dc bd 3e 07 e2 d0 3e f1 df fa 3e
       0.38409337 0.37081954 0.40797445 0.4899898
000270 78 af de 3d 93 07 a4 be ad 9c d9 bd 72 e6 47 3e
       0.10873312 -0.3203703 -0.10625587 0.19521502
000280 ab ad 4c be 81 a3 30 3e 16 8a bf be 99 ba 01 3f
       -0.19988124 0.17249872 -0.3741004 0.5067535
000290 64 8f ec 3e 19 37 13 be 21 a7 87 3e 03 cd a0 be
       0.46203148 -0.14376487 0.26494697 -0.31406412
0002a0 74 62 57 3d e6 7c 7c 3e 33 20 bb bc ed 19 49 3e
       0.052584127 0.2465702 -0.022842502 0.19638796
0002b0 7d 5c fb 3e f4 ad a1 3e 0d da 3b 3e a1 ab b0 3e
       0.49094 0.31578028 0.18344899 0.34505942
0002c0 e7 19 94 3e 57 16 a6 3e 3e 1a ec 3e f7 f7 b0 3e
       0.28926012 0.3243892 0.4611377 0.34564182
0002d0 b5 a8 87 3e 69 60 22 be 9c 1e 2e be 0b 38 08 3f
       0.264959 -0.1585709 -0.17003864 0.53210515
0002e0 5f b4 9a bc 94 c8 8b be e4 43 8b 3d b9 a2 08 3f
       -0.018884836 -0.27301466 0.068000585 0.53373295
0002f0 c6 34 95 be a1 ff 1c be 95 4e dc be 7e 60 b5 be
       -0.29141825 -0.1533189 -0.43028703 -0.3542518
000300 5d 52 75 3d ae 8d 49 3e 9d 90 b8 3d 08 22 d5 3e
       0.059893 0.19682953 0.09011958 0.41627526
000310 9a 6a 26 bd 2f 94 0a bd 4b 69 c9 3e 75 10 8f 3e
       -0.040629007 -0.033832725 0.39338145 0.27942243
000320 31 d7 a2 3e 25 46 23 3e 79 06 2c 3f 03 01 76 be
       0.31804803 0.15944727 0.67197376 -0.24023823
000330 73 f2 30 be 8c 5b 00 3d 1c 87 e5 be c1 c9 d3 3d
       -0.17279987 0.031337306 -0.44829643 0.10341216
000340 f2 57 8a 3d d0 a0 d4 3e 55 38 92 3e 56 0e 14 be
       0.067550555 0.4152894 0.28558603 -0.14458594
000350 54 f8 9f bd 6a 35 93 bd 3a ac 8c be c6 cd 05 bf
       -0.07811037 -0.07187922 -0.27475148 -0.5226711
000360 43 6e 36 be 9e ea 0c 3e 72 16 36 be 7c 30 0f be
       -0.17815499 0.13761374 -0.17782 -0.13983339
000370 a4 d3 23 be 78 b1 ae bd 3d 9d 0b 3e cf 3d 03 bf
       -0.15998703 -0.08529943 0.136342 -0.5126619
000380 b0 47 7b be 30 c7 08 bf d5 2d 91 be 88 20 cc bc
       -0.24539065 -0.53428936 -0.2835528 -0.024917856
000390 b7 d9 f6 bd a9 61 04 bf 36 e4 98 be 1c f2 8a 3d
       -0.120532446 -0.5171152 -0.2986161 0.0678446
0003a0 7d a4 84 be 8f af 80 be 40 df 8e 3d 5b fb b1 be
       -0.25906745 -0.2513394 0.06976175 -0.34762082
0003b0 f4 35 a0 be 15 b8 48 be f1 07 92 be 20 87 de be
       -0.31291163 -0.19601472 -0.28521684 -0.43462467
0003c0 ba 4c 58 be 7d 4e d5 bc 14 8d f3 be 83 e7 f8 3d
       -0.21123019 -0.026038403 -0.47568572 0.12153532
0003d0 75 e2 66 3e 9a ab 06 3f 06 fa 1e 3d 7c b5 ef 3d
       0.22547324 0.52605593 0.03881266 0.11704537
0003e0 df d8 0b be 57 fe 6f 3e 0f df a8 3e 6c b5 e2 3e
       -0.13656949 0.23436867 0.3298268 0.4427904
0003f0 4a e6 2f be 64 e9 18 3e cb b0 29 be cc 0b 8d 3e
       -0.17177692 0.14932781 -0.16571347 0.27548063

Variable_41/read/_36__cf__36:0 f4 [1, 8, 1, 1]
000000 c8 77 86 3f 10 7d 59 3f d6 ff 95 3f bb e2 80 3f
       1.0505304 0.84956455 1.17187 1.0069193
000010 6f 1d 8f 3f 2a 71 6a 3f ee 56 72 3f 48 18 8f 3f
       1.1180857 0.91578925 0.94663894 1.1179285

Variable_40/read/_35__cf__35:0 f4 [1, 8, 1, 1]
000000 a0 14 06 be 3e 94 96 3e 3f 54 3a 3c 18 cb 14 3f
       -0.13093805 0.29409975 0.011372625 0.58122396
000010 01 97 4d 3e ad 08 1c 3e 62 47 2e 3d 58 e1 71 bd
       0.20077135 0.15237685 0.042548545 -0.059052795

Variable_4/read/_34__cf__34:0 f4 [1, 8, 1, 1]
000000 f4 e3 b1 3e 50 61 41 3f 59 4b 25 3e 69 05 d3 be
       0.34744227 0.7553911 0.16142024 -0.41215065
000010 82 83 8d bf 3a b4 68 3f ce ec b9 3e b6 28 e1 3e
       -1.1055758 0.90900004 0.3631348 0.43976372

Variable_39/read/_33__cf__33:0 f4 [16, 8, 3, 3]
000000 72 79 24 be f3 39 a9 bb 8c c4 81 3e 2d a3 c9 3e
       -0.16061953 -0.005164379 0.25345266 0.39382306
000010 92 9d f4 3d 5f eb 96 bb c3 89 17 3e aa 57 e6 3e
       0.11944117 -0.004605695 0.14798646 0.44988757
000020 5f 64 81 3e 1d f3 5d bf d3 44 29 bf 41 3f 07 bf
       0.2527189 -0.86699086 -0.6612064 -0.5283089
000030 1c 80 fd be 09 34 ea be 55 16 12 3d 57 ed f0 be
       -0.49511802 -0.45742825 0.03566583 -0.47056076
000040 05 03 89 be f9 ad 8a be c2 4a b7 be fc a3 ac 3e
       -0.26760116 -0.27085856 -0.35799223 0.3371886
000050 f5 42 13 bf 63 da 8d be d9 d4 0b be 64 bf b2 bd
       -0.57524043 -0.27705678 -0.13655414 -0.08727911
000060 64 c3 ad 3c f5 b0 5d be fd 0a 52 be 4a 48 9f 3e
       0.021211334 -0.21649535 -0.20512004 0.3110984
000070 34 f8 16 3f 96 92 b3 3e c0 45 2c 3e bc 6c 9a 3d
       0.5897248 0.35072774 0.16823483 0.07540271
000080 f4 fe 53 be 24 c3 61 3e 24 4c 4c 3e 91 89 8b be
       -0.20702726 0.22047096 0.1995092 -0.27253392
000090 75 e6 12 3c 03 cd cd 3e 56 49 8b be 62 89 95 3c
       0.008966078 0.40195474 -0.27204388 0.018253986
0000a0 28 59 d2 bd 78 62 63 3e d8 d3 25 3e f1 a9 0c 3f
       -0.102709115 0.22205532 0.16194093 0.5494681
0000b0 28 b4 fc be a4 07 c3 be d3 12 40 bf 5d 5a e5 be
       -0.49356198 -0.38091767 -0.75028723 -0.44795504
0000c0 d2 fb 94 be fc dc c0 3e 43 2e d8 be 61 e1 1c 3e
       -0.29098374 0.37668598 -0.42222795 0.1532035
0000d0 e6 76 47 be 3f d9 67 be c0 8c 7c be 89 d7 58 3e
       -0.1947895 -0.22641467 -0.24663067 0.2117597
0000e0 a1 32 0c 3f ce 5d 3b bd 69 88 b3 3e fd ec 3d 3e
       0.54764754 -0.045743756 0.3506501 0.18547435
0000f0 1b 89 63 be 49 8f 7b 3e 3e 46 9c 3e bd 6c 1d bf
       -0.2222027 0.24566378 0.3052234 -0.61494046
000100 82 0c 0f bf ef f6 09 bf 28 53 8e be dd d4 27 bf
       -0.5587846 -0.53892416 -0.27797818 -0.6555918
000110 1c 03 9a 3d cd 6e ea bd 9e 05 00 be 14 61 4d 3e
       0.07520124 -0.11446915 -0.12502143 0.20056564
000120 71 f0 a8 3e 63 ec 75 3d 0c e2 91 3d d1 e7 8d be
       0.32995942 0.06003989 0.07123193 -0.27715924
000130 6a 13 a6 bb ef 36 11 3f 01 c7 07 3e 8b 10 16 bf
       -0.0050682323 0.56724447 0.13259508 -0.5861899
000140 86 5e ac 3d 9e 44 83 bd cb 44 9a be 05 e4 38 be
       0.084164664 -0.06409572 -0.3013061 -0.18055733
000150 5d 51 62 3e 35 67 23 bf 3a 53 bd bc 1d 46 ba 3e
       0.2210135 -0.63829356 -0.023110975 0.36381617
000160 4b 2a d6 3d 9a 9a 44 3e 7f a4 a0 be 3f f0 58 be
       0.104572855 0.19199601 -0.313755 -0.21185397
000170 af 9a 94 3c c4 13 07 3f 66 eb c0 3d 60 29 b8 3d
       0.018140165 0.52764535 0.09419899 0.08992267
000180 b8 32 09 bf 3c 20 13 3f 63 07 f0 bd 67 b7 8a be
       -0.53593016 0.5747106 -0.11720159 -0.2709305
000190 a1 40 84 be fb 88 99 3e 9c bc cb be fb d9 e5 3d
       -0.25830558 0.2998732 -0.39792335 0.11223217
0001a0 0f 67 5e be 2e d1 9c 3e 79 1f fb 3d ce cb 7f be
       -0.21719001 0.3062834 0.12261862 -0.24980089
0001b0 05 b9 97 be 07 e8 23 be 21 b6 cd ba 27 9c 2f bd
       -0.29633346 -0.1600648 -0.0015694537 -0.042873528
0001c0 9b f8 5e 3e 38 29 88 bd 6d ae 0a bf c2 50 74 bd
       0.21774523 -0.06648487 -0.541724 -0.05964733
0001d0 25 50 75 bd f8 c2 6c 3f f5 fd c6 3d 04 db a5 bd
       -0.059890885 0.92485 0.09716407 -0.080984145
0001e0 e0 14 6f 3d b6 9c 08 3e c3 70 0f 3b 77 76 d4 3d
       0.058369517 0.1334103 0.002188728 0.10374158
0001f0 03 fb 5b 3d 03 02 8b 3d 98 6f 91 3e d1 c3 0a 3f
       0.05370618 0.06787493 0.28405452 0.5420504
000200 fd 35 29 3f f3 71 ca 3e 13 e4 3c be fa 95 01 3e
       0.66098005 0.3954006 -0.18446378 0.12654868
000210 07 0d 67 3e 1a eb 8d be 81 1d 7f 3e 40 2e 67 bd
       0.22563563 -0.2771843 0.24913599 -0.05644059
000220 1a 78 2f 3e 4e 93 02 3e a9 47 c2 3d 92 f2 fb bc
       0.17135659 0.12751505 0.09486324 -0.030755315
000230 58 d3 de be d3 00 ec 3e 5d bc fa be 6e 48 0a bf
       -0.43520617 0.4609438 -0.48971835 -0.5401677
000240 35 95 9a be 90 e8 c1 be f0 fb 9b 3e 42 a0 2d 3e
       -0.3019196 -0.37872744 0.3046565 0.16955665
000250 50 11 ad 3e c9 7a f8 be 8b ba f8 bd 2e 7d b5 3d
       0.3380227 -0.48531178 -0.12144955 0.08861767
000260 8b 21 e7 3e 94 89 a1 3d d1 66 a2 be fc 1d 44 3e
       0.4514278 0.07887569 -0.31719068 0.19152063
000270 db 42 55 be 13 68 83 bd 20 e4 f3 bd 42 33 1a be
       -0.20826285 -0.06416335 -0.11908746 -0.15058616
000280 ab b2 88 be bc bb 4f be fd df 4e 3d 5f e1 8f 3e
       -0.26698813 -0.20286459 0.05050658 0.28101632
000290 71 3f 05 bf e8 73 0c 3f b9 6c 02 3e 33 84 a2 be
       -0.5204993 0.5486436 0.12736787 -0.31741485
0002a0 7c 89 f3 3d 1c c9 d4 3e 87 0e 13 be a3 d0 ad be
       0.118914574 0.41559684 -0.1436101 -0.3394824
0002b0 f5 a8 02 3f 41 7a 15 3d 15 92 24 3f 19 3c 73 3c
       0.5103906 0.036493544 0.64285403 0.014845871
0002c0 ae ce fb 3d 91 fe 77 bd 5d 37 95 3e 08 55 c4 bd
       0.122952804 -0.060545508 0.291438 -0.09586531
0002d0 c3 b8 4a be c5 eb 5e be 9b 9c 82 be 92 47 bf be
       -0.19797044 -0.21769626 -0.25510105 -0.3735929
0002e0 48 28 a9 3c 8e 25 aa 3e 37 37 68 bd 18 6c b4 3d
       0.02064909 0.33231777 -0.056693282 0.0880968
0002f0 4b bc 0d bf f0 72 ef 3e 29 ed 59 be b7 d5 e6 bd
       -0.5536544 0.46767378 -0.21281876 -0.112712316
000300 b2 a3 1c bf 29 73 33 bf f6 af ee be 86 ce a1 be
       -0.6118728 -0.70097595 -0.46618623 -0.31602877
000310 5b 8f 68 bd e0 1f c7 be b2 b4 00 be 07 06 7b 3e
       -0.05677734 -0.38891506 -0.1256893 0.24514018
000320 6d 8e a8 3e 8a 2c 95 3e 14 bb 1a 3f 09 74 8b 3e
       0.32921162 0.29135543 0.6044171 0.27236965
000330 79 1b b8 3c 72 b0 4e 3e e0 c0 22 3f 84 82 1f bf
       0.022474037 0.20184496 0.63575554 -0.62308526
000340 ac 48 0c bf 94 f0 8b be 4c c9 4c 3e fe df 7f be
       -0.5479839 -0.27331984 0.19998664 -0.2498779
000350 c2 d0 e8 3d 47 b1 2e 3e 3e bf 9f be 2b 58 f9 3c
       0.113679424 0.17059813 -0.31200594 0.03043755
000360 43 22 13 3f 82 e9 2e be 4c df 18 be 45 a0 72 3c
       0.57474154 -0.17081264 -0.14928931 0.014808719
000370 23 e9 20 3f 30 02 c4 be 12 9e 36 be 97 24 26 3f
       0.6285574 -0.3828292 -0.17833737 0.6489958
000380 1d 2b d6 3d 44 c8 be 3e 0d f4 55 be b7 3e 73 3e
       0.10457442 0.37262166 -0.20893879 0.23754393
000390 07 79 03 3c cf 86 ac 3e 5f 04 0b 3e 31 78 84 be
       0.008024461 0.336966 0.13575886 -0.2587295
0003a0 9c 53 1d bd a5 fa 32 bc 98 b8 a3 be cd ce 6a be
       -0.038409814 -0.010924016 -0.3197677 -0.2293045
0003b0 e2 f1 2c be f0 37 ca be 08 ef 65 be e6 3b 24 bf
       -0.16889146 -0.39495802 -0.22454464 -0.641539
0003c0 5c 73 b3 3e 8c cc 04 bf 4b e5 40 bf ca 93 63 be
       0.3504895 -0.51874614 -0.75349873 -0.22224346
0003d0 aa b4 dc be 93 e2 ce bd 54 2a a0 3d d2 23 b7 3b
       -0.43106586 -0.10101809 0.078205734 0.005588987
0003e0 be dd cc 3c 16 40 88 3e 71 8c 2d be a6 90 35 bd
       0.025008079 0.26611394 -0.16948105 -0.0443274
0003f0 b3 58 0a bd ac a5 99 3e a6 32 c6 be c1 db eb bd
       -0.033775996 0.3000921 -0.38710517 -0.11516524

Variable_38/read/_32__cf__32:0 f4 [1, 16, 1, 1]
000000 f4 33 d3 3f 95 62 d3 3f 24 b6 f6 3f d8 be 0c 40
       1.650023 1.651446 1.9274335 2.1991482
000010 5f 9f f1 3f a5 fc de 3f 5e 4d 05 40 38 82 06 40
       1.8876761 1.7420851 2.082847 2.101698
000020 f6 98 fe 3f 4d e8 ef 3f 23 cc e0 3f 04 3c fb 3f
       1.989043 1.8742768 1.7562298 1.962769
000030 96 bf de 3f 59 e0 e4 3f 81 ab fd 3f 5a 3e db 3f
       1.7402217 1.7880965 1.9817964 1.7128403

Variable_37/read/_31__cf__31:0 f4 [1, 16, 1, 1]
000000 0f e9 e9 bc 94 19 13 be 65 63 0e bc 8a a2 0d bd
       -0.028553514 -0.14365226 -0.00869069 -0.034578837
000010 0b 17 c5 3c ff 69 2d 3e 93 ce 57 bd 4f 27 25 bd
       0.02405884 0.16934966 -0.05268724 -0.04032069
000020 5c 17 9c be 6f 21 f1 bd 1b 2a 32 bd 7d 4d 21 be
       -0.30486572 -0.11773955 -0.043497186 -0.15752216
000030 ae 94 a1 3e c9 ec 97 bc 1e 4c 8e 3e 04 ce 46 be
       0.31558746 -0.018545525 0.27792448 -0.19414526

Variable_36/read/_30__cf__30:0 f4 [16, 16, 3, 3]
000000 47 74 8d be e6 a7 e4 3d 78 2e c9 3e 7c 0e e5 be
       -0.27627775 0.111648366 0.39293265 -0.44737613
000010 fb 1b 8b be fb a9 c6 3e 4b 31 04 bf 8a 93 41 be
       -0.27169785 0.3880156 -0.51637715 -0.18903938
000020 b2 d9 76 3e 19 b7 ce 3e 00 24 8f 3e 14 31 b8 3e
       0.24106482 0.40374067 0.27957153 0.35974944
000030 a0 df 86 be e8 b3 ed 3d 60 8a 1d 3f f5 1e c3 bd
       -0.26342487 0.1160658 0.6153927 -0.09527389
000040 55 38 93 3e c6 48 12 3f 75 02 0b 3f 3d 32 aa 3d
       0.28753915 0.57142293 0.54300624 0.083103634
000050 80 d5 b6 be 5d 59 d1 3b 7d f8 58 3e f2 63 c9 be
       -0.35709763 0.0063888268 0.21188541 -0.39334065
000060 21 c4 96 3e 9c 73 ee 3e a7 69 d6 bd b6 12 35 be
       0.2944651 0.46572578 -0.1046937 -0.17682919
000070 be 85 95 3e c1 4b 84 3c 12 06 60 3e 96 8d 14 3d
       0.292036 0.016149404 0.21877316 0.03626784
000080 08 0d a9 be e0 97 fa 3d d4 6b 0b bd 0b 1c 90 3d
       -0.33017755 0.12235999 -0.03403838 0.07036599
000090 dd 71 11 3f 9c c1 58 3e 66 69 e3 be 3d 3f 9f 3e
       0.56814367 0.21167606 -0.4441635 0.31102934
0000a0 26 7a 9f 3e f3 2a 9f bc 4d 8d 4a be b1 44 74 3d
       0.3114788 -0.01942966 -0.19780464 0.05963582
0000b0 1d ed 41 3e 87 ba 9f be 89 e6 5d 3e b8 5d 91 3e
       0.18938108 -0.31196997 0.21669973 0.28391814
0000c0 8e 61 d6 be c5 87 1d 3b b1 39 0d 3f 00 df b3 be
       -0.41871303 0.0024037224 0.55166155 -0.35131073
0000d0 81 32 4b be f6 c3 0c 3e a8 1e b1 be 90 87 cc be
       -0.19843484 0.13746628 -0.345937 -0.39947176
0000e0 ab 4f a4 3d 87 9b a2 be 9c d5 2c be c2 73 aa 3d
       0.08023008 -0.31759283 -0.1687836 0.0832286
0000f0 96 d1 cf 3a 1a 55 3d bf 89 95 a5 be 76 8d aa be
       0.0015855308 -0.7395798 -0.3234065 -0.3331105
000100 a0 7b be bd ba 69 2a 3c e4 a5 2b be 02 8d c5 be
       -0.09300923 0.010401184 -0.16762501 -0.38584143
000110 21 1f 2c 3e 4d da 51 bf fa 0d 10 bf 5d ba 15 bf
       0.1680875 -0.81973726 -0.56271327 -0.5848749
000120 a2 8e d8 be d6 2b 93 3d 42 ef 5d 3e 78 16 c3 bd
       -0.4229632 0.071860954 0.21673301 -0.0952577
000130 06 49 e9 bd b8 2c 4e be d8 dd da be bf 77 e2 bd
       -0.11390881 -0.20134246 -0.42747378 -0.11057996
000140 30 11 d7 be 46 e3 00 3f b3 31 09 3f 80 08 45 3c
       -0.420053 0.5034679 0.5359146 0.012025952
000150 ca 84 48 3e 26 56 df 3e 78 2a 15 3e 85 01 33 3e
       0.19581905 0.43620414 0.14566982 0.17481048
000160 a1 cc 13 3e f7 c6 ba 3e a4 c0 a3 3d 6b 57 82 be
       0.14433528 0.36479923 0.07995728 -0.2545732
000170 09 18 19 3b 51 36 b6 3e f0 55 ad 3e dd 56 18 3e
       0.0023360273 0.35588315 0.33854628 0.14876886
000180 1e 47 81 3d a2 60 a8 bd 0d 4d dd be 7e 09 55 bf
       0.06312393 -0.08221556 -0.43222848 -0.8321761
000190 5b 34 27 bd 3d 77 84 3e 0f 7b 02 bd ab 35 b2 be
       -0.040821414 0.25872222 -0.03185564 -0.3480657
0001a0 be 19 93 3e 7c 76 23 bf 95 8e b6 be 94 5d af 3e
       0.28730577 -0.6385267 -0.35655656 0.34251082
0001b0 24 ec 17 3e 21 3e 45 3e 1c dc 8c bf 35 86 97 3e
       0.14836174 0.19261982 -1.1004672 0.2959458
0001c0 d3 2b 23 3c 14 e4 89 bf 42 35 70 3e ab f9 82 3e
       0.009959179 -1.0772729 0.23457816 0.25581107
0001d0 ca cb 92 be cb b9 30 be 33 75 81 be 56 5d 2d bd
       -0.28671104 -0.17258374 -0.25284728 -0.04232534
0001e0 55 e9 91 be 36 7f 95 be 61 9c 48 bd d3 42 45 be
       -0.2849833 -0.29198617 -0.04897726 -0.19263773
0001f0 67 6d 07 bf 67 03 29 3d eb 07 14 bf f6 bf ea 3e
       -0.5290131 0.04126301 -0.5782458 0.4584958
000200 e3 73 03 3f bd 61 6a bf 7b 7f cb bd c4 58 b0 3e
       0.51348704 -0.91555387 -0.09936424 0.34442723
000210 46 4d 07 bf d4 d9 d5 be f5 48 2c 3e 8d d5 8a 3d
       -0.52852285 -0.41767752 0.16824706 0.06779013
000220 b8 c4 62 bd 55 c6 42 3d a4 72 99 3a 5b 7a cb 3e
       -0.055363387 0.047552425 0.0011707139 0.39741787
000230 e0 20 2b 3e 8f c2 c5 be 5b 22 29 3e 0c 62 cf 3e
       0.1671176 -0.38625 0.16517012 0.4050449
000240 fc eb 4a be fe b9 23 3a 8d ef b7 3e a9 71 13 be
       -0.19816583 0.00062456715 0.3592495 -0.14398827
000250 c2 28 63 3e 18 76 1b be b0 2a 6f 3c 53 a9 dd 3e
       0.22183517 -0.15181768 0.01459758 0.43293247
000260 e5 78 d3 3d 4b 15 a6 be ee ef 90 be db 35 c0 be
       0.10325793 -0.3243812 -0.28308052 -0.37541088
000270 60 71 7a be 13 0e 9e 3d 83 21 db be 11 e3 84 bf
       -0.24457312 0.07717528 -0.42799005 -1.0381795
000280 3b cf 9b be 63 ad 30 bf 48 aa 83 3e ab 4f d4 3e
       -0.30431542 -0.6901457 0.25715852 0.41467032
000290 14 be ee 3d ab f9 98 be 05 03 6c 3e fb 1a c4 3e
       0.11657348 -0.29877982 0.23048027 0.38301834
0002a0 9d 76 f9 3e 11 d6 d6 3e e0 0c 5b 3e dd 74 3b be
       0.48723307 0.41960195 0.2139163 -0.18306299
0002b0 1c 41 eb 3e 98 62 84 3e 3e de 4e be b5 3d 6b bf
       0.45948112 0.2585647 -0.20201966 -0.9189103
0002c0 b4 41 89 3c 72 67 11 3f b7 63 a4 3e 01 ea e1 3e
       0.016754963 0.5679847 0.32107326 0.44123843
0002d0 ce 3f aa be 77 be 06 be be 81 a2 3e b5 68 72 bf
       -0.33251804 -0.13158594 0.3173961 -0.9469102
0002e0 03 80 e7 3d b8 8a b5 bd 88 eb 76 3e 0e 11 f3 bd
       0.11303713 -0.08864349 0.24113286 -0.11868487
0002f0 5c 5b 8c 3a 8b 03 e5 be b4 ab 6d be 2e e1 20 3d
       0.001070838 -0.44729266 -0.23210031 0.039277248
000300 45 0b e6 3e 05 3c 95 be 71 1f 0b bf a6 13 e5 3d
       0.44930473 -0.29147354 -0.5434485 0.11185388
000310 af 3d e3 3d f2 03 5a b9 f4 05 c5 be 1a 6f 45 3e
       0.110957496 -0.0002079157 -0.38481104 0.19280663
000320 c0 b7 81 3d d4 5d a9 be 44 84 10 3f 92 86 c8 bd
       0.06333876 -0.33079398 0.5645182 -0.09791292
000330 16 aa ab be 55 28 9b bd e3 c0 cf be 10 13 9c 3c
       -0.33528203 -0.07576052 -0.40576848 0.019052058
000340 95 83 a3 3c ef 92 19 3f 44 b1 87 3d 65 01 7b bb
       0.019960204 0.5998983 0.066256076 -0.0038300392
000350 2b 21 17 3f a3 43 97 3e d9 3e 31 bf 2c a4 11 3e
       0.59034985 0.2954379 -0.6923652 0.14222783
000360 b8 83 6a 3f 09 78 93 3e e6 98 04 3e 63 a2 c9 3e
       0.91607237 0.28802517 0.12948951 0.39381704
000370 fa d5 64 3c 91 1b 1e 3e a3 09 29 3f 36 4d df 3c
       0.013967032 0.15440203 0.6603033 0.027258497
000380 88 f7 d6 3d 6c d4 b7 3e 45 de 88 3e 8c 3a 1f be
       0.104964316 0.35904253 0.26732078 -0.15549678
000390 e6 89 ec 3e 26 2a 87 be d4 76 aa 3d 0a 17 02 3f
       0.46198958 -0.26399344 0.08323446 0.50816405
0003a0 4e 51 a4 3d a0 26 0d 3e a3 b4 83 be 28 87 d3 ba
       0.0802332 0.13784266 -0.25723752 -0.0016138302
0003b0 0a ab f2 bd a2 0c 09 3e cc 49 1e be 95 89 59 3e
       -0.11849029 0.13383725 -0.15457839 0.2124389
0003c0 07 6c 42 be c2 54 f3 be 41 0e a1 bc 32 72 f0 be
       -0.18986522 -0.47525603 -0.019660117 -0.46962124
0003d0 f0 73 64 bd 68 65 b8 3c cc e9 e4 3e 1a a8 57 be
       -0.05577463 0.022509292 0.44709623 -0.2106022
0003e0 5e 51 2c 3b 5a b6 00 be bb 75 a9 3e f9 fc 5e 3d
       0.0026293616 -0.12569562 0.33097634 0.054440472
0003f0 79 e5 90 3e f6 a1 5d 3e 27 2e db 3b 82 26 a9 be
       0.28300074 0.21643814 0.0066888514 -0.33037192

Variable_35/read/_29__cf__29:0 f4 [1, 16, 1, 1]
000000 20 85 31 3f af 1d 5a 3f d7 6b 63 3f a5 6a 9f 3f
       0.6934376 0.85201544 0.88836426 1.245442
000010 b2 d6 89 3f 36 59 aa 3f 60 5b 1c 3f 10 e8 2e 3f
       1.0768645 1.3308475 0.6107693 0.6832285
000020 a5 82 43 3f 97 33 7a 3f ee 32 71 3f be 17 3f 3f
       0.7637122 0.9773497 0.9421834 0.746456
000030 9c 5e 85 3f 6b 5c 84 3f 49 24 2c 3f 2b 37 81 3f
       1.0419497 1.0340704 0.67242867 1.0094961

Variable_34/read/_28__cf__28:0 f4 [1, 16, 1, 1]
000000 c1 2a a2 bd fa b3 98 3e 56 bc d5 3e 69 59 fc be
       -0.07918311 0.2982481 0.4174525 -0.49286965
000010 09 dd 0e bf 8a e9 b7 be 59 04 1c 3f 6e a3 3a 3f
       -0.5580602 -0.35920364 0.60944134 0.72905624
000020 92 90 89 bd e5 89 8f be ff 41 3f bd ff 57 1f 3f
       -0.06717028 -0.28034893 -0.0466938 0.62243646
000030 82 de b8 be ec 68 ef be 88 39 13 40 1e 43 0b c0
       -0.3610726 -0.46759737 2.3003864 -2.1759715
