examples/style_transfer/model/self-portrait.onnx (onnx, 134117 bytes, 48 tensors)

Variable_9/read/_47__cf__47:0 f4 [16, 16, 3, 3]
00000000: cb06 a63e f7c1 ae3e 3700 493f 5b47 b6bd
00000010: e27b 93be f1b4 a63b 211c 05bf b152 6ebe
00000020: e07b dfbe b905 b1bd 4212 2ebd 7700 463f
00000030: a6fa 45be 80bf 793d 2f9b d83e 7950 cfbd
00000040: de7c de3d 464f 523e 063a bb3e 3d9d 0b3e
00000050: d0fa 6a3f 1f08 b73e 5beb f03d 82d9 8c3e
00000060: 97cc 4e3f 00ba 853e 5bd3 b73d 0c35 543e
00000070: 303d 0b3e 2b51 343e 81cd 293f 8915 24bd
00000080: dbe5 ec3b ca3f 423f cb14 753e 6c30 283f
00000090: 44e4 b2bf ee0c 64bf e5de a9bf 8411 a0be
000000a0: 528e e1be 6f17 08bf dce6 bdbe 1f60 38bf
000000b0: e559 dfbe bb9e f6bd 65ba e0bd 5874 f9bd
000000c0: f042 bb3c b661 6b3d 5010 f53d 3cb3 b9bb
000000d0: 0e31 6f3e 9f95 8bbc c4c7 be3d 95ba f53e
000000e0: f04a 0e3f 2763 dbbd e125 153f c60f c73e
000000f0: d090 1bbe c9c1 4a3e c1c4 f13e f609 b3be
00000100: a33a b8be 598d 35bf b1ad b63c 4dcd 8d3e
00000110: d1e2 023d d0c2 e8bc 3ef3 373e 920a 2e3e
00000120: 7284 3dbd bb5a 80be d438 23bf ce83 9a3e
00000130: c257 f9be 969b 09bf 4d71 c43d b22f 11be
00000140: 3bab d8be 54f6 813e e395 5dbe 108f 44bd
00000150: fac4 af3e 2f8b d7bd 20c8 b73d 46a8 863f
00000160: e8a9 2b3e fb37 cfbd a469 f0bd 8b30 eb3c
00000170: 54e7 13bf 893b a1bd 92ca 9b3e f872 883d
00000180: 42c2 c6be 77c8 83bd ce98 543d c550 723e
00000190: ef4e 893e d979 d93e 026b 9abd aa96 f3be
000001a0: 0660 793d 3086 75bc 51ac f7be 2dcd 9ebe
000001b0: a75a c43e 1400 193e 737e 313e c125 153e
000001c0: 1102 51bd 47b7 963d 9252 8c3d 5fff 7c3e
000001d0: 712c 453e f905 173e 6a54 cc3e 6d87 273f
000001e0: d054 38be 070c c63d f8c5 1d3f 0ccc 1ebe
000001f0: a26c b23e f932 793f c17e 95bc 579d 4d3e
00000200: baa6 493e ad71 2c3c d5aa b73d 4c47 9dbd
00000210: 391d c63e 68d0 933e b3f4 263d c46f baba
00000220: 831a f7bc 55d4 eebe c7ee 233e 54e7 d53d
00000230: 1242 4dbe 52c2 b1bd 7be4 9e3d 62d7 d13b
00000240: 0ad7 c93e 2ad7 29bf 9653 e6bd ee67 70bd
00000250: d74c c33c f346 8a3e ef40 b7be bdc9 fb3e
00000260: bb42 883e 825e 683d 29c2 6abd 3849 06bf
00000270: e33e 7e3d b0f0 0c3c 88e5 0ebf 2222 eb3c
00000280: bcb2 a8be 1b24 a03e 8b25 87be e0c4 91bd
00000290: 33b5 d83d 0abe 003e 335b 403c 2005 33be
000002a0: e640 633e dbc5 20be 9d72 49bd 788a 503e
000002b0: 6080 863e 5b31 33be bb68 303e 92bf 01be
000002c0: 9e35 d23e a4d4 93be 6652 0cbb f3ed 893e
000002d0: 21ab c7be 28ed 27be edde 923d 6cc9 083e
000002e0: 7cf3 d83d c6d7 11be 73c9 55bd 27fc 0e3c
000002f0: 845a 413d 46c6 89bf cd06 98bd 8af1 533f
00000300: c325 4f3e 2e2f 5f3e 3652 5cbf a028 903f
00000310: 6344 cfbb 67fa 9dbf dc40 4cbe 15d7 25bf
00000320: ac6d f6be f5a2 dbbe c5d1 75be 7172 8abe
00000330: 6bd9 a1be 7eaf 03bc eb4f b9be f1d8 30be
00000340: bfab d93d f6b9 8cbe c56d 53bd 40e7 f43b
00000350: 0175 a43e 1a35 0bbe 728c 85be c210 ec3e
00000360: 1416 0f3d d572 b63e 0db1 743e 51a9 013e
00000370: 909d fe3d 48c2 18be f31f 643e 973e d9bc
00000380: d44c 173d 1490 5bbd f82d 41be 531d d6bd
00000390: d77f 43be 42af fcbd 6291 ccbd f007 f53c
000003a0: a1b3 bd3e 4d46 523e 3982 d2be ac03 ec3d
000003b0: 7517 603d 4f48 13bf 8a2d fcbd f6c8 693e
000003c0: 273d bc3e 4452 64be 2e29 30be ab3e efbd
000003d0: a41e 923d 0d16 78be c79d 3ebe 563f a53b
000003e0: fc64 1dbe 666b 903e 55a8 b7bd b0a9 8cbd
000003f0: 9746 6b3c 4f3f 7cbf 990e 99bd 459d 90be
0.32427058 0.34132358 0.7851595 -0.08900329 -0.28805453 0.005087488 -0.51996046 -0.23273732
-0.43649197 -0.0864367 -0.04249788 0.7734446 -0.19333896 0.060973644 0.42305896 -0.10122771
0.1086366 0.20538053 0.36567706 0.136342 0.9178896 0.35748383 0.117636405 0.27509695
0.8078093 0.2611847 0.0897586 0.20723361 0.1359756 0.17609088 0.663292 -0.0400596
0.0072295493 0.75878584 0.23933713 0.65698886 -1.3975911 -0.8908223 -1.3271147 -0.31263363
-0.44053894 -0.53160757 -0.37090194 -0.7202167 -0.43623272 -0.12041994 -0.10973052 -0.12180394
0.022859067 0.05746623 0.11966002 -0.0056671184 0.23358557 -0.017039118 0.09315446 0.47993913
0.55583096 -0.10712271 0.58260924 0.38879222 -0.1519196 0.19800486 0.47220424 -0.34968537
-0.35982236 -0.70918804 0.02229962 0.27695695 0.03195459 -0.028413206 0.17963883 0.1699622
-0.046268888 -0.25069222 -0.6375859 0.30178684 -0.48699766 -0.5375303 0.09591923 -0.1417835
-0.42318138 0.25383246 -0.21639208 -0.047987998 0.3432997 -0.10524594 0.08973718 1.0520103
0.16764033 -0.10118099 -0.11738899 0.02870967 -0.57774854 -0.078726836 0.30427986 0.066625535
-0.38820082 -0.0643472 0.05190354 0.23663624 0.26818034 0.42475775 -0.07539941 -0.47575885
0.06088259 -0.014985606 -0.48373654 -0.31015912 0.38350412 0.14941436 0.17333393 0.14565183
-0.05102736 0.07359176 0.068516865 0.24706791 0.19255234 0.14748372 0.39908153 0.6544102
-0.18001103 0.09670263 0.616302 -0.15507525 0.34848505 0.97343403 -0.018248918 0.20079552
0.19692507 0.010525149 0.089681305 -0.076796144 0.3869417 0.2886994 0.040760707 -0.0014223983
-0.030164009 -0.4664637 0.16009055 0.10444513 -0.20044735 -0.08679642 0.07758423 0.0064038495
0.39421874 -0.6634394 -0.112464115 -0.058692865 0.023840351 0.27007255 -0.35791728 0.49177352
0.2661341 0.056730755 -0.05731407 -0.5245547 0.062071692 0.008602306 -0.55818987 0.0287028
-0.32948864 0.31277546 -0.2639583 -0.07117629 0.10581436 0.12572494 0.011740494 -0.17482424
0.22192726 -0.15700476 -0.04918157 0.20365322 0.26269817 -0.17499296 0.17227452 -0.12670735
0.41056532 -0.2887317 -0.0021411418 0.26939353 -0.38997748 -0.16399062 0.07171426 0.13358086
0.10593316 -0.14242467 -0.05219407 0.00872711 0.047205463 -1.0763633 -0.07423172 0.82790434
0.20229249 0.21795341 -0.86062944 1.1262398 -0.006325291 -1.2342042 -0.19946617 -0.64781314
-0.48130548 -0.42897764 -0.24005802 -0.27040437 -0.3161119 -0.008037446 -0.36193785 -0.17270257
0.10628461 -0.27485627 -0.051618356 0.007473856 0.32120517 -0.13594475 -0.26083714 0.46106535
0.034933165 0.35634485 0.23895665 0.12662245 0.124323964 -0.14917862 0.22277813 -0.026519103
0.036938503 -0.0536042 -0.18865192 -0.10454812 -0.19091736 -0.12338115 -0.09988667 0.029911011
0.37051108 0.2053463 -0.41114977 0.11524138 0.05470987 -0.5753221 -0.123133734 0.22830567
0.36765406 -0.22297007 -0.17203209 -0.11681875 0.071347505 -0.24227162 -0.18614875 0.0050429506
-0.15370554 0.28206939 -0.08967654 -0.06868303 0.014360092 -0.985341 -0.074734874 -0.28244987

Variable_8/read/_46__cf__46:0 f4 [1, 16, 1, 1]
00000000: 3e72 b13e 8e84 f13e bd98 c93e 97af 823e
00000010: 774f 923e ddaa 5d3f 78bc ce3e b02c 8b3e
00000020: 4690 f23e 19fd 993e c491 a93e cef6 d03e
00000030: 2ff7 093f 5bdf 033f 7e47 243f ca94 063f
0.34657472 0.47171444 0.39374343 0.2552459 0.28576252 0.8658884 0.40378165 0.2718253
0.47375697 0.3007591 0.33119023 0.40813297 0.538928 0.5151269 0.6417159 0.52570784

Variable_7/read/_45__cf__45:0 f4 [1, 16, 1, 1]
00000000: d8fc c33e ae09 b7bc 3758 a1be 4af8 093d
00000010: 3e36 4a3e ffa4 1c3d 359d 99bd 2a21 773f
00000020: c5c7 ebbd 9758 20be 5826 203f 3d96 00be
00000030: f6c4 8b3d 285f 123e e982 123e 1b19 e33d
0.38278842 -0.022343483 -0.31512615 0.033684053 0.19747254 0.03824329 -0.07500688 0.9653498
-0.115127124 -0.15658794 0.6255851 -0.12557311 0.06824677 0.14294112 0.14307751 0.11088773

Variable_6/read/_44__cf__44:0 f4 [16, 8, 3, 3]
00000000: d2a1 44bf 2e20 fabe 7cca 313e e81a 45bf
00000010: d15b aabe 1658 1a3d f22d 9abe e279 99bd
00000020: 9e2b 2ebe ad71 4ebe ec2a 70be 18db 163e
00000030: 8100 f5be 9de4 813d c65b 7f3e 5003 d5be
00000040: 19cd 003e 466c 923e 1cc5 00bd be0c 2bbf
00000050: 6885 e2bd 9db4 88be ff02 21bf d2fb 9fbd
00000060: 7bc8 a73e 1b5d 493e 854a bc3e 33bd 92be
00000070: 36be 13bf 1c74 0bbf bf1a 643e 21e2 3b3d
00000080: b779 9ebe 2766 89bd ac4b 803e 05a8 96be
00000090: 268b c0be 31eb b7be 1fe2 1dbf 2b9d 00bf
000000a0: a584 88bf 4a26 39bf fba9 dcbe 7657 55be
000000b0: 14d3 5cbe 9f35 7f3e 05d3 a33e fcdf 06be
000000c0: fb19 353e 5744 b63e 32df 7ebd dc0a 27be
000000d0: 187f b4bd 3750 c2bd 71a2 923e a005 a93e
000000e0: f06c 1e3f c39f f03e 47d0 4f3e f66c 053e
000000f0: 2970 9b3c e20d 26be 6522 933e 2780 233e
00000100: dcab 9f3e 804c eebe cfcf fc3e 309e 9f3d
00000110: 058d 9abe 49d1 7fbe d3bc 3bbe a39b e8be
00000120: 96f3 f9bd 50c6 6a3e 1701 943e 9147 69be
00000130: 4234 d23d 0860 fabc 622d 34be 1f0d 1a3e
00000140: 7f2a 293d d148 a3be 0416 37bd b762 81be
00000150: 041b b43d ca68 083e ed07 003e 71d1 c4be
00000160: fa05 08be ae7e 47be 5093 803e 9b78 b43e
00000170: f6d8 383f 4d57 103e 6dfb 443e 93d4 793d
00000180: 8d3b a0be 2bf0 22bf a507 40bf 92a5 18bf
00000190: 0638 18bf e73d 1fbe 805c b0bd 6671 ef3d
000001a0: 8095 563e 1a9a c93e 3f22 383f 333b c93d
000001b0: c740 a3be c651 5ebe 7a17 cbbd 9fe2 b8be
000001c0: c632 99be ed2d 93be 2a31 ec3d 7699 6e3e
000001d0: 97d4 083e 1323 82be cf9a 5cbd a9e8 f8bc
000001e0: fb8a 6c3e 65ee 893e 7af6 c93d 0ea2 053f
000001f0: 8435 1e3d e077 b3bc acd5 9a3d b8f1 563e
00000200: 7a29 b83b 2229 843e 3ec9 f63e fba4 1b3f
00000210: e842 9cbe 58c2 08bf b29b dbbe 84c2 2fbf
00000220: ea42 16bf 3f44 61be da0d 713d 0214 ec3d
00000230: 61a4 003e df76 f23e 8e7e f13e 549e a13e
00000240: 877e dcbd bb0f 9f3d 6138 b23e bd07 443d
00000250: 368c bf3e ae4d 503e 3f83 05be 2ddd b23b
00000260: f0bc 29be bb62 44be a0a6 9cbe 4b23 babe
00000270: 2cd2 b2bd f138 1fbb 47b3 163e 7ddd 7dbe
00000280: 12f4 c7bd 6ad3 bdbd 6d45 83be 8a1c 3f3d
00000290: 82fd aabd 63d1 11be 9305 2abd b182 873e
000002a0: 8c22 88bd 45e0 4f3d 6a71 91be ce6a d13d
000002b0: b9cc fc3e 666d 9b3f cdf8 4d3f 5ba5 993f
000002c0: 57de c63f 6a4d 213f 04e9 5d3f b527 993f
000002d0: dfae 9cbe c542 91be 557f aebd 1b98 a53c
000002e0: ba96 64be 0536 31be ac09 8ebd cb7a 0ebe
000002f0: dbca 5dbd 9cfe 2b3e 970d 883e 14c3 a43e
00000300: 4ada 423e d42e b9bd d4d4 8abd 9133 0b3f
00000310: 9a59 b6bd 340f 02bc 88a0 debd 502a 4abe
00000320: fb95 1ab9 84a6 39be 0b0f 30be 86cb 3f3b
00000330: 1c67 89be 4f46 d8be 0223 e23d f057 f4be
00000340: 0e50 823d 561c c73e 20d7 5dbe f323 8b3d
00000350: 6f01 453d 77d8 523e 1694 ad3e 4503 e73e
00000360: 01f6 ec3d d7e4 363f 95a0 553f 05d1 f8bd
00000370: 8e91 383f c87d 613f 8164 1cbd 3c99 193f
00000380: e0c3 a53e 50d9 8e3e 00ec c83e 069a 413e
00000390: 2118 28bd 4da5 4f3e 6265 cfbd 1403 873e
000003a0: d687 c73d c698 64bd 0ca3 d33e f304 3dbb
000003b0: 4d30 163d f54e 993d 1e10 aabe 7238 7fbe
000003c0: 0bb5 8bbe 97bc 9abe 384d a239 0fbb 193e
000003d0: c73d 25be 7571 61be 28f5 02be 5678 dabe
000003e0: 996e 10bf 7a9a 23be b622 29bf 0ee3 e8be
000003f0: 71eb fabe d692 50be 74d4 c9bd 0d1e babe
-0.7680942 -0.48852676 0.17362398 -0.7699418 -0.33273175 0.03768166 -0.30113178 -0.074939504
-0.17008826 -0.20160551 -0.23453873 0.14732015 -0.47851947 0.06342433 0.24937353 -0.4160409
0.12578239 0.2859823 -0.03143798 -0.6681632 -0.110606015 -0.26700297 -0.62895197 -0.07811703
0.32770142 0.19664423 0.36775604 -0.28659973 -0.57712114 -0.54474044 0.22275828 0.04586995
-0.30952236 -0.06708937 0.25057733 -0.29425064 -0.37606162 -0.35921624 -0.6167316 -0.5023982
-1.066548 -0.7232405 -0.43098435 -0.20834145 -0.21564895 0.24922799 0.31996933 -0.13171381
0.17685692 0.35599014 -0.062224574 -0.16312736 -0.08813304 -0.09487956 0.28639558 0.33012104
0.61884975 0.4699689 0.20294295 0.13029847 0.01897438 -0.16216233 0.28737178 0.15966855
0.31185806 -0.4654274 0.49377295 0.07793844 -0.30185714 -0.2498218 -0.1833375 -0.4543124
-0.122046635 0.22927213 0.2890708 -0.22781207 0.10263874 -0.03056337 -0.17595437 0.15044068
0.041300293 -0.31891492 -0.04469873 -0.25270626 0.08794215 0.13321224 0.12503023 -0.3844104
-0.1328353 -0.19481918 0.2511239 0.35248265 0.72206056 0.14095803 0.19236536 0.060993742
-0.31295434 -0.6364772 -0.75011665 -0.5962764 -0.59460485 -0.15550958 -0.08611393 0.11691551
0.20955467 0.39375383 0.71927255 0.098257445 -0.3188536 -0.21710882 -0.09916587 -0.36110398
-0.2992155 -0.28745976 0.11532815 0.23300728 0.13362347 -0.25417385 -0.053858574 -0.030384379
0.23099892 0.26939693 0.09861465 0.522004 0.038625255 -0.021907747 0.07560286 0.20990646
0.0056201788 0.25812632 0.4820041 0.60798615 -0.30519795 -0.53421545 -0.42892224 -0.6865618
-0.5869585 -0.2199869 0.0588511 0.11527254 0.12562706 0.47356316 0.47166866 0.31566107
-0.10766321 0.07766672 0.3480864 0.047858942 0.3741166 0.20342132 -0.13038348 0.005458495
-0.1657598 -0.19178288 -0.30595875 -0.3635505 -0.08731493 -0.0024295414 0.14716826 -0.24791522
-0.097633496 -0.0926884 -0.25638905 0.046658076 -0.08349134 -0.14240031 -0.041509222 0.26466897
-0.06647214 0.05075099 -0.2840684 0.102254495 0.4937494 1.2142761 0.80457765 1.2003587
1.5536603 0.6300875 0.8668368 1.1965243 -0.30602166 -0.28371254 -0.085203804 0.020214131
-0.22323123 -0.17305763 -0.069354385 -0.1391403 -0.054148536 0.16796345 0.26572868 0.32180083
0.19028583 -0.09042135 -0.06778875 0.5437556 -0.08903809 -0.007938195 -0.10870463 -0.19742703
-0.00014742457 -0.18129927 -0.17193238 0.0029265597 -0.2683648 -0.4224114 0.110418335 -0.4772334
0.063629255 0.38888806 -0.21664095 0.06793966 0.04809707 0.20590387 0.33902043 0.45119682
0.11570359 0.7144293 0.83448154 -0.12149242 0.720971 0.8808255 -0.038181785 0.5999944
0.32376003 0.2790017 0.39242554 0.18906412 -0.041038636 0.20277901 -0.10126759 0.26369536
0.097427055 -0.05580976 0.41335332 -0.0028842061 0.036667157 0.07485763 -0.3321542 -0.24923876
-0.27286562 -0.30222008 0.0003095658 0.15012763 -0.16136847 -0.22015937 -0.12788832 -0.42669934
-0.5641876 -0.15976897 -0.6606859 -0.4548573 -0.49007753 -0.20368513 -0.09854975 -0.36351052

Variable_5/read/_43__cf__43:0 f4 [1, 8, 1, 1]
00000000: d938 233f 5317 ae3f 6f54 bd3f 222d 2e3f
00000010: ef3e 353f 3147 543f 5ccc 893f 2d8d 323f
0.6375862 1.3600868 1.4791392 0.6803762 0.70799154 0.8292113 1.076549 0.6974667

Variable_47/read/_42__cf__42:0 f4 [1, 3, 1, 1]
00000000: 96c1 aa3e 54ca a03e 7c40 ae3e
0.3335082 0.31404364 0.34033573

Variable_46/read/_41__cf__41:0 f4 [1, 3, 1, 1]
00000000: 52b7 8abd 2faf 123e c19d 213d
-0.06773247 0.1432464 0.039457086

Variable_45/read/_40__cf__40:0 f4 [3, 4, 9, 9]
00000000: cbc0 d5bd c1a1 c2bd e410 d43d bf13 9b3d
00000010: b7fe 6e3d 7b71 de3d a308 2a3d 34eb e13d
00000020: 5579 ee3d 2785 d4bd 53d2 3bbe f831 27bd
00000030: 12e7 90be de47 2ebe ebc7 23bd 16ac 92be
00000040: 5cf6 acbd 96d6 a83d d5bd 1f3d a1af 553d
00000050: 0032 ef3c b0c0 fcbe 837b 5abe d3a1 c4bd
00000060: 7249 18bf fb02 95be 9b32 80bb 23ca d53d
00000070: 9c60 763e aca0 4abd 0263 35bf e574 cebd
00000080: 995b b33d 1d01 02bf 9987 2fbe 9473 a53d
00000090: b9f5 4f3d 219a b73d 32a5 08bf 07e3 8cbf
000000a0: 88eb 83bd 98d6 7a3e 6034 c3be e007 07be
000000b0: e4c4 883d 0bab 9fbd cf47 fbbd 3ce3 50bf
000000c0: 22d6 98bf f92f a9bd e57f 6b3e 4c34 8fbe
000000d0: 1523 f6bc cc96 af3d 341a abbe 862e 00bf
000000e0: b703 8fbf 8a09 a9bf 6c77 b6be ad43 dbbd
000000f0: dc02 b3be 7328 a5bd 2e39 2a3d 4ea2 cebe
00000100: b2e1 04bf 7fbf 48bf e725 5fbf 456d 98be
00000110: da34 9dbe 02dc e9be 46e3 28be d58a 28bd
00000120: c19c 25be 6636 51bd 89dc 9fbd ded1 3cbe
00000130: 80a5 80bb 7676 10be 0716 37be 4cb9 3f3d
00000140: 0c13 283d f29d 61bd 94a3 88bc 3305 0bbd
00000150: b31f fb3c a8c0 123e 4d50 b63d e1c6 60bd
00000160: f20d 93bd 7fc0 ebbc 655f 1b3d 0412 1a3e
00000170: 4daa be3d 6b42 fa3d 97fb 5c3e 1cc6 0e3e
00000180: e60e 91ba b6fb babd 326a 8dbd b6ac c23d
00000190: 822e 0c3e e56a d7bc b696 debd 7b7d c3bd
000001a0: 150d b73d c681 bf3d 09c0 bebd bd1e 82bd
000001b0: 9339 7b3e 7656 873e 51d6 643e fa63 4d3e
000001c0: 5a00 503d f8f6 503e 174f 913e cdcc ed3c
000001d0: d229 9bba ebb1 b03e 846e 8f3e cc97 073f
000001e0: 5563 543f 9022 d63e 8091 603e 8bc0 863e
000001f0: f69e 44bd 9a3f 84bd 4df3 183d e023 a5be
00000200: e976 943e f3c4 8e3f 8b3f 203f e2bf bc3d
00000210: cc21 8bbd 7c2c a5be 33c1 44be 85fc 80bd
00000220: 6f79 f5be bb99 933e 0259 ad3f 9550 723f
00000230: bb73 9e3e 1bc5 5cbc 0e48 8ebe ecd8 0ebe
00000240: 0c21 2abd ef67 06bf 5277 8fbd d5b7 4b3f
00000250: 180d e13e 18d3 ad3b 1e98 10be 5915 88be
00000260: bcae e6bd d25e e7bd bb2c 09bf ff3e cdbe
00000270: 1bde 1ebd 583f 8fbe f19d b6be 5b55 8fbe
00000280: a1db 5abe 1505 5fbd af3d 2d3d 4d39 cebd
00000290: 8e2d 82be 4930 92be 558b 49be 5972 2dbe
000002a0: 67f7 edbd 9951 323e 8520 083e 2f5b bc3d
000002b0: 48fc 82bd fbd0 26be 6825 12be ae98 9fbd
000002c0: bad1 88be bb2e 63be 462b 893e b83b 183e
000002d0: 97ab 143e 5789 0b3e 0726 4d3e 91b2 773e
000002e0: 839f 6b3e a7cb 31be b795 1bbe b10b ce3e
000002f0: e51b 5c3e 95b2 853c 9ae7 f03d ec78 203e
00000300: 512f 13bd ad74 09be e6a3 23bf e9f5 10bf
00000310: 4333 f43d 8054 fa3d 6dbd 8ebd dbbb 093e
00000320: 6a19 113e 5899 27be f37b d3be 79eb 6fbf
00000330: 8158 57bf b05f 24be 7d10 c83c 5bbc 92bd
00000340: 3da5 d73d 4bb9 0c3e ff75 373e 767f 5c3d
00000350: ccf1 f6be 5b22 24bf 4829 39be 55eb b13d
00000360: beea 08be d14a e6bd 5947 26be fac0 9a3d
00000370: fac5 d13d aa45 c7be 14cc 26bf 7ae8 b0be
00000380: 35c0 4cbc eae8 42be 4ca0 b0be 24c8 bcbe
00000390: 6adc 873c 2dc9 443e d16e 0dbe 8d33 d3be
000003a0: cc12 7dbe ebf8 65bc af39 13be ab59 91be
000003b0: 6796 63be 3296 ce3d 7d39 843e dfe6 953d
000003c0: 9011 0dbe a956 44bd baf8 843d 9a9d f0bd
000003d0: 3d5d 4abe 15db 53be fefe 46be 48c4 98be
000003e0: 66c5 89be 38de 66be 1b6b 74be 8560 233d
000003f0: b227 00be 29d9 6dbe 152d 79be 66b1 88be
-0.10437163 -0.09503508 0.10354784 0.07572126 0.058348384 0.108614884 0.041512143 0.110311896
0.11644236 -0.10376959 -0.18341951 -0.04081914 -0.28301293 -0.17019603 -0.03998558 -0.28646916
-0.08445427 0.08244054 0.038999397 0.052169446 0.029198647 -0.4936576 -0.21336178 -0.09601178
-0.5948707 -0.29103836 -0.0039122826 0.10438945 0.24060291 -0.049469635 -0.708542 -0.100808896
0.08757705 -0.5078295 -0.1714157 0.080786854 0.05077145 0.08964945 -0.5337707 -1.1006783
-0.064414084 0.24495924 -0.38125896 -0.13186598 0.06678179 -0.07796296 -0.12269556 -0.8159673
-1.1940348 -0.08261103 0.22998007 -0.27969587 -0.030046025 0.08573684 -0.3341843 -0.5007099
-1.1173009 -1.3206036 -0.35637987 -0.107062675 -0.3496312 -0.08064356 0.041558437 -0.40358204
-0.51906884 -0.784172 -0.8716721 -0.29770866 -0.30704385 -0.45675665 -0.16492948 -0.041148026
-0.16173078 -0.05107727 -0.078057356 -0.18439433 -0.003925979 -0.1410769 -0.17879497 0.046807572
0.04103379 -0.05508227 -0.016679563 -0.033940505 0.030654764 0.14331305 0.08902035 -0.054877166
-0.07180394 -0.028778313 0.037932772 0.15045935 0.09309826 0.122196995 0.21580349 0.1394276
-0.0011067062 -0.09130041 -0.06905021 0.09505598 0.13689616 -0.026296088 -0.108685896 -0.09545418
0.08938042 0.09350924 -0.093139715 -0.06353519 0.24533682 0.26433152 0.2234738 0.2005767
0.050781585 0.20406711 0.28380653 0.02902832 -0.0011838025 0.3451074 0.28014004 0.52966
0.8296407 0.41823244 0.21930504 0.26318774 -0.04800316 -0.064574435 0.037341405 -0.32253933
0.2899697 1.1153854 0.6259696 0.09216286 -0.067935556 -0.322605 -0.19214325 -0.06298164
-0.4794421 0.28828225 1.3542788 0.9465421 0.3094767 -0.013474728 -0.27789348 -0.13949937
-0.041535422 -0.5250234 -0.070051804 0.7957738 0.43955302 0.0053047054 -0.14120528 -0.26578787
-0.11263797 -0.112973824 -0.5358388 -0.40087125 -0.038786035 -0.27978015 -0.35667375 -0.2799481
-0.21372844 -0.054448206 0.042295154 -0.10069523 -0.2542538 -0.28552464 -0.19682057 -0.16938151
-0.11619454 0.1741394 0.13293655 0.091970794 -0.06395775 -0.16290657 -0.14272082 -0.07792793
-0.2672251 -0.22185795 0.26790828 0.14866531 0.14518581 0.1362661 0.20034038 0.24189211
0.23010068 -0.17362843 -0.1519383 0.40243295 0.21495016 0.016320506 0.117629245 0.15671128
-0.035933796 -0.13423415 -0.63921964 -0.5662523 0.1192384 0.12223148 -0.06969724 0.13450567
0.14169851 -0.1636709 -0.41305503 -0.9371868 -0.8411942 -0.16052127 0.024421925 -0.07164832
0.105295636 0.13742559 0.17916106 0.053832494 -0.4823135 -0.6411492 -0.18082154 0.08687464
-0.13370797 -0.11244739 -0.16238154 0.075563386 0.10242839 -0.38920337 -0.6515515 -0.34552366
-0.012496998 -0.19034162 -0.34497297 -0.36871445 0.016584594 0.19217367 -0.13811804 -0.41250268
-0.24714202 -0.014036397 -0.14377473 -0.28388724 -0.22225343 0.10087241 0.2582511 0.07319426
-0.13776231 -0.047934208 0.06492753 -0.1174881 -0.1976213 -0.20689042 -0.1943321 -0.2983725
-0.26908416 -0.22545707 -0.23868982 0.03988697 -0.12515143 -0.23227371 -0.24333604 -0.26697844

Variable_44/read/_39__cf__39:0 f4 [1, 4, 1, 1]
00000000: 9363 5a3f 3ee0 573f 8b00 643f 0a7a 373f
0.8530819 0.8432654 0.8906333 0.7167059

Variable_43/read/_38__cf__38:0 f4 [1, 4, 1, 1]
00000000: a93f 8b3f a18d a13f 7c1b d83e 93f5 543f
1.0878803 1.2621347 0.4220847 0.83187217

Variable_42/read/_37__cf__37:0 f4 [8, 4, 3, 3]
00000000: c47a 74be 62b9 91be 4a77 d9bd ba64 15be
00000010: c726 6ebe 4fa0 7abe 2466 013e c682 d1be
00000020: b5fb 293d a052 b93e c9e6 263f d66c 133e
00000030: 62d8 973e 0147 143f ba99 5c3e 6956 f43d
00000040: 3c95 973e eca5 72be 29de e9be 1a6e f6be
00000050: bba3 dabe 6e53 b13d 8f75 a4be e232 babe
00000060: f6b0 d3be 9b3f 543e 6e90 adbe 569b 7cbe
00000070: a428 8dbe 801f a8be f02c 38be 351e d7be
00000080: 0c7e f7be 0870 92be e743 f03d bd3c 4ebd
00000090: 3fb1 a7bd d8d1 be3e 7180 b43e 2bfe 283f
000000a0: 1056 fc3e b965 a53b a54b 1f3f 43ec 213e
000000b0: d5b6 89be b0c0 bc3e 6e89 0f3f 0426 ca3e
000000c0: c74f e13e 94e3 593e fa35 3fbe dfb6 9b3d
000000d0: bdd9 b5be 2b76 20bf 2d3d 70bd bc32 7dbd
000000e0: 1657 32be 643c b33e 6304 68bd 3be3 833d
000000f0: baaa c6be 13ec eb3e 8420 97bc 62b7 2d3e
00000100: 677b d3be f431 0dbe 05c2 63be 9c2c d2be
00000110: 2cff 77be 7a78 a93c 2558 41be 699a 103d
00000120: d3bf b8be 984e ac3e c8ae d6be dbab bfbd
00000130: ee6f f33e 300a 8a3d 8655 e6be 1b89 003e
00000140: db1a 34be d296 193e d6a8 d3bd 1ba4 4d3e
00000150: 9e90 9dbe 2427 afbe 6532 1fbf fc74 2dbe
00000160: 1803 08bf 3319 8cbe 597d ebbd c276 b9be
00000170: 9d99 b93e 7274 49be cb90 3fbe 1242 5d3d
00000180: 6785 4a3e 119f 31bf dee4 e6be 8f8a 91bd
00000190: 7f35 2bbf fc32 913e 6e3f 88bd 9df1 e5bc
000001a0: 4237 e23e 6218 0dbd 5783 9dbe 5f04 873e
000001b0: 1985 42be d042 2ebf f8e5 4fbe 9c42 3dbe
000001c0: 228a 56bd fdb4 28be afa4 72bd 1f8f 513d
000001d0: 7170 403d c4a9 90be 81dd 803e bc5a 2d3e
000001e0: 6ab3 0e3f a9ad cc3e 39b6 de3e f55e ce3e
000001f0: e210 d03e ae5f 753e 21c6 e33d 62a7 5b3e
00000200: 9c62 12be 76fa 46bf 9bdc 83be a9a1 71bf
00000210: 6acf 743e 549a 103d 4e30 093f 8c16 fa3e
00000220: 4b58 1d3f b969 cb3e ef9c 06be 0ab6 e7be
00000230: f8a2 a43e 1b4a be3e b4e3 dc3e e01e c03e
00000240: 0b24 abbd 654c ce3e e127 e23e f640 0dbe
00000250: a88d e93e 1827 f53d 71a0 0d3f 79b2 7c3f
00000260: e8fa 0c3f 5d8b 113e 2c37 3a3e 9edd 7ebe
00000270: 87bc 85be 5496 09be c0d5 013f 9a77 643e
00000280: 1708 953e ebb6 f73e e995 40bf b16a c0be
00000290: 2208 99be 36d9 dfbe 0908 973e ced1 1b3d
000002a0: 788c 3a3f c3b6 82bd 828e 003f 5090 54be
000002b0: dbf6 543d f9ec ba3e 095f ca3d f42a 903e
000002c0: 1833 1a3f 3861 a33d 6e32 f93e a522 5e3e
000002d0: 5ad8 243f b755 663e 6ada cf3d f02d 093f
000002e0: 5a27 cb3e 4b2c ab3e 0bd3 e8bd bef6 773e
000002f0: e7f5 753d e4d2 88be 4d22 bfbe 1ded 10be
00000300: cb27 cb3e 04f2 b93e 2e2c 63be 1bef 48be
00000310: a0f6 153f 1eb6 563e 9b09 e53d f1fd a13e
00000320: aec9 b5bd 354e 60bc d1bf 79bd 0975 7a3d
00000330: 79db bbbc 4bf4 a83d 4db1 9cbd 5736 b3be
00000340: 62f0 d8be 7f66 9cbe e49a 4ebe 066a a3be
00000350: 2739 cfbe 7497 813e 575c 2c3e 20b2 1dbe
00000360: c92e 99be 48cf 68be cfc4 af3e f6bf d3be
00000370: e28c 80be e966 7b3e 3b2a eebe 2829 58be
00000380: 5b60 273e d2a5 5d3e 0791 50be 38ac a4be
00000390: 05ff c43e 4f22 4cbe edc2 29bf e4d3 b33e
000003a0: 7b1c 063e aca4 14bf 92f4 903d bad4 f6be
000003b0: cabc 643e 8b08 20be 1bed 7abe 56cd 543c
000003c0: a511 383d fac0 f43d fd79 74be 87c1 0b3e
000003d0: fa74 d53e 0d44 5fbd 309d fbbd 734b 10be
000003e0: 1f66 24bd 6f92 18bd e6bb a33e 3be3 a9be
000003f0: 4d5d 90bb 2343 043e 9919 ea3e 55a5 cc3e
-0.23874956 -0.28461748 -0.10618456 -0.14589205 -0.2325698 -0.24475215 0.1263662 -0.40920085
0.041499812 0.3619585 0.651959 0.14396986 0.29657274 0.57920843 0.21543017 0.11930544
0.29606044 -0.23696107 -0.45677307 -0.48130876 -0.4270304 0.08658491 -0.3212094 -0.36366946
-0.41345948 0.20727389 -0.33899254 -0.24668631 -0.2757007 -0.32836533 -0.17985892 -0.42015234
-0.48338354 -0.28601098 0.11731701 -0.050350893 -0.08188104 0.37269473 0.35254243 0.6601283
0.4928441 0.0050475267 0.622248 0.15812783 -0.26897302 0.3686576 0.56069076 0.3948213
0.44006178 0.2127822 -0.18672934 0.07603239 -0.35517684 -0.6268031 -0.05865209 -0.061815962
-0.17416033 0.35007012 -0.05664481 0.06439825 -0.3880213 0.46078548 -0.018448122 0.16964486
-0.41305086 -0.13788587 -0.22241981 -0.4104966 -0.24218434 0.02068733 -0.1888128 0.035303507
-0.3608385 0.33653712 -0.41930223 -0.09358951 0.47546333 0.06740224 -0.44987124 0.12552302
-0.1758837 0.1499894 -0.10334937 0.20082133 -0.30774397 -0.3420955 -0.6218627 -0.16939157
-0.5312972 -0.27362975 -0.114985175 -0.36223418 0.3625001 -0.19673327 -0.18707578 0.054018088
0.19777451 -0.6938334 -0.45096487 -0.07106506 -0.66878504 0.2835921 -0.06652723 -0.028069312
0.44182783 -0.03444708 -0.30764267 0.26370522 -0.18996085 -0.680707 -0.2030257 -0.1848244
-0.052377827 -0.16475292 -0.059239086 0.05116188 0.046982232 -0.2825452 0.25168994 0.16929144
0.55742514 0.39976242 0.434984 0.4030682 0.4063788 0.2396228 0.111217745 0.2145057
-0.14295429 -0.77725923 -0.25754246 -0.943873 0.23907247 0.03530343 0.5358933 0.48845327
0.6146285 0.39729097 -0.13145803 -0.45256072 0.32155585 0.37165913 0.43142474 0.37523556
-0.08356484 0.4029266 0.4417105 -0.13794312 0.45615888 0.11970347 0.5532294 0.9870983
0.5507035 0.14213319 0.18185109 -0.24889228 -0.26120397 -0.13436252 0.5071678 0.2231125
0.29107735 0.48381743 -0.75228745 -0.375814 -0.29889017 -0.43720406 0.29498318 0.038041882
0.7287059 -0.06382515 0.5021745 -0.20758176 0.051993232 0.3650892 0.09881408 0.2815777
0.6023421 0.079775274 0.48671287 0.21692903 0.64392626 0.22493635 0.10149081 0.5358572
0.3967846 0.3343223 -0.11368378 0.24215218 0.060048964 -0.26723397 -0.37330857 -0.14152952
0.39678797 0.36317456 -0.22184822 -0.19622461 0.58579445 0.2096791 0.11183473 0.31639054
-0.08876358 -0.013690521 -0.060973946 0.06114677 -0.022931801 0.0824972 -0.07651005 -0.35002396
-0.42370898 -0.30546948 -0.20176274 -0.31916827 -0.4047329 0.25310862 0.168321 -0.1539998
-0.29918507 -0.22735322 0.3432984 -0.41357392 -0.25107485 0.24550976 -0.46516594 -0.2110945
0.1634535 0.21645287 -0.20367824 -0.32162642 0.38475814 -0.19934963 -0.6631306 0.35122597
0.13096802 -0.5806377 0.07077898 -0.48209172 0.22337642 -0.15628259 -0.24504511 0.012988409
0.044938702 0.1195087 -0.2387466 0.13648044 0.4169081 -0.054508258 -0.122858405 -0.14091282
-0.040136453 -0.037249025 0.31979293 -0.33181176 -0.0044056536 0.12916236 0.45722654 0.39969888

Variable_41/read/_36__cf__36:0 f4 [1, 8, 1, 1]
00000000: 45e5 553f 4989 813f 10ac 873f 64d1 833f
00000010: a10d 963f ba01 5a3f d535 6a3f f8a3 793f
0.8355296 1.0120021 1.0599384 1.0298276 1.1722909 0.85158885 0.9148839 0.9751582

Variable_40/read/_35__cf__35:0 f4 [1, 8, 1, 1]
00000000: 7646 953e 851d 273e 43c0 5cbd 2842 3b3f
00000010: 23ee 6b3f 8285 7f3e 4b45 f4bb 8a24 1c3e
0.2915532 0.16319855 -0.053894293 0.7314782 0.9216024 0.24953273 -0.0074545494 0.15248314

Variable_4/read/_34__cf__34:0 f4 [1, 8, 1, 1]
00000000: 64ac 4b3f 0b08 2f3f 9845 a33f d576 72be
00000010: abb0 913e b16c 8fbe fc92 aa3e 8a7c 2d3e
0.7955992 0.6837165 1.2755613 -0.23678143 0.284551 -0.28012612 0.33315265 0.16942039

Variable_39/read/_33__cf__33:0 f4 [16, 8, 3, 3]
00000000: 375e 433d 9b2a e9be 775d eebe 00d2 ec3e
00000010: dad6 003e 6493 c6be 7ee4 4e39 db69 cb3e
00000020: 91f1 833e 03c6 7cbc 9d43 53be 2a62 7dbe
00000030: e9cf 24be 05de ddbe 5ff8 603e 4b58 7cbd
00000040: f834 acbe 8e7d 353e ec0a d7be fab3 173e
00000050: 9cea c93e 255e 91be e38b 04be 894d 9f3e
00000060: 6be5 f6be caf8 4abe 2946 263c 83bf 2ebe
00000070: 45fc dcbd 5316 933e 82de f73e 437e 363f
00000080: 5adb b43e 79e5 063f 21fc ac3e 0a3e ffbd
00000090: d579 a73e 694e eebd 4ed8 bebe 07db 58bd
000000a0: 8dd0 d83d 8ecc 8ebe f748 90be 005f 31be
000000b0: 3113 0cbe d40e 7fbe f27f 623d 52dc a6be
000000c0: 6e34 c3be 7074 0bbf 6653 84bd 292f 633d
000000d0: 9029 6abd 8daa 06be 24a6 e5be 44aa 3bbc
000000e0: 9b0b 51be cdfd f5bd bec6 bd3e 6ec9 b63e
000000f0: 352b 073e 36d1 1e3d 3c76 743d fa7b 303e
00000100: 6324 053f e962 043e c4a8 7bbe cb0f 1ebe
00000110: e6d0 b33e d5ef 7e3e d340 2d3f 2c38 173f
00000120: 54ec 8b3d 90cf 26bf b9e8 903e bac0 323e
00000130: 8a1e 3c3d 4e01 b23c 4ac7 843e de78 34bf
00000140: 9ef1 1fbe c4b4 843e 8d1d 0d3d 6fb0 c5be
00000150: e7db 91bc 7a08 adbf 21cb 88be 884c ce3d
00000160: a758 55be 54d3 b5bd 38e6 d4be 2133 dd3e
00000170: ca29 9d3f d380 59bd 8f71 05bd 7269 a6bd
00000180: a51b 3dbf ed8d 04be 2b6a 77be 866e c03e
00000190: f5dc 98be 55ab 94be 9924 2ebe b41a 943e
000001a0: c9fd debc b895 a63d 9c32 05bf b441 01bf
000001b0: 86de efbe 7da4 a3bd e5b3 883e 60ed 6c3e
000001c0: 43d6 053f e125 c03e 4d71 cabe e26e d53e
000001d0: 04bc 813d d91a 13be 16c7 9a3c 163b ddbd
000001e0: 431d e6be 7064 06bf 3952 43bf 0bac 0d3e
000001f0: 44b1 76bc 63d0 08be de55 c73d 793d 7dbd
00000200: ee0d 973c e36c 7d3e f74a cfbe 1713 4f3d
00000210: d002 423c 73fe 12bf 39b0 f13e 9eb5 b03e
00000220: 5f01 753e c523 693e 989e a4bd 3892 323e
00000230: d01f bfbc add2 a23e 945d 17be cf58 8abe
00000240: 9740 ce3e 8b51 36be b0d2 0a3f 0e05 70be
00000250: 1332 45bc bc5a c13d 18ca e2be 80cb b0be
00000260: 9557 0abf 1a91 e43d 2d96 72be 2d5c 61bf
00000270: 25f1 10bf 2b59 19bf 2cb8 2a3e b579 ef3c
00000280: 60ab 153d 7ad9 17be b31e 153d 943c 9dbe
00000290: f865 133e d40d d9bc 2be2 41bf dc7c f93d
000002a0: 0fcb 463f 7379 8e3d 3ad3 aebc 80cf 87be
000002b0: 5b0f 243d d948 94bd b5cb 223f 3da7 5f3f
000002c0: 2c40 383f d5d5 eabd 315d 24bf 9b34 eebe
000002d0: d3bd dfbd f19f 86be 2835 c6bb 0849 933e
000002e0: 2457 5fbe 64cd 9dbe e7e3 ba3d f2e9 8f3b
000002f0: 1b05 69be 4b3f ddbd 2b43 ffbd d06f 27bf
00000300: 286f 503e b151 afbe ec14 0bbe 937f 5a3e
00000310: ffa6 cfbd 584b eabe fe4d 133e 2e00 d2be
00000320: cb99 d43e 191c dfbd 964b 0b3e 5ff3 0c3e
00000330: 93e1 c8be 5e3f 463d 10ff ff3e 1a86 92bd
00000340: 5bfb b5be 4872 2abf 87ec d43e cae3 1abe
00000350: 0a68 50be bc82 6a3e c8e5 873e 0b2b 233e
00000360: 121e e0bd 6f94 03be ceb4 733e f794 dfbe
00000370: dbd8 bd3e e80f 71be e547 7a3d aefc b43d
00000380: d551 073e 75cc c3bc da86 9cbd 3494 913e
00000390: 71cf 34bf 45ba 923d 5c20 d5bd 8f43 59be
000003a0: 8b4d e73d cee3 afbd 29ea 0bbf f3a8 b33e
000003b0: 980b 67be e7db babe 7c52 abbe a090 bebd
000003c0: 912c 7fbf fcbf 4fbb 3e4d c5bd 4c8a 61bf
000003d0: 0875 3abf e9a4 e43d c6cb 7dbf c594 df3e
000003e0: 0f3d 153e 83b3 0d3d 8ba7 53be f99e 443e
000003f0: 7929 9abe 111b dbbd b8f4 e7be f090 82be
0.047697272 -0.45540318 -0.46555683 0.46253967 0.1258196 -0.38784325 0.00019730811 0.397292
0.25770238 -0.015428069 -0.20631261 -0.24744478 -0.16094936 -0.4333345 0.21969746 -0.06160764
-0.33634162 0.17723677 -0.4200052 0.1481475 0.39436805 -0.2839214 -0.12943988 0.31113842
-0.48221907 -0.19821468 0.010148563 -0.17065243 -0.10790304 0.2872797 0.48411947 0.7128641
0.35323602 0.526939 0.3378611 -0.12463005 0.32710138 -0.11636049 -0.37274402 -0.052943256
0.10586653 -0.27890438 -0.28180668 -0.17321396 -0.13679196 -0.24908 0.0552978 -0.32589966
-0.38125938 -0.54474545 -0.064612195 0.055464897 -0.057168543 -0.13150997 -0.44853318 -0.011454169
-0.20414583 -0.12011299 0.3706569 0.35700554 0.13200076 0.038773738 0.05968307 0.17234793
0.52008647 0.12928356 -0.24576098 -0.15435712 0.35120314 0.24896176 0.6767704 0.59070086
0.068321854 -0.65160465 0.28302553 0.17456332 0.04592756 0.021729138 0.25933295 -0.7049693
-0.15619513 0.25919163 0.03445201 -0.3861117 -0.017805053 -1.3518212 -0.26717475 0.10073191
-0.208346 -0.08878198 -0.41581893 0.4320307 1.2278378 -0.053101372 -0.032579 -0.08125581
-0.7387031 -0.12944765 -0.24161594 0.37584323 -0.29856077 -0.29036966 -0.17006148 0.28926623
-0.027220624 0.08134025 -0.5203035 -0.5049088 -0.4684946 -0.07990358 0.2669975 0.23137426
0.5228006 0.375289 -0.39539567 0.4168616 0.06334689 -0.1436571 0.01889376 -0.108022854
-0.449442 -0.52497005 -0.76297337 0.1383516 -0.015056912 -0.13360743 0.09733175 -0.061826203
0.01843926 0.24748568 -0.4048688 0.050555315 0.011841491 -0.5741951 0.4720476 0.34513563
0.23926304 0.22767551 -0.08038062 0.1743859 -0.0233306 0.31801358 -0.14781791 -0.2702088
0.40283653 -0.17804544 0.54227734 -0.23439428 -0.012035864 0.09441134 -0.4429481 -0.34530258
-0.5403989 0.111604884 -0.236901 -0.88031274 -0.5661796 -0.59901685 0.16671818 0.02923284
0.03654039 -0.14829054 0.03640623 -0.3071028 0.14394367 -0.026495852 -0.7573573 0.12182018
0.7765359 0.06956758 -0.021340955 -0.26525497 0.040053707 -0.07240457 0.6359208 0.8736456
0.7197292 -0.114665665 -0.642047 -0.4652451 -0.10924878 -0.262939 -0.006048817 0.28766656
-0.21810585 -0.30820763 0.091255 0.004391902 -0.22755854 -0.10803088 -0.12463983 -0.6540499
0.20354903 -0.34242013 -0.135822 0.21337728 -0.10139274 -0.45760608 0.1438522 -0.41015762
0.41523585 -0.10894031 0.13603052 0.13764714 -0.392346 0.048400275 0.49999285 -0.07154484
-0.35543332 -0.6658063 0.41586706 -0.15125957 -0.20352188 0.22901434 0.26542497 0.15934388
-0.109432355 -0.12849592 0.2379944 -0.4366834 0.3707951 -0.23541224 0.06110372 0.08837257
0.1321481 -0.023901204 -0.076429084 0.28433383 -0.7062903 0.07164434 -0.10406563 -0.21217178
0.11294087 -0.08588372 -0.54654175 0.35089836 -0.22563016 -0.36495897 -0.33461368 -0.09304929
-0.9967738 -0.0031700125 -0.096338734 -0.8810165 -0.72834826 0.111642666 -0.9913906 0.4366819
0.14574073 0.034595024 -0.20669381 0.19201268 -0.30109766 -0.10698522 -0.45303893 -0.25501204

Variable_38/read/_32__cf__32:0 f4 [1, 16, 1, 1]
00000000: 20d7 0e40 8fe6 ff3f eb73 0240 c6bf ee3f
00000010: 805d 0f40 4336 e23f f768 0d40 8d5d d73f
00000020: 51e1 0c40 91fa 1640 0f69 cc3f 0200 1a40
00000030: b201 0540 8666 1040 70d3 1c40 612b 1640
2.2318802 1.9992236 2.038325 1.8652275 2.2400818 1.7672809 2.2095315 1.6825424
2.2012522 2.3590434 1.5969561 2.4062505 2.0782285 2.2562575 2.4504051 2.3463976

Variable_37/read/_31__cf__31:0 f4 [1, 16, 1, 1]
00000000: b3bb 10be 3587 533e f77d 203e 71d3 4c3e
00000010: aa42 afbd 6fb9 d63e eea2 623c 704a b5bd
00000020: 7ca6 9c3d 81eb e03d 354d b5be 5839 c03d
00000030: 64b6 893d 2aea 0c3c 2a89 9abc cfde 863e
-0.14134102 0.20657046 0.15673052 0.20002533 -0.08557637 0.4193835 0.013832791 -0.088520885
0.07648942 0.10982419 -0.35410467 0.093859375 0.067242414 0.008600751 -0.018864233 0.26341864

Variable_36/read/_30__cf__30:0 f4 [16, 16, 3, 3]
00000000: d239 efbd 04a0 b83d 4d5a d23e 9b12 643d
00000010: 1d6c b4be 8cb6 af3c 041e 463e 75d0 15be
00000020: 1c4e 893c b658 433d f20f 0e3f cf6b 123f
00000030: cdbd 24be c1b5 193f de6c de3d 6da2 89bd
00000040: 271b 11be 5a5c 213f 3b17 bebe 9f11 acbc
00000050: 7721 c43c fb12 51bf 8b6c b03d f737 2c3e
00000060: aab2 2bbf d457 3abe b8c8 e73e c3ca ff3e
00000070: 006b 333e 4508 2fbe b10c bbbd 82f1 2fbf
00000080: 9a45 58bf dd2a 363e 01a5 c6be 4dee 9fbe
00000090: f82e 56be 5f53 373f 217a fa3d 7fda 08bf
000000a0: 8405 3b3f ec19 863e 29f5 18bf 49c2 25be
000000b0: bb0d 373f c257 38bd 50ca 183e c6b0 563e
000000c0: fa9d e9be 6fd0 21bf 92cc 3d3e 5aff 7abf
000000d0: 2e17 ccbe 3ef3 7fbe ed4d cd3e 3b5d b93c
000000e0: e3ec 1fbe 84fd a83e f371 643c cea4 84be
000000f0: 4647 523c b41e c3bd b7e0 933d f800 dc3e
00000100: 71d5 cb3e 7949 5fbd 2a92 c9be 794d 543f
00000110: e4a1 16be 214f d1be 3c5e db3e 04c1 0e3d
00000120: 05c0 4d3e baec f03e ab0a e53e 15e0 c7be
00000130: 2fde 023f 348f b53e d836 24bd 5dae 2a3f
00000140: 8755 883e 8e2d 463f 7377 503e 2dd1 a6bd
00000150: 074b 3d3e 9b3b 9cbc bfc0 21be 2951 a63e
00000160: 8f52 033e 0200 06be 2afd efbd fb85 393e
00000170: 9d3d 56be 3b9d acbd 753f c03a 5d46 263e
00000180: e569 c93d 170b 023e bc12 863a 9141 fcbd
00000190: 03be 943e 5e10 90be 3332 8dbd 3881 393e
000001a0: 9162 3b3e 64bb 663e dd66 0bbd 5c19 09be
000001b0: add8 8bbe d56d dc3e c596 4bbf 1137 1cbe
000001c0: 0bf9 903e b784 d83e 6572 04bc 0099 003f
000001d0: 92fd 3d3e 99c1 a4be 3437 0c3e 5332 a33e
000001e0: 54a3 67be d74f ef3d 56f4 2d3f 6d06 85be
000001f0: 9035 423e f144 043e 4c1b c33e 6bd9 80be
00000200: 1c8a bbbd 6e32 1a3f 4877 4abe a1fe fcbe
00000210: 4a4a d73e 5a4f ccbd 0b1b 233d f9c4 b23e
00000220: 0466 9fbe c163 afbe e2a5 ecbd 6332 28bf
00000230: c7a2 c9bd 1e77 063f a28c b9bd bd1d 983d
00000240: 635e 4e3e 4834 9ebe 0d7e 783f 1386 9c3e
00000250: 7fee a0bf 33f2 3c3f e6ed 803e 3a22 bfbd
00000260: fa59 2dbf 661a 883e 03a9 6b3e 14f9 403b
00000270: 5b75 933e e46d ffbd f070 463c abd8 0d3f
00000280: 8a84 0e3f 57be 9cbd dfc0 c73e 2c1e dd3e
00000290: c8b7 673e c837 a2be 0b3f 363e f877 173f
000002a0: 5192 29be 7f09 2e3e 7920 e9be 8401 8dbe
000002b0: ed9f 5cbe ef3c c73c 8976 543e fc16 babe
000002c0: 8ed2 3c3e 7f67 f53e ca58 11bd cf8e 2e3e
000002d0: da9a 17bf 25df 2cbe 140f 983e 4d9f c9be
000002e0: de2b fdbc 3e82 32be 0c24 973d a4dc 973e
000002f0: 72cc 843e e7d3 e63e 983a b93d ad6d 783e
00000300: 8b5d 5a3d 0b3d aa3e 98ba c63e f983 7ebe
00000310: a36d 98be 4e85 d4be c49b 3b3e 8575 5e3e
00000320: bde2 8cbe e23c e2bd bd44 8f3e ac92 c4bd
00000330: 3083 26be e75a 3b3e e8bd a5bd 4ecd 04bd
00000340: a177 4f3e b33f 09be 58bf 0dbf 14c0 4c3c
00000350: a346 6bbe 2df8 b13e 73bd 32be ec52 6f3e
00000360: 970f 9ebd 85d6 343e 7180 1ebe 7133 073f
00000370: f463 8abe e833 07bf 09bb e23c 47fd fabe
00000380: 6c7e d53e f100 2cbf f871 5ebd ca28 63be
00000390: 7005 a0be fbc1 383d 903d 483e 214f 7bbe
000003a0: 40c8 413d 63af 8f3d 407c b6bd f6d0 1b3d
000003b0: a9d6 233e 00fd b0be 4256 d73e c381 793f
000003c0: 2c93 8b3e 11bf 2ebe 991b 38bd eb2c 39be
000003d0: df1d f23e 5d82 68be 0cd8 29bf 6f6f 043f
000003e0: aae5 4d3f 3a2f b2be c5a0 8a3e 8ee3 81be
000003f0: 6ce1 8b3f 3124 b93e 6b64 f4be fb85 1bbe
-0.1168095 0.090148956 0.4108452 0.055681806 -0.35238734 0.02144935 0.19347388 -0.14630301
0.016760878 0.047692023 0.5549308 0.5719575 -0.16088028 0.6004296 0.108606085 -0.067204334
-0.14170514 0.6303154 -0.37127098 -0.021004496 0.023941739 -0.81669587 0.08614453 0.16818224
-0.67069495 -0.18197566 0.45270324 0.49959382 0.17521286 -0.17092998 -0.0913328 -0.68727887
-0.84481204 0.17789789 -0.38797763 -0.31236497 -0.20916355 0.7161159 0.122303255 -0.534584
0.7305529 0.26191652 -0.59749085 -0.16187395 0.71505326 -0.045005567 0.14920926 0.20965871
-0.4562834 -0.6320867 0.18535069 -0.98045886 -0.39861435 -0.24995133 0.40098515 0.022627464
-0.15617709 0.33005917 0.013943183 -0.25906986 0.012834376 -0.095273405 0.07220595 0.4296949
0.3981128 -0.05451343 -0.39369327 0.82930714 -0.14710194 -0.40880683 0.42845333 0.034852043
0.20092781 0.47055608 0.44734702 -0.3903815 0.51120275 0.35460818 -0.040091366 0.6667231
0.26627752 0.7741326 0.20358066 -0.08145366 0.18485652 -0.01907139 -0.15796183 0.32483795
0.12824462 -0.1308594 -0.11718209 0.18117516 -0.20921941 -0.08428427 0.0014667349 0.16237779
0.09834651 0.12699543 0.0010228972 -0.12317193 0.29051217 -0.28137487 -0.0689434 0.181157
0.18299319 0.22532421 -0.034033645 -0.1338858 -0.27313748 0.43052545 -0.7952693 -0.15255381
0.28315005 0.42288753 -0.008083914 0.5023346 0.1855376 -0.32178953 0.13692933 0.31874332
-0.22620898 0.1168515 0.6795095 -0.25981465 0.18965745 0.12916924 0.38106763 -0.25165877
-0.09157202 0.602332 -0.19772065 -0.49413016 0.42048866 -0.099760726 0.039820712 0.34915903
-0.3113252 -0.34255794 -0.11555077 -0.65701884 -0.098455004 0.5252551 -0.09060027 0.07427547
0.20153193 -0.30899262 0.9706734 0.3057104 -1.2572783 0.73807067 0.25181502 -0.093327
-0.6771542 0.2658264 0.23013692 0.0029445337 0.28800473 -0.12472132 0.012111887 0.55408734
0.5567099 -0.07653492 0.39014336 0.43187082 0.226287 -0.31683183 0.17797486 0.5916743
-0.16559722 0.1699581 -0.45532587 -0.2754022 -0.21545382 0.024321048 0.20748343 -0.3634566
0.18439695 0.47930524 -0.035485066 0.17046665 -0.5922066 -0.16881998 0.29699004 -0.3937935
-0.030904707 -0.17432496 0.07379922 0.29660523 0.2593723 0.45083544 0.09044379 0.24260588
0.053311866 0.33249697 0.38814235 -0.24855031 -0.29771146 -0.41507953 0.18321139 0.21724518
-0.27516738 -0.11046769 0.2798213 -0.09598288 -0.16260982 0.18296395 -0.08092862 -0.032422356
0.20260479 -0.13403206 -0.5537009 0.012496967 -0.22976165 0.34759656 -0.17455082 0.23371476
-0.07717817 0.17659958 -0.15478684 0.5281287 -0.27029383 -0.5281358 0.027677076 -0.4902136
0.41698015 -0.67188936 -0.054307908 -0.22183529 -0.31254148 0.04510687 0.19554734 -0.24541904
0.047310114 0.07015874 -0.089104176 0.038041078 0.15999855 -0.34568024 0.42057997 0.97463626
0.2726072 -0.17065074 -0.044948194 -0.18083541 0.47288415 -0.2270598 -0.66345286 0.51732534
0.80428565 -0.34801656 0.27075782 -0.25368923 1.0928168 0.36160424 -0.47732863 -0.15187828

Variable_35/read/_29__cf__29:0 f4 [1, 16, 1, 1]
00000000: ec67 8f3f 203d 1c3f 1abe 983f daf4 013f
00000010: 1238 733f e3c7 063f 0df9 803f 1229 653f
00000020: 8fb1 543f 6b55 443f 6f86 533f db51 803f
00000030: 5169 823f d843 863f c7a6 3a3f 1675 6b3f
1.120359 0.6103077 1.1933014 0.5076424 0.9500743 0.5264875 1.0076004 0.89515793
0.8308343 0.7669284 0.82627004 1.002498 1.018839 1.0489454 0.7291073 0.91975534

Variable_34/read/_28__cf__28:0 f4 [1, 16, 1, 1]
00000000: c834 72c0 1444 f93e 5398 30bf cda3 f53f
00000010: 4c96 17bf eb09 8f3e 5884 c0be 9a8c 05bf
00000020: df72 92be 9392 fc3d 7582 45bf d67f 8ebe
00000030: 5441 b0bf a0cd 3dbf a220 97bd d693 16c0
-3.7844715 0.48684752 -0.6898243 1.9190613 -0.5921371 0.27937254 -0.3760097 -0.52167666
-0.28603265 0.12332644 -0.77152187 -0.27831906 -1.3769937 -0.74141884 -0.07379271 -2.3527732

Variable_33/read/_27__cf__27:0 f4 [16, 16, 3, 3]
00000000: 709c a4be 136f 3bbf 5ac6 db3d 4f75 d2be
00000010: a726 18bf 15c2 5c3e b639 dbbe d244 78be
00000020: 7073 c23e 36e5 933b ca08 0b3f c2b6 9d3e
00000030: 83ff 523e 36d3 643c c2a6 d2be 127d 253d
00000040: 14c1 0bbf 7046 d8be 7ec0 a33d 8a7c c73e
00000050: d0a3 28bd e55e c73d 9c46 ef3e 23df 91be
00000060: 04f9 47be a9f7 3dbe 3160 e1be 5469 dcbd
00000070: 89f5 583e 6303 d03e 90c0 46be 7964 dd3d
00000080: f7b6 063e 979b b1be 9810 d7bd bf56 fbbc
00000090: e5e6 8dbc cdb4 1dbe 0a63 01be 0e3b 6bbe
000000a0: 32de bbbd 75e3 8dbd 1b9e 98be ad54 7abd
000000b0: 7a39 afbe 222f 943e 51ac e1bd 7d2b 793e
000000c0: d925 f03e dd10 bd3e f9a1 e03d d656 833e
000000d0: d46e f33c e8aa 9bbe f646 ac3e caf3 40be
000000e0: 5619 993c 13a0 ad3e 0a05 843a ee99 08be
000000f0: 7c27 5d3e e565 e0bd 23e9 82bd 0558 4abd
00000100: 71e0 473f 3a66 403e c490 523f a92f 8f3f
00000110: ac7d 29be cd51 183f eef4 d13e dd5b d9be
00000120: 5322 283d 3759 b23d 720d 7abd 193f 813d
00000130: 2cac ff3c 788a fcbc e9ea cbbc 8883 bebe
00000140: c656 313e 94ec 903e 0f15 5cbe 7ee7 1cbe
00000150: d164 08bc ecd3 7bbe 23fb 8a3e 68fc 74be
00000160: 9f60 08bd 4e5b 513e e8b0 b63e 709a 353e
00000170: 1d76 d3bd cbc1 9d3e e9ee cfbc e3be ae3e
00000180: fee7 9d3e 4c61 a53e 3936 dd3e ce12 febe
00000190: a2a4 33be 2858 b63e c056 f3be e611 143f
000001a0: 7031 143d 1067 01be d102 843e b287 b1be
000001b0: a08d 1abf 5b20 90be 6fd7 963e 4d63 34be
000001c0: 53a0 3b3f c48c 3c3e 593b 253f 71a4 9b3e
000001d0: 2df8 a23e 0af0 8dbe f4d9 e7be e24b 1f3e
000001e0: 2548 9cbe dbd4 c2bd 90e7 e4bd e43e 453e
000001f0: 5364 fcbe 8090 96bd 6f45 9fbd 4891 0f3f
00000200: 8333 41bf 98ba 213f 3a10 a03d b909 9fbe
00000210: b931 3c3f edab 67bd 6bbb 9a3c 217f 503e
00000220: 5e58 613e 95c6 acbe 8600 763e 64a7 84bd
00000230: 91cb d43d 0147 983e 8fc9 57bd f537 6c3e
00000240: 73c5 073f a223 9bbe 3b7f 293d 986d f03e
00000250: 3b9d 923e 5e46 5e3e 00b9 6a3d a49a 95be
00000260: 095b 7dbf 07ae 183f 0490 1ebe 71e7 c9be
00000270: 7d14 643f d789 913e 6a65 4fbe f5fd fc3d
00000280: 885f 24be a65d 9abd f673 7abe 090f fb3e
00000290: 56e1 453a 6fa4 f0bd f893 d2be 7ff9 cfbe
000002a0: da18 553e aa4e eabc 05bc 393e 5107 dabe
000002b0: 24f3 87be a88f 3bbf 42ff 2e3d 8db7 a3be
000002c0: 63a7 813e 42c5 99bd 529f 7cbd 751b cb3e
000002d0: f43b 95bf e805 11bd 3722 9f3e 92ec cbbe
000002e0: 25ba 253e 63ab 21be 6afa 19be a130 aebd
000002f0: 44fe afbe 7ece b8be 985f 6c3d 6a82 ecbd
00000300: dc5c 743e 6b68 80bd 38b5 60be a2b2 983e
00000310: 63f1 e7bd 2535 fbbe b480 843f 0e32 48bf
00000320: 8ff2 9f3e 3c4c edbd 17db 3b3e 9667 aebe
00000330: 6ec7 863d 683e 0a3f dcaf f4bd 3eae 583d
00000340: dced 5bba 86a5 4fba e99d 8fbe f6f0 853e
00000350: 0440 6f3e 8b03 efbe 9ed0 8b3d 4867 3abe
00000360: 5ba9 eabe 3d41 913d a3f4 f93b bc8f 85be
00000370: e90e e13c e966 10bf 01d3 c53e b7d1 81be
00000380: 2a8f 043d dc25 44bf f5a8 37bf 42d1 20bf
00000390: 62e3 223b 7f74 b6be a6ef ad3e 508c 26be
000003a0: 9553 8cbc e869 303f 8d4c 5ebf 025a 32bf
000003b0: 74fd 32be aab2 b6bc cacd cb3c 43fd f83d
000003c0: dd4d 813c d94c 8a3c 1602 06bf 334a abbe
000003d0: 1b74 75be 165b 26be 0199 953e 0270 173f
000003e0: 28a8 9bbd 477c 123f 75fb 1f3e 1edc 98be
000003f0: c770 07bd 43d5 22be 93e6 bc3d 40b0 02bd
-0.32150602 -0.7321636 0.10731192 -0.41105124 -0.5943398 0.21558411 -0.42817467 -0.24245003
0.37978697 0.004513408 0.54310286 0.30803496 0.20605282 0.013966372 -0.4114285 0.04040248
-0.5459149 -0.4224124 0.07995699 0.38962203 -0.04117185 0.097348966 0.46733558 -0.28490552
-0.19528586 -0.18551506 -0.440187 -0.10762277 0.21187414 0.40627584 -0.19409394 0.10810179
0.13155733 -0.34689018 -0.10501212 -0.030681012 -0.017322013 -0.15401001 -0.12635437 -0.22971746
-0.0917324 -0.069281496 -0.29808125 -0.06111591 -0.3422354 0.2894221 -0.11019195 0.24332996
0.46903875 0.36926928 0.10968394 0.25652188 0.029715933 -0.3040383 0.3364789 -0.18842998
0.018688839 0.3391119 0.0010072303 -0.1333997 0.21597093 -0.10956935 -0.063921236 -0.04940035
0.78076845 0.18788996 0.82252145 1.118642 -0.16551846 0.5949982 0.4100718 -0.424529
0.04104836 0.08708423 -0.06104798 0.06310863 0.031210028 -0.030827746 -0.024892287 -0.37209725
0.17318258 0.28305495 -0.21492408 -0.15322682 -0.008324818 -0.2459256 0.27144727 -0.2392441
-0.03329527 0.20444986 0.35681844 0.17734694 -0.10325263 0.30811915 -0.025382476 0.3413001
0.30841058 0.32300794 0.4320543 -0.49623722 -0.17543271 0.35614133 -0.47527122 0.5783981
0.03617996 -0.12636971 0.257834 -0.3467384 -0.6037235 -0.28149685 0.29461238 -0.17616005
0.7329151 0.18413073 0.6454368 0.30398896 0.31829968 -0.27722198 -0.45283473 0.15556291
-0.30523792 -0.09513255 -0.111769795 0.19262272 -0.4929529 -0.0735178 -0.07776915 0.56081057
-0.75469226 0.63175344 0.07815595 -0.31062105 0.7351337 -0.056560446 0.018888196 0.20360996
0.22006366 -0.33745256 0.24023637 -0.0647724 0.1039039 0.29741672 -0.052682456 0.23068221
0.5303566 -0.30300623 0.041381102 0.46958613 0.28635582 0.2170653 0.057305336 -0.29219544
-0.98967034 0.59640545 -0.15484625 -0.39434388 0.8909376 0.28425476 -0.2025353 0.12353126
-0.16052067 -0.07537393 -0.24458298 0.49034908 0.0007548531 -0.11750113 -0.41128516 -0.40620038
0.20810261 -0.028601963 0.1813813 -0.42583707 -0.2655269 -0.7326608 0.0427239 -0.31975976
0.25323018 -0.07508327 -0.061675377 0.39669386 -1.1658921 -0.035406023 0.3108079 -0.39828926
0.1618429 -0.15788035 -0.15036932 -0.08505369 -0.34373677 -0.3609504 0.057708353 -0.11548312
0.23863548 -0.06269916 -0.2194413 0.29823786 -0.11325338 -0.49063984 1.0351777 -0.7820138
0.31239745 -0.11586806 0.18345295 -0.34063405 0.06581007 0.54001474 -0.11947605 0.052900545
-0.0008389631 -0.0007921088 -0.28050163 0.261604 0.23364264 -0.4668239 0.068269 -0.18203461
-0.45832333 0.07092521 0.00762804 -0.26086223 0.02747293 -0.5640703 0.38637546 -0.25355312
0.032363094 -0.7662027 -0.7174218 -0.628193 0.002485477 -0.35635754 0.339719 -0.16264462
-0.017129699 0.689116 -0.8683556 -0.6966859 -0.17479497 -0.02230199 0.024878401 0.12157681
0.015784198 0.016882347 -0.5234693 -0.33455047 -0.23970072 -0.16245684 0.29218295 0.59155285
-0.07600433 0.5722088 0.15623267 -0.29855436 -0.033066537 -0.15901665 0.09223666 -0.031906366

Variable_32/read/_26__cf__26:0 f4 [1, 16, 1, 1]
00000000: 166a 993f 0f8b b93f 21f1 ba3f 9ed1 ee3f
00000010: d674 9f3f 92c7 513f 8083 af3f 7780 9c3f
00000020: 76fa a73f 9dbc b93f f837 673f c648 823f
00000030: 3137 a13f 99fc dd3f 5e7b ca3f 66a6 973f
1.19855 1.4495562 1.4604837 1.865772 1.245753 0.81945145 1.3712006 1.2226704
1.312331 1.4510685 0.90319777 1.0178459 1.2594968 1.7342712 1.5818899 1.1847656

Variable_31/read/_25__cf__25:0 f4 [1, 16, 1, 1]
00000000: 98bb 10be 2c87 533e fd7d 203e 5ad3 4c3e
00000010: 5a42 afbd 64b9 d63e 31a2 623c 494a b5bd
00000020: 76a6 9c3d 5beb e03d 464d b5be 4b39 c03d
00000030: 73b6 893d 2cea 0c3c db88 9abc edde 863e
-0.14134061 0.20657033 0.1567306 0.20002499 -0.085575774 0.41938317 0.013832615 -0.088520594
0.076489374 0.109823905 -0.35410517 0.09385928 0.067242526 0.008600753 -0.018864086 0.26341954
