examples/style_transfer/model/self-portrait.tflite (tflite, 150728 bytes, 52 tensors)

Conv2D_12_bias f4 [16]
000000 00 00 00 00 00 00 00 00 00 00 00 00 00 00 00 00
       0.0 0.0 0.0 0.0
000010 00 00 00 00 00 00 00 00 00 00 00 00 00 00 00 00
       0.0 0.0 0.0 0.0
000020 00 00 00 00 00 00 00 00 00 00 00 00 00 00 00 00
       0.0 0.0 0.0 0.0
000030 00 00 00 00 00 00 00 00 00 00 00 00 00 00 00 00
       0.0 0.0 0.0 0.0

Conv2D_13_bias f4 [3]
000000 00 00 00 00 00 00 00 00 00 00 00 00
       0.0 0.0 0.0

Conv2D_1_bias f4 [8]
000000 00 00 00 00 00 00 00 00 00 00 00 00 00 00 00 00
       0.0 0.0 0.0 0.0
000010 00 00 00 00 00 00 00 00 00 00 00 00 00 00 00 00
       0.0 0.0 0.0 0.0

Conv2D_bias f4 [4]
000000 00 00 00 00 00 00 00 00 00 00 00 00 00 00 00 00
       0.0 0.0 0.0 0.0

Variable/read f4 [4, 9, 9, 3]
000000 d6 23 34 c0 d7 ad 4f c0 21 f1 08 c0 e7 41 26 c0
       -2.8146873 -3.2449853 -2.1397173 -2.5977724
000010 b5 96 4e c0 c1 4a 1f c0 82 ca cf bf 52 81 1b c0
       -3.2279484 -2.4889376 -1.6233675 -2.429768
000020 af d4 ea bf 14 6f 7d bf 7d 3b c4 bf f8 92 16 bf
       -1.8346156 -0.98997617 -1.5330654 -0.58818007
000030 70 69 fe be 9d d6 b9 bf b6 0e 73 bd 35 02 45 be
       -0.49689817 -1.451862 -0.0593402 -0.19239123
000040 75 59 a0 bf 72 77 b1 be 33 0a ad be f3 24 65 bf
       -1.25273 -0.34661442 -0.33796844 -0.89509505
000050 3c 1a 96 bf bf a5 19 3d 6f fc 44 3d dc fb a4 bd
       -1.1726756 0.037511583 0.048092302 -0.08055851
000060 6c 55 59 3f 2c 86 91 3f c4 4d 9b 3f 8e 7e ec bf
       0.8489597 1.1369071 1.2133107 -1.8476121
000070 0c 60 2a c0 e6 20 ed bf cc 9f e7 bf 6e 04 1c c0
       -2.6621122 -1.8525665 -1.8095641 -2.4377704
000080 a6 ef d6 bf 97 4f 80 bf 21 c2 a4 bf 2e 70 20 bf
       -1.6791885 -1.0024289 -1.2871743 -0.6267117
000090 0d a5 f5 be b4 7f f4 be c6 d8 29 3f 60 e0 5d bf
       -0.47977486 -0.4775368 0.66346395 -0.86670494
0000a0 98 d0 aa bf f9 27 1f 3e ec 3d d4 bf 18 bc 09 c0
       -1.3344908 0.15542592 -1.6581397 -2.1521053
0000b0 af 2a ab bf 91 dc 3d c0 6a 2d 2c c0 31 59 3c c0
       -1.3372401 -2.9665873 -2.6902719 -2.9429438
0000c0 2d 0d 41 c0 04 7d 0e c0 f4 76 30 c0 b2 90 3a c0
       -3.0164292 -2.2263803 -2.7572603 -2.9150815
0000d0 94 20 b7 bf 7b 20 c2 bf 3d 2f 42 3f b9 3e 04 be
       -1.4306817 -1.5166162 0.7585333 -0.12914552
0000e0 59 46 26 be 5f 7f c7 3f 11 ed 98 3f be da 82 3f
       -0.16237773 1.5585746 1.1947347 1.0223005
0000f0 ff 6c 29 40 6f 05 32 40 c7 61 2e 40 5b 64 3e 40
       2.6472776 2.7815816 2.7247179 2.9748752
000100 13 aa 4b 40 56 cb 7e 40 81 00 ac 3f a3 2f d1 3f
       3.1822555 3.9811606 1.3437654 1.6342663
000110 51 a0 22 40 34 82 ac bf c1 ba 24 bf bd c7 22 bf
       2.541035 -1.3477235 -0.64347464 -0.63586026
000120 80 eb 62 c0 e0 5d 0a c0 d5 d4 40 c0 6a 29 93 c0
       -3.5456238 -2.1619797 -3.0129902 -4.5988054
000130 4e 36 2e c0 e0 07 6e c0 12 ac a8 c0 f6 1f 3c c0
       -2.7220645 -3.7192307 -5.2710047 -2.9394507
000140 ff b5 5d c0 4d 21 60 40 04 2e 24 40 df b5 06 40
       -3.4642332 3.5020325 2.5653086 2.1048505
000150 39 93 9d 40 a3 73 95 40 bd c7 7b 40 30 0a da 40
       4.9242215 4.670366 3.934066 6.8137436
000160 88 55 dd 40 74 33 c9 40 37 2c f1 40 0e e8 f4 40
       6.916691 6.287531 7.5366473 7.653327
000170 2d 09 f5 40 65 c5 a9 40 da 80 a3 40 0d 61 ba 40
       7.65737 5.305346 5.109479 5.824347
000180 95 42 4c 3f 7a 0d c3 3f d1 a4 a4 3f 3f 46 57 c0
       0.79789096 1.5238488 1.2862798 -3.3636625
000190 b3 8a cf bf 63 6e 15 c0 02 10 a7 c0 ac 59 2f c0
       -1.6214203 -2.3348625 -5.220704 -2.7398481
0001a0 61 dc 78 c0 88 89 d4 c0 36 dd 6d c0 c9 4f 81 c0
       -3.8884509 -6.6417885 -3.7166266 -4.0409894
0001b0 2b a7 76 40 a8 1f 01 40 02 f7 af 3f 4d b6 c2 40
       3.8539531 2.0175571 1.3747256 6.0847535
0001c0 be 0e a7 40 43 a9 80 40 15 f0 09 41 46 fb fe 40
       5.2205496 4.020662 8.621114 7.968173
0001d0 00 e3 da 40 a9 c4 19 41 32 6a 15 41 9c 69 12 41
       6.84021 9.610513 9.338427 9.150784
0001e0 55 68 de 40 17 b5 cc 40 ff b4 d9 40 f3 c3 c5 3f
       6.950236 6.3971057 6.8033442 1.5450424
0001f0 aa 63 d6 3f 5f 48 d3 3f 54 0b 44 c0 59 10 d9 bf
       1.6749165 1.6506461 -3.0631914 -1.6958114
000200 fb 91 1d c0 ba 60 b0 c0 76 ea 4e c0 09 01 8c c0
       -2.462035 -5.5118074 -3.2330604 -4.3751264
000210 95 2b ee c0 9f 1b 8c c0 ae b5 8e c0 08 4f 3a 40
       -7.44282 -4.3783717 -4.4596777 2.9110737
000220 e4 47 85 3f 4d 66 3f 3f 76 2e be 40 3c f0 92 40
       1.0412564 0.74765474 5.9431715 4.5918255
000230 41 df 6a 40 c3 eb 06 41 2b c2 e3 40 86 d8 c4 40
       3.6698763 8.432559 7.117452 6.151431
000240 24 d6 13 41 78 45 fc 40 05 ef f0 40 d6 e9 d8 40
       9.23978 7.88348 7.529177 6.7785444
000250 8d c0 af 40 aa 98 b3 40 f0 c6 af 3f 4b f0 2f 3f
       5.4922547 5.6123857 1.3732586 0.6872603
000260 9d b7 5d 3f b6 9b 33 c0 4c b6 05 c0 6c 5c 35 c0
       0.86608297 -2.8063788 -2.0892515 -2.833766
000270 18 37 9f c0 00 03 51 c0 56 21 82 c0 27 e7 c8 c0
       -4.9754753 -3.265808 -4.0665693 -6.278217
000280 cb ee 63 c0 93 9e 71 c0 5f d2 00 40 81 35 75 be
       -3.5614498 -3.7753036 2.01284 -0.23946191
000290 a5 05 c9 be ef 35 92 40 15 b2 4e 40 ec 00 1d 40
       -0.3926212 4.5690837 3.2296193 2.4531813
0002a0 d2 d7 bc 40 f5 67 8b 40 80 d1 74 40 6a 9f ce 40
       5.9013453 4.35644 3.8252869 6.4569597
0002b0 27 b4 93 40 03 c7 8d 40 90 fe 9a 40 ef 03 46 40
       4.6157413 4.4305434 4.8435745 3.09399
0002c0 70 9c 3e 40 8a 43 5e 3f 97 51 c4 be 67 f8 ca 3b
       2.9782982 0.86821806 -0.38343498 0.0061941626
0002d0 ef 8e 25 c0 db cf 10 c0 83 3f 1b c0 10 e1 70 c0
       -2.586849 -2.2626865 -2.4257514 -3.7637367
0002e0 d7 c8 26 c0 e2 7a 44 c0 52 5a 97 c0 1b 81 17 c0
       -2.6060083 -3.0700002 -4.7297754 -2.367255
0002f0 93 84 23 c0 32 58 1e c0 e8 21 79 c0 c9 85 5d c0
       -2.5549667 -2.474133 -3.8926945 -3.4612906
000300 40 12 42 bf ff 38 b7 bf 18 a0 bd bf 8e 34 2f be
       -0.758091 -1.4314269 -1.4814482 -0.17109892
000310 f0 68 16 bf 28 f0 17 bf 5e 1b 48 3f 10 55 d5 be
       -0.5875387 -0.59350824 0.7816676 -0.4166646
000320 1c 25 98 3e 07 15 44 3f 1f 3c e8 be 2f 0f bd bc
       0.29715812 0.76594585 -0.4535837 -0.02307853
000330 a9 65 ad bf 89 ee 03 c0 1d 37 c6 bf 3a c4 49 c0
       -1.3546649 -2.061434 -1.5485569 -3.1526017
000340 ca bb 1b c0 e2 02 1b c0 0b 65 37 c0 cd 34 02 c0
       -2.4333367 -2.422051 -2.8655422 -2.0344727
000350 b8 73 07 c0 6c 9f 55 c0 b8 60 99 bf b6 9a 83 bf
       -2.116438 -3.3378553 -1.1982641 -1.0281589
000360 24 42 a4 c0 16 48 b2 c0 61 74 91 c0 57 86 87 c0
       -5.133074 -5.5712996 -4.5454564 -4.235149
000370 96 0c 77 c0 37 ff 4b c0 ce df 7c c0 0e eb 68 c0
       -3.8601432 -3.187452 -3.95116 -3.6393466
000380 d3 aa 23 c0 6c 44 49 c0 83 89 4b c0 11 74 02 c0
       -2.5573013 -3.1448011 -3.180268 -2.0383341
000390 b9 82 fb bf 07 aa 1b c0 be dd 9e bf 79 e3 3c c0
       -1.9649268 -2.4322526 -1.241142 -2.9513838
0003a0 75 52 5c c0 fb 61 f7 bf 15 45 3d c0 6e ae 28 c0
       -3.4425328 -1.9326776 -2.9573414 -2.6356463
0003b0 d5 18 e8 bf aa 26 15 c0 20 77 55 bf 51 81 10 bf
       -1.8132578 -2.3304849 -0.83384895 -0.5644732
0003c0 3a 7a a3 bf 0e 35 8d 3f a5 86 d8 3f d2 b9 97 3f
       -1.2771676 1.1031816 1.691609 1.1853583
0003d0 b7 c4 92 40 44 a0 71 40 63 7c e1 3f 34 70 73 40
       4.586513 3.7754068 1.7616085 3.8037233
0003e0 c9 95 80 40 a3 76 0a 3f 52 97 24 40 44 ee 4b 40
       4.0182843 0.54087275 2.5717359 3.1864176
0003f0 b1 c3 db bf 79 be 38 3d 00 78 40 3f 23 fb 8f c0
       -1.7169095 0.045103524 0.75183105 -4.4994063

Variable_1/read f4 [4]
000000 87 d7 b8 3f 7b ba 2b 41 51 f1 20 41 86 cf de bf
       1.4440774 10.733027 10.058915 -1.7407081

Variable_10/read f4 [16]
000000 9d 60 9c c0 cb 96 0d 41 a7 d5 75 bf e6 87 13 3e
       -4.8867936 8.849315 -0.9602913 0.1440731
000010 ee fa 72 3f 73 7c 31 3e dc a2 bb be 8f 39 2b 3e
       0.9491414 0.1733263 -0.3664769 0.16721176
000020 02 4a e7 be 42 f1 b6 3e 12 7c 84 bd e3 24 d8 bf
       -0.4517365 0.3573094 -0.06468977 -1.6886257
000030 60 6a 8a c0 72 30 d1 3e 20 e6 f9 3f e7 45 6f 3d
       -4.325485 0.40857273 1.9523354 0.058416273

Variable_11/read f4 [16]
000000 ce 7b 79 40 18 73 0a 40 0a c2 a7 3c 35 54 b1 40
       3.8981814 2.1632748 0.020478267 5.541529
000010 b3 76 5c 40 3a 51 46 40 5b ee 10 3d 6b 7d 3a 40
       3.4447448 3.0987077 0.035383563 2.913905
000020 3d bb 08 41 74 b7 4c 40 a3 b9 c6 40 a3 a2 81 3d
       8.545712 3.198697 6.2101607 0.063298486
000030 a3 56 3f 40 a8 6c 94 40 44 37 e5 40 1c 99 c1 40
       2.989663 4.6382637 7.1629963 6.04994

Variable_12/read f4 [16, 3, 3, 16]
000000 c6 d9 6e c0 b2 51 05 3f 39 f3 8a bd 8c 69 8c c0
       -3.7320418 0.5207778 -0.06784672 -4.387884
000010 a0 ae 7f 40 a0 87 02 3f 34 96 8c bf 62 9d c3 3f
       3.9950333 0.509882 -1.0983338 1.5282404
000020 a6 5d 88 c0 21 81 de bf 06 f1 30 40 54 0c f8 be
       -4.2614317 -1.7383157 2.764711 -0.48446906
000030 8e 52 33 3f 27 fa 60 40 8f 16 8c 40 24 a0 55 40
       0.70047843 3.515268 4.3777537 3.3378992
000040 b7 a7 a2 bf c6 1f 43 3f e8 4a c6 be 24 ee 70 c0
       -1.2707433 0.7622036 -0.38729024 -3.764535
000050 17 c3 4d c0 7f 88 05 40 ba e1 b5 be d3 8e cc be
       -3.2150323 2.086456 -0.35523778 -0.39952716
000060 c6 48 78 c0 ea 01 25 40 0b 4e ce 3e 70 13 09 be
       -3.8794417 2.5782418 0.40293917 -0.13386321
000070 8c b9 bc bf c6 5e e1 be 5b c2 0c 41 31 46 88 40
       -1.4744124 -0.4401762 8.79745 4.2585683
000080 b6 e2 90 be 01 b7 35 bf 9e b6 91 be 61 85 dc be
       -0.28297967 -0.70982367 -0.28459638 -0.4307051
000090 4f b2 a9 c0 36 cc 52 40 5f 50 83 bf fc f5 56 c0
       -5.303016 3.293714 -1.0258902 -3.3587637
0000a0 77 ac 7b bf 9d e0 57 40 c8 b4 2b 40 ca c6 e5 bd
       -0.98310035 3.3730843 2.682909 -0.11219557
0000b0 f7 57 71 c0 62 cd 1a c0 43 e1 a1 3f 65 74 83 3e
       -3.770994 -2.4187856 1.264687 0.2567474
0000c0 90 67 25 40 91 73 d2 bf c3 09 23 be 10 66 58 c0
       2.584446 -1.6441518 -0.15921693 -3.3812294
0000d0 78 ef e7 40 ca 54 45 40 e0 43 6e be 0f 8d 7b 40
       7.247982 3.0833 -0.2326808 3.9304845
0000e0 bd 8e cf c0 f8 90 03 3d 4f 1a 40 40 e5 11 bf be
       -6.486174 0.032120675 3.0016057 -0.3731834
0000f0 9e ad cc 3f 6e 77 94 40 22 eb 4b 40 09 e4 de be
       1.5990484 4.639579 3.1862264 -0.43533352
000100 d2 f3 68 40 f0 a8 b6 bf 72 8d 8c be 18 30 8b c0
       3.6398816 -1.4270306 -0.27451664 -4.349621
000110 c4 43 46 3f 81 64 85 bd f9 28 d1 3e f1 19 82 40
       0.7744715 -0.0651331 0.40851572 4.0656667
000120 4d 01 81 c0 64 69 08 bf a0 5c 2f be a7 6e 17 bf
       -4.031409 -0.53285813 -0.17125177 -0.5915322
000130 a5 ab 15 40 2e c7 bf 3f 5d 61 2c 40 6d d0 fb 3f
       2.3386014 1.498266 2.6934426 1.9672982
000140 df df 6e c0 7a cb c2 3f f2 41 94 be ea a3 5d c0
       -3.732414 1.5218346 -0.28956562 -3.4631295
000150 81 74 29 c0 4c b1 a5 3f 8f 01 a4 3c af 91 c0 bf
       -2.6477358 1.2944732 0.020020274 -1.5044459
000160 24 0f 80 c0 bd 43 bd 3e 35 15 7d bf 62 97 39 be
       -4.001848 0.36965743 -0.98860484 -0.18124154
000170 f1 f4 b2 be 28 8e 5c c0 31 71 84 bf 7a af bb bf
       -0.349525 -3.4461765 -1.0347043 -1.4662926
000180 47 e4 63 40 d0 cc 31 3f 36 87 e9 3d 22 c9 fc be
       3.560808 0.69453144 0.114027426 -0.49372202
000190 15 23 19 41 f4 b4 86 3f 2d 39 91 3e 3a bb 33 40
       9.571065 1.0523973 0.28363934 2.8083024
0001a0 04 ab 7c bf 51 d4 db 3f 16 fc 67 bf c8 ce 9e be
       -0.9869845 1.7174169 -0.9061903 -0.31017137
0001b0 28 1e 24 c0 72 c9 d6 40 90 e1 05 40 57 da 3a bd
       -2.5643406 6.7120905 2.0918922 -0.04561838
0001c0 64 8e e0 40 f4 20 0a 40 a6 e7 39 be 4e 05 26 c0
       7.0173817 2.1582613 -0.18154773 -2.5940738
0001d0 3d 85 d3 40 c7 e5 b4 bf f3 44 a7 3f 62 40 85 40
       6.6100144 -1.4132622 1.3067917 4.164109
0001e0 25 75 62 c0 ee 55 0a c0 10 16 70 40 44 5f 17 bf
       -3.5384 -2.1614947 3.7513466 -0.5912974
0001f0 bc c4 29 c0 87 9c c0 40 26 a4 05 41 a4 ae 81 40
       -2.6526327 6.0191073 8.352575 4.0525684
000200 c5 25 a6 3e 63 51 98 40 69 50 c2 be af 3b c8 c0
       0.3245069 4.759935 -0.37951973 -6.2572856
000210 b1 18 d0 3e ab 4b d1 c0 25 e5 b6 3f b9 57 55 40
       0.40643838 -6.540487 1.4288679 3.3334792
000220 a9 bb b0 c0 d7 b7 0e be 68 55 07 40 31 c5 9b be
       -5.5229077 -0.13937317 2.1145878 -0.30423883
000230 34 ed f2 3f 89 10 9c 40 af 5a bf 40 74 03 6b 40
       1.8978639 4.8770185 5.97982 3.6720858
000240 e2 1b 0c 40 50 ee 4f bf 36 a5 5d be a8 60 c3 40
       2.1892018 -0.8122301 -0.21645054 6.105549
000250 08 51 86 40 10 5e 9c 40 d8 2c 94 3e 58 bb 4e 40
       4.1973915 4.8864822 0.28940463 3.2301846
000260 35 31 0e bf b3 7e 63 3e 7d e0 1e c0 11 c5 aa be
       -0.55543834 0.222163 -2.4824517 -0.33353475
000270 08 cb dd bd 0d 58 cd 3c a5 53 81 40 73 91 09 bf
       -0.10829741 0.0250664 4.0414605 -0.5373756
000280 18 5c b1 40 3d 21 3f bf db b5 e1 bc 5a 01 34 40
       5.542492 -0.7466009 -0.027552536 2.8125825
000290 66 bc 95 40 1f 0e 99 3f 41 2e 7c be b4 55 68 bd
       4.679248 1.1957434 -0.2462702 -0.056722358
0002a0 cb 48 4f c0 da d5 7f 3f 0d 1b 31 40 e0 b2 ca be
       -3.238818 0.99935687 2.767276 -0.39589596
0002b0 67 29 55 c0 72 fe 4b 40 d7 96 e3 be be 8a dd c0
       -3.330652 3.187405 -0.4445102 -6.9231863
0002c0 95 b2 6d 40 2b 7b ce 3f bd d4 97 be 90 eb da 40
       3.7140248 1.6131338 -0.29654494 6.841255
0002d0 bc fa ee 40 e8 21 eb bf 5e b2 a3 be 92 6f 85 3e
       7.468107 -1.8369722 -0.3197202 0.26061684
0002e0 c9 8b cf bf 95 e2 db 3f 01 47 56 c0 2b 09 2e be
       -1.6214534 1.7178522 -3.3480837 -0.16995685
0002f0 61 5b 01 40 4f bf 8b 3f ae 59 24 40 5a 42 74 c0
       2.0212023 1.0917758 2.5679736 -3.8165498
000300 ba 48 89 c0 ee e0 1c bf d9 70 0a be 4c cf 27 41
       -4.2901278 -0.61280715 -0.1351961 10.48811
000310 7f 74 62 40 0a 9a a7 bf 44 8a 00 3e 51 c7 15 40
       3.5383604 -1.3093884 0.12552744 2.3402903
000320 99 d1 1d 40 b8 c4 1b c0 b6 56 1a 3f 7b c9 7c be
       2.4659178 -2.4338818 0.6028856 -0.24686234
000330 7b 42 b6 bf c9 d1 cb be 82 16 19 c0 a7 bf 49 c0
       -1.4239038 -0.3980849 -2.3919988 -3.1523225
000340 14 a4 85 40 08 8b 20 bf 5c 31 1b be 5c 9a 08 41
       4.176279 -0.62712145 -0.15155548 8.537685
000350 4f 83 5c 3f 1b 2b 18 c0 34 af a2 3e 6d 55 b5 bf
       0.8613786 -2.377631 0.31774294 -1.4166695
000360 0d bb c6 bf 28 4c b6 bf 60 3d 84 c0 99 3e 09 bf
       -1.5525833 -1.4241991 -4.132492 -0.5361114
000370 1e bc 80 c0 87 75 b4 40 55 97 0e 3f e0 b2 24 c0
       -4.0229635 5.6393466 0.55699664 -2.5734177
000380 36 6c 66 40 33 04 59 40 c8 b9 8f be bb bd c5 40
       3.6003547 3.3908813 -0.28071427 6.1794105
000390 43 9c 01 40 f9 ff 05 40 41 29 01 3d 4a 51 82 c0
       2.0251625 2.0937483 0.031533483 -4.072423
0003a0 a8 d6 80 c0 b0 62 a7 3f 92 14 5a bf a7 f5 be be
       -4.026203 1.3076992 -0.8518764 -0.37296793
0003b0 6f bb 76 40 0f 39 71 40 42 d0 d8 40 ef 3a 55 3f
       3.85519 3.7691076 6.775422 0.8329305
0003c0 38 a4 cb c0 e6 94 22 40 9e 52 35 be 09 aa c5 40
       -6.363796 2.540338 -0.17707297 6.1770062
0003d0 28 f3 e3 3f f5 dc 5e c0 dc 48 0a 3e f0 07 21 c0
       1.780858 -3.4822361 0.13504356 -2.5161095
0003e0 bb 3b af be 9b 21 7d c0 a2 8d 55 40 ab 14 91 be
       -0.34225258 -3.955176 3.3367696 -0.2833608
0003f0 67 3c 67 c0 da 0f 16 c1 77 3d d7 3f 90 74 bc bf
       -3.6130617 -9.37887 1.6815633 -1.4723072

Variable_13/read f4 [16]
000000 fd 2e 4c bd d3 2d 34 bf fe 41 f8 be 6a 66 4e be
       -0.0498495 -0.7038242 -0.48487848 -0.20156255
000010 64 4b 1d bf 6a 89 e3 bc d9 99 c0 bd b2 03 95 3f
       -0.6144316 -0.027775485 -0.09404344 1.1641753
000020 19 b3 02 bf a1 27 99 be 1c 46 92 bf 61 d0 81 bf
       -0.5105453 -0.29913047 -1.1427646 -1.0141717
000030 23 2d 5f bf 0c ef 7c bf b9 7e bb bf 4b 2e 86 3f
       -0.8717825 -0.98802257 -1.4648048 1.0482877

Variable_14/read f4 [16]
000000 58 2f 1a 40 9b 40 db 3f ea 0e 72 40 5c 08 16 40
       2.4091396 1.7129091 3.7821603 2.3442602
000010 85 ca cb 3f 1a 3f c4 3f c6 f4 0f 40 cb 82 8e 3f
       1.5921179 1.5331757 2.2493148 1.1133665
000020 0a 90 d0 3f f1 74 a2 3f 92 48 8e 3f 77 6e fe 3f
       1.6293957 1.2691938 1.1115897 1.9877461
000030 c8 f6 fe 3f 3c a7 eb 3f 32 7e f0 3f 89 ca d7 3f
       1.9919062 1.8410411 1.8788512 1.6858684

Variable_15/read f4 [16, 3, 3, 16]
000000 65 37 93 3e a5 88 58 3e 1a fa 17 bf 03 15 8e 3e
       0.287532 0.21145876 -0.59366 0.27750406
000010 fc 7b c3 3e 01 c8 e4 be 72 08 ab be ca a8 37 3e
       0.3818053 -0.4468384 -0.3340488 0.17935482
000020 02 ea 39 3e fa 10 52 3e 9c 04 cf 3e 40 44 f0 be
       0.18155673 0.20514289 0.40433204 -0.4692707
000030 38 ef 8e be b1 28 dd be eb d1 f4 be 02 46 e4 3e
       -0.27916884 -0.43195108 -0.47816405 0.44584662
000040 c9 0b 94 3e 3e f7 37 3e f3 b1 ed be 03 fb e8 3e
       0.2891524 0.17965409 -0.46424827 0.45504007
000050 2c 81 aa 3e fa 79 d4 be 5f 7e 8d be b3 ee 6c 3d
       0.33301675 -0.4149931 -0.27635476 0.05784483
000060 e5 76 ff 3e 24 62 9b be c8 a8 8d 3e 21 d4 3b be
       0.49895397 -0.30348313 0.27667832 -0.1834264
000070 fd ef 77 be 23 b7 f9 be c5 4f cc be 54 3f cd 3e
       -0.24212642 -0.48772535 -0.3990461 0.40087378
000080 30 b9 b8 3e ca 13 88 3d 48 01 04 bf 62 4a cb 3e
       0.36078787 0.066443995 -0.51564455 0.39705187
000090 e5 ed a7 3e 37 e7 84 be 21 fb b3 be 1b 57 af bc
       0.32798687 -0.25957653 -0.35152534 -0.02140384
0000a0 e4 96 8f 3e 1e 07 a9 bd 6b e4 aa 3d 4c 75 0e be
       0.28044808 -0.082533106 0.083443485 -0.13911933
0000b0 ff 8e 12 bf 8c b3 28 be 32 5c e7 be f7 85 88 3e
       -0.57249445 -0.16474742 -0.45187527 0.26664707
0000c0 4e 1b bb 3e 37 9d 85 3e 85 37 a4 be cf f6 d5 3e
       0.3654427 0.26096508 -0.32073608 0.41789863
0000d0 24 57 c2 3e b7 8f 60 be a4 8b df be de 2b 54 3d
       0.37957108 -0.21929823 -0.43661225 0.051799648
0000e0 92 39 c7 3e 72 f2 7c 3e 2c 89 4c 3e 0d f8 b2 be
       0.3891111 0.2470186 0.19974202 -0.34954873
0000f0 ca e4 94 be 2e 5c ec be e2 f1 c7 be dd 70 99 3e
       -0.29080802 -0.46164078 -0.3905173 0.2996892
000100 1d 1b e8 3e 36 93 65 3e 8d d8 7c be a3 b0 1b 3e
       0.45333186 0.22419438 -0.24691983 0.152041
000110 b5 54 87 3e 7a 87 ce be 89 b4 9a be e8 7d 7d 3e
       0.26431814 -0.40337735 -0.30215862 0.2475506
000120 37 ec 14 3f de c5 5d be b2 88 ab 3e 05 59 de be
       0.58172935 -0.21657512 0.33502728 -0.43427292
000130 31 88 0d be 99 b6 9c be e6 43 53 be 62 06 4e 3e
       -0.13821484 -0.3060806 -0.2063137 0.20119622
000140 10 4f 69 3e 48 cc d6 3c a4 e5 a2 be 27 90 2e 3e
       0.22784066 0.026220456 -0.31815827 0.17047177
000150 96 01 e8 3e 21 b8 f1 3c ab 83 e2 be d7 c7 22 3e
       0.4531371 0.029506745 -0.4424108 0.15896545
000160 73 21 b7 3e 0b 68 69 be d8 d7 7f 3e 67 2e 1e be
       0.35767707 -0.22793595 0.24984682 -0.15447389
000170 b4 e8 c0 be ae 28 0f 3a 05 da 24 be f8 37 3b 3e
       -0.37677538 0.0005461079 -0.16098793 0.18283069
000180 be ca d0 3e d4 b1 9e 3e eb f4 0b be 26 e1 b2 3e
       0.4077968 0.30995047 -0.13667648 0.349374
000190 aa cd 88 3e 7e c5 eb be dc 6f b9 be 14 62 40 3e
       0.2671941 -0.46049112 -0.36218154 0.18787414
0001a0 5c f7 ae 3e 58 a4 cd 3e 89 2c 37 3f 76 58 eb be
       0.34173095 0.40164447 0.7155233 -0.45965928
0001b0 94 ec df be 93 c5 c1 be 8d ba fc be ae 31 b0 3d
       -0.43735182 -0.3784605 -0.49361077 0.08603226
0001c0 ad 0c 02 3f 39 90 b6 3d 18 e5 29 be b4 7f c0 3d
       0.5080059 0.08914227 -0.16591299 0.093993574
0001d0 c3 70 97 3e cc 61 76 be ba ba 24 bf bb c5 8d 3e
       0.29578218 -0.24060744 -0.6434742 0.2768992
0001e0 e8 b3 f6 3e 64 e9 c6 3d 8f 00 a5 3e 71 fa 61 be
       0.48184133 0.097124845 0.3222699 -0.22068192
0001f0 db 26 51 3c 9f 66 57 be 85 6a 0c bf d2 c2 1b 3e
       0.0127656115 -0.2103524 -0.54850036 0.15211037
000200 c0 43 76 3e 9e 8a 99 3e 5f aa 21 bf 03 4f 87 3e
       0.24049282 0.2998857 -0.6315059 0.2642747
000210 b0 e5 a3 3e c3 7e d7 3c 23 88 98 be e2 a3 09 3e
       0.32011175 0.026305562 -0.29791364 0.13441423
000220 32 2d 37 3e 39 76 a3 3d d5 8c e1 3d 2f 15 98 be
       0.17888334 0.079815336 0.1101319 -0.29703662
000230 06 d9 53 be e8 5a c5 3e a8 f4 81 be 56 32 af 3d
       -0.20688257 0.38545918 -0.2538197 0.08554523
000240 9d 02 20 40 63 ad b7 bf bf ff 8c 40 a9 07 8c 40
       2.5001595 -1.4349788 4.406219 4.375935
000250 63 41 44 c0 35 00 97 3f a4 33 2e c0 e9 53 1c c1
       -3.066491 1.1796938 -2.721902 -9.770486
000260 84 ad 1f 40 b5 31 c6 c0 5b 13 07 c0 79 ac a9 40
       2.4949656 -6.1935678 -2.1105564 5.302304
000270 e1 e3 ba c0 bd 4b b9 40 54 f9 48 40 e8 b7 42 bf
       -5.8403172 5.7904954 3.1402178 -0.7606187
000280 a4 83 0c 3f 33 04 10 c0 12 b7 b0 3f b0 e1 af bf
       0.5488837 -2.2502563 1.3805869 -1.3740749
000290 e0 5d f0 3f 92 16 2d 40 ee 47 43 c0 a9 f2 03 40
       1.8778648 2.7045026 -3.0512652 2.0616858
0002a0 f7 41 da bf c4 fc fa be 0b bc 66 c0 6b d4 7b 40
       -1.7051381 -0.4902097 -3.6052272 3.93484
0002b0 41 9f 00 c0 35 90 df 3e 64 e2 33 3e 58 5d e8 3f
       -2.00972 0.4366471 0.1756683 1.8153486
0002c0 36 3e bb 3f 44 97 ac 3f 0c 4a 06 41 47 cb 49 3e
       1.462836 1.3483663 8.393078 0.1970645
0002d0 68 d4 c4 3f bd 4b 4f 3e 57 69 7b 40 38 2a ce 40
       1.5377321 0.20243736 3.9283044 6.4426537
0002e0 7e 4e aa c0 c7 56 f5 bf 5d 4c 3b 3f 16 0a fa bf
       -5.3220816 -1.9167107 0.73163396 -1.9534328
0002f0 27 e8 27 c1 bd 03 47 40 73 c3 5c 3e 62 bf a1 40
       -10.494178 3.1096032 0.21558933 5.054612
000300 f9 66 e2 3f 98 f4 04 40 12 86 d5 3f 47 f0 40 3f
       1.7687675 2.0774288 1.668154 0.75366634
000310 d0 d7 bf 3f 74 4d 19 3f 91 30 25 40 82 fd 41 c1
       1.4987736 0.5988381 2.5810893 -12.124392
000320 f7 65 96 40 18 68 b8 c0 a2 5d 9d 3d e9 0b 11 c0
       4.699947 -5.7627068 0.07683875 -2.266352
000330 83 5c 6b bf 4c 49 bb 3f f2 e5 cd 3f 04 19 07 c0
       -0.91938037 1.4631743 1.6085799 -2.1109018
000340 ed 6e c3 3d 54 14 0d 3f 1e 1b ea 3f b9 38 77 c0
       0.09542642 0.55109143 1.8289526 -3.862837
000350 cd f4 e4 3f 9d ec 6a 40 a4 ee b3 be 35 21 67 c0
       1.7887207 3.6706917 -0.35143006 -3.6114018
000360 3d c6 43 3f ae 75 20 3e 7a c9 56 bf ff 1e 2c 3f
       0.7647436 0.15669891 -0.8390118 0.67234796
000370 b3 40 c6 40 5b af a2 c0 1c 88 93 bf 86 09 7b c0
       6.195398 -5.0839057 -1.1525912 -3.9224563
000380 88 79 7d bf 26 71 8a 3f b5 ee e4 bf ba ed 8f bf
       -0.99013567 1.081578 -1.7885348 -1.1244423
000390 e6 b9 8b 3f 02 f4 d4 3f 17 f1 8d be 7f 22 97 40
       1.0916107 1.6636965 -0.27723 4.722961
0003a0 16 db 9b c0 0a 3e 74 40 04 8d b4 40 ff 1c a2 be
       -4.870494 3.8162866 5.642214 -0.31662747
0003b0 54 ca b8 c0 5b f5 a1 bf 7e 19 8a 3f 23 4b 83 3f
       -5.7746983 -1.2653002 1.078903 1.0257305
0003c0 bb 68 86 40 de 72 dd 3d 55 47 f1 c0 cc 7c 8f be
       4.2002845 0.10812925 -7.5399575 -0.280249
0003d0 84 a8 c9 c0 c6 46 13 bf 75 09 e9 3f c5 76 1f c1
       -6.3018208 -0.57529867 1.8206011 -9.966496
0003e0 76 4c 46 40 87 a9 30 c0 33 ce 94 40 94 8a 2b 3f
       3.0984168 -2.7603471 4.650171 0.6700833
0003f0 fc 61 06 c1 4a 03 e6 40 f2 c1 f7 bf d2 8b 45 40
       -8.398922 7.1879015 -1.9356062 3.086659

Variable_16/read f4 [16]
000000 82 fa 0d bf c4 d1 b4 40 88 14 0c c0 3c fa 0d bf
       -0.5546037 5.650606 -2.1887531 -0.5545995
000010 98 c6 59 bf 67 19 43 3f b0 31 b8 3f 55 76 68 bf
       -0.85068655 0.76210636 1.4390163 -0.9080556
000020 0f 12 2d c0 0d c8 db bf 21 1e 91 40 00 53 11 c0
       -2.7042272 -1.7170426 4.534928 -2.270691
000030 46 18 8e bf a4 7b ee bf 74 02 9e 3f db 87 c6 bf
       -1.1101158 -1.8631482 1.2344499 -1.551021

Variable_17/read f4 [16]
000000 f5 f6 06 3d 82 b5 32 40 c5 19 1f 3e 2c 6d 4d 40
       0.03295036 2.7923284 0.15537174 3.2097883
000010 8e 5f 81 3d 6f 04 6a 40 37 15 bb 40 8e 70 23 bd
       0.06317054 3.6565206 5.8463397 -0.039902262
000020 bd 7f 89 40 1a 0c 82 40 9b 9e 24 40 15 2c b2 40
       4.296843 4.0639772 2.5721805 5.567881
000030 e1 93 ce 40 81 87 67 40 e2 af 39 40 35 88 86 3d
       6.4555516 3.6176455 2.90136 0.06568948

Variable_18/read f4 [16, 3, 3, 16]
000000 8f 9d 3f be 6e 1e a3 c0 25 a7 45 3e 21 08 3a 40
       -0.18712448 -5.0974646 0.19302042 2.9067461
000010 94 be 67 3e c2 ce 35 c0 9d bb b2 40 f5 b7 23 bf
       0.22631294 -2.8407445 5.585402 -0.6395257
000020 b1 10 12 41 c7 b1 7c 40 54 d7 a4 3f cd 23 f6 bf
       9.129075 3.9483507 1.2878213 -1.9229676
000030 39 06 c9 bf 3e 9c ca 3f 34 0c 73 bf 75 24 c8 be
       -1.5705024 1.5828931 -0.94940495 -0.39090315
000040 60 71 10 be ef 46 92 bf 9f f9 9a be 83 e0 a7 3f
       -0.14105749 -1.1427897 -0.3026857 1.311539
000050 40 01 2f 3e 90 94 72 40 e9 b6 9a 3f bf 11 c2 be
       0.1709032 3.7903175 1.208707 -0.37904164
000060 c7 cb f0 40 8c cc ee 3f d9 eb 1b 3e 8c 84 b1 3f
       7.524875 1.8656173 0.15226687 1.3868575
000070 03 23 a2 3f 4b 8e c7 c0 c1 37 84 bf 0a 1c 48 3e
       1.2666935 -6.2361197 -1.0329515 0.19541946
000080 fa f4 66 be 7a 76 10 c0 27 7f f4 3e b1 56 35 c0
       -0.22554389 -2.2572312 0.4775326 -2.8334162
000090 c8 2b 32 bd bd a9 65 3f 7e ad 86 3f 3b fb 22 bd
       -0.043498784 0.89712125 1.0521696 -0.039790373
0000a0 9f 5e 41 c0 89 46 08 40 5a 4d 13 c0 8f 13 0b 41
       -3.0214002 2.1293051 -2.3015962 8.692275
0000b0 b8 c9 cd 3f 21 44 59 bf 89 51 80 40 ed d5 96 3e
       1.6077185 -0.8486958 4.009953 0.29460087
0000c0 85 96 1f 3a 1b de b9 3e 64 8a 3d 3e 17 ee 9b 40
       0.0006087798 0.36302266 0.18509823 4.8728137
0000d0 64 da 98 3e 62 64 8d c0 13 6e bd 40 f5 c1 00 3e
       0.2985412 -4.4185038 5.919687 0.12573989
0000e0 3f 34 d6 40 9e c1 ef bf 9d dd 26 3e 53 2c b8 3f
       6.6938777 -1.8730962 0.16295476 1.4388527
0000f0 8c 69 9f bf eb ec 83 40 09 53 5a c0 59 5a df 3e
       -1.2454085 4.1226707 -3.411318 0.43623617
000100 f5 96 f8 bd 1c d8 85 bf 19 c7 b1 bc 29 2a 6e 40
       -0.12138168 -1.0456576 -0.021701382 3.7213233
000110 5b ce 1d be 6e c5 f7 bc a6 e2 60 40 a1 9a 7f 3e
       -0.1541075 -0.030245509 3.5138335 0.2496133
000120 82 e1 00 41 8c 08 42 3d ff ba a3 40 9e 99 95 3f
       8.055056 0.047371432 5.1165767 1.1687505
000130 34 de 28 3e 49 4a 7e be 5b 71 8e bf 0f 4e 09 3f
       0.16491014 -0.24833025 -1.1128343 0.5363473
000140 00 24 17 bd a4 8e f2 bf bb 3e 1a bf 20 8b 42 3f
       -0.036899567 -1.894978 -0.6025197 0.7599354
000150 7f 8e cb bd af ea bc 3e 41 d9 1e c0 fc 7d 4d 3e
       -0.09939288 0.368978 -2.4820101 0.2006759
000160 82 a3 e2 3f a0 bf e6 3f 62 d6 c4 3f 6f 28 ba 40
       1.7706149 1.8027229 1.5377924 5.8174357
000170 eb 8d 1f c0 8f 4b 6c c0 34 73 bc bf 92 24 44 3c
       -2.493037 -3.6921117 -1.4722657 0.01197161
000180 f8 9a a1 3e fe 57 d9 c0 1a 3a 15 3f 89 41 0c c0
       0.31563544 -6.791991 0.5829178 -2.1915
000190 e3 e3 86 bc 16 98 4e c0 8f dc 1d c0 8d cc 06 3e
       -0.016466087 -3.2280326 -2.4665868 0.13163967
0001a0 18 87 bf 3f f2 02 18 c0 be e9 0f c0 aa 47 bd 3f
       1.4963102 -2.3751798 -2.2486415 1.4787495
0001b0 41 b7 36 c0 41 a3 a8 40 82 6b f8 bf 7a 5c 15 3f
       -2.854935 5.2699285 -1.9407809 0.58344233
0001c0 20 9d ca 3e 8b 00 07 c1 66 d7 80 3d a1 ea 67 c0
       0.39573002 -8.437633 0.06291084 -3.6236956
0001d0 7b 3e 38 be a7 0e 01 41 3e 51 06 c0 d3 e0 87 3f
       -0.17992584 8.066077 -2.0987086 1.0615486
0001e0 67 cd 89 40 96 a0 2c 3f 1a ef 07 c0 52 9c bd 40
       4.3063235 0.67432535 -2.1239686 5.925332
0001f0 bd 50 2d 40 b0 ae c8 40 29 3a c2 3f e5 40 6d be
       2.7080529 6.271324 1.5173999 -0.23169287
000200 8f 3c c6 3e 5d 61 26 c1 f4 99 13 be ca 82 80 c0
       0.38718078 -10.39877 -0.14414197 -4.0159655
000210 9c ab a0 be 0f 57 a3 40 9e fb f7 bf 98 2c 22 3f
       -0.31380928 5.1043773 -1.9373662 0.63349295
000220 d4 6c 0d bf 31 01 16 c0 5f 03 90 bf 58 f9 3e 41
       -0.55244184 -2.3438227 -1.1251029 11.935875
000230 b9 a8 47 c0 55 79 ce 3f f8 e5 fe bf 9b c3 77 3f
       -3.119673 1.6130778 -1.9913931 0.96782845
000240 97 a1 fb bd 5a 04 6f c0 0b 88 74 bf 9e 3c ba 40
       -0.1228668 -3.7346406 -0.95520085 5.8198996
000250 61 aa b7 3e b9 44 b7 c0 57 7e 1e 40 e5 bc 86 3f
       0.35872176 -5.727139 2.4764612 1.0526396
000260 d1 ce 12 40 a7 a6 c2 bf a1 f0 58 40 18 40 10 c0
       2.293873 -1.5207108 3.3896868 -2.253912
000270 80 c1 be 40 84 93 fa 40 45 47 82 bf 3a b4 4f be
       5.9611206 7.8305073 -1.0178 -0.20283595
000280 5e e2 49 be fd 11 a1 bf ea 5b 23 bf 64 ce 19 40
       -0.19715258 -1.2583615 -0.63812125 2.403222
000290 25 6e be 3e 0c 56 63 c0 f4 54 18 3f 9c 4a 25 be
       0.3719341 -3.552127 0.5950463 -0.16141742
0002a0 76 11 bc 3f 6d 3f 33 40 ff ad 86 40 68 b7 9c bf
       1.4692829 2.8007462 4.2087398 -1.2243471
0002b0 a4 3f 2f 40 8d 63 ab 40 c4 a7 47 3f bc 0a b3 3e
       2.7382593 5.355902 0.77990365 0.34969127
0002c0 74 15 41 bd 3f e0 fa 3e 46 6e cd 3d bc c3 33 40
       -0.0471396 0.4899921 0.100307986 2.8088217
0002d0 c2 3e da 3e 24 cc 4c c0 50 8b c1 bf 7f 2c d8 be
       0.42626005 -3.1999598 -1.512064 -0.42221448
0002e0 1a ed 9f c0 21 6a 5b 40 8d 15 8f 40 b5 43 96 40
       -4.997693 3.4283526 4.4713807 4.695765
0002f0 b0 65 97 40 82 65 7b bf 2d 88 51 40 dc ac 3d 3e
       4.731163 -0.98201764 3.2739365 0.18522972
000300 60 4a f2 be 5d 3e 66 c0 9b b1 57 bf bb 91 0b 40
       -0.4732237 -3.5975564 -0.8425538 2.1807697
000310 97 96 b3 3e 39 ab ce bf 89 7d f0 40 71 32 4d 3e
       0.35075828 -1.6146003 7.515324 0.20038773
000320 d9 d0 b3 bf dc 3f da 3d c9 94 4a 3f e0 bf 30 3e
       -1.404811 0.106567115 0.7913328 0.17260695
000330 e0 dd f7 bf 88 d8 5c 40 fb 94 8e bf 2e e2 04 bf
       -1.9364586 3.450716 -1.1139215 -0.5190762
000340 a1 db d4 be ba 80 2d c0 53 1d a7 be 4e 76 8d 3f
       -0.41573814 -2.7109818 -0.3263956 1.1051729
000350 24 8b 12 3f e8 51 6c 3f 9e c6 8b 40 13 f6 b5 be
       0.5724356 0.9231248 4.3679953 -0.35539302
000360 ba 11 03 41 eb 33 0f c0 b1 84 1f 40 da f4 fc bd
       8.191828 -2.2375438 2.4924738 -0.12351389
000370 2c a2 3d bf f9 ee a7 3f b8 80 23 40 74 3b 4f 3e
       -0.7407558 1.3119804 2.5547314 0.20237523
000380 34 26 cf 3d 70 ce e4 be 33 7a 5a 3d f9 4a 45 3f
       0.101147085 -0.4468875 0.053339195 0.77067524
000390 d0 f1 c4 3e 1c 9f 1c 40 73 91 86 c0 b8 85 0c 3f
       0.38465738 2.4472113 -4.205255 0.5489154
0003a0 4d 69 87 3f 1d a7 89 3f e2 69 3d 40 08 24 1a 41
       1.057901 1.0754124 2.9595876 9.633797
0003b0 91 d4 e2 40 cd ba 95 3e 40 c6 16 3f 0e c9 79 3f
       7.088448 0.2924408 0.58896255 0.9757241
0003c0 0d 90 5a bf 37 b5 9f c0 61 36 c9 3e 47 d0 9a bf
       -0.85376054 -4.990871 0.392993 -1.2094811
0003d0 0f f8 d4 3e 61 19 03 40 ba 31 a9 40 a9 53 e3 bc
       0.41595504 2.048424 5.28732 -0.027749853
0003e0 73 61 9c c0 35 3e 8e c0 0c e5 12 c0 23 ea 71 c0
       -4.8868957 -4.4450936 -2.29523 -3.7799156
0003f0 0e 46 f1 bf fb 28 c2 3f f3 4c 7f 3d 8a fb 56 bf
       -1.8849504 1.5168756 0.062329244 -0.8397757

Variable_19/read f4 [16]
000000 b9 1d 4c bd d0 2a 34 bf 03 47 f8 be 1f 60 4e be
       -0.049833033 -0.70377827 -0.48491678 -0.20153855
000010 f0 49 1d bf 74 d3 e3 bc 0c 89 c0 bd ee 03 95 3f
       -0.61440945 -0.02781079 -0.094011396 1.1641824
000020 af b2 02 bf 18 25 99 be a8 45 92 bf bf d0 81 bf
       -0.510539 -0.29911113 -1.1427507 -1.0141829
000030 51 2d 5f bf 36 ee 7c bf 07 7e bb bf 05 2e 86 3f
       -0.8717852 -0.9880098 -1.4647835 1.0482794

Variable_2/read f4 [4]
000000 8d ce b2 40 38 33 44 40 1d eb 16 40 14 35 93 40
       5.5877137 3.0656261 2.3581002 4.6002293

Variable_20/read f4 [16]
000000 21 c4 c0 3f 53 e5 c7 3f 59 a0 18 40 fc 79 bd 3f
       1.5059854 1.5616859 2.3847868 1.4802852
000010 2b 4f b6 3f 87 61 9b 3f 65 9a 54 40 01 14 0c 40
       1.424291 1.2139138 3.3219235 2.188721
000020 cd 4f 9f bf 47 9d b1 3f d0 ad aa 3f 2c d4 d0 3f
       -1.2446228 1.3876122 1.3334293 1.631475
000030 8d 20 68 40 0d 2a aa 3f 8b 69 53 3f 4e 5c de 3f
       3.6269867 1.3294083 0.8258292 1.7371919

Variable_21/read f4 [16, 3, 3, 16]
000000 be d0 b2 40 d1 aa ab 40 ac 98 2c c0 ae 85 58 c0
       5.587981 5.3646016 -2.6968184 -3.3831592
000010 e8 26 19 c0 6a df 50 c0 bd 16 b3 c0 d7 50 c2 c0
       -2.3929996 -3.263636 -5.5965257 -6.072368
000020 4a 40 56 40 94 c6 2d 40 ab a6 6c 40 7f 92 ce bf
       3.347674 2.7152452 3.6976726 -1.6138457
000030 bd 45 b8 c0 e3 ab fd 40 05 10 01 40 1a 0a d5 40
       -5.758513 7.9272323 2.0166028 6.657483
000040 83 d5 e4 bf a1 a5 a3 3f 29 6a 22 c0 1f c1 c1 c0
       -1.7877659 1.2784921 -2.5377295 -6.0548244
000050 43 aa 98 be 3e f4 22 40 a2 ee 45 be f2 63 0d c1
       -0.298174 2.5461574 -0.19329312 -8.836901
000060 fc ca e9 3f fb 40 1d 40 ad 8c 16 3f 34 06 eb 3f
       1.8265071 2.457091 0.58808404 1.8361268
000070 ae 7c b9 bf 9c e6 ca 3f fc 37 a0 3d 47 59 8c 3f
       -1.4491174 1.5851626 0.07823178 1.0964745
000080 23 39 92 c0 02 67 11 bf 71 33 1b c1 91 10 7f bf
       -4.5694747 -0.567978 -9.700059 -0.99634653
000090 b6 77 b5 3f 9d 26 6d 40 a0 f0 65 40 99 80 ea c0
       1.4177158 3.7054818 3.5928116 -7.328198
0000a0 3f 80 27 40 ee 50 f6 3f fb cf 89 bf 4a 60 38 c0
       2.6172025 1.9243448 -1.0766596 -2.880877
0000b0 55 5b bb c0 47 18 8a 40 73 0b 28 c0 c3 79 50 bc
       -5.854899 4.3154635 -2.6256988 -0.012724343
0000c0 00 14 db 40 3e 38 bd 3f 43 80 82 3f 4e c3 60 3e
       6.8461914 1.4782789 1.0195392 0.21949503
0000d0 79 be 82 c0 dc 53 5f bf f8 0a b6 be 30 66 82 3d
       -4.085751 -0.87237334 -0.35555243 0.06367147
0000e0 70 2a 81 3f 6b c1 5c 40 fb 90 4a 3f dc 68 82 3d
       1.0091076 3.4493053 0.7912747 0.063676566
0000f0 18 2b 2a c0 34 3c 8d 40 4d 17 26 c0 60 7f 92 40
       -2.6588802 4.413599 -2.5951722 4.5780487
000100 19 22 20 c0 67 a3 37 c0 fe d9 85 bf 2e b1 e0 c0
       -2.5020812 -2.8693483 -1.0457151 -7.0216284
000110 90 4e 59 3f 69 fd 3e 3d e1 4f 62 c0 09 35 09 c0
       0.848855 0.04662839 -3.5361254 -2.143862
000120 f8 e5 af be e6 d9 fc 3d d0 71 9a 3f 9f a6 9a 40
       -0.3435514 0.12346248 1.2065983 4.8328395
000130 a2 1f 11 40 7b 43 f4 3f 6c 4e 81 bd 38 0b 8b c0
       2.2675557 1.9083093 -0.06313786 -4.3451195
000140 56 3d a8 c0 1c 47 54 3f b8 30 80 c0 1e b5 6d c0
       -5.2574873 0.82921004 -4.005947 -3.7141795
000150 9f 71 66 40 c2 31 ad bd 7c 26 63 bf b8 3a c4 3f
       3.600685 -0.08456756 -0.887306 1.533042
000160 29 26 ec bf 3e 60 71 3e 94 93 28 c0 6b 3c 47 be
       -1.8449146 0.2357187 -2.6340075 -0.19456641
000170 9e 7b 12 c0 fc f0 4a 40 c4 f8 b4 3e df 67 84 c0
       -2.288795 3.1709585 0.35346043 -4.1376796
000180 ce af ea 40 03 c3 86 40 90 c4 2a c0 e3 aa 88 c0
       7.3339605 4.211305 -2.6682472 -4.27086
000190 2a 46 0d c1 c4 1a 0d 3f a3 8e ad 3e 53 02 f3 3d
       -8.82963 0.55118966 0.33897886 0.11865678
0001a0 03 3f 81 40 b2 f9 63 40 27 89 29 c0 88 02 16 40
       4.038942 3.5621152 -2.648996 2.3439045
0001b0 2f 2a a5 c0 c2 e6 63 40 a9 ab 32 40 6d de 2f 40
       -5.1613994 3.5609593 2.7917273 2.7479508
0001c0 0d 37 b8 3f 64 14 d9 3f 20 55 86 3f bb 5c cd c0
       1.43918 1.6959348 1.0494728 -6.4175696
0001d0 60 d3 22 c0 09 3a a1 be 77 91 11 bf 63 b3 b5 bf
       -2.5441513 -0.3148959 -0.56862587 -1.419537
0001e0 c7 06 7c 3f 7b 97 2d c0 db 57 4d bf aa c3 d3 40
       0.9844784 -2.7123706 -0.8021218 6.617635
0001f0 7a 36 87 c0 6e 16 41 40 06 44 e5 be 3c c1 5b 3e
       -4.2254 3.016994 -0.4477846 0.21460432
000200 1c 31 1f 40 99 c3 0c 40 07 70 06 c0 1b f7 d7 3f
       2.4873724 2.1994383 -2.1005876 1.6872286
000210 ec 41 ca c0 32 67 94 bf 81 16 d8 40 cd cc ce bf
       -6.320547 -1.1593993 6.752747 -1.615625
000220 d3 c6 f4 3e bc b8 29 bf 49 fa ae c0 8c e9 1f 40
       0.4780794 -0.6629751 -5.4680524 2.4986296
000230 3b 56 da c0 30 02 f1 3e 65 0b 52 3f ad e0 7a 40
       -6.823026 0.4707198 0.82048637 3.9199631
000240 96 25 01 bf 61 ea c7 40 58 ae 17 bf 4b 5a b6 40
       -0.50447977 6.2473607 -0.592504 5.698522
000250 da 7f 29 c0 87 68 48 c0 35 d2 39 40 4c f6 62 c0
       -2.6484284 -3.1313798 2.903455 -3.5462828
000260 e0 40 18 bf 6a a0 f3 bf 91 78 9c 3f 80 71 43 40
       -0.5947399 -1.903333 1.2224294 3.0538025
000270 7b cc 3c c0 fd ca ab c0 88 3d 93 bd a2 08 4d 40
       -2.9499805 -5.368529 -0.071894705 3.203652
000280 f2 ce ad be d3 82 2d 40 da 10 14 40 77 23 62 be
       -0.3394695 2.7111099 2.3135285 -0.22083841
000290 39 50 9f be 9d f3 e6 3f f7 67 2e 40 f6 29 a2 40
       -0.31115893 1.8043095 2.7250955 5.067622
0002a0 c0 d8 10 40 26 04 a7 40 c4 6d 71 c0 81 16 da 3d
       2.2632294 5.2192564 -3.7723246 0.106488235
0002b0 33 ad 99 3f bc a0 e5 bf 66 36 5b c0 9e c3 9e 40
       1.2005981 -1.7939677 -3.4251952 4.961379
0002c0 bd e0 16 c0 c0 fa 5a 40 09 d8 93 40 c9 c5 a1 3f
       -2.357467 3.4215546 4.6201215 1.2638484
0002d0 62 31 9a c0 64 14 59 40 4d d3 f5 bf 1c 68 01 41
       -4.818528 3.3918695 -1.9205109 8.087917
0002e0 ed ae fe 3e db 9c 81 40 c2 98 a7 c0 88 18 a7 c0
       0.49742833 4.0503974 -5.237397 -5.2217445
0002f0 69 7d 42 40 6e e2 28 bf fd a8 09 c0 81 25 41 3e
       3.0389044 -0.65970504 -2.1509392 0.18861963
000300 c3 82 58 be 7e b2 eb 3f a0 f3 5b c0 94 54 47 bf
       -0.21143632 1.8413846 -3.4367447 -0.7786343
000310 de 31 11 c1 a3 c0 81 c0 ed 32 72 40 2b 03 bf be
       -9.074675 -4.054765 3.7843583 -0.37307104
000320 ad db 8f bf a8 e1 c0 bf 45 a6 84 40 d7 dd 1d 41
       -1.1238915 -1.5068865 4.1452966 9.86666
000330 13 74 db 3e 5e de 02 c0 38 a0 b5 3e 73 9f 4d 3f
       0.42861995 -2.0448222 0.354738 0.80321425
000340 56 cf 2a 3f 31 80 8c bf 8d b2 a5 3f 72 99 69 c0
       0.6672262 -1.0976621 1.2945114 -3.6499906
000350 3a be 7b c0 1e e5 84 c0 4f 58 d4 3f 10 3f e5 40
       -3.9334855 -4.1529684 1.658945 7.163948
000360 49 2a 67 c0 c1 8d a1 3f 45 9a cb 3f 0b 84 24 40
       -3.611956 1.2621385 1.5906454 2.5705593
000370 80 72 fe 3f 73 c3 29 3f 24 3c cb 3f 20 c6 28 c0
       1.9878693 0.66313857 1.5877728 -2.6370926
000380 38 d0 3a c0 9f d4 c0 bf 87 7b 03 40 a9 bd 7c c0
       -2.9189587 -1.5064887 2.0544145 -3.949076
000390 9d 14 9c c0 42 d3 59 40 f9 c8 d8 3e a7 97 11 41
       -4.8775163 3.4035192 0.4234083 9.0995245
0003a0 63 a2 54 c0 3a e4 cf 3f b6 81 8c be 70 0d 7c bf
       -3.3224113 1.6241524 -0.27442712 -0.98458004
0003b0 75 2e 3c 40 5e 25 95 3f 6d d0 10 c0 5b 59 2d c0
       2.9403355 1.1652029 -2.2627213 -2.7085788
0003c0 63 8c 9c be 84 0f d6 3e 0a c5 73 bd 85 eb 14 c0
       -0.30575857 0.41808712 -0.059514083 -2.326875
0003d0 02 4d a5 c0 b8 d6 e9 c0 e7 ca c6 40 3c 51 8a c0
       -5.1656504 -7.307461 6.2122684 -4.3224163
0003e0 72 2a 85 bf 28 00 57 bf 31 8e db 40 35 50 ae 40
       -1.0403578 -0.83984613 6.8611073 5.447291
0003f0 fb 5d d1 bd 42 cc b3 bf b4 be d7 40 be 08 24 40
       -0.102230035 -1.404671 6.742029 2.5630336

Variable_22/read f4 [16]
000000 f0 99 12 40 64 a6 65 40 f9 f9 3b bf bf 5b 0b c0
       2.2906456 3.5882807 -0.73428303 -2.1774747
000010 2f dc 3d bf 6d b0 3b 3f 6c c7 93 bf ee 3d 48 bf
       -0.741641 0.7331608 -1.1545234 -0.782195
000020 ba 3d 03 c0 31 e0 41 40 84 ff cd 40 0c 0c 12 c0
       -2.0506425 3.0293086 6.437441 -2.2819853
000030 e7 3c f2 bf e8 85 80 bf c3 4d 09 c0 36 ec 02 be
       -1.8924836 -1.0040865 -2.1453712 -0.1278542

Variable_23/read f4 [16]
000000 8a aa 10 40 8f ff 09 40 3f 3f 24 3d 5f 74 7b 40
       2.2604089 2.156223 0.04009938 3.9289777
000010 c8 ca 51 40 54 47 8e 40 85 2a ff 40 f2 27 31 3c
       3.2780018 4.446207 7.9739404 0.010812746
000020 be 9c ab 40 4c e5 3d 40 2c 5d 1e 40 31 e2 b4 40
       5.3628836 2.9671202 2.4744368 5.6526113
000030 11 b3 82 40 48 67 21 3d 5e 69 be 40 df 71 69 40
       4.0843587 0.039405137 5.950362 3.6475751

Variable_24/read f4 [16, 3, 3, 16]
000000 38 34 55 c0 18 cd fa 3f cb 13 58 be e4 03 1b c0
       -3.3313122 1.959384 -0.211013 -2.4221125
000010 65 5e df 3f 64 5b a6 40 51 d5 40 40 7d 54 96 bf
       1.7450682 5.198656 3.0130198 -1.1744534
000020 e6 35 72 c0 39 0a aa 3f e1 2c 7b c0 4e 38 f9 bf
       -3.7845397 1.328437 -3.9246142 -1.9470308
000030 39 a5 2e c0 a5 de a4 be a8 96 cf 3f c8 18 80 3f
       -2.7288344 -0.32201114 1.6217852 1.0007563
000040 92 c5 3d c0 5f bc cf bf d3 5b ba be da ed 1a 40
       -2.9651837 -1.6229361 -0.3639818 2.4207673
000050 3c 1c 9a 40 6c 64 75 40 6a 87 29 40 f7 ad a0 bf
       4.8159466 3.8342543 2.64889 -1.255309
000060 bf 37 83 c0 c3 04 66 40 05 ff c4 3f 18 a5 ae 40
       -4.100555 3.5940406 1.5390326 5.457653
000070 db 29 25 bf 0c 15 8b be 0b a1 68 40 33 1f 90 40
       -0.6451699 -0.27164495 3.6348293 4.5038085
000080 b1 f3 a4 c0 65 f5 20 c0 55 a5 11 be 55 bf 3d c0
       -5.1547475 -2.5149777 -0.14223225 -2.964803
000090 2c ef 90 40 6d 5c a3 40 3c 56 aa c0 6d 5c 9d be
       4.529196 5.1050324 -5.3230267 -0.30734578
0000a0 f6 bb c5 c0 0f 3c 8f 40 87 33 1a 40 38 13 74 40
       -6.1791945 4.4760814 2.409395 3.813673
0000b0 f1 d1 ee c0 4f 89 05 bf 71 16 d9 40 68 68 6f 40
       -7.4631276 -0.5216264 6.7839894 3.7407475
0000c0 f3 b1 00 c0 9e b1 46 c0 f1 46 9d 3e cb a3 4d bf
       -2.0108612 -3.104591 0.30718186 -0.80328053
0000d0 a3 b6 fa be e9 33 93 40 7c 23 a8 40 8f 0c 41 bf
       -0.48967466 4.6000867 5.2543316 -0.7540979
0000e0 92 15 66 c0 3d b2 09 c0 d4 d8 03 c0 27 b1 cc c0
       -3.5950665 -2.1515038 -2.0601091 -6.396625
0000f0 81 02 84 c0 ff 57 8b be 63 a2 7e 3f c3 25 28 bf
       -4.1253057 -0.27215573 0.9946653 -0.6568262
000100 4d a4 ef 3e 4c 48 99 bf 38 ae 60 be 7f 20 6f 40
       0.4680504 -1.1975188 -0.21941459 3.7363584
000110 8f 6b 83 be 15 e3 c0 40 a9 fd 9d c0 8b 6b 25 bf
       -0.25667998 6.02772 -4.9372144 -0.6461722
000120 1a 9f 24 c0 3c 99 a2 bf 13 c2 61 40 60 b1 6e 3f
       -2.5722108 -1.2703013 3.5274704 0.932394
000130 92 dd ae be f3 a5 84 be 46 21 0c 40 1d 4b a0 40
       -0.3415342 -0.2590786 2.1895308 5.009169
000140 89 06 7a c0 05 0a a1 bf f5 1b 62 be a2 bc 51 bf
       -3.9066489 -1.2581183 -0.22080977 -0.81928456
000150 72 3f 97 3f 3b d1 80 40 2f 06 5c bf 13 0b c0 be
       1.1816237 4.025541 -0.85946935 -0.3750845
000160 bc 28 9b bf a4 17 43 c0 dd 16 a7 40 23 c9 5b 40
       -1.2121806 -3.048318 5.221541 3.4341514
000170 59 73 95 bf fb 9a b2 be b7 e8 f8 bf 4b 5f 10 40
       -1.1675826 -0.34883866 -1.9446019 2.2558162
000180 b6 77 9f bf 49 e9 7a c0 15 af ed 3e 72 84 7e c0
       -1.2458408 -3.9204886 0.4642264 -3.9768338
000190 9a 32 85 40 8d c5 c7 3f ce 7b f7 3e 6d 39 fc be
       4.162427 1.5607163 0.48336643 -0.49262562
0001a0 5e 76 5c c1 c3 29 8c 3e 35 16 54 c0 34 32 00 3f
       -13.778898 0.27375612 -3.3138554 0.50076604
0001b0 05 5e b6 3f 22 4e f3 bd f8 ba c6 be 39 82 95 c0
       1.4247442 -0.11880137 -0.3881452 -4.6721463
0001c0 12 89 de 3f b7 cb 25 bf 97 9d 2e be 5b af 9b bf
       1.738558 -0.6476397 -0.17052303 -1.2162889
0001d0 72 d7 92 3f d3 3e 9a 40 df 26 cf c0 bf 64 8e be
       1.1471999 4.820169 -6.473495 -0.27811238
0001e0 ad ae 33 c0 13 a8 62 3e 6e eb bd 3f 96 73 9b 40
       -2.8075364 0.22134428 1.4837472 4.8578596
0001f0 05 d6 97 3f 9e 5d 33 be 68 90 9c 40 18 93 08 3f
       1.1862189 -0.17516181 4.8926277 0.5334945
000200 fd 1d 81 c0 01 3c 90 c0 0e 16 bb be e1 8f e9 bf
       -4.0349107 -4.5073247 -0.36540264 -1.8247033
000210 13 90 ba 3e de 9d c4 bd 19 77 a6 3e 51 c1 bc be
       0.36438045 -0.09600423 0.3251274 -0.3686624
000220 8f 2a 85 bf 00 ec 8d c0 ad a3 86 3f 9c af 10 3f
       -1.0403613 -4.4350586 1.05187 0.5651796
000230 dd 07 3e c0 53 52 58 bd ec 9e 72 c0 76 bf 1d 40
       -2.96923 -0.052812885 -3.7909498 2.4648108
000240 0c fb a5 3f ff 37 e1 3e 08 c8 ab be 78 d5 35 c0
       1.2967238 0.43988034 -0.3355105 -2.841154
000250 a3 58 8d c0 70 3a cf c0 3f 0e a8 c0 b8 64 3c 3e
       -4.41707 -6.4758835 -5.251739 0.18397796
000260 01 ce 4d 40 62 26 1f c0 55 31 0c c0 8f e2 c6 40
       3.2156985 -2.4867177 -2.190511 6.215156
000270 9e ac 95 be a5 e4 43 3d 38 58 67 40 34 fe 9d bf
       -0.2923326 0.047825474 3.6147594 -1.2343202
000280 8c 87 81 40 e2 76 95 40 e4 1a 95 bd 90 dc ee 3f
       4.0477962 4.670762 -0.072805196 1.866106
000290 fd 33 d7 3f 44 f0 6b 40 73 b4 0d 3f b3 2b 9f be
       1.681274 3.6865396 0.5535347 -0.31088027
0002a0 69 54 c2 bf b3 47 6b c0 3d 3c 52 c0 6d 02 7f bf
       -1.518201 -3.6762512 -3.2849267 -0.99613076
0002b0 16 c5 e3 c0 96 8b b8 bd b9 65 d5 3f d9 0a a7 40
       -7.1178083 -0.09010999 1.6671668 5.220074
0002c0 48 58 a8 bf 4c ba 47 40 6b b5 dd bd 29 fa 04 c0
       -1.3151941 3.1207457 -0.10825618 -2.0777686
0002d0 c5 b3 97 40 e1 9b bb 40 61 27 b3 40 48 a6 80 be
       4.7406945 5.862778 5.598557 -0.25126863
0002e0 4b e4 c8 be f3 cd bb bf 14 b4 02 c1 ba a1 f8 c0
       -0.39236674 -1.4672226 -8.168964 -7.769742
0002f0 8b 0f 44 c0 b1 62 25 3e 20 dc 6b c0 f5 29 d0 bf
       -3.0634487 0.16150929 -3.6853104 -1.6262804
000300 de 11 6e c0 c6 bf 37 c0 fc 65 f0 be 88 f3 2f 3f
       -3.7198405 -2.87108 -0.46952808 0.68730974
000310 d1 4f 15 3f 69 8c 72 c0 9d 49 37 bf 41 f3 3c 3f
       0.58324915 -3.78982 -0.715967 0.73808676
000320 7c 67 50 40 9b 54 5b 40 62 d7 87 40 db 1a 38 40
       3.2563162 3.427039 4.245042 2.8766391
000330 24 90 43 3e 74 86 ae bd 92 53 07 c0 a7 4e 29 bf
       0.19097954 -0.08521739 -2.1144757 -0.6613564
000340 e0 47 2b 40 de 4b f6 3f bf 90 e1 be 10 f7 ba bf
       2.676262 1.9241903 -0.44055745 -1.4606647
000350 bc 40 2c 40 4c 2d 8d bf 9d 47 97 40 a7 32 26 3e
       2.691451 -1.1029449 4.727492 0.1623026
000360 26 98 b2 bf 7b b4 09 3f f3 3b 3b 40 e9 b6 33 40
       -1.3952682 0.53791016 2.925534 2.808039
000370 e5 89 f0 be 4f 8a e0 3c 2a 44 e1 3f 34 1d dc bd
       -0.46980205 0.0274097 1.7598927 -0.107477576
000380 19 74 64 40 6a 06 fa 3f 18 06 3d be f5 1d cd 3f
       3.569586 1.9533207 -0.18459356 1.6024767
000390 e1 4b 31 bf 23 da 0c 41 97 d9 26 c0 12 24 d1 3d
       -0.6925641 8.803256 -2.6070306 0.10211958
0003a0 6c ad 01 40 12 69 13 40 eb 38 31 bf 52 6f e5 bf
       2.0262098 2.303288 -0.69227475 -1.7924597
0003b0 b7 59 40 c0 9b 0f c9 3d ff 08 6a 40 df 02 39 3f
       -3.0054758 0.0981743 3.656799 0.72270006
0003c0 76 49 b8 bf 9d 26 fc bf b7 7c 1b bf b3 9f 2f 3e
       -1.4397418 -1.9699284 -0.60737175 0.17150764
0003d0 ec 4e b0 40 da d1 6b c0 42 b0 7d c0 cd b1 67 3e
       5.509634 -3.6846833 -3.963883 0.2262642
0003e0 72 28 4b 40 d6 5c dd 3f da 48 66 40 28 94 ce 3f
       3.1743436 1.7293956 3.5981965 1.6138964
0003f0 c2 81 53 3f a8 d3 10 be f1 8c 16 40 5c 29 f8 bf
       0.8261987 -0.1414324 2.3523524 -1.9387622

Variable_25/read f4 [16]
000000 b6 17 4c bd 35 2d 34 bf 43 47 f8 be c1 61 4e be
       -0.0498273 -0.7038148 -0.48491868 -0.20154478
000010 bd 49 1d bf af ca e3 bc 63 88 c0 bd bd 03 95 3f
       -0.6144064 -0.027806608 -0.09401014 1.1641766
000020 54 b2 02 bf d6 25 99 be 85 45 92 bf b8 d0 81 bf
       -0.5105336 -0.2991168 -1.1427466 -1.0141821
000030 16 2d 5f bf f0 ed 7c bf df 7d bb bf 26 2e 86 3f
       -0.8717817 -0.98800564 -1.4647788 1.0482833

Variable_26/read f4 [16]
000000 5e 05 2f 40 e8 db 4c 40 9d 26 81 40 b8 e2 48 40
       2.7347026 3.200922 4.0359635 3.1388378
000010 ab a6 02 40 08 7a 2f 40 ab 41 16 41 91 eb 2b 40
       2.0414226 2.7418232 9.391032 2.6862528
000020 34 c3 03 40 c0 e3 19 40 87 7c 20 40 a8 b4 f8 3f
       2.0587893 2.4045258 2.5076005 1.9430132
000030 14 a4 1d 40 0c e4 4d 40 b3 f5 1d 40 7b 01 14 40
       2.4631395 3.2170439 2.4681213 2.3125904
