examples/style_transfer/model/sien_with_a_cigar.tflite (tflite, 150728 bytes, 52 tensors)

Conv2D_12_bias f4 [16]
0	0x00000000	0.0
1	0x00000000	0.0
2	0x00000000	0.0
3	0x00000000	0.0
4	0x00000000	0.0
5	0x00000000	0.0
6	0x00000000	0.0
7	0x00000000	0.0
8	0x00000000	0.0
9	0x00000000	0.0
10	0x00000000	0.0
11	0x00000000	0.0
12	0x00000000	0.0
13	0x00000000	0.0
14	0x00000000	0.0
15	0x00000000	0.0

Conv2D_13_bias f4 [3]
0	0x00000000	0.0
1	0x00000000	0.0
2	0x00000000	0.0

Conv2D_1_bias f4 [8]
0	0x00000000	0.0
1	0x00000000	0.0
2	0x00000000	0.0
3	0x00000000	0.0
4	0x00000000	0.0
5	0x00000000	0.0
6	0x00000000	0.0
7	0x00000000	0.0

Conv2D_bias f4 [4]
0	0x00000000	0.0
1	0x00000000	0.0
2	0x00000000	0.0
3	0x00000000	0.0

Variable/read f4 [4, 9, 9, 3]
0	0xbe5bf3c4	-0.21479708
1	0xbda0a833	-0.078445815
2	0x3c026d40	0.007960618
3	0xbce28fe2	-0.0276565
4	0xbdbb8e36	-0.09157984
5	0xbdbf5547	-0.09342437
6	0xbe280a3e	-0.16410157
7	0xbe75f000	-0.24017334
8	0xbe7e9e04	-0.24864966
9	0xbdc01545	-0.09379057
10	0xbec9f6f4	-0.39446223
11	0xbe60a6ec	-0.21938676
12	0x3d4c385f	0.049858447
13	0xbdeb6dd6	-0.11495559
14	0x3e0bbf04	0.13647085
15	0x3e01d95c	0.12680572
16	0xbe095858	-0.13412607
17	0x3e380b84	0.17973143
18	0x3d379717	0.044821825
19	0xbd946fde	-0.072478995
20	0xbdfa19bd	-0.122119404
21	0x3e5856a7	0.21126805
22	0x3e45e26c	0.19324654
23	0x3e9a5e47	0.30150053
24	0xbd2bc3ee	-0.0419349
25	0xbe4ac021	-0.19799854
26	0xbe41a875	-0.18911918
27	0x3c7cd718	0.015432142
28	0x3d5542e6	0.052065752
29	0xbd9134c0	-0.070901394
30	0x3d895d2c	0.06707224
31	0xbdaecad0	-0.08534777
32	0xbe0a6938	-0.135167
33	0xbe05f400	-0.1308136
34	0x3d4bf078	0.049789876
35	0xbdf62623	-0.12018993
36	0xbe4ee3dc	-0.20204109
37	0xbe41afde	-0.18914744
38	0xbe4d1541	-0.20027639
39	0x3d25b726	0.040457867
40	0xbe09b588	-0.13448155
41	0xbd7dd8e3	-0.061974417
42	0xbdf827e1	-0.12116981
43	0xbee5d4bc	-0.44888866
44	0xbe2784f6	-0.16359314
45	0xbeb122b7	-0.34596798
46	0xbec71dbb	-0.3888987
47	0xbc541854	-0.012945253
48	0x3e8525ed	0.26005498
49	0x3cd24f1d	0.02567249
50	0x3da8d238	0.08243221
51	0xbdbb4b19	-0.09145183
52	0xbd142b34	-0.036174014
53	0x3d6a0ac1	0.057139162
54	0x3c2e6e43	0.010646406
55	0x3e3265c3	0.17421632
56	0xbda2ef5d	-0.07955811
57	0x3e12e42b	0.14344852
58	0x3d516f32	0.051131435
59	0xbd7ffeec	-0.06249897
60	0x3da29a85	0.079396285
61	0x3e60edce	0.21965715
62	0x3d1f6727	0.038916733
63	0xbdb8d131	-0.09024275
64	0xbe09e3f2	-0.1346586
65	0x3e1f0f0b	0.15533082
66	0xbe66af3f	-0.22527789
67	0xbd84a4c7	-0.06476741
68	0x3d3b3a8f	0.045710143
69	0xbf072ee6	-0.52805936
70	0xbf1fcd7f	-0.6242294
71	0xbebfce1c	-0.37461936
72	0xbf091c68	-0.5355897
73	0xbef3006d	-0.47461262
74	0xbe6da9af	-0.2320926
75	0x3a820322	0.0009919147
76	0x3e417d1c	0.18895382
77	0x3d909f08	0.07061583
78	0xbccfafc8	-0.025352374
79	0x3d92dfbf	0.071715824
80	0xbd983992	-0.07432856
81	0x3cd6d870	0.026226252
82	0x3e5cd14d	0.21564217
83	0x3dac35c9	0.08408696
84	0x3e4b74ca	0.1986877
85	0x3e540840	0.20706272
86	0x3e3442fd	0.17603679
87	0x3edaf90e	0.4276814
88	0x3f1f06bd	0.62119657
89	0x3ed785c3	0.4209424
90	0x3f07f32e	0.5310544
91	0x3f120696	0.570413
92	0x3ea22205	0.3166658
93	0x3ede1317	0.4337394
94	0x3eb2b66c	0.34904802
95	0x3ed0217e	0.40650553
96	0xbe715cfe	-0.2357063
97	0xbeabcd28	-0.3355496
98	0xbed7316c	-0.42029893
99	0xbf42d92f	-0.76112646
100	0xbf5ed862	-0.87048924
101	0xbeeadb74	-0.45870554
102	0xbe1e519b	-0.15460818
103	0xbd8f3993	-0.06993403
104	0xbe36f7e2	-0.17867997
105	0xbd93de8b	-0.07220181
106	0xbdb5f51c	-0.088846415
107	0xbe562bbb	-0.2091512
108	0x3e58b943	0.21164422
109	0x3d0f948f	0.035053786
110	0xbd82e44c	-0.063912004
111	0x3ef80df7	0.48448154
112	0x3f1d599e	0.6146487
113	0x3ea55993	0.32294902
114	0x3f7b9962	0.9828092
115	0x3f8c5fd5	1.0966746
116	0x3f05aa6b	0.5221316
117	0x3f8f407d	1.1191555
118	0x3fa5867c	1.2931666
119	0x3f84ec15	1.0384547
120	0x3f710348	0.9414563
121	0x3f78045d	0.9688166
122	0x3f4f15dd	0.80892736
123	0x3d868ac5	0.06569437
124	0xbe6fd712	-0.23421887
125	0xbd92bd99	-0.07165069
126	0xbf077165	-0.529074
127	0xbf3ffc54	-0.749944
128	0xbefd7c06	-0.49508685
129	0xbd74259e	-0.059606187
130	0xbdf6479f	-0.120253794
131	0xbe03fd7a	-0.12889662
132	0xbe1f64aa	-0.15565744
133	0xbe1b6c23	-0.1517797
134	0xbddfefa1	-0.109343775
135	0xbdc6e4bb	-0.097115956
136	0x3d30e091	0.043182913
137	0x3e1a98c7	0.15097342
138	0x3ec3299c	0.38117683
139	0x3eac4442	0.33645827
140	0x3eb01a08	0.3439486
141	0x3f4ec1ed	0.8076466
142	0x3f5484c2	0.8301507
143	0x3f0665e3	0.52499217
144	0x3f566e4d	0.83762056
145	0x3f6066b0	0.8765669
146	0x3f117b9c	0.5682924
147	0x3f24e6d9	0.64414746
148	0x3f31deb7	0.6948046
149	0x3f1505d9	0.5821205
150	0xbe9f8d2a	-0.31162387
151	0xbf0f434b	-0.55962056
152	0xbe80be21	-0.25145057
153	0xbf3cc812	-0.73742783
154	0xbf732d11	-0.9499064
155	0xbf62c2e6	-0.8857864
156	0xbf00e7b5	-0.50353557
157	0xbecb54eb	-0.39713225
158	0xbe6d3739	-0.23165597
159	0xbe9fa195	-0.31177965
160	0xbe05684f	-0.13028072
161	0x3c937a34	0.018002607
162	0x3d9107e4	0.07081583
163	0x3d32e1b7	0.04367229
164	0xbd3bcf16	-0.04585179
165	0x3d60d17e	0.054887287
166	0x3e674307	0.22584163
167	0xbc5d0f73	-0.013492453
168	0x3e5318b1	0.20614888
169	0x3e9a6c1b	0.30160603
170	0x3e1ea5a7	0.15492879
171	0x3eaf44d3	0.34232196
172	0x3ead6001	0.33862308
173	0x3e14134e	0.14460489
174	0x3e129a73	0.1431673
175	0x3dc7c1e6	0.0975378
176	0xbd16ed29	-0.036847267
177	0xbefa3ce1	-0.48874572
178	0xbf4045c8	-0.7510648
179	0xbefe36b2	-0.49651104
180	0xbf6887ca	-0.908322
181	0xbf83211f	-1.0244483
182	0xbf31bdc4	-0.69430184
183	0xbeaa8f4f	-0.3331246
184	0xbea17db1	-0.31541207
185	0xbe3cbe9d	-0.18432088
186	0xbe0437c6	-0.12911901
187	0xbe36ed6e	-0.1786401
188	0xbe77f53d	-0.24214645
189	0xbd6021ee	-0.054719858
190	0x3d3568e6	0.044289492
191	0xbc86e246	-0.016465317
192	0xbddb5c11	-0.1071092
193	0xbde8823d	-0.11352966
194	0xbdfdefa6	-0.12399225
195	0xbe265992	-0.16245106
196	0x3d23739f	0.039905187
197	0xbdaa36b6	-0.083112165
198	0xbe16dc05	-0.14732368
199	0xbd746d4f	-0.059674557
200	0xbd0bd09f	-0.034134503
201	0x3da26fd7	0.07931488
202	0x3e0468a4	0.12930542
203	0x3e3efa4a	0.18650165
204	0xbe2e3a6f	-0.17014478
205	0xbd6a34ec	-0.057179376
206	0xbe0b3053	-0.13592653
207	0xbefa465d	-0.48881808
208	0xbe877af2	-0.26460987
209	0xbe12002b	-0.14257877
210	0x3c9b4471	0.018953534
211	0x3e28e176	0.16492257
212	0x3e1b0469	0.15138401
213	0xbe664166	-0.22485885
214	0x3cd70a2a	0.026249964
215	0xbd82e5fa	-0.06391521
216	0xbd8ad327	-0.06778555
217	0x3e0182c3	0.12647538
218	0x3c74cb71	0.014941082
219	0xbdcbd5df	-0.09952902
220	0x3d6c3756	0.05766996
221	0xbc861ddf	-0.016371666
222	0x3d1d380c	0.03838353
223	0x3bc1cd4d	0.0059143663
224	0xbdab420c	-0.08362207
225	0xbe8f30bf	-0.27966878
226	0xbe46bb54	-0.19407398
227	0xbebb8d29	-0.36631134
228	0x3d436bcb	0.04771022
229	0x3d8f2c69	0.069908924
230	0x3e3a0942	0.18167594
231	0x3c936064	0.017990299
232	0xbcf0e6e6	-0.029406976
233	0x3c5c9981	0.013464333
234	0x3d90d5e7	0.07072049
235	0xbe026cf1	-0.1273687
236	0x3cf710ba	0.030159343
237	0x3e5e70d7	0.21722732
238	0x3e7e1ccf	0.24815677
239	0x3e2eddab	0.17076747
240	0xbe001905	-0.12509544
241	0xbd9201b3	-0.0712923
242	0xbe259493	-0.16169958
243	0x3d9d7063	0.07687452
244	0x3e56848a	0.20948997
245	0x3d9d21da	0.07672472
246	0xbd675eeb	-0.056487005
247	0x3e0b9d8c	0.13634318
248	0x3d15d26a	0.03657762
249	0xbd8e64b2	-0.069528
250	0x3cbfcaa6	0.02341206
251	0xbc46ff8a	-0.012145886
252	0xbdd9c31b	-0.106329165
253	0xbde96590	-0.11396325
254	0xbe5e12b4	-0.21686822
255	0xbdea0381	-0.114264496

Variable_1/read f4 [4]
0	0x3f2c2942	0.67250454
1	0x3edd22b3	0.43190536
2	0xbe814d29	-0.2525418
3	0xbe275394	-0.16340476

Variable_10/read f4 [16]
0	0x3ee6753b	0.45011315
1	0x3d2ea5f1	0.042638723
2	0xbefa1f79	-0.48852137
3	0x3fcdab9e	1.6067998
4	0xbf88fa63	-1.0701412
5	0x3ff207b3	1.89086
6	0xbd4f934d	-0.050677586
7	0x3ec32189	0.38111523
8	0x3eb43e06	0.3520357
9	0xbfdef8b1	-1.7419645
10	0x3f194fa2	0.59887135
11	0x3e1d1fd4	0.15344173
12	0xbdbd3f62	-0.09240605
13	0xbea2f69d	-0.31828776
14	0x3ead8571	0.3389087
15	0x3ec8f882	0.39252096

Variable_11/read f4 [16]
0	0x3f661135	0.89870006
1	0x3fb62659	1.4230453
2	0x3f14f073	0.58179396
3	0x3f63dbbe	0.89007175
4	0x3f44551c	0.76692367
5	0x3f196ae5	0.59928733
6	0x3fd4b785	1.6618506
7	0x3f2acaca	0.6671568
8	0x3fc26b53	1.5189003
9	0x3f3d9ddb	0.74068993
10	0x3f7e24d6	0.9927496
11	0x3f887162	1.0659602
12	0x3f44d2d6	0.7688421
13	0x3faa2c35	1.3294741
14	0x3f78144b	0.96905965
15	0x3f883cdd	1.0643574

Variable_12/read f4 [16, 3, 3, 16]
0	0x3dd141d8	0.10217637
1	0xbeb263b5	-0.34841695
2	0x3e1ffe39	0.15624322
3	0x3ca65bf7	0.020307524
4	0xbe3d482e	-0.18484566
5	0xbe00a747	-0.12563811
6	0xbee17bb6	-0.44039696
7	0xbe112a54	-0.14176303
8	0xbe3026db	-0.17202322
9	0xbece851a	-0.40335923
10	0xbe81f955	-0.25385538
11	0x3e6a5a45	0.22885998
12	0xbe84c10f	-0.25928542
13	0x3e041e68	0.12902224
14	0xbeb1c6e2	-0.34722048
15	0xbf09a97c	-0.5377424
16	0x3efa6281	0.48903278
17	0x3e823cf8	0.2543714
18	0x3e4a231b	0.19739954
19	0x3ef34d7f	0.47520062
20	0xbe93cfd0	-0.28869486
21	0x3e43ee63	0.19133906
22	0xbe9b9758	-0.30388904
23	0xbe21236b	-0.15736167
24	0x3e4f8565	0.2026573
25	0xbe1ba24d	-0.15198632
26	0xbe4f6a72	-0.2025545
27	0x3ec78f8d	0.38976708
28	0x3d43b9fd	0.047784794
29	0xbd50f933	-0.051018905
30	0xbe9dc24c	-0.308123
31	0x3f4ed66e	0.80795944
32	0x3f24a2bf	0.6431083
33	0xbb59c9a2	-0.0033231755
34	0x3e2315dc	0.15926307
35	0x3d8e336b	0.06943401
36	0xbefd3913	-0.49457607
37	0xbe028aae	-0.12748215
38	0x3f0a7761	0.5408841
39	0xbeb3d061	-0.35119918
40	0x3ec459ac	0.38349664
41	0x3dbb1ff7	0.09136956
42	0xbe494653	-0.19655733
43	0x3eaa2ef4	0.33238947
44	0xbe92e9ee	-0.286941
45	0x3f0d055b	0.55086297
46	0x3e01db80	0.12681389
47	0x3e23794d	0.15964241
48	0xbe3c757e	-0.18404195
49	0xbf0c16cd	-0.5472229
50	0x3dd3b70f	0.1033765
51	0xbf3189e2	-0.6935102
52	0xbdf13ced	-0.11779199
53	0xbea9d901	-0.33173373
54	0xbdb610dd	-0.08889935
55	0x3cd6ced2	0.026221666
56	0x3e11051c	0.14162105
57	0xbf09ca9d	-0.5382479
58	0xbf1060c5	-0.5639766
59	0xbe9074e8	-0.28214192
60	0xbd2e7306	-0.042590164
61	0xbdc3dc17	-0.09563463
62	0xbf079b83	-0.5297167
63	0xbf163110	-0.58668613
64	0x3d81e16f	0.06341826
65	0x3e469e1b	0.1939625
66	0x3c93f10c	0.018059276
67	0xbea96912	-0.33087975
68	0x3e254904	0.16141135
69	0x3f614bf3	0.88006514
70	0xbc04183a	-0.008062417
71	0x3eb71479	0.35757807
72	0x3e176215	0.14783509
73	0xbe8763be	-0.26443285
74	0x3e26f4c6	0.16304311
75	0xbe5e9e8e	-0.21740171
76	0x3af099d3	0.001835639
77	0x3c707409	0.014676102
78	0xbef55bff	-0.4792175
79	0x3e9f4dd3	0.31114063
80	0xbe546911	-0.20743205
81	0x3cfd9d42	0.030958775
82	0xbceabd43	-0.0286547
83	0xbec07fee	-0.37597603
84	0xbecdf3a7	-0.40224954
85	0xbe3e4cf2	-0.1858404
86	0x3fa20721	1.2658426
87	0x3ee00478	0.4375341
88	0x3ef16076	0.47143906
89	0xbe064c59	-0.13115062
90	0x3e62d31e	0.22150847
91	0xbdc94056	-0.09826724
92	0xbdf9d3be	-0.1219859
93	0x3f0d31d2	0.55154145
94	0x3f259c09	0.64691216
95	0xbe23ed78	-0.16008556
96	0xbf0b7da3	-0.5448858
97	0xbd9fa545	-0.077951945
98	0x3e6aee54	0.22942477
99	0xbe1928c6	-0.1495696
100	0xbea37e6d	-0.31932393
101	0xbd9521bc	-0.07281825
102	0xbca0d2b8	-0.019631729
103	0xbd417a84	-0.04723598
104	0xbeb0efb8	-0.3455789
105	0xbe8e5992	-0.27802712
106	0xbe86fc2a	-0.2636426
107	0xbf490025	-0.78515846
108	0xbdb8e8e7	-0.090287976
109	0xbe437b40	-0.19089985
110	0x3d0faf87	0.035079505
111	0xbf054c19	-0.5206924
112	0xbe88ea9c	-0.26741493
113	0x3e9d044b	0.30667338
114	0x3cea7d6c	0.028624259
115	0x3d00b6d9	0.031424377
116	0x3ed814f2	0.4220348
117	0x3f4d049d	0.80085164
118	0xbf88dbcf	-1.069208
119	0x3e48c461	0.19606163
120	0xbead2e60	-0.33824444
121	0xbee67f10	-0.45018816
122	0x3de0ec99	0.109826274
123	0xbecd84f2	-0.40140492
124	0x3f06c0fd	0.52638227
125	0x3c90b729	0.017665463
126	0xbd457012	-0.04820258
127	0x3e670877	0.22561823
128	0xbf0749b7	-0.52846855
129	0x3e29fefd	0.16601177
130	0xbe5cb351	-0.21552779
131	0x3eacf884	0.33783352
132	0xbe97595a	-0.29560357
133	0xbe972203	-0.29518136
134	0xbe3f06dd	-0.18654962
135	0xbf154474	-0.58307576
136	0xbf49fa89	-0.7889791
137	0xbe3d2165	-0.1846977
138	0x3da148a0	0.0787518
139	0x3c4acc89	0.012377867
140	0x3c3acdae	0.011401577
141	0x3ee56f37	0.44811413
142	0x3e956a8c	0.2918285
143	0xbdc004c1	-0.09375907
144	0x3d392c18	0.045208067
145	0x3ed2f1a7	0.4119999
146	0xbd909d54	-0.07061258
147	0xbd6bfcbc	-0.057614073
148	0xbe29946f	-0.16560529
149	0x3d4f1755	0.05055936
150	0x3c82cafb	0.01596593
151	0x3db9e045	0.09075979
152	0x3deea34d	0.11652241
153	0xbe4b6c99	-0.19865645
154	0xbe12b572	-0.14327028
155	0x3cd1ee8d	0.025626445
156	0x3e7849ad	0.24246855
157	0xbdfebbb8	-0.12438148
158	0x3f279278	0.6545787
159	0x3efe6578	0.4968679
160	0xbe213d22	-0.15745977
161	0x3f018a8f	0.5060205
162	0xbe8c6c18	-0.2742622
163	0xbea4cfd6	-0.32189816
164	0xbe0db996	-0.13840327
165	0xbe759c84	-0.23985487
166	0xbf982501	-1.1886293
167	0x3c84a25e	0.016190704
168	0xbc222a69	-0.009897807
169	0x3da43b1b	0.08019086
170	0xbd05a422	-0.032627232
171	0xbe654e9c	-0.22393268
172	0x3e7e75c5	0.24849613
173	0xbeb7666e	-0.35820335
174	0xbf35db2d	-0.7103756
175	0xbe5fd7ca	-0.2185966
176	0xbd0f2e55	-0.034956295
177	0x3e33df1a	0.17565575
178	0x3e4ef02c	0.20208806
179	0x3e853b64	0.26021874
180	0x3de072d9	0.109594055
181	0x3f019610	0.506196
182	0x3f1570b8	0.5837512
183	0x3e96bd50	0.2944131
184	0xbdc22612	-0.094799176
185	0xbe80308c	-0.25037038
186	0xbe2b3a57	-0.16721474
187	0x3efb8bfe	0.49130243
188	0x3e45c438	0.19313133
189	0x3f0ea0ac	0.55713916
190	0x3f1c6167	0.61086124
191	0x3e389bb3	0.18028145
192	0xbedbd914	-0.42939055
193	0xbe5b4b66	-0.21415481
194	0x3e5d1086	0.21588334
195	0xbc8dca09	-0.017308252
196	0x3e242413	0.16029386
197	0xbd41245b	-0.047153812
198	0x3cbf616d	0.023361886
199	0xbe362c57	-0.17790352
200	0xbec0f155	-0.37684122
201	0x3eac8bf7	0.33700535
202	0x3f34db89	0.70647484
203	0x3eef0696	0.46684712
204	0xbe6fffd4	-0.23437434
205	0xbec89f34	-0.39183962
206	0xbeeeb45b	-0.46621975
207	0xbf001c06	-0.5004276
208	0x3cbb4d6e	0.02286407
209	0x3f6c15d4	0.9222081
210	0x3d91e9df	0.071246855
211	0x3c31b103	0.010845426
212	0x3dd45742	0.103682056
213	0x3e334f6a	0.17510763
214	0x3eda5ca3	0.426488
215	0xbd73b30d	-0.059496928
216	0x3f356fa8	0.708735
217	0x3eaa298d	0.33234826
218	0xbf1d1685	-0.6136249
219	0xbf152355	-0.5825704
220	0xbcac245b	-0.02101343
221	0xbf327f42	-0.6972543
222	0x3d526cc3	0.051373255
223	0x3ec82bc0	0.3909588
224	0xbde7f440	-0.11325884
225	0xbe7f1846	-0.24911603
226	0x3ee9582f	0.4557509
227	0x3f2e919c	0.6819093
228	0xbe2a0940	-0.16605091
229	0xbe523aed	-0.20530291
230	0xbe763e01	-0.2404709
231	0xbdca30d7	-0.09872597
232	0xbe0ec5c0	-0.13942623
233	0x3e605cd9	0.21910419
234	0x3f3f1058	0.74634314
235	0xbeaac724	-0.33355057
236	0x3e21a965	0.15787275
237	0x3ed00308	0.40627313
238	0x3f0c0c12	0.5470592
239	0xbef09663	-0.46989736
240	0x3d6bcd13	0.05756862
241	0x3eff7070	0.4989047
242	0xbe3f76e6	-0.186977
243	0xbf14b2d3	-0.58085364
244	0x3ed43364	0.41445458
245	0x3e603806	0.21896371
246	0xbeab685e	-0.33478063
247	0x3e35db36	0.17759404
248	0x3e1ffbf0	0.1562345
249	0x3f3a7730	0.72838116
250	0xbec3b904	-0.38227093
251	0xbebf4003	-0.37353525
252	0xbe28b7cc	-0.16476363
253	0xbeb5b8d8	-0.35492587
254	0xbe0d7aae	-0.1381633
255	0xbe1b5bc2	-0.15171722

Variable_13/read f4 [16]
0	0x3e865010	0.26232958
1	0xbcb111ac	-0.021614872
2	0xbe0d6607	-0.13808452
3	0x3cabdb14	0.020978488
4	0x3eb155ca	0.34635764
5	0x3f35efa1	0.7106877
6	0xbbfaf56b	-0.0076586506
7	0xbd9a9de1	-0.07549644
8	0x3e9c5436	0.30532998
9	0x3e145198	0.1448425
10	0xbe5a69fa	-0.2132949
11	0xbe4a11cc	-0.19733351
12	0x3c9fdc3d	0.019514197
13	0xbc1f21ac	-0.009712618
14	0xbeea255c	-0.45731628
15	0x3ec913c5	0.39272895

Variable_14/read f4 [16]
0	0x3f37543b	0.716129
1	0x3f5bfdf5	0.8593438
2	0x3f1bdcee	0.60883987
3	0x3f4db172	0.80348885
4	0x3f17a774	0.5923989
5	0x3efe5fb0	0.4968238
6	0x3f3fc7fd	0.7491453
7	0x3f2cbcb7	0.67475456
8	0x3f4d8015	0.8027356
9	0x3f032a46	0.5123638
10	0x3f52bfa9	0.823237
11	0x3f8b9ed1	1.0907842
12	0x3f370f96	0.7150816
13	0x3f1a9dd4	0.60397077
14	0x3f34ec6e	0.70673263
15	0x3f248e4b	0.6427962

Variable_15/read f4 [16, 3, 3, 16]
0	0xbeeb2de3	-0.45933446
1	0x3c2c0584	0.010499362
2	0xbf0dcf00	-0.5539398
3	0xbe806064	-0.2507354
4	0x3ce7cf29	0.028297024
5	0x3e2b6456	0.16737494
6	0xbf904878	-1.1272116
7	0xbe4beb19	-0.19913901
8	0xbe92d7a1	-0.28680137
9	0xbdffca5d	-0.124897696
10	0x3db94530	0.090463996
11	0x3d636514	0.055516317
12	0x3edadad1	0.4274507
13	0xbc473d1f	-0.0121605685
14	0xbe5ffe16	-0.2187427
15	0x3ea691ce	0.32533115
16	0xbea473b3	-0.32119521
17	0x3edbacc6	0.42905253
18	0xbe637bc4	-0.22215182
19	0x3df8d154	0.12149301
20	0xbeeeaa46	-0.46614283
21	0x3e5639ef	0.20920537
22	0xbf2a5dd3	-0.66549414
23	0xbe45ac63	-0.19304042
24	0xbed1e596	-0.40995473
25	0x3de6771a	0.112531856
26	0xbeb80b1d	-0.3594598
27	0x3e4e9fd1	0.20178153
28	0x3df0effb	0.11764523
29	0xbed0d0d0	-0.4078431
30	0xbdeb52b5	-0.114903845
31	0x3d2a353e	0.041554682
32	0xbe299722	-0.16561559
33	0x3e7665ac	0.24062222
34	0xbdd644ef	-0.10462367
35	0xbe9faa38	-0.31184554
36	0xbe20f83b	-0.15719692
37	0xbce0ab2a	-0.027425367
38	0xbf15a0bc	-0.58448386
39	0x3d00808e	0.0313726
40	0xbe353dc7	-0.17699347
41	0xbd461abb	-0.048365336
42	0x3dba775e	0.09104799
43	0xbd2ed9f4	-0.042688325
44	0x3f032fed	0.51245004
45	0xbeaf8a91	-0.34285405
46	0xbf120ad1	-0.57047755
47	0x3ee8277c	0.45342624
48	0x3edbef2b	0.42955908
49	0x3ee263dd	0.44216815
50	0xbeacf0c0	-0.33777428
51	0xbed03eea	-0.40673
52	0x3eb8565d	0.3600339
53	0x3f31bc93	0.69428366
54	0xbea02336	-0.31276864
55	0xbd474967	-0.048653986
56	0xbd67b3b3	-0.05656786
57	0x3f4d96d6	0.8030828
58	0xbe32ace0	-0.17448759
59	0x3eb0c906	0.3452837
60	0x3d60f51a	0.054921247
61	0xbd094b9c	-0.033519372
62	0x3e82b2f8	0.25527167
63	0x3f44c1a4	0.7685797
64	0x3f1f3038	0.6218295
65	0x3f572e9c	0.84055495
66	0xbe0c16c6	-0.13680562
67	0xbe8be07d	-0.27319708
68	0x3ec7719e	0.3895387
69	0x3e9739b5	0.29536214
70	0xbe10a8fd	-0.14126964
71	0xbd04176b	-0.032248896
72	0xbec95bfd	-0.39327994
73	0x3f227188	0.63454485
74	0xbe776261	-0.24158622
75	0x3f337f79	0.7011638
76	0xbd15cf21	-0.036574487
77	0xbe051123	-0.12994818
78	0x3cad3f5c	0.021148376
79	0x3f89c500	1.0763245
80	0x3ec56eec	0.3856119
81	0xbb321eb8	-0.0027178954
82	0xbdf3a520	-0.118967295
83	0xbed3aa40	-0.41340828
84	0x3f1160fd	0.5678862
85	0x3e927b6b	0.28609785
86	0xbe2f6901	-0.171299
87	0x3e545552	0.20735672
88	0xbdadb8ba	-0.084824994
89	0xbecfebab	-0.40609488
90	0x3d92acd5	0.07161871
91	0x3db08bf6	0.086204454
92	0x3cd994b1	0.02656016
93	0xbdd9c498	-0.106332004
94	0xbcee189f	-0.029064475
95	0x3ea7d8de	0.32782644
96	0xbe097540	-0.13423634
97	0xbeef37ba	-0.46722203
98	0x3f12acab	0.5729472
99	0xbe06b5e1	-0.13155319
100	0x3eb099eb	0.3449243
101	0x3ede77b8	0.43450713
102	0xbe26a81b	-0.16275065
103	0xbda7ba77	-0.08189862
104	0xbef95a27	-0.48701593
105	0x3f04ad4b	0.51826924
106	0xbeddb865	-0.43304744
107	0x3b578b91	0.0032889585
108	0x3eb7a913	0.3587118
109	0xbf0f949a	-0.56086123
110	0x3e0d6a2d	0.13810034
111	0x3c270429	0.010193863
112	0x3f28711c	0.6579759
113	0x3f0ce5fc	0.5503843
114	0x3e81a5d9	0.25321844
115	0x3e9ae44b	0.302523
116	0x3ee555f0	0.44792128
117	0x3f13a27c	0.57669806
118	0x3e262f4d	0.16228981
119	0x3de7858d	0.1130477
120	0xbe23f873	-0.16012745
121	0x3d93cf13	0.07217231
122	0xbf3f27cb	-0.74670094
123	0xbf215e7a	-0.63034785
124	0x3e6a4f05	0.22881706
125	0xbe5d7cfb	-0.21629708
126	0xbdd0b4c6	-0.1019073
127	0x3e53781a	0.20651284
128	0x3ea33d14	0.31882536
129	0x3e437c76	0.19090447
130	0xbe63e9c7	-0.22257148
131	0x3f0ea3fa	0.5571896
132	0x3e71ee17	0.2362598
133	0x3eebfba9	0.4609044
134	0x3f429027	0.7600121
135	0x3dd8b77d	0.105818726
136	0x3e318593	0.17336111
137	0xbef7eea2	-0.4842425
138	0xbf0c74ab	-0.5486552
139	0xbe929dc2	-0.28635985
140	0x3f0afda0	0.5429325
141	0xbe6a6ed5	-0.22893842
142	0x3d5ee328	0.05441585
143	0xbd74b8bd	-0.059746493
144	0x3f0893e7	0.5335068
145	0x3d614653	0.054998707
146	0xbe08ddda	-0.1336588
147	0xbe9c4808	-0.30523705
148	0xbe18bd23	-0.149159
149	0x3df53b23	0.1197417
150	0xbe16b53f	-0.14717577
151	0x3ec821f5	0.39088407
152	0x3f1ef770	0.6209631
153	0xbe28abfd	-0.16471858
154	0xbdeca637	-0.115551405
155	0x3f29b413	0.66290396
156	0x3f4a72f5	0.7908166
157	0xbe147380	-0.14497185
158	0x3ed12bb4	0.40853655
159	0x3e77c60a	0.2419664
160	0xbe936ad8	-0.28792453
161	0xbf2eada0	-0.6823368
162	0xbd832908	-0.064043105
163	0xbe1fa172	-0.1558893
164	0xbef32b45	-0.4749395
165	0xbebe8c50	-0.37216425
166	0xbe70cc58	-0.23515451
167	0x3eea1602	0.45719916
168	0x3d850102	0.06494333
169	0x3e82b061	0.2552519
170	0x3e247fdc	0.160644
171	0x3d1e0014	0.038574293
172	0x3f060345	0.5234874
173	0xbdc27187	-0.0949431
174	0x3f1b6a20	0.6070881
175	0x3e6ce91c	0.23135799
176	0x3e91909e	0.28430647
177	0xbed0381f	-0.40667817
178	0xbe4344d4	-0.19069225
179	0x3ea74ea8	0.32677197
180	0xbf2820c8	-0.6567502
181	0xbe6ea079	-0.23303403
182	0xbe0f2bcc	-0.13981551
183	0x3d681bfd	0.056667317
184	0xbef4354e	-0.47696918
185	0xbe92a5ea	-0.28642207
186	0x3f01a77d	0.5064619
187	0xbe7e0d86	-0.24809846
188	0xbe442b28	-0.19157088
189	0xbe82e11a	-0.25562364
190	0x3d8e15ee	0.069377765
191	0xbc309438	-0.010777526
192	0x3ee01920	0.4376917
193	0x3d785408	0.060627013
194	0x3ef63a1d	0.48091212
195	0xbe1688b8	-0.14700592
196	0x3eb6c884	0.35699856
197	0x3ec2eabf	0.38069722
198	0xbf06ec35	-0.52704173
199	0x3de46fa0	0.11154103
200	0x3c83dc3d	0.016096229
201	0xbd731f39	-0.059355948
202	0xbf24abab	-0.64324445
203	0x3e5a289c	0.21304554
204	0xbe0c4279	-0.13697232
205	0x3d970220	0.07373452
206	0x3d810141	0.06299067
207	0x3cd3b832	0.025844667
208	0x3ee87e6e	0.45408958
209	0x3f0de151	0.5542193
210	0xbe5b0a43	-0.21390633
211	0x3e89f554	0.26944983
212	0x3db37912	0.08763327
213	0xbeda2c3a	-0.42611867
214	0x3e0af236	0.13568959
215	0x3ea847d5	0.32867303
216	0x3dbf1b9b	0.09331437
217	0x3dc0d88b	0.09416302
218	0xbe19bf7e	-0.15014455
219	0xbee7dcce	-0.45285648
220	0x3e8e2158	0.27759814
221	0x3f61b209	0.88162285
222	0xbdb84d9b	-0.08999177
223	0x3fd1ee34	1.6400819
224	0xbf0375b3	-0.5135147
225	0xbea51644	-0.3224355
226	0x3e69baed	0.22825213
227	0x3dc76e0e	0.09737788
228	0xbef6c5c9	-0.48197773
229	0x3f33be1f	0.70211977
230	0xbe77b9b5	-0.24191935
231	0x3ea97102	0.3309403
232	0xbef6b8d8	-0.481879
233	0xbe3fca93	-0.1872962
234	0x3fb952f3	1.4478439
235	0x3e868d5c	0.26279724
236	0x3e340763	0.17580943
237	0xbf257a5c	-0.6463983
238	0xbd029841	-0.031883482
239	0x3eada442	0.3391438
240	0xbded52b2	-0.115880385
241	0x3e6c23b7	0.23060499
242	0xbdf6fffa	-0.120605424
243	0xbe2aaa07	-0.16666423
244	0x3e8a4392	0.27004677
245	0x3e0119dd	0.12607522
246	0xbe76bb62	-0.24094918
247	0x3d8f5cb8	0.070001066
248	0x3d8edf0b	0.06976136
249	0x3eb195a6	0.34684485
250	0xbeb4c39d	-0.3530549
251	0x3e8e4ed7	0.27794525
252	0xbeb9f59d	-0.363202
253	0x3e4dccdc	0.20097679
254	0x3e89f5dc	0.26945388
255	0x3d191524	0.037373677

Variable_16/read f4 [16]
0	0x3e565d4b	0.20934026
1	0xbf0133b9	-0.5046955
2	0xbf0b81a4	-0.5449469
3	0xbd7dd735	-0.061972816
4	0xbf656aa1	-0.8961583
5	0x3ebefeef	0.37303874
6	0xbe537315	-0.20649369
7	0x3ea36afe	0.31917566
8	0xbd4f6a0c	-0.050638244
9	0x3e15a0bb	0.14612095
10	0x3e84c13e	0.25928682
11	0x3e826101	0.25464633
12	0xbea07005	-0.31335464
13	0x3f0dd710	0.55406284
14	0x400d0797	2.2035882
15	0xbfc8b761	-1.5680963

Variable_17/read f4 [16]
0	0x3f4afd89	0.79293114
1	0x3f82aba6	1.0208633
2	0x3f620d27	0.8830132
3	0x3f4f76a9	0.81040436
4	0x3f590b0a	0.8478247
5	0x3f48c959	0.7843223
6	0x3fc9227c	1.5713649
7	0x3f846eef	1.0346354
8	0x3f81733a	1.0113289
9	0x3f30c119	0.69044644
10	0x3f5a1c2e	0.8519925
11	0x3fa299f2	1.270323
12	0x3f886314	1.0655236
13	0x3f720519	0.9453903
14	0x3f44e3be	0.76910007
15	0x3f7043ca	0.9385344

Variable_18/read f4 [16, 3, 3, 16]
0	0x3e9234e6	0.28555983
1	0x3e0c7fe1	0.13720657
2	0x3e8cff93	0.27538738
3	0x3e9a470e	0.30132335
4	0xbea253bb	-0.31704506
5	0xbed27061	-0.41101363
6	0xbe7f7e24	-0.24950463
7	0x3cc03f51	0.023467692
8	0x3e0813b9	0.13288774
9	0x3e4a19c2	0.19736388
10	0xbd94b47f	-0.072609894
11	0xbf39e8dc	-0.7262094
12	0x3e193a4c	0.14963645
13	0xbf25e09d	-0.6479586
14	0xbe5d751b	-0.21626703
15	0xbe991a63	-0.29902944
16	0xbdf33bbb	-0.11876627
17	0x3c43fcd9	0.011962139
18	0xbcbec706	-0.023288261
19	0xbdee64c6	-0.11640315
20	0xbeac5afc	-0.33663166
21	0xbf187f9f	-0.59569734
22	0xbe894ab0	-0.26814795
23	0xbf047603	-0.5174257
24	0xbd2efb9d	-0.042720426
25	0x3eb2638c	0.34841573
26	0xbe31b240	-0.17353153
27	0xbea6fa7b	-0.32612976
28	0x3e21b8e6	0.1579319
29	0xbf2416ce	-0.640973
30	0xbeef1157	-0.46692917
31	0x3df17df9	0.117916055
32	0xbe7da6a7	-0.24770604
33	0x3e8c3acc	0.27388608
34	0xbeaa437f	-0.3325462
35	0xbce560a0	-0.028000176
36	0xbe357c17	-0.17723118
37	0x3deb4788	0.11488253
38	0xbd73e8ad	-0.05954807
39	0xbe484ae9	-0.19559826
40	0xbe9ff2ef	-0.3124003
41	0x3c0d69f2	0.008631216
42	0xbdd677f2	-0.104720965
43	0x3efbb3fa	0.4916075
44	0xbe9dc2a3	-0.3081256
45	0x3d105840	0.03524041
46	0xbf792570	-0.9732275
47	0x3e4ad51b	0.19807856
48	0x3f138d30	0.5763731
49	0x3e970e26	0.29502982
50	0x3dbd142f	0.09232365
51	0x3e9c234a	0.30495673
52	0x3ca11e37	0.019667728
53	0x3d9f5e9f	0.077817194
54	0xbd70f6da	-0.058829166
55	0xbe93a4fd	-0.28836814
56	0x3dc01648	0.0937925
57	0x3d8f1bd9	0.069877334
58	0xbe89ee67	-0.269397
59	0xbf7842af	-0.9697675
60	0x3ea2a7ac	0.31768548
61	0xbf0a806f	-0.54102224
62	0x3dc9788f	0.09837448
63	0xbece9e4e	-0.40355152
64	0x3dad5dc7	0.08465152
65	0xbc761bc9	-0.015021273
66	0x3d808d0b	0.06276902
67	0xbcfe8963	-0.03107137
68	0xbdfdbd60	-0.12389636
69	0xbedfad10	-0.43686724
70	0x3e6e93a7	0.23298512
71	0xbef9eb2a	-0.48812228
72	0xbeba373c	-0.36370265
73	0xbef26560	-0.47342968
74	0xbebb8eaa	-0.36632282
75	0xbef1f14c	-0.47254407
76	0x3ebfb7bc	0.37444866
77	0xbde92132	-0.11383285
78	0xbe700e0b	-0.23442857
79	0xbba36807	-0.0049867663
80	0xbe845994	-0.25849593
81	0xbe2fc3d2	-0.17164543
82	0xbdb78f5c	-0.089628905
83	0x3d2284e6	0.039677523
84	0xbdb549f6	-0.088519976
85	0xbe94626b	-0.28981337
86	0x3ede4f65	0.43419948
87	0xbd93b58a	-0.0721236
88	0x3c4a4bd3	0.012347179
89	0xbee6fcb6	-0.45114678
90	0x3c45c017	0.012069724
91	0x3ed7abaa	0.42123157
92	0xbb791ef6	-0.003801284
93	0x3f014243	0.5049173
94	0xbf577469	-0.84162
95	0x3de07f28	0.10961753
96	0x3f1b0450	0.60553455
97	0x3d989612	0.07450499
98	0x3d6670e8	0.05626002
99	0x3efc36c9	0.49260548
100	0xbf24dd61	-0.644003
101	0xbeb98e9b	-0.36241612
102	0xbdc71078	-0.09719938
103	0xbf24f85a	-0.64441454
104	0xbea95060	-0.33069134
105	0x3ed47587	0.41495916
106	0xbdbbfd7b	-0.09179207
107	0xbf505e44	-0.8139384
108	0x3dbd1b6a	0.092337444
109	0xbee593d2	-0.4483934
110	0x3e22035d	0.15821595
111	0xbf10283f	-0.5631141
112	0x3f0c08b6	0.5470079
113	0xbe894551	-0.26810697
114	0x3d206468	0.039158255
115	0xbc6445de	-0.013932673
116	0xbec7e95d	-0.3904523
117	0xbecb39df	-0.3969259
118	0x3eb17609	0.34660366
119	0xbf17070d	-0.58995134
120	0x3b4bcfdc	0.0031099236
121	0xbe8a655f	-0.27030465
122	0xbe275a29	-0.16342987
123	0xbf02ddf6	-0.51119936
124	0x3e69ba4a	0.2282497
125	0xbe66d1e4	-0.22541004
126	0xbe9b0dfd	-0.3028411
127	0xbd4a837b	-0.049441796
128	0x3e00ff00	0.12597275
129	0xbe4dc811	-0.2009585
130	0xbda9c75f	-0.0828998
131	0xbced7938	-0.028988466
132	0xbe95b573	-0.29239997
133	0xbedf14e3	-0.43570623
134	0x3ec3df92	0.38256508
135	0xbe8b2490	-0.27176332
136	0xbd5f477d	-0.054511536
137	0xbeddf713	-0.43352565
138	0xbeb31c16	-0.34982365
139	0x3ede7b3c	0.43453395
140	0xbe8f3115	-0.27967134
141	0x3f30bac2	0.6903497
142	0xbf7802ab	-0.9687907
143	0x3ecd7ba2	0.40133387
144	0xbcc3a3d8	-0.023881838
145	0x3dbf3f61	0.093382604
146	0xbc039f5e	-0.008033602
147	0x3db32fa6	0.087493226
148	0xbf02b9a4	-0.51064515
149	0xbe568b0b	-0.20951478
150	0x3e0f393f	0.13986681
151	0xbec0e171	-0.37671998
152	0xbc3be48d	-0.011468065
153	0x3c8d52b8	0.017251357
154	0x3eb7bfd0	0.3588853
155	0xbf241428	-0.64093256
156	0xbeffd652	-0.499682
157	0xbe775b3e	-0.241559
158	0x3eea440e	0.45755047
159	0x3e40dd07	0.18834315
160	0xbf1f0c4e	-0.6212815
161	0xbf027d58	-0.5097251
162	0xbf108157	-0.56447357
163	0xbebdb013	-0.37048396
164	0xbf014121	-0.50490004
165	0x3d4ed3bc	0.050494894
166	0xbe92bae7	-0.2865822
167	0xbed1c8a5	-0.40973392
168	0xbe02d26d	-0.12775584
169	0x3e750d38	0.23930824
170	0x3e35b1db	0.17743628
171	0xbdef57eb	-0.11686691
172	0x3e1af139	0.15131082
173	0xbe93a2a3	-0.2883502
174	0x3eb01ebf	0.34398457
175	0x3e2c538b	0.16828744
176	0xbe6d7bba	-0.23191729
177	0x3eb0bd44	0.34519398
178	0xbf03d2a7	-0.51493305
179	0x3ea52f57	0.3226268
180	0xbf33b148	-0.70192385
181	0x3e18122f	0.14850686
182	0xbe5d079c	-0.21584934
183	0x3cf23762	0.029567424
184	0x3ebbde64	0.36693108
185	0x3ee721f4	0.45143092
186	0xbcbfc5c5	-0.023409734
187	0x3eda0842	0.42584425
188	0x3cc804dd	0.024416381
189	0xbf047fc7	-0.5175747
190	0x3e80774c	0.25091016
191	0xbe6cf182	-0.23139003
192	0x3d13291c	0.035927877
193	0x3ca03800	0.019557953
194	0xbdb2d537	-0.08732074
195	0x3d987859	0.074448295
196	0xbe79474b	-0.24343602
197	0x3e15954c	0.14607733
198	0x3f12dc22	0.57367146
199	0xbf33dbaa	-0.70257056
200	0xbb5e3aaf	-0.003390949
201	0xbc553c95	-0.013014932
202	0xbded8f49	-0.11599595
203	0xbe538b4d	-0.20658608
204	0xbed2ddd5	-0.4118487
205	0xbe75237c	-0.23939317
206	0x3e268543	0.16261773
207	0x3d9409c9	0.07228429
208	0xbe8fa76a	-0.28057414
209	0xbdecee99	-0.115689464
210	0xbdf51ba5	-0.119681634
211	0xbee2b0d2	-0.44275528
212	0xbe3eba5a	-0.18625775
213	0xbe5718ee	-0.21005604
214	0x3ec2ffd7	0.38085815
215	0xbf0f340e	-0.55938804
216	0x3e1b6504	0.15175253
217	0xbdc5fc98	-0.09667319
218	0xbf0792a0	-0.52958107
219	0xbeb6b2c7	-0.3568327
220	0xbf6ec28a	-0.93265593
221	0xbea8c1b3	-0.3296028
222	0xbd9f6b6a	-0.077841595
223	0xbf97aaee	-1.1849039
224	0xbacc4c43	-0.0015586693
225	0xbf06919d	-0.5256594
226	0xbf03e375	-0.51518947
227	0x3ecaff3d	0.39647856
228	0xbe8830e9	-0.26599815
229	0xbe2d33c0	-0.16914272
230	0x3d628256	0.05530008
231	0x3eb19c32	0.3468948
232	0xbec9304c	-0.3929466
233	0x3e30bd63	0.17259745
234	0xbe8ef818	-0.27923656
235	0xbf5a4fd1	-0.8527804
236	0x3eb02b7c	0.34408176
237	0xbf1b351c	-0.60627913
238	0xbec12eab	-0.37730917
239	0xbe1b8585	-0.15187652
240	0x3e9c2b37	0.3050172
241	0x3f120176	0.5703348
242	0xbec88b31	-0.39168695
243	0x3e4a5906	0.19760522
244	0x3f29362b	0.6609828
245	0x3e5ac539	0.21364297
246	0x3d1b949d	0.037983526
247	0x3e735c60	0.23765707
248	0xbe3bb289	-0.18329825
249	0x3eae0d3e	0.33994478
250	0x3f0bbbd3	0.5458347
251	0xbe962597	-0.29325554
252	0xbe5fff08	-0.2187463
253	0xbe595a12	-0.21225765
254	0x3f50d681	0.81577307
255	0x3f47182f	0.77771276

Variable_19/read f4 [16]
0	0x3e86500f	0.26232955
1	0xbcb1140d	-0.021616006
2	0xbe0d65ed	-0.13808413
3	0x3cabdbc6	0.02097882
4	0x3eb155ee	0.34635872
5	0x3f35ef97	0.7106871
6	0xbbfaf663	-0.007658766
7	0xbd9a9d99	-0.075495906
8	0x3e9c5417	0.30532905
9	0x3e1451a8	0.14484274
10	0xbe5a69fe	-0.21329495
11	0xbe4a124a	-0.19733539
12	0x3c9fdb44	0.019513734
13	0xbc1f1fcc	-0.009712171
14	0xbeea2562	-0.45731646
15	0x3ec913d8	0.39272952

Variable_2/read f4 [4]
0	0x3f327a5d	0.6971796
1	0x3fb4e664	1.413281
2	0x3faa6311	1.3311483
3	0x3f738efc	0.9514005

Variable_20/read f4 [16]
0	0x3f816345	1.010842
1	0x3ec3d5aa	0.3824895
2	0x3f3a4d03	0.7277376
3	0x3f69f575	0.9139016
4	0x3f00f4eb	0.50373715
5	0x3f4c9b3f	0.79924387
6	0x3f447f3c	0.76756644
7	0x3f2803a6	0.6563057
8	0x3f26f5b7	0.6521868
9	0x3f6cc959	0.9249473
10	0x3f4ed483	0.8079302
11	0x3f3e7072	0.7439033
12	0x3f3694cf	0.71320814
13	0x3f629c49	0.8851972
14	0x3f17a026	0.5922874
15	0x3f50402d	0.81347924

Variable_21/read f4 [16, 3, 3, 16]
0	0xbe312fe1	-0.1730342
1	0xbe7eeaa7	-0.248942
2	0xbe8b63c0	-0.2722454
3	0x3e0fd47b	0.14045899
4	0xbcc20335	-0.02368317
5	0xbe845501	-0.25846103
6	0xbe05eb91	-0.13078143
7	0x3cc225de	0.023699697
8	0x3e800fa4	0.25011933
9	0x3d7aeb94	0.06125982
10	0xbe830f25	-0.25597492
11	0xbdc5ea37	-0.096638136
12	0x3dca019e	0.0986359
13	0xbe896d75	-0.26841322
14	0xbe15cbea	-0.14628568
15	0xbcd265ae	-0.02568325
16	0xbccbea23	-0.024891919
17	0xbd03521a	-0.03206072
18	0xbde4dfdb	-0.111755095
19	0x3dd9ea34	0.10640374
20	0xba8214e4	-0.0009924439
21	0xbf132ea3	-0.57493037
22	0xbc828a54	-0.0159351
23	0xbd1be192	-0.038056917
24	0x3ea3c081	0.31982806
25	0xbe6e7eb2	-0.23290518
26	0xbf029df5	-0.51022273
27	0x3d870766	0.06593208
28	0x3e98548a	0.29751998
29	0xbec8125e	-0.39076513
30	0xbdd574ac	-0.10422644
31	0xbe2de361	-0.1698127
32	0xbe6f224d	-0.23352928
33	0x3e233fa7	0.1594225
34	0xbe7d6365	-0.24744947
35	0x3e8f3a0d	0.27973977
36	0xbe66b171	-0.22528626
37	0xbebaacf3	-0.36460075
38	0x3ca8cde0	0.020605981
39	0x3de4490f	0.11146747
40	0x3e10a962	0.14127114
41	0xbeb9111b	-0.36145863
42	0xbf0e1355	-0.5549825
43	0x3def0d72	0.11672486
44	0x3db47c15	0.08812729
45	0xbef897e6	-0.4855339
46	0xbd918d77	-0.071070604
47	0xbee8d492	-0.45474678
48	0xbe41ae12	-0.18914059
49	0xbe8162e2	-0.25270754
50	0xbdc330c2	-0.09530784
51	0x3e384765	0.17995985
52	0xbe394ceb	-0.18095748
53	0xbcc5a035	-0.024124244
54	0xbd18d835	-0.037315566
55	0xbe2ea123	-0.17053656
56	0x3edb0a91	0.427815
57	0x3d871ab7	0.06596892
58	0xbf33434a	-0.7002455
59	0x3d81b3d0	0.06333125
60	0x3cb57c0b	0.022153875
61	0xbe025338	-0.12727058
62	0x3c1a7e56	0.009429535
63	0xbe204b67	-0.15653764
64	0xbd782340	-0.060580492
65	0x3d57253d	0.052525748
66	0x3d8be79e	0.06831287
67	0xbceab008	-0.028648391
68	0xbe15eadc	-0.14640373
69	0xbe607cc4	-0.21922594
70	0xbc407d9d	-0.011748699
71	0xbda8eb0a	-0.08247955
72	0x3eb086f0	0.3447795
73	0xbe37924a	-0.17926899
74	0xbf11fa75	-0.5702279
75	0xbdd81ad8	-0.10551995
76	0x3e8c0031	0.27343896
77	0xbe66222d	-0.22473975
78	0x3e75fdc0	0.24022579
79	0xbe0bfb28	-0.13670027
80	0xbe84ab6c	-0.25912035
81	0xbcbb3d43	-0.02285636
82	0xbd95fc1f	-0.07323479
83	0xbd09faaf	-0.033686336
84	0xbd8d14a7	-0.06888705
85	0xbe9953dc	-0.29946792
86	0xbe4a68fa	-0.19766608
87	0x3e082932	0.13296965
88	0x3eaf31da	0.3421772
89	0xbe2f72da	-0.17133656
90	0xbecba34a	-0.39773017
91	0x3e480f38	0.19537055
92	0xbe54ef58	-0.20794427
93	0xbeb0c2a0	-0.34523487
94	0x3cf8552b	0.030314049
95	0xbed1d42d	-0.4098219
96	0xbddc71b7	-0.10763877
97	0xbe45d044	-0.19317728
98	0x3d5ec70b	0.05438904
99	0x3d2d8cb1	0.042370502
100	0xbe717d3f	-0.23582934
101	0xbe926788	-0.28594613
102	0x3de39fa4	0.111144334
103	0xbf0558cf	-0.52088636
104	0x3e834aa9	0.256429
105	0x3e5dbcf9	0.21654119
106	0xbed314a1	-0.41226676
107	0xbd5c01e9	-0.05371276
108	0xbd9b7bd1	-0.075919755
109	0xbd9dfdda	-0.07714434
110	0xbe8265d3	-0.2546831
111	0xbead3515	-0.3382956
112	0xbc31bb78	-0.010847919
113	0xbeb02a7b	-0.3440741
114	0x3cd2cc02	0.025732044
115	0xbe9c1aac	-0.304891
116	0xbe0891ca	-0.13336864
117	0xbebcbde0	-0.36863613
118	0xbe6242ed	-0.22095843
119	0xbe75cbad	-0.24003477
120	0x3eb417f2	0.3517452
121	0x3e107ba2	0.14109662
122	0xbefb98ea	-0.49140102
123	0xbc9d0f1a	-0.01917224
124	0xbd13ad63	-0.036054026
125	0xbe55c4d9	-0.20875873
126	0xbe5c4837	-0.21511923
127	0xbee84073	-0.4536167
128	0xbd7de66b	-0.06198732
129	0xbdd40706	-0.10352902
130	0xbe63f7c4	-0.22262484
131	0x3e0c0256	0.13672766
132	0xbd52e3d4	-0.051486805
133	0xbef4469c	-0.4771012
134	0xbe80b1b0	-0.25135565
135	0x3dd0a5d7	0.101878814
136	0x3df1a6e0	0.11799407
137	0x3e86ac95	0.26303545
138	0xbef6c999	-0.48200682
139	0xbc4a132b	-0.012333672
140	0xbe311ad2	-0.17295387
141	0xbdc846d7	-0.09779137
142	0xbc9ab138	-0.018883333
143	0xbe86938c	-0.26284444
144	0x3ecc1a76	0.39863938
145	0xbc8d6dfd	-0.01726436
146	0x3dde86a2	0.10865523
147	0x3d84d18c	0.064852804
148	0x3da5f80c	0.08103952
149	0x3b18576e	0.0023245472
150	0x3d559ba0	0.05215037
151	0xbed2dd51	-0.41184476
152	0x3e42b13d	0.19012924
153	0x3f0ce98d	0.5504387
154	0xbed368f8	-0.41291022
155	0xbee9e5fc	-0.45683277
156	0xbe98c24c	-0.29835737
157	0xbe7ae5d6	-0.24501738
158	0x3e3d434c	0.18482703
159	0x3f4acc61	0.7921811
160	0x3e85c329	0.26125458
161	0x3c0d21ff	0.008614062
162	0xbee4c7ff	-0.44683835
163	0x3df4eda3	0.11959388
164	0x3f19a5e5	0.6001876
165	0x3e7b4bb5	0.24540599
166	0x3e1387e7	0.14407311
167	0xbe3ee3b4	-0.1864155
168	0xbe758a06	-0.23978433
169	0x3ee4276d	0.4456133
170	0xbe9cb8c8	-0.30609727
171	0xbc0c0259	-0.008545482
172	0xbe4a728e	-0.19770262
173	0xbe0574ea	-0.1303288
174	0x3ec02188	0.37525582
175	0x3f3c781d	0.7362078
176	0xbf40db7b	-0.753349
177	0xbe90c6f3	-0.28276786
178	0xbd1cfaac	-0.038324997
179	0x3dc9a987	0.09846788
180	0x3efad1d7	0.4898822
181	0x3e5127af	0.20425294
182	0x3e6b9886	0.23007402
183	0x3e778f43	0.24175744
184	0xbe4c94fe	-0.19978711
185	0xbf03f399	-0.51543576
186	0x3dc2f942	0.095201984
187	0xbe86cf3d	-0.26329985
188	0xbe178927	-0.14798413
189	0x3dc1bf87	0.09460359
190	0x3ec0bb13	0.37642726
191	0xbec0cdc6	-0.37656993
192	0x3d96e6e7	0.0736826
193	0xbf2c5c44	-0.67328286
194	0x3f0a781c	0.5408952
195	0xbd31741f	-0.043323632
196	0x3f07124d	0.527623
197	0x3d87fcd1	0.06640018
198	0x3d3c7998	0.0460144
199	0x3e0cd69f	0.13753746
200	0xbe559ec0	-0.2086134
201	0xbf56200b	-0.83642644
202	0xbd0fd225	-0.03511252
203	0xbdb9a174	-0.09063998
204	0xbe3aea6c	-0.18253487
205	0xbecab4dc	-0.3959111
206	0xbf3e3eab	-0.74314374
207	0xbea852e6	-0.32875746
208	0x3de71553	0.11283364
209	0x3f15792c	0.5838802
210	0x3e1df34a	0.15424839
211	0x3efe42b4	0.49660265
212	0x3e13a53f	0.14418505
213	0xbe099a1f	-0.13437699
214	0x3ea8ce1e	0.32969755
215	0x3e7a883a	0.24466029
216	0x3e8baa49	0.27278355
217	0x3f3da90e	0.7408608
218	0x3e733b9f	0.23753212
219	0xbf1f6163	-0.62257975
220	0xbc6d2f9a	-0.014476681
221	0xb9043ef0	-0.00012611947
222	0x3eced17b	0.40394196
223	0xbc8a5b68	-0.016889289
224	0x3d4f44ef	0.05060285
225	0xbf08f383	-0.5349657
226	0xbeaabaeb	-0.33345732
227	0x3ea3b992	0.31977516
228	0xbeeb2b11	-0.45931295
229	0x3ed33ce2	0.41257387
230	0xbe3f774d	-0.18697853
231	0xbf3e27ef	-0.74279684
232	0xbe5a8985	-0.21341522
233	0x3fbe5f04	1.4872746
234	0x3f64217f	0.8911361
235	0xbe8466a4	-0.2585956
236	0x3e735693	0.23763494
237	0x3ecd9419	0.40152052
238	0x3eacb004	0.3372804
239	0xbc1874ea	-0.009305218
240	0xbe9fe777	-0.3123128
241	0xbeaff6df	-0.34368035
242	0xbf02eb0c	-0.51139903
243	0xbe133459	-0.14375438
244	0x3f32b50e	0.6980752
245	0x3ef05775	0.46941724
246	0x3f1f0859	0.6212211
247	0xbe1d65dc	-0.15370888
248	0xbf1c8f0d	-0.6115578
249	0x3f72241b	0.9458634
250	0x3d1d258e	0.038365893
251	0xbf0b59b7	-0.5443377
252	0x3f3521ef	0.70754904
253	0xbe81fcf7	-0.2538831
254	0x3f1f6062	0.62256444
255	0x3e595410	0.21223474

Variable_22/read f4 [16]
0	0xc0170353	-2.359578
1	0xbf4969c1	-0.7867699
2	0xbd59e976	-0.05320116
3	0xbf345b32	-0.70451653
4	0xc0220a7a	-2.5318894
5	0x3e45dc5d	0.19322343
6	0x3e671b56	0.22569022
7	0x3e1a7d4f	0.15086864
8	0x3fb7e9e2	1.436825
9	0x3e5d749c	0.21626514
10	0xbe78ec4b	-0.24308889
11	0xbe21a619	-0.15786017
12	0xbfbca00a	-1.473634
13	0xbe927670	-0.28605986
14	0x3ece6fb7	0.40319607
15	0xbfc08354	-1.5040078

Variable_23/read f4 [16]
0	0x3ed68998	0.4190185
1	0x3fcd1c1d	1.6024204
2	0x3f6e022a	0.9297205
3	0x3f28543a	0.6575352
4	0x3ee1cb41	0.44100383
5	0x3f709f91	0.9399348
6	0x3f595712	0.84898484
7	0x3f4e08f5	0.8048242
8	0x3f1dc3bf	0.6162681
9	0x3f3fa0c3	0.7485468
10	0x3fa76187	1.3076638
11	0x3f8b7036	1.0893619
12	0x3e3d1cb2	0.18467978
13	0x3f50643a	0.81402934
14	0x3f230299	0.6367584
15	0x3f8b0695	1.0861384

Variable_24/read f4 [16, 3, 3, 16]
0	0x3d5e9df5	0.05434986
1	0xbdda8e76	-0.106717035
2	0xbe74e734	-0.23916322
3	0xbe9ec0ea	-0.31006557
4	0x3c10a67e	0.008828757
5	0x3de02f5a	0.109465316
6	0xbe36e5de	-0.17861125
7	0xbe873da5	-0.2641422
8	0xbe247681	-0.1606083
9	0xbdfad62d	-0.12247882
10	0xbdf78ffa	-0.12088008
11	0x3f1a3dde	0.6025065
12	0x3dae891b	0.085222445
13	0xbf0016d0	-0.5003481
14	0xbf097fb9	-0.53710514
15	0xbd555e23	-0.05209173
16	0xbe583ac0	-0.21116161
17	0x3e7a9ff2	0.24475077
18	0xbef706c4	-0.4824735
19	0x3e57fa8b	0.21091668
20	0xbe22bd59	-0.15892543
21	0xbe8f9b0b	-0.28047976
22	0x3e1f636f	0.15565275
23	0x3cb177d1	0.021663578
24	0x3e3541d1	0.17700888
25	0xbdb457ed	-0.08805833
26	0xbe9a82f5	-0.30178037
27	0xbe1e90f7	-0.15484987
28	0xbd2aa241	-0.041658644
29	0xbeaf0011	-0.34179738
30	0xbf2118c6	-0.62928426
31	0xbec3a6a2	-0.38213068
32	0xbdfee325	-0.12445668
33	0x3f0aaac7	0.54166836
34	0xbe898b9a	-0.2686432
35	0xbe2f73d6	-0.17134032
36	0x3cf73d8d	0.030180717
37	0xbed2abcd	-0.411467
38	0xbef7d69c	-0.4840592
39	0x3e5b24d7	0.21400772
40	0xbdb8ec8c	-0.09029493
41	0xbda5d322	-0.08096911
42	0xbe1d1a75	-0.15342124
43	0xbed89486	-0.42300814
44	0xbe12e8b5	-0.14346583
45	0x3dc32506	0.09528546
46	0xbe5b20d8	-0.21399248
47	0xbe9abf06	-0.30223864
48	0x3ea9ff38	0.3320253
49	0xbf3501c1	-0.707058
50	0x3f18545b	0.59503716
51	0xbdc75589	-0.097331114
52	0x3e4eb306	0.2018548
53	0x3f473f07	0.7783055
54	0xbe3caf34	-0.1842621
55	0xbf0ca157	-0.54933685
56	0x3de45c3c	0.11150405
57	0xbeadf4cd	-0.3397583
58	0x3e445fcd	0.1917717
59	0xbe10bd94	-0.14134818
60	0x3d9dc2a6	0.07703142
61	0xbeadfc52	-0.33981568
62	0x3ce132e2	0.027490083
63	0x3eeb1cea	0.45920497
64	0xbe6b0f0f	-0.22954963
65	0xbefd277e	-0.49444193
66	0xbe21181a	-0.1573185
67	0x3e34668b	0.17617242
68	0xbe0f8328	-0.14014876
69	0x3e480074	0.19531423
70	0x3eefa6cc	0.46806943
71	0x3e499bbe	0.19688317
72	0x3b794a59	0.00380387
73	0xbf62a425	-0.88531715
74	0x3eaf8d7e	0.34287637
75	0xbf047a65	-0.5174926
76	0x3d53895a	0.05164466
77	0xbc71ddef	-0.014762386
78	0x3df40be6	0.11916332
79	0xbe2a4d28	-0.16630995
80	0x3d797951	0.060906712
81	0x3ea9e30b	0.33181033
82	0x3eb840b6	0.3598687
83	0xbf0bdd38	-0.5463443
84	0x3ef154cc	0.47135007
85	0x3f368e05	0.71310455
86	0xbf0c09b6	-0.5470232
87	0xbe245fd8	-0.16052186
88	0xbe432be7	-0.19059716
89	0x3e6be940	0.23038197
90	0x3f11edf3	0.57003707
91	0xbed005ad	-0.4062933
92	0x3ddab091	0.106782086
93	0xbdf817b9	-0.121139
94	0xbe1fd82c	-0.15609807
95	0x3ea19fde	0.3156728
96	0x3e1864d8	0.14882219
97	0x3f029190	0.5100336
98	0xbe9b5e00	-0.30345154
99	0x3e370ab4	0.17875177
100	0x3e135213	0.14386778
101	0xbeaac91f	-0.33356568
102	0x3ebd41fd	0.36964408
103	0x3abb6062	0.0014295692
104	0xbd7f7285	-0.062365074
105	0x3f108857	0.5645804
106	0xbeb67ee5	-0.35643688
107	0x3ec10c12	0.3770452
108	0x3b847f28	0.0040434785
109	0xbf964588	-1.1739969
110	0xbee9373a	-0.45549947
111	0xbedfabf5	-0.4368588
112	0xbe143a6b	-0.1447541
113	0xbcbf49d1	-0.023350628
114	0x3ec93831	0.39300683
115	0x3e32ca01	0.17459871
116	0xbe4f4286	-0.2024022
117	0x3d5985ff	0.053106304
118	0xbd3decc8	-0.04636839
119	0x3ed435fb	0.41447434
120	0x3c019cd6	0.007910928
121	0x3e35f82f	0.17770456
122	0xbe93cb3a	-0.28865987
123	0xbf05d958	-0.52284765
124	0x3df14e5a	0.117825225
125	0xbef4113c	-0.476694
126	0x3b2ec3f2	0.0026667085
127	0xbe9eb596	-0.30997914
128	0x3e602232	0.21888044
129	0xbf4b2c17	-0.7936415
130	0x3e05fc51	0.13084532
131	0xbe5bea77	-0.2147616
132	0x3e77d211	0.24201228
133	0x3e1b0286	0.15137681
134	0xbf9c328d	-1.2202927
135	0x3e910aa7	0.2832844
136	0xbe740fa2	-0.23834088
137	0x3e6740e6	0.2258335
138	0x3f02e84a	0.51135695
139	0x3d4e4393	0.050357413
140	0x3e84741a	0.25869828
141	0xbe5f64b2	-0.21815756
142	0xbe8b35f8	-0.27189612
143	0x3e7b6896	0.24551615
144	0x3ea72d80	0.326519
145	0xbe50e1fa	-0.20398703
146	0x3ef95a4e	0.4870171
147	0x3bc20da5	0.0059220367
148	0xbe715a2d	-0.23569556
149	0xbf4534e1	-0.7703381
150	0x3e6d608e	0.23181364
151	0xbc35006d	-0.011047465
152	0x3ea01e5e	0.31273168
153	0xbe6e43af	-0.23268007
154	0x3ec33a4d	0.38130417
155	0xbeeccf59	-0.46251944
156	0x3d2d5218	0.04231462
157	0x3ee95507	0.45572683
158	0xbe1b8f3c	-0.15191358
159	0xbe960106	-0.29297656
160	0x3e191bd4	0.14952022
161	0x3dedd12e	0.116121635
162	0x3ea8972f	0.32927844
163	0x3e0d1e27	0.13781033
164	0x3dda5a83	0.10661795
165	0xbf6806f0	-0.90635586
166	0xbe8e58f5	-0.27802244
167	0x3e3d3d13	0.18480329
168	0x3e23c7b0	0.15994143
169	0x3ed967e8	0.42462087
170	0x3e177f6e	0.14794704
171	0x3dbce4ee	0.092233524
172	0x3dbb5d0e	0.09148608
173	0x3c3fcbb7	0.011706284
174	0xbe537087	-0.20648395
175	0xbd0eb307	-0.034838703
176	0x3e28b3a0	0.16474771
177	0x3e1fd609	0.15608992
178	0xbc878c28	-0.016546324
179	0xbd7b0551	-0.061284367
180	0x3e3f3a86	0.18674669
181	0xbed6a040	-0.41919136
182	0xbe92f8e9	-0.28705528
183	0xbe7fd811	-0.24984767
184	0x3f1b16c4	0.6058161
185	0x3cbaf2d9	0.022820877
186	0xbec74f2b	-0.38927588
187	0x3ecb854c	0.39750135
188	0x3e5e5355	0.21711476
189	0x3f24b65c	0.6434076
190	0xbde9ed54	-0.1142222
191	0x3ea5eae2	0.32405764
192	0x3ea13ee7	0.31493303
193	0xbd161064	-0.036636725
194	0x3f0adf76	0.54247224
195	0x3efa3711	0.48870137
196	0x3ca6edd1	0.020377072
197	0xbf787911	-0.9705973
198	0x3da35626	0.07975416
199	0xbe0a1266	-0.13483581
200	0x3cce9969	0.025219636
201	0x3f3a2068	0.727057
202	0x3e8a6025	0.27026477
203	0xbe771763	-0.24130015
204	0x3d66e514	0.05637081
205	0x3e90acf1	0.28256944
206	0xbe4e1e4e	-0.20128748
207	0xbeb4338c	-0.35195577
208	0x3e37ca5c	0.17948288
209	0xbe3df371	-0.18549897
210	0xbe820bea	-0.25399715
211	0xbe975681	-0.29558185
212	0x3e5c0bc4	0.21488863
213	0xbee65c45	-0.4499227
214	0x3e52b2cb	0.20576017
215	0xbe49a320	-0.19691133
216	0x3d2d376d	0.042289186
217	0x3e01554a	0.12630191
218	0x3e157db9	0.1459874
219	0xbe9ea08e	-0.30981869
220	0x3e0107f9	0.12600698
221	0x3ea46833	0.32110748
222	0xbe2f64db	-0.17128317
223	0x3e145efa	0.14489356
224	0x3e77f413	0.242142
225	0x3e74d3d3	0.2390893
226	0x3de3d812	0.111251965
227	0x3df19de7	0.117976956
228	0x3e507105	0.20355614
229	0xbf4fdb6a	-0.81194174
230	0x3e6586a5	0.22414644
231	0xbec750b8	-0.3892877
232	0x3ebf242f	0.37332293
233	0x3eba1455	0.36343637
234	0x3c778e1f	0.015109568
235	0x3efb0c40	0.49032784
236	0x3dd02d2f	0.10164868
237	0x3f11a8c5	0.56898147
238	0xbe780d0e	-0.2422373
239	0x3ecb0faf	0.39660403
240	0x3df350b6	0.11880629
241	0xbcab4ba7	-0.020910097
242	0xbed0521f	-0.40687653
243	0xbe843d90	-0.25828218
244	0x3e80a14c	0.2512306
245	0x3d7c55d0	0.061605275
246	0xbe8bef57	-0.2733104
247	0xbe04c3de	-0.12965342
248	0x3f4e7250	0.8064318
249	0x3dfd946d	0.123818256
250	0x3e3d08dc	0.18460411
251	0xbe406b08	-0.18790829
252	0xbd26d452	-0.04072983
253	0x3e515688	0.20443165
254	0xbf22d266	-0.6360229
255	0x3ec385c8	0.38188004

Variable_25/read f4 [16]
0	0x3e86501d	0.26232997
1	0xbcb112ec	-0.021615468
2	0xbe0d6609	-0.13808455
3	0x3cabdbdd	0.020978862
4	0x3eb15602	0.3463593
5	0x3f35ef97	0.7106871
6	0xbbfaf696	-0.00765879
7	0xbd9a9db3	-0.0754961
8	0x3e9c543b	0.30533013
9	0x3e1451a0	0.14484262
10	0xbe5a69ec	-0.21329468
11	0xbe4a1262	-0.19733575
12	0x3c9fda72	0.019513343
13	0xbc1f1f22	-0.0097120125
14	0xbeea2554	-0.45731604
15	0x3ec913ca	0.3927291

Variable_26/read f4 [16]
0	0x3f44ee64	0.76926255
1	0x3f460e04	0.77365136
2	0x3fb9bbe0	1.451046
3	0x3f5a6c91	0.8532191
4	0x3f8edfdd	1.1162068
5	0x3f9f7793	1.2458366
6	0x3f191ae0	0.59806633
7	0x3f95913a	1.1684945
8	0x3f3e641b	0.743715
9	0x3f8f76e0	1.1208153
10	0x3eff8f71	0.49914125
11	0x3f24c77b	0.64366883
12	0x3f195f0d	0.5991066
13	0x3f3bef68	0.7341218
14	0x3f977bdf	1.1834677
15	0x3fab7a8f	1.3396777
