examples/style_transfer/model/sien_with_a_cigar.onnx (onnx, 133912 bytes, 48 tensors)

Variable_9/read/_47__cf__47:0 f4 [16, 16, 3, 3]
000000 bf 63 b9 be 1e af 2c 3e 88 b9 17 3f 66 28 96 be
       -0.36208913 0.16863677 0.59267473 -0.29327697
000010 9d cb 91 be 41 2e cf 3d 77 b1 7a be f2 ec 9f 3e
       -0.28475657 0.10116244 -0.2448176 0.31235462
000020 8f 24 f5 3e ed 2f 8f bc 67 45 7e be 5f f7 6a 3e
       0.47879454 -0.017478907 -0.24831162 0.22945927
000030 5f b7 3e 3e a3 9e 9d 3d 95 53 f8 3d 6d 2e 26 3e
       0.18624638 0.07696273 0.12125317 0.16228648
000040 b9 e7 09 bf 92 b9 e6 3d 35 70 a5 bd d8 a6 0e bf
       -0.53869206 0.112658635 -0.080780424 -0.55723333
000050 0c 4e 6f bb 8b fe a6 be e9 34 24 bf e7 c9 f1 3e
       -0.0036515025 -0.32616076 -0.64143234 0.47224352
000060 8c be 85 be f3 71 70 be f2 7a 43 3e 26 1d 22 3e
       -0.26121938 -0.23480968 0.19089869 0.15831432
000070 48 1b 39 bb a5 b8 8a 3e 31 23 b7 3e 27 d5 29 bf
       -0.002824502 0.27093998 0.35769036 -0.6634087
000080 c2 04 98 be 45 ac a2 3e 58 bd 9a be fc e6 07 3f
       -0.2969113 0.31772056 -0.30222583 0.5308683
000090 20 c9 07 be 31 56 0b 3d ac 99 90 3e 60 5c 1b 3e
       -0.13260317 0.034017745 0.28242242 0.15171957
0000a0 b4 42 c2 be e9 8c ca 3d a7 c7 80 be f6 47 0e bc
       -0.37941515 0.09890158 -0.25152323 -0.008684149
0000b0 e0 26 c9 3e e9 73 5d 3b 39 a8 24 3d 63 ed d8 3b
       0.39287472 0.0033791012 0.040199492 0.0066200956
0000c0 27 8b ba 3e 07 2f 46 3d d5 a1 cd be 3a 34 2b be
       0.3643429 0.048384693 -0.4016253 -0.16719142
0000d0 7e 39 85 bd 86 90 6c 3e fb 26 8b 3e fa 6c 30 bd
       -0.065051064 0.23102006 0.27178177 -0.04307268
0000e0 49 53 52 3e a0 92 93 be 7b 8e d9 3e 27 84 94 3e
       0.20539583 -0.28822803 0.42491516 0.29007074
0000f0 de a1 d6 3e 66 d3 d3 3e 1e 0a ab be 52 e1 52 bc
       0.4192037 0.41372222 -0.33406156 -0.012871103
000100 02 85 59 3e c2 ea 9e bd c5 2a 3d 3e ef 37 29 3d
       0.21242145 -0.0775962 0.18473347 0.041313108
000110 41 cd 8a be bb 0e 6d 3d 12 43 28 3e 73 4b 0e 3d
       -0.2710972 0.057875376 0.16431835 0.034739923
000120 5a 9f 70 bd d7 07 bc 3c d9 40 c5 bc ff d8 4c 3e
       -0.05874572 0.022952957 -0.024078773 0.20004652
000130 c7 7e 23 be 3b 2e 40 3e 97 9a aa 3e e5 37 54 3e
       -0.1596633 0.18767636 0.33321068 0.20724447
000140 48 c5 02 3e 3c eb 9a 3e f2 a0 0f bf 22 df 68 3d
       0.1277057 0.30257595 -0.5610496 0.05685342
000150 1b 1b 16 be 40 81 9e be 25 18 e2 3c 6b 42 b0 3e
       -0.14658777 -0.30957985 0.027599404 0.34425673
000160 bd 38 86 bd c8 6b 5d bd 7d fd 35 bf 6a 8b 3b be
       -0.06553791 -0.054057866 -0.7108992 -0.18314901
000170 61 ad 00 3f 87 1f b8 bd 9c 58 d4 3d 65 0f 14 3f
       0.50264555 -0.08990388 0.103684634 0.5783599
000180 7e a0 02 bd de 39 0f 3f 79 cd 9a 3e 65 2e 06 bd
       -0.03189134 0.55947673 0.30234888 -0.03275909
000190 30 aa f3 bf 56 01 9d bf ca a5 82 be 52 3f b7 bf
       -1.9036312 -1.2266033 -0.25517112 -1.4316199
0001a0 f6 44 4d bf ab f1 d3 bc d7 5e 18 be 14 4a 96 be
       -0.8018335 -0.025872072 -0.14879929 -0.29353392
0001b0 f5 10 0a 3f 83 c9 d5 bd 05 a9 1c 3e 81 55 da 3e
       0.53932124 -0.10438826 0.15298851 0.4264336
0001c0 c3 f7 32 bf 92 8c 54 be 76 46 aa 3e 89 11 06 3d
       -0.69909304 -0.20756748 0.33256882 0.032731567
0001d0 b8 44 82 3e 93 7b b6 be a7 ef 8c bf 22 43 de be
       0.25443053 -0.35641155 -1.1010636 -0.43410593
0001e0 8b 3b 1c bf 2c 1d f4 bf 2a 5e 94 bf 08 28 49 be
       -0.61028355 -1.9071403 -1.1591237 -0.19644177
0001f0 53 d4 9c bf 6a 3a aa be c6 33 10 be 8d 32 fa 3d
       -1.2252296 -0.3324769 -0.1408225 0.12216673
000200 c1 6a c3 bd d3 20 31 bd 37 da be 3e 89 72 f9 3c
       -0.09541846 -0.043244194 0.3727586 0.030450122
000210 89 c2 17 3e 83 b9 94 be 51 81 c0 bb 5e 43 43 3d
       0.14820303 -0.29047784 -0.0058747907 0.04767167
000220 79 4e af 3d f7 ce bc 3e 4d f0 af 3e de 59 6e be
       0.08559889 0.36876652 0.34363022 -0.23276469
000230 92 04 04 bf 54 8d 3a be 5d 9d c5 3d bf 6e 58 3e
       -0.51569474 -0.18217975 0.09649155 0.21135996
000240 60 c1 03 3f 5f 83 11 3f bc 97 ca 3e 67 83 99 be
       0.5146694 0.5684108 0.3956889 -0.29983065
000250 e7 29 a4 bd 15 cb 96 3e 1c 39 5a bf 26 00 98 bf
       -0.08015805 0.29451814 -0.8524339 -1.1875045
000260 b0 bb 39 bf c3 ca 80 be 4d 2b a4 be 03 28 ba 3d
       -0.72552013 -0.25154695 -0.32064286 0.09089663
000270 ff 28 0d bf 90 2e 1a 3d d2 db 82 be 18 08 a6 3e
       -0.5514068 0.03764206 -0.25558335 0.3242805
000280 0b 95 e5 3e 51 cd 1d 3d 92 3a 35 be 08 aa 79 be
       0.44840273 0.038525883 -0.17698124 -0.24381268
000290 3c 81 10 be 00 9d 12 bf 63 a3 ff be c9 57 e0 bd
       -0.14111799 -0.57270813 -0.49929342 -0.10954244
0002a0 6f 4e 97 be 78 eb 7a bc 4f 3d 3e bb 5e ed e3 3e
       -0.29552028 -0.015314929 -0.0029028242 0.44517034
0002b0 4a 34 c4 3e 74 7a 4b 3e 8c 17 03 3f 17 39 e6 bd
       0.38321143 0.19870931 0.51207805 -0.11241358
0002c0 c8 96 bf 3e da b8 69 bf d0 e3 1b bf 95 82 68 be
       0.37419724 -0.91297686 -0.6089449 -0.22706063
0002d0 b2 e1 9c 3e 1d a0 43 3f 2b 9a bd 3e e4 d1 d6 be
       0.30640942 0.7641619 0.37031683 -0.4195701
0002e0 24 3a dc 3d c7 39 a2 3e 01 2a 4e be 39 4c 39 bf
       0.10753277 0.31684706 -0.2013321 -0.7238193
0002f0 ff af b3 3d 35 bb 76 be a9 76 0e 3d 30 8c 16 be
       0.08773803 -0.24094851 0.034781132 -0.14701915
000300 b5 51 0c 3e 4c a7 2a be 6e 7c 2e be 2c 4c 6a bd
       0.13703044 -0.16665381 -0.17039654 -0.05720155
000310 02 25 58 be 4d 54 25 3e 5c 52 91 3c 12 4f 13 3d
       -0.21107867 0.1614544 0.017739467 0.03596408
000320 3f 5f bd 3d 1a f0 68 bd 19 8f e0 3d a4 8f 0e 3e
       0.092466824 -0.056869604 0.10964794 0.13921982
000330 3b bb 82 be 8c bf a8 3e 3c 53 dd be ac 6c 47 3e
       -0.2553347 0.3295864 -0.43227565 0.19475049
000340 3c 15 e6 bd 2d d7 23 3e ff f2 d9 bc 9f 03 bf be
       -0.11234519 0.16000052 -0.026605127 -0.3730745
000350 34 77 bf 3d 54 eb 19 3d 69 00 96 be 02 bf 84 be
       0.09348908 0.037577942 -0.29297188 -0.25926977
000360 5e 74 99 3d f1 2f 18 3f e4 25 f6 3d f7 a8 4d be
       0.074928984 0.5944815 0.12018946 -0.20083986
000370 59 42 aa 3e 43 94 30 3c 86 41 a2 3e 11 de 1a bd
       0.33253744 0.010777536 0.31690615 -0.037809435
000380 fd 2b 3b bd 74 b9 b9 3d 41 26 39 be 84 3b 30 3f
       -0.045696247 0.090685755 -0.18080999 0.68840814
000390 ac 31 01 3d 22 72 0b bf 5c f6 38 bd 58 85 b0 be
       0.03154151 -0.5447103 -0.04515682 -0.34476733
0003a0 07 96 30 3e 64 6f da be 9f f4 18 3e b9 26 b8 3e
       0.17244731 -0.4266311 0.14937066 0.35967043
0003b0 17 bb eb be 6d 3f c6 3e f1 ee df 3e c1 bd db 3e
       -0.46041176 0.38720265 0.43736985 0.42918208
0003c0 56 b8 8c 3e fc 45 25 bf 93 8b ff 3c c8 1d 34 3d
       0.27484387 -0.6455991 0.031194484 0.043973714
0003d0 19 ec 06 bd 96 e0 83 3c 58 1b 07 bf e6 80 82 bf
       -0.032940004 0.016098302 -0.527761 -1.0195587
0003e0 2d d8 91 3e 39 fe fd bd bf bb 4f be 30 1f fc bd
       0.28485242 -0.12402005 -0.20286463 -0.12310636
0003f0 1c 38 3e be 94 6b e2 3d 36 a1 8c bd 95 2e 00 bf
       -0.18576092 0.11055675 -0.06866686 -0.5007108

Variable_8/read/_46__cf__46:0 f4 [1, 16, 1, 1]
000000 fc 6b ef 3e 04 b6 d0 3e 1f 4f 14 3f 80 fa c9 3e
       0.46762073 0.40763867 0.5793323 0.3944893
000010 2a 37 cb 3e 28 31 43 3f 3b c6 ee 3e 2a 74 68 3f
       0.39690524 0.7624688 0.46635613 0.9080225
000020 83 cd da 3e ae 05 af 3e f2 3a 32 3f 6f e8 13 3f
       0.42734918 0.3418402 0.69621193 0.5777654
000030 15 71 17 3f 82 d6 ef 3e 19 3d 00 3f ed 8e 63 3f
       0.59156924 0.46843344 0.5009323 0.8888996

Variable_7/read/_45__cf__45:0 f4 [1, 16, 1, 1]
000000 d9 7b a7 3e 60 92 84 3e f7 01 02 be a7 db aa 3e
       0.32711676 0.25892925 -0.12696062 0.33370706
000010 17 6d 1b 3e 9c f2 db 3e be 37 7b bd 3a fe 06 3c
       0.15178333 0.42958534 -0.061332457 0.008239323
000020 5b 34 b9 bc d4 41 54 bd 26 cd b7 3c a7 d3 33 bb
       -0.022607973 -0.05182059 0.02243669 -0.0027439387
000030 a5 5b 9a 3c 0b eb db 3c 37 cd e9 bd 19 94 39 3e
       0.018842528 0.026845476 -0.11416095 0.18122901

Variable_6/read/_44__cf__44:0 f4 [16, 8, 3, 3]
000000 63 e5 e4 bd bc 5b 5e 3e 16 f0 2b 3d a2 0c 6e 3d
       -0.111765645 0.21714681 0.04197701 0.058117516
000010 30 cb 15 3e 49 ec 05 3e 2a ed 93 3d c9 c4 5d be
       0.14628291 0.13078417 0.0722297 -0.21657099
000020 71 d5 78 3e 08 f6 c0 bd b0 0a 5b be 46 57 7e be
       0.24300171 -0.09421927 -0.21390796 -0.2483798
000030 3a c8 80 3c d0 8a 3a 3e 71 f8 9e 3d fb cd 83 bd
       0.015720475 0.18217015 0.0776223 -0.06435772
000040 b9 3f e1 3e 11 46 77 3e 55 13 55 3d 90 9a bb 3d
       0.4399393 0.24147822 0.05202039 0.0916034
000050 58 3b c1 bd 84 ee 30 3e 6c 8f 80 3f ce d7 08 3f
       -0.09435147 0.17278486 1.0043769 0.5345429
000060 aa 20 6a 3e b3 f7 8b 3f 86 a7 45 3f 23 e2 e3 3c
       0.22864023 1.0934967 0.77208745 0.027817791
000070 e6 85 88 3e 51 a1 27 bd b8 22 38 3e 6d d1 1e be
       0.26664656 -0.040925328 0.17981994 -0.15509577
000080 5e 5d 14 be 3a 85 c0 be 45 e1 ac be 16 98 be bd
       -0.14488742 -0.37601644 -0.33765617 -0.09306352
000090 4c b3 c7 bd f9 e7 07 be cd c2 2d be aa b1 01 3d
       -0.09750995 -0.13272084 -0.16968842 0.031663574
0000a0 99 34 0e be 50 1f ba 3b ae 1a 9c 3d 86 14 86 be
       -0.13887252 0.0056800023 0.07622276 -0.26187533
0000b0 20 ed 5e 3e 1b ac 93 be 2b 2d 14 bf ae 45 13 bf
       0.21770144 -0.28842244 -0.5788142 -0.575282
0000c0 42 8d 2f bf f9 a5 5f bf 18 1e 81 bf 81 9a 4b bf
       -0.6857492 -0.8736263 -1.0087309 -0.7953263
0000d0 4d df 44 bf 2e e3 41 bf 56 fc 08 bf ac e5 f4 be
       -0.7690323 -0.75737274 -0.53510034 -0.47831476
0000e0 b7 29 66 3e e5 8f f3 3c e3 c5 36 3d a4 14 57 3c
       0.2247685 0.0297317 0.044622313 0.01312748
0000f0 0e b0 a1 3d ce 0b 0f 3e 0a 95 57 3e 16 8b 95 be
       0.07894908 0.13969347 0.21052948 -0.29207677
000100 58 11 f3 3d 9d 7a 1b 3e 65 e9 4a 3e 2b 51 78 bc
       0.118685424 0.15183492 0.19815595 -0.015156071
000110 09 64 ab be 52 46 5a 3e f8 0b 0f 3c 70 4d e0 3d
       -0.33474758 0.21315888 0.008730881 0.1095227
000120 62 af 9c 3d 3f 4d 0d 3e e8 b6 a2 3e 90 68 48 bd
       0.07650639 0.13798998 0.3178017 -0.048927844
000130 f1 fd 0a 3f 66 e2 ef 3d 00 ff e6 3c 8b df 9f bc
       0.54293734 0.11713104 0.028197765 -0.019515773
000140 37 42 e3 3d ed c8 28 3e 48 02 19 3e 10 46 d0 3d
       0.11096614 0.16482897 0.14942276 0.10169613
000150 c2 a2 51 be 0d b7 7c be 62 8e ce ba 5e 0f 6b bd
       -0.20472243 -0.24679203 -0.0015758986 -0.057387702
000160 03 a3 83 bd 90 75 93 be f8 24 03 3e 97 af 89 3d
       -0.064275764 -0.2880063 0.12807071 0.06722944
000170 74 fa 40 be 88 44 52 3e bc 52 64 bb fe fa b1 bd
       -0.1884554 0.20533955 -0.0034839353 -0.08690451
000180 08 ad d6 3e db 75 a3 3d 38 43 69 bd f9 01 b0 3e
       0.41928887 0.079814635 -0.05694887 0.34376505
000190 c3 64 63 3e 16 c6 f9 bc d9 68 b9 3e f0 ae 85 3d
       0.22206406 -0.030489963 0.36212805 0.06527507
0001a0 dd 76 40 be 7b dc 95 bd 04 78 3c 3d 9a 10 84 3e
       -0.18795343 -0.07317444 0.046012893 0.25793916
0001b0 f8 34 0f bd 24 46 c0 be b7 55 23 bc 8e 78 09 be
       -0.034962624 -0.37553513 -0.0099691665 -0.13424894
0001c0 b1 14 63 3d 22 e9 82 3e e4 66 8a be e6 aa 16 bd
       0.055439655 0.2556849 -0.27031624 -0.036784075
0001d0 bd e0 a5 3d 1c 7e 19 bf 28 64 a1 3f 35 ac a5 3f
       0.08099506 -0.5995805 1.260869 1.2943178
0001e0 eb a5 41 bf 4a 3d 09 3f 9c 92 5d 3f b8 b5 67 bf
       -0.75643796 0.53609145 0.86551833 -0.90511656
0001f0 0e 03 b4 be df db f7 bd cd bd 89 be 8a 5d 28 bf
       -0.3515858 -0.12102484 -0.2690262 -0.6576773
000200 df 88 9a 3d 0a 74 9e bd 30 71 f9 be 41 5b 97 3e
       0.07545637 -0.077369764 -0.48719168 0.2956181
000210 61 10 1e bf 81 c3 9c be 10 4a a6 bd 4a 38 95 bd
       -0.6174374 -0.30617908 -0.08119595 -0.07286127
000220 a7 4f 16 3f c8 b9 36 3f 05 90 38 bd c7 41 76 3e
       0.5871529 0.7137723 -0.045059223 0.2404853
000230 6a 77 b0 3e 98 bd 0f bd 61 2d 36 bb 7b 49 87 3e
       0.34466106 -0.03509292 -0.0027798044 0.2642325
000240 c4 7c 07 be 75 71 25 bd 89 29 d0 3e e1 02 36 be
       -0.13231188 -0.040391404 0.4065669 -0.17774536
000250 dc cf 99 3e 07 46 4d 3e 3b 80 2c be 69 b5 a8 3d
       0.30041397 0.20046245 -0.16845791 0.08237726
000260 fa ce 12 be e4 16 9e be 3e f6 1b be 69 24 4e be
       -0.14336768 -0.3087684 -0.15230653 -0.20131077
000270 20 ed 65 be 7d fc a7 be 1d ac c3 3e a9 19 fc be
       -0.22453737 -0.3280982 0.3821725 -0.49238327
000280 33 24 ba 3e 4e 4e 6b 3e 93 df 02 bd 89 ce c0 be
       0.36355743 0.2297909 -0.0319515 -0.37657574
000290 17 2a 95 be 10 90 c7 be e1 60 11 bf 7d 2e e2 3e
       -0.29133675 -0.38977098 -0.5678845 0.44176093
0002a0 b4 fd b3 be e1 fd 08 3f d5 43 74 3f d3 55 ab be
       -0.35154498 0.5351239 0.95416003 -0.33463916
0002b0 1c 4d 96 be 72 41 83 3e cd c1 c8 be 2e b9 32 3f
       -0.29355705 0.25635868 -0.39210358 0.6981381
0002c0 d4 6f 18 bf e4 52 c8 3e dc 96 68 3d a0 22 91 bf
       -0.59545636 0.3912574 0.056784496 -1.1338692
0002d0 6a 7b c3 be 34 bf 8b be 21 cf 90 3e 87 45 d5 bd
       -0.38180095 -0.27294314 0.28283027 -0.10413652
0002e0 a0 ae b7 3e 5b a5 65 bd 0f 5e f3 3e 12 6f 2c 3e
       0.35875416 -0.0560659 0.475327 0.16839245
0002f0 26 9d 86 be 4d 02 63 3e 82 30 b1 3e 15 a0 ce 3e
       -0.2629177 0.22168846 0.3460732 0.40356508
000300 ec 36 85 3d 5e 61 01 3e e3 f9 e2 be 66 00 97 bb
       0.06504616 0.12634799 -0.44331273 -0.004608202
000310 a5 f0 8f bd 04 0f 1d bf 65 20 a7 be 4d 1a e4 be
       -0.07028321 -0.6135104 -0.32641903 -0.44551316
000320 83 32 f6 3e ad 2d 83 bd ca dc 2e 3f e0 82 77 3e
       0.48085412 -0.06405196 0.6830565 0.24171019
000330 3f c4 14 3f d3 4d 01 3f 6b f4 e8 be 19 a3 06 bf
       0.5811195 0.50509375 -0.45498976 -0.5259262
000340 55 2c 87 be af 9f a3 3e ee 03 25 3d 95 35 91 3e
       -0.2640101 0.31957766 0.04028695 0.28361192
000350 25 35 05 3e 59 37 a9 3e 6d bd b4 3e db f8 41 bf
       0.13008554 0.3305004 0.3530077 -0.7577035
000360 61 87 10 3e 1a bd 1b 3e 0c 7f bb be e3 d2 1a 3e
       0.14114143 0.15208855 -0.36620367 0.1511951
000370 3c 19 5a be 6f e1 7c be 6d 67 e5 3c 06 ff 31 be
       -0.21298689 -0.24695371 0.028003419 -0.1738244
000380 1b 04 48 3e 52 b9 17 3f 76 14 33 3f 0e 5b f1 3e
       0.19532816 0.5926715 0.69953096 0.47139782
000390 2a a2 29 3f 0b b5 35 3f 3d 71 0f 3d 56 d8 4a 3e
       0.6626307 0.70979375 0.0350201 0.19809088
0003a0 7e 87 43 be bd 74 e0 be d3 e1 02 3f 12 df 3a 3f
       -0.19094655 -0.43839064 0.5112583 0.7299663
0003b0 56 da cf 3d 51 4b 00 3f d8 22 0c 3f 46 46 b1 bc
       0.10149066 0.50114924 0.5474067 -0.021639954
0003c0 cb 63 60 bd 51 04 f7 be da 70 90 bf b8 54 72 3e
       -0.05478267 -0.4824548 -1.128444 0.2366513
0003d0 a6 f6 1e 3e 54 d2 99 3e c1 b8 90 3d 33 62 dc 3e
       0.15523776 0.3004328 0.07066489 0.4304367
0003e0 fd 99 7e 3e 18 52 79 3e 59 4e 8b 3e 92 42 82 3e
       0.2486343 0.24347723 0.27208212 0.25441414
0003f0 79 75 19 3c 42 8f 88 3e 26 9b 75 3e 19 05 16 bd
       0.009366387 0.26671797 0.23984966 -0.036625955

Variable_5/read/_43__cf__43:0 f4 [1, 8, 1, 1]
000000 27 d8 e6 3f 5b 74 6e 3f d7 d1 57 3f b2 26 b1 3f
       1.8034714 0.93146294 0.84304565 1.3839934
000010 62 ba 09 40 f7 35 42 3f da 97 4a 3f 20 58 93 3f
       2.152001 0.75863594 0.7913796 1.1511269

Variable_47/read/_42__cf__42:0 f4 [1, 3, 1, 1]
000000 0c 07 68 3e da 9a 75 3e 65 b5 67 3e
       0.22658938 0.23984852 0.2262779

Variable_46/read/_41__cf__41:0 f4 [1, 3, 1, 1]
000000 86 51 e9 3d 92 e6 8f 3d 80 30 15 3e
       0.113925025 0.070264 0.14569283

Variable_45/read/_40__cf__40:0 f4 [3, 4, 9, 9]
000000 49 39 76 be ec 12 74 3d 93 94 06 3e 03 57 0d bb
       -0.2404529 0.059588358 0.13142614 -0.0021566756
000010 27 1a cc 3e d9 05 e1 3e ef 6c 49 3e 0f f5 5f 3e
       0.39863703 0.43949774 0.19670461 0.21870826
000020 ec fc 98 3e 01 ea b0 be 25 c2 5a 3d 75 47 9f bd
       0.29880464 -0.3455353 0.053407807 -0.07777301
000030 09 42 0e bf 1f 8b af bd 0c c2 b7 bd ce 57 95 be
       -0.5556951 -0.08571457 -0.089725584 -0.29168552
000040 f2 4f 00 3b 54 a0 94 3e 05 55 8c bd 53 43 12 3f
       0.00195789 0.2902857 -0.06852154 0.5713398
000050 9f 54 84 3e 9e f5 00 bf 4e 6c a8 be eb c2 c2 be
       0.2584581 -0.5037478 -0.3289513 -0.38039336
000060 4e 42 de be 6c 97 e6 bd 42 69 43 3e 36 99 46 be
       -0.4340996 -0.1125935 0.19083121 -0.19394383
000070 79 36 cc 3e 84 df 28 3e 5f 75 0c bf 29 e4 04 bf
       0.3988531 0.16491514 -0.54866594 -0.51910645
000080 0a 3e df be 16 60 99 be ad 53 bb bb 0b 94 84 3e
       -0.4360202 -0.2995612 -0.005716762 0.25894198
000090 51 d3 5d be bf 92 7e 3e f3 9a 37 3e f2 f4 fe be
       -0.21662642 0.24860667 0.17930202 -0.49796253
0000a0 ca 61 4e bf f6 1a 61 bf 8d 99 16 bf e2 11 66 bd
       -0.80617964 -0.87931764 -0.5882805 -0.056169398
0000b0 e0 06 99 3e ac dc eb bd 32 55 d7 3e b1 5b 13 3f
       0.29888058 -0.11516699 0.42057186 0.57561785
0000c0 15 ae 77 3e c1 73 98 be d7 b2 5a bf fc 64 1c bf
       0.24187501 -0.29775813 -0.8542914 -0.6109159
0000d0 15 52 6f be 94 a7 7b 3d 5f 31 48 be 89 1e 07 3e
       -0.23371156 0.06143911 -0.19550084 0.13195242
0000e0 d1 bf 90 3e 82 10 a1 3e 74 8c 05 3d 10 24 d8 be
       0.28271344 0.31457907 0.03260465 -0.42215014
0000f0 72 92 ad bd 05 91 cf 3b b0 f9 83 3d 31 24 1b be
       -0.08475198 0.0063344263 0.064441085 -0.15150525
000100 eb 42 c1 bd 17 1c ab bd 76 2c 49 3e d5 83 98 3e
       -0.09436592 -0.08354967 0.19645867 0.2978808
000110 f8 57 2a 3e 75 e3 cc 3e 4c 57 88 3e e4 c6 52 3e
       0.1663512 0.40017286 0.26629102 0.20583683
000120 f3 e2 69 be 33 94 d6 be 2f 7a e0 be 70 a0 10 be
       -0.2284048 -0.41909942 -0.4384322 -0.14123702
000130 ee 08 e4 bc b5 c1 11 bd 7b b1 b7 3c b7 4f 02 be
       -0.02783629 -0.035585124 0.022423496 -0.12725721
000140 84 31 45 bd 1c 93 47 bd b1 4a 17 bc f3 65 a6 bd
       -0.048142925 -0.04872428 -0.009234116 -0.08124914
000150 e2 6b 5b bd d1 43 ab bd 5a 81 ae be 55 d1 c0 be
       -0.053569682 -0.08362544 -0.34083062 -0.37659708
000160 1a 22 c8 be e9 fe 79 be d7 79 00 3e c3 02 90 3e
       -0.39088517 -0.24413647 0.12546478 0.28127107
000170 91 52 03 3e 75 7e 43 3e f0 8e 40 3d b8 b2 0d bf
       0.12824465 0.19091208 0.047011316 -0.5535083
000180 fe 21 15 bf 85 fd 0d bf 96 c6 bd be 4d b2 84 3e
       -0.5825499 -0.55464965 -0.37065572 0.25917283
000190 09 9d 9c 3e bd 4e 01 be 0b 1c fa bd df f6 8f be
       0.30588558 -0.12627693 -0.1221238 -0.28118035
0001a0 6b 4f 62 bf 1d 38 39 bf 18 31 1b bf 6e 40 dd be
       -0.8840243 -0.7235125 -0.60621786 -0.43213218
0001b0 8f 03 9f 3d e8 fe f5 bd 71 0e 38 bf fd d1 1c bf
       0.077643506 -0.1201151 -0.71897036 -0.61257917
0001c0 29 87 0d bf f6 d7 6a bf fc af 11 bf b4 8e 00 bf
       -0.55284363 -0.9173578 -0.56909156 -0.5021775
0001d0 91 46 e6 be 05 07 a5 3d 37 3d de 3c cf ac 5f be
       -0.44975713 0.080579795 0.027128799 -0.21843265
0001e0 b2 dc 1b 3e 08 5a 81 3e 97 84 7f bd 18 0b 49 3e
       0.15220907 0.25264 -0.062382307 0.19633138
0001f0 56 ec b7 3d dd d7 07 be b8 41 e3 bd 23 06 00 be
       0.089806244 -0.13265939 -0.11096519 -0.12502341
000200 1f 94 10 be fa 39 3e 3e a8 dc ed bc 65 3d 26 bf
       -0.14119004 0.18576804 -0.029035881 -0.6493743
000210 36 36 ca be 47 13 97 be 4e d1 99 be 5d c9 5a be
       -0.39494485 -0.29506895 -0.300425 -0.21365876
000220 3b 73 d8 bd 33 2f e5 3d 20 02 d3 3e fa 0c eb bb
       -0.105688535 0.11190643 0.4121256 -0.007173178
000230 1a 5f 64 bf 6f 24 48 bf f0 b4 20 bf d7 86 e5 be
       -0.89207613 -0.78180593 -0.6277609 -0.44829437
000240 41 a9 4a be 48 3b 8c 3b 54 31 d3 3e a9 d5 63 3f
       -0.19791128 0.004279528 0.41248572 0.88997895
000250 fe d9 29 3f 87 a9 52 bc d7 e8 19 be 41 df 86 be
       0.66348255 -0.012857801 -0.15030228 -0.26342204
000260 49 2e 2b be 79 c1 85 be 3d 8b a0 be f2 7e 52 be
       -0.16716875 -0.2612417 -0.3135623 -0.20556238
000270 d5 2a dc 3d 84 01 07 3e 82 c4 a5 bd 5e 23 1f bd
       0.10750357 0.13184172 -0.080941215 -0.03885209
000280 f0 8c 0f be 9b 4e a9 bd 41 1c 80 bd 14 fc 62 3c
       -0.14018607 -0.08266946 -0.06255389 0.013854045
000290 1b b3 08 3e 71 af 02 3e 7e c5 b9 3c 2c be d4 bd
       0.13349573 0.12762238 0.02267718 -0.10387835
0002a0 9a 2e 9d bc a1 42 8a 3d 0c a6 ee 3b 5a a3 fc bd
       -0.01918726 0.0675099 0.007282978 -0.12335844
0002b0 9f 5c 7d bd d4 fd 1d 3e 86 41 7b 3e 39 c0 dc 3d
       -0.06185591 0.15428859 0.24536714 0.10778851
0002c0 e5 07 20 be 6b 1a c5 bc 3a d7 d6 3d fb 72 a2 3c
       -0.15628012 -0.024060449 0.1049027 0.019830218
0002d0 1e d8 6d be 0e 0c 38 be a3 5f 08 3e f0 14 b2 3e
       -0.23226973 -0.17973348 0.13317733 0.347816
0002e0 99 54 b4 3e f5 38 fc bc 22 ea b1 3d ba 15 57 3e
       0.35220793 -0.030788878 0.086872354 0.21004382
0002f0 54 41 35 bd db 82 6c be 26 52 03 be 4d 22 c4 3d
       -0.044251755 -0.23096792 -0.12824306 0.09576855
000300 95 a8 96 3e d3 45 c5 3e ad 2b c8 bd 41 c6 b5 3d
       0.29425493 0.38529834 -0.097739555 0.088757046
000310 d1 3e b2 3e 9d 5b 82 3c fa 14 80 bd d4 3d 1a bd
       0.3481355 0.015912825 -0.06254001 -0.03765662
000320 92 62 b6 be 60 4e 04 bf da bb cf be 10 45 43 bf
       -0.35622078 -0.5168209 -0.40573007 -0.76277256
000330 b3 40 c2 be ea b6 64 3e 61 c5 dd 3d bf e9 2a 3c
       -0.37939987 0.22335401 0.10828663 0.010431706
000340 f2 0e 0c bc a6 04 33 bf f3 ac 8e bf 9c fb 63 bf
       -0.008548485 -0.6992897 -1.114653 -0.890558
000350 3e 1f 88 bf 9f 6c 24 bf a8 9a b7 3c 02 be 66 3d
       -1.0634534 -0.6422824 0.022412613 0.05633355
000360 77 97 7f 3d ed 8d 35 3e 1a b5 ae be 13 f5 10 bf
       0.062400308 0.17729922 -0.34122545 -0.56623954
000370 b1 d2 60 be 8d 06 f4 be 8e 63 aa be 6b cb dd bb
       -0.21955372 -0.47661248 -0.3327908 -0.006768634
000380 7a 8b 90 bd 53 01 ed 3c 22 d4 97 3e 87 2f d0 3d
       -0.07057853 0.028931295 0.29654032 0.10165315
000390 1d 1a 15 3c 57 4a b8 3e c0 c0 51 3d 8e 1d b5 bd
       0.009100464 0.35994217 0.05120921 -0.08843528
0003a0 59 5a dd 3a 9e 1a a3 bd 7e 33 9d bd 7b aa da 3d
       0.0016887888 -0.07964061 -0.07675837 0.10677048
0003b0 03 de 84 3d 94 be 89 b7 77 3d 7b 3e 73 de d2 3d
       0.06487658 -1.6420418e-05 0.24535166 0.10296335
0003c0 21 44 9e bc 91 c1 d1 bb c3 39 8f bc 28 7e 73 bd
       -0.019319596 -0.0064012487 -0.017483598 -0.059446484
0003d0 36 46 c7 bd ed 6a 5f bb fc b8 96 bc b8 b6 4d be
       -0.097301885 -0.0034090832 -0.018398754 -0.20089233
0003e0 4b e4 2f be 00 1e 01 bd 61 58 25 3d 0a cd 43 3e
       -0.1717693 -0.03152275 0.040367488 0.19121185
0003f0 8c 97 48 be ed e9 47 be 19 5d f8 bd 54 62 8f be
       -0.1958906 -0.1952283 -0.12127132 -0.28004706

Variable_44/read/_39__cf__39:0 f4 [1, 4, 1, 1]
000000 e8 ef 53 3f d1 99 8b 3f d3 50 38 3f 05 7d 91 3f
       0.8278794 1.0906316 0.7199833 1.1366278

Variable_43/read/_38__cf__38:0 f4 [1, 4, 1, 1]
000000 86 41 33 be 10 14 74 3f 7f 3c d2 bd 1f 62 02 3f
       -0.17505464 0.9534311 -0.10265445 0.5093097

Variable_42/read/_37__cf__37:0 f4 [8, 4, 3, 3]
000000 80 c3 7a bf a2 a5 c8 3c 6b 17 0b be 4a 0e 5b 3e
       -0.9795456 0.024493042 -0.13583152 0.2139217
000010 95 c4 49 bd 2f ad 73 3d 96 ad ed bd 99 a1 57 3e
       -0.04925974 0.059491333 -0.116053745 0.21057738
000020 72 4c a4 bc f4 8e 5b 3e 3c 37 51 3e 15 89 35 3d
       -0.020055983 0.21441251 0.20431226 0.044320185
000030 1f 02 32 be 5a b4 1d 3f ef e3 18 bd 8b 03 5b be
       -0.17383622 0.6160332 -0.03732675 -0.2138807
000040 5c a6 58 bd a2 4e b5 be 6e ee 1d bf 90 1e 77 bd
       -0.052893028 -0.35411555 -0.6169194 -0.06033188
000050 22 60 01 bf 84 ec 6f bd 5b 2b cb 3e d0 55 4d be
       -0.5053731 -0.05857517 0.39681515 -0.20052266
000060 b3 ed c3 3e e7 60 8d be d2 14 01 3f 14 32 0e 3e
       0.38267288 -0.27612993 0.50422394 0.13886291
000070 a0 c7 13 3e 88 d7 17 be 24 1a 7d 3e 28 a5 4a bd
       0.1443162 -0.14828312 0.24717003 -0.04947391
000080 c7 d8 1b bf 4a 00 8f 3d 3e ae 7d 3e 9b fe fe 3c
       -0.6087765 0.06982477 0.247735 0.031127265
000090 0c d7 de bd fd 96 db be ec 9b 29 bf c2 15 8f 3e
       -0.10880861 -0.42888632 -0.6625354 0.27946287
0000a0 e9 b0 c6 3e 40 da 1a bf b5 e5 5b 3e d5 af 93 3e
       0.38806847 -0.60489273 0.21474345 0.28845087
0000b0 2c 0d eb be bd 3c 39 3f a7 08 41 bd 77 9e 65 be
       -0.45908487 0.72358304 -0.047127392 -0.22423731
0000c0 9c b9 5e 3f 01 f1 1e bf 77 4a e2 be 3a 1f c9 3e
       0.8700197 -0.6208649 -0.44197437 0.39281636
0000d0 1e 55 f0 be 05 0a 3c be ff 3f 00 3d e0 09 e6 3d
       -0.4693994 -0.18363197 0.03131103 0.11232352
0000e0 7d 10 75 3e c1 79 1d 3e 32 23 d7 3d 11 0b 3c be
       0.23932071 0.15378477 0.1050476 -0.18363596
0000f0 41 56 de 3e d7 38 9f 3e 7e 25 87 be 21 62 16 3f
       0.43425182 0.31098053 -0.26395792 0.5874348
000100 e0 1c 03 be 49 4c 5e 3e 74 92 e5 3e 5e 67 1c bf
       -0.12803984 0.21708788 0.44838297 -0.61095226
000110 c8 54 b9 be 5a d8 a6 3e 64 d8 4e 3e c9 64 9d 3e
       -0.36197495 0.32586938 0.20199734 0.30740955
000120 42 65 bf be 50 64 09 bf 5e 43 08 3e 55 9a 0a 3e
       -0.3738194 -0.5366869 0.13306949 0.13535435
000130 8e 0a 42 3f 50 ca ba be 33 bf 99 3e 51 f3 93 be
       0.75797355 -0.36482477 0.30028686 -0.28896573
000140 99 23 83 3e 42 ff 31 3e 84 91 93 3e 89 ac 09 bd
       0.25613096 0.1738253 0.28821957 -0.033611808
000150 98 d7 96 3c 07 b8 69 bf 76 d1 60 be 93 c9 1a 3e
       0.01841335 -0.9129643 -0.21954903 0.15115957
000160 4c 76 10 be b2 98 9e 3e 08 3b 2a bf 98 a9 58 3e
       -0.14107627 0.30975872 -0.66496325 0.21158445
000170 c8 6d cb 3e 62 2f 68 3d 62 c1 9c 3d 53 99 2f be
       0.39732194 0.056685813 0.07654072 -0.17148332
000180 d1 47 b4 be 7d 9c af be 16 80 58 bd fa 05 af 3e
       -0.35211042 -0.3429908 -0.052856527 0.34184247
000190 a8 b6 dc 3d ba 28 11 be 60 f1 10 3d e6 07 2e 3e
       0.107770264 -0.14175692 0.035386443 0.169952
0001a0 91 04 cd bd d1 97 8b be a8 e1 1b be 8e bd 95 3d
       -0.100106366 -0.27264264 -0.152228 0.07311545
0001b0 77 e2 c3 be 41 c9 0b 3e 09 1a 53 be 59 d0 0b 3f
       -0.38258716 0.13650991 -0.206154 0.5461479
0001c0 6a ed f1 3d c0 ac 65 be 3d 16 90 be 7d b6 02 3c
       0.11812861 -0.2242918 -0.28141966 0.007978079
0001d0 c6 03 59 3e 8b 86 fa 3d 66 05 d7 be f4 6c 5c 3e
       0.21192846 0.12232693 -0.41996306 0.21525937
0001e0 0a a6 ed 3e ab 03 e0 3e 41 b5 c0 3e f1 c1 05 3f
       0.4641574 0.43752798 0.37638286 0.52249056
0001f0 b3 5f 29 3f e7 2a 3e be 1b ff ab bd 43 8a a6 3e
       0.6616165 -0.18571053 -0.08398267 0.3252736
000200 29 a9 87 3e ba 68 84 bc 74 70 9a 3e 9a c9 1a 3e
       0.26496246 -0.016163219 0.3016392 0.15115967
000210 f0 01 8f 3e b3 bf 9b be 4f 1c 13 3f b0 3b 35 3f
       0.27931166 -0.30419692 0.5746507 0.707942
000220 fd 2c a1 3d 8a 0f 05 3f b8 f7 1f bf 93 16 b4 be
       0.07869909 0.51976836 -0.62487364 -0.35173473
000230 57 23 59 3d 00 d2 0e 3f 74 2b 16 3f 19 1e 04 3f
       0.05301222 0.55789185 0.58660054 0.51608425
000240 d2 dc e3 bd 22 c0 81 3e 55 ed 16 3f 5f dc ef 3d
       -0.111261025 0.25341898 0.5895589 0.11711954
000250 b7 35 e7 3e c7 8a 78 bc 57 4e 4e be 4e 19 88 be
       0.4515817 -0.015169806 -0.20147072 -0.26581806
000260 a6 1a 89 3f 14 15 3e 3c 46 4b ce bd 6f 31 b5 3e
       1.0711257 0.011601705 -0.10072951 0.35389277
000270 9f 14 f0 bc 3b 7f 68 be 8c db e1 3d 40 8d 5d be
       -0.029306708 -0.22704785 0.11028203 -0.21635914
000280 89 ff ab be 09 a0 15 3f 1d 19 2b bd 1e f0 29 bf
       -0.33593395 0.5844732 -0.041771997 -0.66382015
000290 2e 1e 9e 3e 2f ac f1 3d 64 99 92 3e ce e3 4c be
       0.308824 0.118004195 0.28632653 -0.20008776
0002a0 df df 32 3f 7c 88 e6 bd dd 0f b0 be 5c 93 95 bd
       0.6987285 -0.11256501 -0.34387103 -0.07303497
0002b0 53 44 4c 3e 96 df 7d 3f 46 05 ab bd 40 9c 44 3f
       0.19947939 0.9916929 -0.08350615 0.7680092
0002c0 f7 77 c2 3e 87 2f 02 be 4d 95 3d bf eb bb 8b be
       0.3798215 -0.12713443 -0.7405594 -0.27291808
0002d0 c7 69 f5 bd c7 ac 74 bd 46 8b 2a bf 25 7d 4e 3c
       -0.11983066 -0.059735086 -0.66618764 0.012603079
0002e0 9d 0c 9d 3e 4c 1f f1 3c fa 08 fb 3d 6f c5 97 3d
       0.30673686 0.029433869 0.122575715 0.07410704
0002f0 22 93 54 bf 86 ed b2 be 2e 3c 9f bd 75 49 c0 be
       -0.83037007 -0.3494684 -0.0777515 -0.37556043
000300 a1 7e e7 3d 27 50 a2 bd a9 1d ff be f2 4a 50 3e
       0.113034494 -0.07925444 -0.49827316 0.2034109
000310 01 2d e5 3e ad b6 88 3e 00 98 75 be 3d cc df bd
       0.44760898 0.2670187 -0.23983765 -0.10927627
000320 7f c9 e1 be 8d 68 78 be a8 e7 cb bd 92 66 fc 3d
       -0.44099042 -0.24258633 -0.09956294 0.12324251
000330 69 e5 7b 3e 83 61 7d 3e fe 2a 84 3f 19 7f d4 3d
       0.24599232 0.24744229 1.032562 0.103758045
000340 d9 66 06 be 3f 88 10 bf 08 c6 f0 3d 7b f4 b1 be
       -0.13125171 -0.56457895 0.117565215 -0.34756836
000350 7b 94 d7 bd 61 9e 62 3c a2 e5 b2 ba 7b 64 50 3e
       -0.10526367 0.013831706 -0.0013648758 0.2035083
000360 c6 c6 a8 3d 74 ec d6 3e 54 e7 f2 be ed fb 04 be
       0.08241038 0.41977274 -0.47442114 -0.12986727
000370 8b 13 6b be 47 87 2d 3e af 41 e8 bd 83 ab cd be
       -0.22956674 0.16946135 -0.11340653 -0.40169916
000380 61 a6 03 bf 8b 1a 4d bd 69 57 00 be cc 9f 7f be
       -0.5142575 -0.05007414 -0.12533344 -0.24963301
000390 4a f8 3d be f5 9d 42 be d3 d0 ad be 76 7f 01 3e
       -0.18551746 -0.19005568 -0.33948383 0.12646279
0003a0 1d e1 68 bd d0 3d 7d bc 84 8d 20 3f 6b 16 d1 be
       -0.05685531 -0.015456632 0.62715936 -0.40837416
0003b0 aa d8 0f 3f 46 95 e3 bd bf aa 3f 3e 20 8a 39 be
       0.5618998 -0.11112456 0.18717478 -0.18119097
0003c0 91 02 9c 3d 69 f7 01 bf c8 ed 63 be 68 08 cf be
       0.07617677 -0.5076814 -0.22258675 -0.404361
0003d0 c0 28 87 be d4 35 18 bf ba 48 2f be 65 60 74 be
       -0.26398277 -0.59457135 -0.17117587 -0.23864897
0003e0 9b 8c a1 bd e2 2a 4d be f1 38 93 bc f3 4c 6d be
       -0.078881465 -0.2003589 -0.017971488 -0.23173885
0003f0 b0 c1 2c bf f1 49 71 3e ee 80 3c 3e 19 ba 04 3e
       -0.67483044 0.23563363 0.18408558 0.12961616

Variable_41/read/_36__cf__36:0 f4 [1, 8, 1, 1]
000000 72 60 30 3f 4f a4 98 3f 19 e5 4f 3f a3 a9 8f 3f
       0.68897164 1.1925143 0.8120895 1.1223644
000010 fc 59 98 3f 5a ed 7a 3f 1e d9 35 3f 36 7c 46 3f
       1.1902461 0.9801842 0.7103442 0.7753328

Variable_40/read/_35__cf__35:0 f4 [1, 8, 1, 1]
000000 4e 58 77 3e b9 7a 82 3f 26 4e 7e 3e 48 a9 5f 3f
       0.2415478 1.0193702 0.24834499 0.8736768
000010 31 53 de be fe f1 ed be 19 77 9d be 23 0f 62 3e
       -0.43422845 -0.46473688 -0.30754927 0.22076087

Variable_4/read/_34__cf__34:0 f4 [1, 8, 1, 1]
000000 05 e4 13 3f c9 c6 ba 3e ee e2 aa 3e 4c fe a6 3e
       0.57769805 0.36479786 0.3337626 0.32615888
000010 34 8e af bc 41 d4 fd 3e 0f d1 88 3e 30 66 1d 3f
       -0.021430112 0.49576 0.26722 0.6148405

Variable_39/read/_33__cf__33:0 f4 [16, 8, 3, 3]
000000 7a 40 b0 3e 68 e1 3a bd 23 94 7d 3e 3e 62 85 be
       0.34424192 -0.04562512 0.24763541 -0.26051515
000010 c3 77 cd 3e 42 51 a8 be da 1d dc be bc 2d 40 3d
       0.40130433 -0.32874495 -0.42991525 0.046918616
000020 27 50 63 be 16 81 a1 be f5 bc 19 3f 04 96 88 be
       -0.22198544 -0.31543797 0.6005395 -0.26676953
000030 f8 86 0c 3e 16 85 d7 be fd 14 c9 3e 46 f4 4e be
       0.13723361 -0.42093724 0.39273825 -0.2021037
000040 51 db 65 3e d4 ee d9 bd 2b 23 dd be 4d ea bf 3e
       0.22446944 -0.10641256 -0.43190894 0.37483445
000050 ca 6c 72 bd 6c 0a 8e bd 0d c5 2e be d4 0c 9c bd
       -0.05918578 -0.069355816 -0.17067356 -0.07619634
000060 1e 2f 08 be 62 84 8e be 14 46 2f 3e ce f4 6e 3e
       -0.13299224 -0.27835375 0.17116576 0.23335573
000070 25 1c 21 be b5 c2 cf 3e 00 2a a3 3e de 5a 25 3f
       -0.15733393 0.40578237 0.3186798 0.6459178
000080 a4 e5 09 3f be 0e 10 bd d3 f3 5f bf 17 fa 1c bf
       0.5386603 -0.03517031 -0.8748142 -0.61319107
000090 34 f7 63 3f 60 b5 7b 3e 51 e9 c1 3d 8d 9e d2 be
       0.8904908 0.24580908 0.0946833 -0.4113659
0000a0 d8 c5 2e 3e 18 d0 00 be 94 6c 24 be a7 cf b8 bd
       0.17067659 -0.12579381 -0.16057044 -0.090239815
0000b0 cf 3b be bf e3 2d b0 3e c0 66 2d be be 33 92 be
       -1.4862002 0.3441001 -0.16933727 -0.285551
0000c0 9e 9f be 3d 75 80 82 3e 8e f7 a9 3e c4 dd b3 be
       0.09307788 0.2548863 0.33196682 -0.3513013
0000d0 be 98 79 3e 46 09 e7 bc 58 af ac bd 60 6e 7b be
       0.24374673 -0.028202664 -0.08431882 -0.24553823
0000e0 a7 19 c3 3c 05 f3 27 bd 94 41 23 bf 54 e3 92 3e
       0.023815943 -0.041003246 -0.6377194 0.28689063
0000f0 7e 21 5e 3e b2 3a 2b 3e e6 2a 96 3d 01 6e aa 3e
       0.21692464 0.16721609 0.07332401 0.3328705
000100 2f 90 8b 3d 95 7f da bd d0 76 4a 3e 91 c4 38 bf
       0.0681461 -0.106688656 0.19771886 -0.72174937
000110 b9 01 db be d6 6a 12 be 4a ac 29 be 5c 6c 8b 3e
       -0.42774752 -0.14298567 -0.1656963 0.2723111
000120 a0 2c 81 3e cf 86 d1 be 62 cf 4a 3e df 1e 64 3d
       0.2522936 -0.40923163 0.19805673 0.055693503
000130 0e 4b 1d bf c1 69 a2 3e 5a a6 a5 be f8 e8 42 bf
       -0.6144265 0.3172131 -0.3235348 -0.7613673
000140 06 45 1b be d3 e4 96 be 88 e5 22 3f e4 5b ec be
       -0.15163049 -0.29471454 0.63631487 -0.46163857
000150 66 21 95 3d 9f 67 10 bf 9c 7c ef bd 5d e2 bc be
       0.07281761 -0.56408113 -0.11693689 -0.3689145
000160 a8 d4 76 3f f2 bc 2c 3e 07 06 72 bd 6e ca 6b be
       0.9641824 0.16868952 -0.05908778 -0.2302644
000170 e3 07 5b 3e c6 30 43 3e d7 a2 99 bd 3a 4e 2f be
       0.21389727 0.19061574 -0.07501762 -0.17119685
000180 18 70 b5 be 66 e3 66 be 45 bb 2e 3f b2 71 df be
       -0.35437083 -0.22547683 0.682545 -0.4364143
000190 3f f2 06 bf df a8 84 bd 2f c7 c4 3c bc 3d 48 3d
       -0.5271339 -0.06477522 0.02402076 0.048887
0001a0 2d c2 82 3e 76 4d 51 be 20 89 1b bf b2 f7 3a bd
       0.2553877 -0.20439705 -0.6075611 -0.045646377
0001b0 6f f9 1c 3f 96 82 df be dc a5 e3 be 5c 2f 11 3e
       0.61318105 -0.43654317 -0.44462478 0.14178222
0001c0 ee 8f f2 be bc bf 06 be 08 31 59 be d3 19 39 3e
       -0.47375435 -0.13159078 -0.2121011 0.18076257
0001d0 fe b9 35 bf 68 a4 6a 3e d9 05 93 3e cc bc d6 3e
       -0.70986927 0.22914279 0.287154 0.41940916
0001e0 2a f8 f4 3d 7a 15 1a bd 94 45 01 3f 19 af 2b 3e
       0.11961396 -0.037618138 0.5049679 0.16766013
0001f0 b8 a3 89 be 7b 1e c1 3e 50 4c 54 3e 90 dc 59 3f
       -0.2688272 0.37718567 0.20732236 0.85102177
000200 7d 54 bc 3d 4f 09 4d 3e 4e 6e 16 3e 9b 41 5e bd
       0.09195802 0.20023082 0.14690515 -0.054261785
000210 1b a9 25 3e 05 b7 ff be 4d cb 65 3e 57 d9 08 bf
       0.1617779 -0.4994432 0.22440834 -0.53456634
000220 fd 22 10 bf 46 ff 15 3f 80 06 ce be 73 f7 ad be
       -0.5630339 0.5859264 -0.40239334 -0.3397785
000230 87 9c 83 bf de a8 48 bb e5 95 25 bf b4 5e 24 3e
       -1.0282143 -0.003061823 -0.64681846 0.16051751
000240 41 70 9d be 4f 08 08 3f fa a3 4e 3d 6a b5 18 be
       -0.30749705 0.5313768 0.05044935 -0.14912954
000250 de 07 73 3f b8 e3 1d b8 bd 04 73 bc 53 97 83 ba
       0.9493388 -3.7643797e-05 -0.014832673 -0.0010039605
000260 86 09 73 bc 26 a0 83 3e 48 ca 57 3d 19 e6 a1 3e
       -0.0148338135 0.2570812 0.052683145 0.31620863
000270 4f 04 e3 3e c1 ee d0 3e 01 d2 2a 3e e0 24 6b be
       0.44339225 0.40807155 0.16681673 -0.22963285
000280 44 d0 31 3e dc 49 44 be 09 67 d7 3d e3 b8 18 3e
       0.17364603 -0.191688 0.10517699 0.14914279
000290 f1 15 84 3e 8e e5 b7 3e 87 24 cb bd c0 c6 0e 3f
       0.2579799 0.35917324 -0.099190764 0.5577202
0002a0 a1 c4 e0 3e d9 82 a8 3e 00 d0 c8 be 7e 2d be 3e
       0.43900016 0.3291233 -0.3922119 0.37144083
0002b0 ea 89 22 3e 6c a9 b8 3d bd 2e 26 3f 31 f9 ca 3e
       0.15872923 0.0901669 0.64915067 0.39643243
0002c0 94 52 34 3f 9e a7 3e 3f 3b 16 b0 3c 02 38 1f 3f
       0.70438504 0.74474514 0.021494975 0.62194836
0002d0 e5 04 ca 3d ba 22 b0 3e 3e 0e 2b be 9f 32 92 be
       0.09864215 0.34401494 -0.16704652 -0.28554246
0002e0 99 31 f7 3e af db c7 3e d4 70 24 3f c4 ae 13 be
       0.48280028 0.39034793 0.6423466 -0.14422137
0002f0 86 63 88 3e 9c 7e d5 3e 0f de aa be 13 ad 08 3f
       0.2663843 0.41698158 -0.33372542 0.5338909
000300 31 e8 9e be 31 aa 9e 3c 81 b6 71 bd 0d c4 89 be
       -0.31036523 0.019368263 -0.05901194 -0.26907387
000310 7b 93 e7 3e 7c d6 b3 bd 73 d9 a0 3e 6a 4f 95 bf
       0.45229706 -0.08781144 0.314159 -1.166486
000320 52 f0 02 3e 70 3e 16 3f 0f 7e 24 bf 0f e8 c8 3e
       0.12786987 0.5868902 -0.6425485 0.39239547
000330 58 20 92 3e 90 58 2b 3e 74 65 f1 bd 7a 36 10 be
       0.285403 0.16733003 -0.11786929 -0.14083281
000340 bf dc 85 3e 9a f3 b1 3d 47 4d 4d be a3 a3 fa 3d
       0.26144978 0.086890414 -0.2004901 0.122382425
000350 75 a8 86 3e 61 d4 c1 3e 0f e4 3b 3f aa c5 56 3e
       0.26300398 0.37857345 0.73394865 0.2097384
000360 6d 41 10 bf 8b 76 10 bf db 21 40 3e da 90 27 be
       -0.5634983 -0.5643088 0.18762915 -0.1636385
000370 a3 c9 76 3e ee 19 f0 be ab ca 0b 3d ef 8b 92 3f
       0.24100356 -0.46894783 0.034128826 1.1448954
000380 e6 50 53 bd f8 7a 85 3d ca 92 16 be c8 d3 23 be
       -0.051590823 0.06517595 -0.14704433 -0.15998757
000390 45 60 8a bd ba ff 00 3e 27 67 b0 bc 17 18 84 3c
       -0.06756643 0.12597552 -0.021533562 0.016124768
0003a0 fb 83 12 3e 44 30 31 3e 6e 74 01 bf 36 45 12 be
       0.14308159 0.17303568 -0.5056828 -0.14284214
0003b0 0f 4a 07 bf 1a 8f ce 3d 45 02 3e bf 76 0e 31 bf
       -0.5284738 0.10085888 -0.74222213 -0.6916269
0003c0 51 06 1f be 47 3e d5 bc 1e 21 08 bf c0 91 a9 be
       -0.15529753 -0.026030673 -0.5317553 -0.3311901
0003d0 47 6e 5a bf 8e 90 98 3e dd 50 04 3f d1 5b 0f bd
       -0.8532452 0.29797786 0.5168589 -0.034999672
0003e0 be 8a 31 be 29 b3 9f 3e bd 22 4d bf 65 26 53 3e
       -0.17338082 0.31191376 -0.8013113 0.20620115
0003f0 e0 cd ba bd de 8c 25 be 60 25 51 be 44 b9 e5 be
       -0.09121299 -0.16167018 -0.20424414 -0.4486791

Variable_38/read/_32__cf__32:0 f4 [1, 16, 1, 1]
000000 d1 f0 bd 3f 97 0c d5 3f 92 7f f0 3f 0c 25 1b 40
       1.4839116 1.6644467 1.8788931 2.4241362
000010 99 20 c3 3f dc 9e e4 3f b7 cf 0f 40 20 23 c2 3f
       1.5244323 1.786098 2.247053 1.5166969
000020 ef e0 10 40 79 53 14 40 18 0d df 3f d9 d4 dc 3f
       2.2637289 2.3175948 1.7425871 1.7252456
000030 94 9b d0 3f a9 3a 01 40 41 28 b9 3f ea e0 04 40
       1.6297479 2.0192053 1.446541 2.0762277

Variable_37/read/_31__cf__31:0 f4 [1, 16, 1, 1]
000000 cc 37 1d 3f e6 a6 b1 3e 02 7a 53 be da 68 ba 3c
       0.61413264 0.34697646 -0.20652011 0.022755075
000010 7d 0a 20 3e 16 91 a6 3e ee 1b 06 3e d4 82 81 bd
       0.15629001 0.32532567 0.13096592 -0.063237816
000020 0f 27 d4 3e da 2d dc 3d dd 61 a6 3d 07 d9 93 be
       0.4143605 0.10750933 0.08124135 -0.28876516
000030 d1 31 53 3e bd cf a2 3e cf d2 dc be 7a ff fc bd
       0.20624472 0.31799117 -0.43129584 -0.12353416

Variable_36/read/_30__cf__30:0 f4 [16, 16, 3, 3]
000000 c2 ac b7 bd a9 db 46 bf 04 58 c8 bd 9a ed 94 3d
       -0.08968498 -0.77678925 -0.09782413 0.072718814
000010 7d 69 de be 67 ec e4 be e4 12 98 be 0e 3c 56 bd
       -0.43439856 -0.4471161 -0.29701912 -0.052303366
000020 44 51 5c bd 36 76 2b 3e 75 c2 2f 3f ef a7 c4 bd
       -0.05378844 0.16744313 0.6865609 -0.09602343
000030 04 73 1a 3d 51 71 97 3f a4 cf 47 be fc b9 27 bf
       0.037707344 1.1831456 -0.19512802 -0.65518165
000040 cf 1c 86 3f 19 f8 6c 3f 73 a1 3f be 33 3c fc be
       1.0477542 0.92566067 -0.18713932 -0.49264678
000050 fc 8b 9b be ea 8f 0a be 81 90 94 be 32 75 a8 3d
       -0.30380237 -0.13531461 -0.29016498 0.08225478
000060 b4 15 8f be a2 da d4 3e 40 85 9d 3e 2e 84 86 be
       -0.27946246 0.41573054 0.30765724 -0.2627272
000070 6f 7b 98 bd 10 72 d5 3d d1 ea cd 3d 5d 39 93 be
       -0.07445418 0.10422146 0.10054553 -0.28754702
000080 15 a1 af be 17 8a bf 3e fa ea 22 be 6c a8 0c bf
       -0.34302583 0.37410042 -0.15909949 -0.5494449
000090 07 5a 01 3d bd 7b b8 be 58 32 08 be e2 d4 91 be
       0.031579997 -0.36031905 -0.13300455 -0.2848273
0000a0 4b 91 0d bf 47 9f be 3e 22 eb 0c bf 01 7a 5c be
       -0.55299824 0.37230894 -0.55046284 -0.21530916
0000b0 bf 7f 17 3f c1 7c c7 3c c0 85 f2 3e 84 0f c9 3e
       0.591793 0.02435148 0.47367668 0.3926965
0000c0 20 6c 63 3d 31 b7 42 3e c4 e5 65 3e 51 55 bb bd
       0.055523038 0.19015194 0.2245093 -0.09147132
0000d0 a8 3b b7 bd 92 e1 0f be 65 1d 82 be 35 8d e1 3d
       -0.089469254 -0.14050892 -0.2541305 0.11013261
0000e0 c3 fe a7 bd f2 c7 92 be 34 0d 8c be 9c 6d cc 3d
       -0.08202889 -0.2866817 -0.27353823 0.09981844
0000f0 f2 a4 86 3e 95 18 41 bf 79 5f 0e bf 48 39 56 3e
       0.26297718 -0.75428134 -0.5561443 0.20920289
000100 a3 7c 06 3e 74 8f c4 be e4 0b aa 3d 61 07 32 3d
       0.13133483 -0.38390696 0.08303049 0.04346407
000110 14 c4 b1 3e 4f 23 04 3f dd 74 34 bc eb 05 2e bf
       0.34719908 0.51616377 -0.0110141905 -0.6797778
000120 b9 a1 be be db 0b 8e 3d 38 63 b3 bd f2 16 2b be
       -0.3723276 0.06935855 -0.08759159 -0.16707972
000130 59 ed ab 3e cd 1c 1d 3e 9f bf 2c 3c 90 00 c5 3e
       0.3357952 0.15343018 0.010543733 0.38476992
000140 33 dd b9 3e a3 72 99 bd 6e 8b 96 bd c3 f3 4e bd
       0.36301574 -0.07492568 -0.07350813 -0.050525438
000150 68 ab 38 be 15 22 36 bc 9a 92 b7 3d 08 98 7c 3c
       -0.18034136 -0.011116524 0.08963509 0.015417106
000160 ef da 96 be dc f3 1a be 9c 64 c1 3b dd f1 67 be
       -0.29463908 -0.15132087 0.005901886 -0.22650857
000170 39 72 65 3e 8e 01 9e be 99 26 44 be ed 2d a8 3e
       0.22406854 -0.3086056 -0.19155349 0.3284754
000180 d7 c3 a0 be 33 84 50 3e 42 f5 ce 3e f2 11 03 3f
       -0.31399414 0.2036293 0.40421492 0.5119926
000190 34 d2 37 3e 9b b6 fd 3d 36 6d 33 3f 75 7f 5e 3d
       0.1795128 0.12388345 0.7008852 0.05432077
0001a0 a6 2c f3 be bb bf 9f bd ee 60 8a be 06 d8 ca 3e
       -0.47495002 -0.078002416 -0.27027076 0.39617938
0001b0 5b 22 2a bf c9 00 43 3e c7 a1 d3 3e 5b 54 1d bf
       -0.6645867 0.19043268 0.41334364 -0.6145684
0001c0 93 0a 73 be a4 65 40 3e 9f f6 56 3e 8b 3c 7b 3e
       -0.23734502 0.18788773 0.20992516 0.24534814
0001d0 cb 4e c9 be 2e a2 6f be a7 b0 d0 3e 2c aa 4b 3f
       -0.39317927 -0.2340171 0.40759775 0.79556537
0001e0 23 a1 9f bd 08 2a 15 bf 40 02 e4 be 3c aa 7b be
       -0.07794406 -0.5826726 -0.44532967 -0.24576658
0001f0 12 b8 b4 be aa 36 09 be fa 88 a8 3d 0c b7 b2 3d
       -0.35296685 -0.13399759 0.08229251 0.0872632
000200 b6 f1 52 3d 15 a0 09 bd 88 c6 64 3f 89 45 2f be
       0.051500045 -0.03359993 0.89365435 -0.1711637
000210 20 af 11 be e6 09 fd bd a3 cb 8a 3d 82 3a 68 3f
       -0.14226961 -0.123554036 0.06777122 0.90714276
000220 d9 73 2a 3e 8a 62 4d bd d6 64 af 3d 89 02 2e 3f
       0.16645755 -0.050142802 0.08564155 0.6797262
000230 01 02 ae 3d 6a 67 46 bf b0 d7 3c 3f a6 e6 1d 3f
       0.08496476 -0.7750155 0.73766613 0.61680067
000240 18 c0 09 bf a5 ec c4 be b0 6f 02 bf 46 b8 8e be
       -0.53808737 -0.38461795 -0.5095167 -0.27874964
000250 ed 4f 24 3f 60 2f cb 3e c1 bf 55 bf a4 db fa be
       0.6418446 0.39684582 -0.8349572 -0.48995697
000260 2e 9b ae be 8f f9 91 3e 94 f9 b0 be 8c bd c7 3d
       -0.34102768 0.2851071 -0.34565413 0.0975295
000270 34 08 1a be 6e bf c8 bd 38 db 2e 3f 9a 5b d7 3d
       -0.15042192 -0.09802137 0.6830325 0.105155185
000280 13 8c 41 3f 04 ce 61 3d d7 8b 2d 3f c3 39 19 be
       0.7560436 0.055128112 0.67791504 -0.1496344
000290 e8 bd 35 3e 20 cd 10 3e cd 9e fc bd 40 81 f7 3e
       0.17748225 0.14140749 -0.12334976 0.48340797
0002a0 f9 2d e7 be 87 09 06 bc 5c 63 78 3e 9d 0a 32 bf
       -0.45152262 -0.008180982 0.24256653 -0.69547445
0002b0 b8 22 02 bf fd d8 00 bf cf 5e a7 be e0 13 b1 bd
       -0.50834227 -0.503311 -0.3268952 -0.08646369
0002c0 56 b0 ce 3d 9a 66 88 be fc a5 35 bd 3b 4d 0f bd
       0.10092227 -0.2664078 -0.04434775 -0.034985762
0002d0 32 13 1d be 42 99 d6 3e d5 aa 68 3e f1 e7 1f be
       -0.15339354 0.419138 0.22721417 -0.15615822
0002e0 0d 7a a1 3f f9 db 85 bf 41 82 d6 3e 4f 59 fe 3e
       1.2615372 -1.0457755 0.4189625 0.49677512
0002f0 40 7b 7b be b7 19 b3 be a0 00 0d 3f 9a 8c de 3d
       -0.24558735 -0.34980556 0.5507908 0.10866661
000300 e1 8c 27 be a3 6d 4e 3e 09 1c 83 be f0 e4 d3 3e
       -0.16362335 0.2015901 -0.25607327 0.41385603
000310 e8 d6 04 3f 7b 67 71 3e 55 66 bc 3b 4b 38 85 be
       0.5189042 0.23574631 0.0057495036 -0.2601951
000320 c7 7d 0c bd 8d cc a4 bd 3b a6 9a be 9b 53 bf be
       -0.034299638 -0.080468275 -0.3020495 -0.37368473
000330 80 94 bb be 01 ff df 3d b2 86 01 3e 9a 7e db 3d
       -0.36636734 0.1093731 0.12649038 0.10717507
000340 17 7d 8b be 9e f9 65 bd aa 72 50 bd 79 30 25 3f
       -0.27243873 -0.056146257 -0.050890602 0.6452709
000350 e8 d4 61 3f 0c b8 9b 3e 65 71 a7 3e 25 e4 cd 3e
       0.88215494 0.30413854 0.327037 0.40213123
000360 86 30 f9 3c 81 95 21 bd 44 fe 3e be 43 10 25 3f
       0.030418646 -0.03944922 -0.18651682 0.6447794
000370 12 d0 76 be 9f af 20 3e 7f a8 66 3d 10 9b ba bd
       -0.2410281 0.15691994 0.056313034 -0.09111607
000380 3c 1a ec 3e 9b e0 41 3c 3f 1f 49 3e 3a 16 e0 bc
       0.46113765 0.011833335 0.19640826 -0.027354348
000390 6f 07 0c 3d 6d 63 46 be a3 5b 67 be 80 c3 38 3b
       0.034186777 -0.19373865 -0.2259355 0.00281927
0003a0 21 d8 53 3e 42 9e bb be 9d 7b fa be 36 9c 2d bf
       0.20687915 -0.3664418 -0.48922434 -0.67816484
0003b0 83 35 20 bf ce 02 8d 3e 63 59 87 bd 6d 66 58 bf
       -0.6258165 0.27541202 -0.06608846 -0.8453129
0003c0 8e 46 5e be 31 93 d5 be 23 33 83 3d 81 93 2c 3f
       -0.21706602 -0.4171386 0.06406238 0.67412573
0003d0 ed e1 8a 3d b3 36 44 be fa 17 c7 3e a1 d9 b5 3d
       0.06781373 -0.19161491 0.3888548 0.088794
0003e0 48 3e 9f 3d eb c2 18 3e 32 d7 d7 3e 29 09 42 3e
       0.07775551 0.14918105 0.42156368 0.18948807
0003f0 c0 a4 a0 3d 10 15 ac 3c c1 5d a0 be b7 19 04 be
       0.078439236 0.021006137 -0.3132153 -0.12900434

Variable_35/read/_29__cf__29:0 f4 [1, 16, 1, 1]
000000 1e d9 7c 3f 29 03 95 3f 43 58 57 3f bc 32 26 3f
       0.98768795 1.1641589 0.8411905 0.64921165
000010 2e 61 83 3f 9b 5d 69 3f 7b 83 95 3f b3 b6 2a 3f
       1.0264032 0.91158456 1.168075 0.66685027
000020 7f c0 39 3f 8d 2c 3f 3f 87 0e 85 3f 2c 1e 73 3f
       0.7255935 0.74677354 1.0395058 0.94967914
000030 37 f3 7c 3f 14 80 7b 3f a0 95 85 3f 37 6e 7c 3f
       0.98808616 0.98242307 1.0436287 0.98605675

Variable_34/read/_28__cf__28:0 f4 [1, 16, 1, 1]
000000 92 05 d0 bf 10 22 e9 be 5f 11 7e 3e 29 c9 14 40
       -1.62517 -0.455338 0.24811314 2.3247778
000010 b9 84 c1 bf f9 9e b1 bd 72 29 81 3d cf 71 23 3e
       -1.5118629 -0.086729 0.06306733 0.15961383
000020 40 e3 73 bc 01 02 c1 3f 91 ce df be 68 37 57 3e
       -0.014885724 1.5078737 -0.43712285 0.2101723
000030 aa ed 86 bf 3c dc 25 bf b8 7c 52 be 9b de b3 bf
       -1.0541279 -0.64789176 -0.20555389 -1.4052309
