examples/style_transfer/model/soup-distribution.tflite (tflite, 150728 bytes, 52 tensors)

Conv2D_12_bias f4 [16]
0.0 0.0 0.0 0.0 0.0 0.0 0.0 0.0
0.0 0.0 0.0 0.0 0.0 0.0 0.0 0.0
00000000: 0000 0000 0000 0000 0000 0000 0000 0000
00000010: 0000 0000 0000 0000 0000 0000 0000 0000
00000020: 0000 0000 0000 0000 0000 0000 0000 0000
00000030: 0000 0000 0000 0000 0000 0000 0000 0000

Conv2D_13_bias f4 [3]
0.0 0.0 0.0
00000000: 0000 0000 0000 0000 0000 0000

Conv2D_1_bias f4 [8]
0.0 0.0 0.0 0.0 0.0 0.0 0.0 0.0
00000000: 0000 0000 0000 0000 0000 0000 0000 0000
00000010: 0000 0000 0000 0000 0000 0000 0000 0000

Conv2D_bias f4 [4]
0.0 0.0 0.0 0.0
00000000: 0000 0000 0000 0000 0000 0000 0000 0000

Variable/read f4 [4, 9, 9, 3]
-0.6437237 0.026452389 -0.024681885 0.2484023 0.3005124 0.12996256 -0.20847942 -0.078097165
-0.54879475 -0.21527429 -0.18878119 -0.19636686 0.56786186 0.069145665 0.62824535 0.94543177
0.29833505 0.5124118 0.06543173 0.17871754 -0.39400288 -0.060406473 0.17118298 0.116843976
-0.086817965 -0.14425269 -0.25418776 -0.2521684 -0.0043047634 -0.17682129 -0.014717315 -0.068128034
-0.4116177 -0.2792447 0.22024271 -0.24482019 0.087371245 0.119147845 0.3094777 0.5736685
-0.09582216 0.18354695 0.05651176 -0.2974488 -0.33429217 -0.31621146 -0.13125005 0.036223374
0.48743504 0.09540026 0.30688554 0.14999239 0.111960776 0.07672483 -0.06812692 0.06545425
-0.1351088 0.024582978 0.06928128 -0.1412046 0.16239297 0.39503673 0.3794147 0.44561398
-0.005592063 0.5907259 0.10855813 -0.097505026 -0.11422901 -0.09007496 0.044218075 -0.040249787
0.41168243 0.658203 0.8677277 0.4639148 0.5119444 0.34807816 0.050002966 0.10978829
-0.2806502 0.0794931 0.34501156 0.15045577 -0.21266884 -0.035662014 0.06439249 0.20986947
0.15747236 0.40346444 0.39320827 -0.017747076 -0.115124695 0.45093763 0.34493545 0.24151666
0.6804071 0.83773035 0.6281106 0.3294859 0.4103445 0.64871824 0.031914342 0.25407243
-0.23155834 0.30150694 0.25716054 -0.050970446 -0.13417089 -0.12083792 -0.4101366 -0.14394613
-0.1390324 -0.01697366 0.4985209 0.08890504 0.05079673 0.28675658 0.32962203 0.16799696
0.08165326 0.2793752 0.15336522 0.049513698 -0.055632893 0.03930306 -0.20249347 -0.09857978
-0.33672595 0.10294346 0.28803343 -0.023329882 0.39381057 0.15512486 0.38821125 -0.3583656
-0.0855404 0.06522336 0.44830534 0.13306853 0.4963698 0.5035208 0.26198757 0.21148936
-0.2907185 -0.16393648 -0.31474963 -0.61159265 -0.5564156 -0.33279258 -0.82265073 -0.7823479
-0.73630106 -0.46140918 -0.09219005 -0.6309173 -0.2037347 0.020895887 0.22247268 -0.09597185
-0.4061274 0.08204445 0.1366154 0.01563882 0.2455814 0.3011281 0.26539132 0.20328444
-0.25670144 -0.021870332 -0.1647674 -0.23979993 -0.19479565 -0.10002424 -0.34015372 -0.5769401
-0.3870311 -1.0349107 -0.814459 -1.0049604 -1.0195053 -0.46146423 -0.4768054 -0.28595534
-0.36126947 -0.055816095 -0.12850446 -0.708849 -0.5476498 0.063952304 -0.18178952 0.03615991
-0.19001581 -0.33761463 -0.32061112 -0.22419131 0.081595875 0.065134674 0.22426353 0.023315199
0.34716645 -0.37053552 -0.4005786 -0.38499254 -1.3037595 -0.50241137 -0.8706371 -0.7323791
-0.13168274 0.0719816 0.16507757 0.036348905 0.16130684 -0.08987899 -0.029453754 -0.0549745
0.11487176 0.019098451 -0.09196866 0.13748226 0.22225583 0.19477104 0.872984 0.5237169
0.7707428 0.49604988 0.23427734 0.034500666 -0.6490452 -0.34298998 -0.7206098 -0.8460996
-0.48281977 -0.51161027 0.4461962 0.12904951 0.5036665 0.44933942 0.3096645 0.24036537
0.251347 0.32562485 0.30798668 0.58732563 0.39334375 0.27348718 -0.0907746 -0.21383049
-0.19471079 -0.12485668 -0.18772642 0.04761539 0.31763032 0.04988413 0.16611658 0.12589175
00000000: 14cb 24bf aeb2 d83c aa31 cabc 2c5d 7e3e
00000010: c3dc 993e e814 053e a17b 55be 68f1 9fbd
00000020: d07d 0cbf dd70 5cbe db4f 41be 6514 49be
00000030: 655f 113f 3e9c 8d3d b0d4 203f d107 723f
00000040: 5fbf 983e 6b2d 033f 1201 863d bb01 373e
00000050: bfba c9be c76c 77bd 974a 2f3e e54b ef3d
00000060: 9ecd b1bd fab6 13be e624 82be 371c 81be
00000070: f90e 8dbb a410 35be e520 71bc b686 8bbd
00000080: 8ebf d2be 29f9 8ebe 4e87 613e 25b2 7abe
00000090: b2ef b23d c903 f43d dc73 9e3e f0db 123f
000000a0: 693e c4bd bbf3 3b3e e078 673d 364b 98be
000000b0: 5828 abbe 78e6 a1be 6a66 06be f65e 143d
000000c0: 1691 f93e 3661 c33d 1a20 9d3e 9b97 193e
000000d0: b14b e53d e821 9d3d 2086 8bbd e10c 863d
000000e0: f659 0abe 3e62 c93c 58e3 8d3d f097 10be
000000f0: 584a 263e 4142 ca3e a542 c23e 8427 e43e
00000100: a03d b7bb d039 173f ba53 de3d b7b0 c7bd
00000110: e6f0 e9bd 3879 b8bd 031e 353d f6dc 24bd
00000120: 0ac8 d23e fe7f 283f 6723 5e3f 3e86 ed3e
00000130: ca0e 033f 4d37 b23e e9cf 4c3d afd8 e03d
00000140: 62b1 8fbe 47cd a23d 5ba5 b03e 1411 1a3e
00000150: dcc5 59be 5512 12bd 36e0 833d 06e8 563e
00000160: 6f40 213e e492 ce3e 9852 c93e 5162 91bc
00000170: 7fc6 ebbd 4ce1 e63e 619b b03e 2550 773e
00000180: 292f 2e3f 7f75 563f dbcb 203f 60b2 a83e
00000190: ad18 d23e 6612 263f 9db8 023d c815 823e
000001a0: a11d 6dbe 1e5f 9a3e 8caa 833e 63c6 50bd
000001b0: 1864 09be df79 f7bd 6dfd d1be 9d66 13be
000001c0: 825e 0ebe 580c 8bbc 223e ff3e d813 b63d
000001d0: 3b10 503d c2d1 923e 38c4 a83e 6507 2c3e
000001e0: d339 a73d 440a 8f3e c60b 1d3e e0ce 4a3d
000001f0: 51df 63bd 3ffc 203d 735a 4fbe 32e4 c9bd
00000200: 5867 acbe 05d4 d23d 1e79 933e 4f1e bfbc
00000210: 8aa1 c93e 0dd9 1e3e a0c3 c63e b27b b7be
00000220: ce2f afbd d393 853d 4788 e53e 1e43 083e
00000230: 2f24 fe3e bde6 003f 3c23 863e ab90 583e
00000240: 0ed9 94be f7de 27be dd26 a1be 5691 1cbf
00000250: 4171 0ebf ca63 aabe 3d99 52bf f447 48bf
00000260: 3a7e 3cbf d33d ecbe 23ce bcbd cc83 21bf
00000270: d49f 50be da2d ab3c e1cf 633e e48c c4bd
00000280: eeef cfbe ec06 a83d e8e4 0b3e fc1c 803c
00000290: b179 7b3e 762d 9a3e 5fe1 873e cc29 503e
000002a0: 5f6e 83be 6929 b3bc c9b8 28be 1d8e 75be
000002b0: 8378 47be 82d9 ccbd a128 aebe 59b2 13bf
000002c0: f128 c6be f477 84bf 6380 50bf 8ba2 80bf
000002d0: 267f 82bf 0a45 ecbe d61f f4be bd68 92be
000002e0: 50f8 b8be 6b9f 64bd ac96 03be 2177 35bf
000002f0: c732 0cbf 6df9 823d 0827 3abe 6a1c 143d
00000300: 8193 42be d3db acbe 2427 a4be 6892 65be
00000310: bd1b a73d 5465 853d 57a5 653e 84ff be3c
00000320: cdbf b13e d5b6 bdbe a318 cdbe be1d c5be
00000330: 97e1 a6bf 089e 00bf 13e2 5ebf 327d 3bbf
00000340: d7d7 06be 176b 933d 180a 293e 97e2 143d
00000350: 9f2d 253e 7a12 b8bd 0049 f1bc f12c 61bd
00000360: e341 eb3d 5b74 9c3c 115a bcbd 26c8 0c3e
00000370: 0897 633e 0f72 473e e17b 5f3f 5012 063f
00000380: 664f 453f 40fa fd3e 66e6 6f3e 9250 0d3d
00000390: d427 26bf 629c afbe e279 38bf fc99 58bf
000003a0: 2734 f7be e4f8 02bf d473 e43e 8e25 043e
000003b0: 4af0 003f d10f e63e 588c 9e3e 5722 763e
000003c0: 8eb0 803e 4db8 a63e 6eb0 9d3e f95a 163f
000003d0: 5a64 c93e 8306 8c3e 09e8 b9bd 61f6 5abe
000003e0: 4462 47be dcb4 ffbd 5b3b 40be 5b08 433d
000003f0: 71a0 a23e 4d53 4c3d 771a 2a3e c4e9 003e

Variable_1/read f4 [4]
1.0306009 1.1197383 0.3531104 -0.2003497
00000000: bbea 833f 9653 8f3f e3ca b43e 7928 4dbe

Variable_10/read f4 [16]
-0.05085325 -0.08703976 0.17029199 -0.16415848 0.2904978 0.11413463 0.1889231 0.19943134
0.32390314 -0.6896797 0.23485264 0.55710334 0.36516863 -0.2609905 0.18308565 0.15164025
00000000: 7f4b 50bd e741 b2bd 0661 2e3e 2919 28be
00000010: 21bc 943e 6bbf e93d 0f75 413e bb37 4c3e
00000020: a2d6 a53e d98e 30bf 367d 703e 539e 0e3f
00000030: 62f7 ba3e 8ca0 85be ce7a 3b3e 9547 1b3e

Variable_11/read f4 [16]
1.9578822 1.5329653 0.6248313 1.3030375 0.6992898 0.9157035 1.2375164 0.8823497
0.7940535 1.0127647 1.1400107 0.6087839 0.8787888 0.86380106 0.89767736 0.9760416
00000000: e29b fa3f 3538 c43f f2f4 1f3f efc9 a63f
00000010: a804 333f 8b6b 6a3f f066 9e3f ace1 613f
00000020: 1747 4b3f 46a2 813f dfeb 913f 43d9 1b3f
00000030: 4ef8 603f 1122 5d3f 2fce 653f dddd 793f

Variable_12/read f4 [16, 3, 3, 16]
-0.2980775 -0.5442735 -0.8648159 -0.0583352 -0.59670883 0.30368757 -0.07219859 -0.1490243
0.3508466 0.087639585 -0.06696608 -0.048535418 0.55837756 -0.81836194 -0.38753727 -0.06263928
0.12520427 0.26230323 -0.016829105 0.0041440795 -0.11024164 0.3412469 0.16001424 -0.5545598
0.52180094 -0.531254 0.2862841 0.07063403 0.2499865 -0.5607355 0.034172215 -0.29501557
-0.2801553 -0.015021603 -0.37397903 -0.19797128 -0.5491713 0.2964654 -0.5067536 0.057975203
0.11095856 -0.24048302 0.32895166 0.05392562 -0.12807146 -0.361119 -0.3713218 0.21589749
0.24765928 -0.1623575 0.16834804 -0.108007565 -0.42316535 0.32901263 -0.06996025 0.24771965
-0.35771242 -0.4115856 7.8527795e-05 0.032362416 0.2009736 -0.055500455 0.5815315 -0.029873632
0.52553433 0.9172228 0.4752612 0.35853025 0.25504738 -0.23160164 0.4052998 0.58925897
0.566651 -1.3369136 0.63771766 0.4239309 0.12685621 -0.3422487 -0.22036172 -0.17846498
0.5363044 0.7115165 -0.16812266 -0.385379 -0.5794457 0.020704417 -0.8901306 0.12698254
0.11646097 -1.0240241 0.4085129 0.08673338 0.5190198 -0.14022826 -0.08943317 0.12925288
-0.23512502 -0.19874807 -0.36418518 -0.22162095 -0.5864576 0.4784035 -0.14821586 0.5358825
-0.5713463 -0.60850275 -0.588944 -0.17037854 0.49444893 -0.094414905 -0.03253355 0.10782884
0.14484748 0.040588263 -0.64340913 -0.27177644 -0.38619384 0.057324976 -0.70423776 0.5331922
0.019439818 -0.47765362 0.25412372 0.495424 0.48252177 -0.4004883 -0.46509874 -0.18828353
0.11914685 -0.19193853 0.12819676 -0.40467754 -0.44619876 -0.25698397 0.013504861 0.07551845
0.5532515 -0.20083311 0.5183121 0.15465991 0.5933735 -0.29932082 -0.65203327 -0.17363
-0.17484124 -0.086266935 -0.06355616 -0.28975883 -0.20480084 -0.094583616 -0.6118036 -0.033043496
0.4514066 -0.071878836 -0.3290682 0.23487657 0.12406039 -0.25338095 0.45606497 0.51066566
-0.3814337 -0.02823545 -0.057864904 -0.5022271 0.349807 -0.38488445 -0.38170958 0.26660872
-0.45242578 0.71985954 0.13200854 0.56582457 0.19179638 -0.41207913 -0.1299284 -0.02608952
-0.20771165 -0.17239211 0.10378093 -0.34029096 0.029518576 0.15930155 0.21474159 -0.29522967
0.17036477 0.52027416 0.64709604 0.28954387 0.22388852 -0.18074808 0.067932494 -0.53683865
-0.46473396 -0.45227304 -0.04736915 -0.26644376 0.1289283 0.09612397 -0.38060352 -0.10322562
-0.03657114 0.57912296 0.76074475 0.49966982 0.34331995 0.19991861 -0.68311644 -0.32936937
-0.8774678 -0.42212924 0.10104359 0.070262775 -0.0699584 0.06739484 0.67153436 0.17223017
0.4250993 0.14007995 0.8809062 0.2151573 0.118680775 0.15166299 -0.0029139982 -0.31694585
-0.46177182 -0.36290216 -0.3777593 0.68190354 -0.01181949 0.11438874 -0.3112353 0.2581743
0.2966444 -0.019549021 -0.44480458 -0.5519902 0.02501488 0.123864464 0.013804635 0.73323125
0.6059452 0.9528317 -0.13868956 0.29604778 0.1740745 0.43671376 0.80021954 0.10016428
-0.054905005 0.37782177 0.85929245 -0.27951363 -0.029083708 -0.030655751 -0.082153365 -0.6454621
00000000: 9d9d 98be 8255 0bbf 9364 5dbf e4f0 6ebd
00000010: e9c1 18bf f07c 9b3e dbdc 93bd d399 18be
00000020: 2aa2 b33e 627c b33d 8325 89bd 13cd 46bd
00000030: d5f1 0e3f 2b80 51bf 496b c6be 0649 80bd
00000040: 8c35 003e 9c4c 863e 31dd 89bc 0fcb 873b
00000050: 5ec6 e1bd eab7 ae3e c6da 233e a2f7 0dbf
00000060: bf94 053f 4300 08bf d493 923e 93a8 903d
00000070: 76fc 7f3e 5d8c 0fbf 2af8 0b3d 480c 97be
00000080: 8470 8fbe 2b1d 76bc 2e7a bfbe fcb8 4abe
00000090: 7e96 0cbf 50ca 973e 9bba 01bf 6877 6d3d
000000a0: 3e3e e33d 2e41 76be 5a6c a83e 1ce1 5c3d
000000b0: 2a25 03be 97e4 b8be e41d bebe 3b14 5d3e
000000c0: 659a 7d3e 0b41 26be 6e63 2c3e 1233 ddbd
000000d0: 21a9 d8be 5874 a83e 5247 8fbd 38aa 7d3e
000000e0: 1526 b7be 59bb d2be 4aaf a438 748e 043d
000000f0: 06cc 4d3e 7254 63bd 40df 143f 8cb9 f4bc
00000100: 6b89 063f 1dcf 6a3f 7055 f33e 4791 b73e
00000110: 9295 823e fb28 6dbe 7583 cf3e add9 163f
00000120: 0a10 113f fc1f abbf 7741 233f 790d d93e
00000130: 98e6 013e 393b afbe 81a6 61be 86bf 36be
00000140: 3f4b 093f f225 363f 5928 2cbe 6550 c5be
00000150: 8e56 14bf 4f9c a93c 99df 63bf b607 023e
00000160: 1783 ee3d 3913 83bf 9a28 d13e 45a1 b13d
00000170: 7bde 043f ff97 0fbe bd28 b7bd de5a 043e
00000180: 9dc4 70be 9d84 4bbe 7b76 babe 9af0 62be
00000190: 1622 16bf 4ef1 f43e e6c5 17be 982f 093f
000001a0: c043 12bf d6c6 1bbf 09c5 16bf b677 2ebe
000001b0: 6928 fd3e 9a5c c1bd e641 05bd 5ed5 dc3d
000001c0: e652 143e e13f 263d 76b6 24bf 4826 8bbe
000001d0: 33bb c5be 98cd 6a3d ed48 34bf 497f 083f
000001e0: 4140 9f3c 048f f4be 811c 823e 37a8 fd3e
000001f0: 180d f73e cd0c cdbe 6c21 eebe 66cd 40be
00000200: 4403 f43d 898b 44be 0346 033e e531 cfbe
00000210: 2a74 e4be 6793 83be 7e43 5d3c 6ba9 9a3d
00000220: e4a1 0d3f 32a7 4dbe 1ab0 043f 2b5f 1e3e
00000230: 53e7 173f 9440 99be a7eb 26bf 10cc 31be
00000240: 9509 33be b8ac b0bd bb29 82bd 455b 94be
00000250: 50b7 51be 0eb5 c1bd 299f 1cbf 9e58 07bd
00000260: c41e e73e 3635 93bd a17b a8be 7c83 703e
00000270: 6013 fe3d 26bb 81be 5981 e93e fcba 023f
00000280: 474b c3be 084e e7bc c003 6dbd f591 00bf
00000290: e719 b33e 930f c5be 706f c3be f080 883e
000002a0: 5aa4 e7be b748 383f 3f2d 073e e1d9 103f
000002b0: 4566 443e 09fc d2be f30b 05be b0b9 d5bc
000002c0: 5db2 54be 8f87 30be 198b d43d 9e3a aebe
000002d0: f1d0 f13c f21f 233e 38e5 5b3e 5828 97be
000002e0: 1a74 2e3e b030 053f 16a8 253f 183f 943e
000002f0: 0843 653e 0616 39be 3120 8b3d 426e 09bf
00000300: 9cf1 edbe 5590 e7be 2706 42bd 516b 88be
00000310: c805 043e a5dc c43d 77de c2be f467 d3bd
00000320: 9fcb 15bd 6741 143f 2bc0 423f b9d4 ff3e
00000330: a2c7 af3e 77b7 4c3e b8e0 2ebf 1aa3 a8be
00000340: bba1 60bf 5321 d8be f1ef ce3d eee5 8f3d
00000350: 5a46 8fbd 4e06 8a3d ade9 2b3f 1b5d 303e
00000360: 9ea6 d93e 1e71 0f3e 1283 613f 3252 5c3e
00000370: e80e f33d 8b4d 1b3e c7f8 3ebb ba46 a2be
00000380: 5b6d ecbe 50ce b9be ab69 c1be 3b91 2e3f
00000390: 89a6 41bc a544 ea3d 3c5a 9fbe 6c2f 843e
000003a0: c6e1 973e 4525 a0bc 6dbd e3be 3b4f 0dbf
000003b0: 01ec cc3c a7ac fd3d d62c 623c 0bb5 3b3f
000003c0: 3a1f 1b3f c7ec 733f a304 0ebe 9393 973e
000003d0: 9640 323e f298 df3e 30db 4c3f ee22 cd3d
000003e0: 12e4 60bd db71 c13e 97fa 5b3f 691c 8fbe
000003f0: f540 eebc c521 fbbc 0640 a8bd 013d 25bf

Variable_13/read f4 [16]
-0.042781938 -0.2836423 0.15927197 0.5159147 -0.028123101 0.23721465 0.2948839 0.063827395
0.37434798 -0.05491976 0.31752065 0.18670417 0.0069114366 -0.23186812 0.13146412 -0.008702824
00000000: 1d3c 2fbd 9039 91be 3118 233e fc12 043f
00000010: 6b62 e6bc 66e8 723e 06fb 963e f0b7 823d
00000020: 8aaa bf3e 8bf3 60bd 1192 a23e 612f 3f3e
00000030: 5579 e23b d66e 6dbe 889e 063e 4a96 0ebc

Variable_14/read f4 [16]
0.37188625 0.6916366 0.6302253 0.5462301 0.41890943 0.43889552 0.44791836 0.45151088
0.549719 0.36239544 0.3773356 0.5865257 0.37231097 0.43561116 0.6272348 0.5367605
00000000: e067 be3e 190f 313f 7256 213f bcd5 0b3f
00000010: 4c7b d63e eab6 e03e 8e55 e53e 6f2c e73e
00000020: 62ba 0c3f e58b b93e 2232 c13e 8c26 163f
00000030: 8b9f be3e 6d08 df3e 7692 203f 2369 093f

Variable_15/read f4 [16, 3, 3, 16]
-1.4869221 -0.25861415 -0.36752075 0.042200867 0.47252724 0.42533362 0.2800487 0.19471022
-0.012454846 -0.58017176 0.19298902 0.041896064 0.3675924 -0.45418698 -0.0941406 -0.8050872
-0.43222892 -0.61754876 -0.6617575 -0.18156594 0.34206623 0.33601215 0.096688986 -0.052490987
-0.92416567 -0.34638923 0.15069923 -0.10927918 0.02423055 -0.40719083 -0.25633293 0.11619097
-0.1598512 -0.10107417 -0.87424254 0.00512754 -0.26893315 0.010594715 0.38390884 0.049397886
-0.30039218 -0.41491276 0.10862012 0.6857617 -0.13067833 0.081599325 0.024966717 -0.006218112
-0.42374974 -0.5147356 0.32279566 0.18924612 0.22530584 0.3174473 -0.0964395 0.47709498
-0.46442872 -0.3705844 -0.129184 -0.1567923 0.92326283 -0.45934385 0.0126884 -0.5232845
0.19798556 -0.29042917 0.65482414 0.059890155 0.012324351 0.51629925 -0.11832219 0.42709032
-0.90821713 -0.32490385 -0.33099943 -0.11115041 0.70110214 0.2207776 -0.143324 0.24334186
0.3677799 0.11352961 -0.061491556 -0.030745218 0.22657283 -0.20208904 0.20945726 0.26993498
-0.2645748 -0.19986118 -0.07893577 0.4580723 0.20312285 0.31809202 0.091603965 0.20855524
-0.68496805 -0.59308034 -0.018966509 -0.01233677 -0.45802382 0.22480205 -0.36879605 0.3121478
0.114305064 0.71837336 0.12541978 0.009759607 0.42438635 -0.38423508 0.06725622 -0.10511136
0.030477712 0.14848301 0.023012461 0.10412482 0.045337003 0.5781948 -0.1508181 0.1288343
-0.52605027 -0.38159114 0.2830564 0.077749655 0.20782503 -0.14095852 -0.58159333 0.6971273
0.73506457 0.60936874 -0.34606546 -0.23736672 -0.37010548 -0.63877755 0.05711142 0.28612813
-0.20923752 -0.020576872 0.14760369 0.799977 -0.14724977 0.058361623 0.84155387 -0.08543066
0.25600198 -0.073109485 -0.7927172 0.04130742 0.17184307 0.40353206 -0.42241007 -0.17471834
-0.033355583 0.32288432 -0.546638 0.12990996 -0.46860647 -0.4544967 -0.36362082 0.09823056
-0.44662225 -0.08577811 -0.27889445 -0.092351615 0.30955455 -0.6845717 -0.6162821 0.3308852
-0.7407511 -0.041453984 -0.17505498 0.06651991 -0.8141734 0.025115678 -0.5190076 -0.3130119
-0.62192714 -0.5941729 -0.13858393 -0.10398147 0.6752323 -0.6259223 0.40307018 0.34770778
0.007582849 -0.53798777 0.1557781 -0.13996486 -0.54803705 0.31322992 -0.011402817 0.33065578
0.56878924 -0.12444366 -0.08142881 -0.038023885 0.18629576 0.28036994 -0.43709102 -0.25824767
-0.35283044 0.42671445 -0.27944437 -0.491517 -0.02644983 -0.098087475 -0.34713674 0.2940207
0.22610779 -0.4872339 0.08074099 -0.14834638 0.13033146 -0.4131013 0.042813946 0.10415142
-0.78794473 -0.027716668 0.010120257 -0.18098164 0.21782576 0.39788905 -0.54892784 0.040732615
-0.120520204 -0.375414 0.012301793 0.12129029 0.027536761 -0.08043649 0.64319164 0.6276616
-0.017987924 -0.22815989 -0.47672367 -0.26683286 -0.13672982 0.8401467 -0.04243428 0.5382875
0.3577913 -0.07052623 -0.68460214 0.11192983 -0.15014187 0.64385504 -0.8824108 -0.069138035
-0.7362906 0.22729215 0.3382381 -0.1906301 -0.19316074 0.03489383 -0.026737498 0.20217429
00000000: 7753 bebf 1369 84be ae2b bcbe d1da 2c3d
00000010: 17ef f13e 54c5 d93e 8b62 8f3e 1e62 473e
00000020: 690f 4cbc 2386 14bf ea9e 453e 359b 2b3d
00000030: 1235 bc3e 328b e8be c9cc c0bd 321a 4ebf
00000040: 1c4d ddbe ad17 1ebf f168 29bf 6cec 39be
00000050: 4e23 af3e c909 ac3e e004 c63d ca00 57bd
00000060: 1f96 6cbf ee59 b1be e650 1a3e c3cd dfbd
00000070: 257f c63c 517b d0be 123e 83be 88f5 ed3d
00000080: 08b0 23be f9ff cebd 5cce 5fbf ec04 a83b
00000090: 9bb1 89be 7595 2d3c b38f c43e 7055 4a3d
000000a0: 01cd 99be 726f d4be 3a74 de3d 148e 2f3f
000000b0: 8ad0 05be 8c1d a73d 0087 cc3c 4ec1 cbbb
000000c0: baf5 d8be b6c5 03bf 7945 a53e bcc9 413e
000000d0: 93b6 663e 7488 a23e 1382 c5bd cb45 f43e
000000e0: 9ac9 edbe 3dbd bdbe cf48 04be 298e 20be
000000f0: f45a 6c3f 1e2f ebbe 02e3 4f3c f9f5 05bf
00000100: babc 4a3e 22b3 94be 8ea2 273f 614f 753d
00000110: 13ec 493c 302c 043f e852 f2bd 95ab da3e
00000120: eb80 68bf cc59 a6be c278 a9be d3a2 e3bd
00000130: 6e7b 333f 8613 623e 87c3 12be 9c2e 793e
00000140: a64d bc3e 3682 e83d 92de 7bbd 65dd fbbc
00000150: b502 683e 6ef0 4ebe f77b 563e eb34 8a3e
00000160: 5976 87be 69a8 4cbe 14a9 a1bd 7488 ea3e
00000170: 70ff 4f3e f5dc a23e dc9a bb3d 818f 553e
00000180: 115a 2fbf 1dd4 17bf a75f 9bbc 2a20 4abc
00000190: 1982 eabe 8232 663e d6d2 bcbe d6d1 9f3e
000001a0: c618 ea3d 51e7 373f 0b6e 003e c2e6 1f3c
000001b0: 2b49 d93e 76ba c4be a1bd 893d a044 d7bd
000001c0: 65ac f93c ee0b 183e a184 bc3c 653f d53d
000001d0: 4bb3 393d 9304 143f 0f70 1abe 24ed 033e
000001e0: 3bab 06bf ea5f c3be c5ec 903e 363b 9f3d
000001f0: 16d0 543e 6e57 10be 4de3 14bf ef76 323f
00000200: 312d 3c3f 97ff 1b3f 7e2f b1be 4310 73be
00000210: 777e bdbe ed86 23bf aaed 693d 637f 923e
00000220: 5c42 56be d490 a8bc 6c25 173e 4bcb 4c3f
00000230: a5c8 16be 990c 6f3d 1370 573f 45f6 aebd
00000240: b112 833e 6dba 95bd 84ef 4abf f831 293d
00000250: a1f7 2f3e c19b ce3e 2246 d8be 5de9 32be
00000260: dd9f 08bd 1851 a53e 78f0 0bbf 1e07 053e
00000270: 30ed efbe cbb3 e8be 822c babe 1b2d c93d
00000280: acab e4be 6fac afbd 41cb 8ebe d822 bdbd
00000290: ef7d 9e3e 1740 2fbf aac4 1dbf c969 a93e
000002a0: dda1 3dbf a7cb 29bd 9d41 33be 973b 883d
000002b0: ab6d 50bf 65bf cd3c afdd 04bf 1943 a0be
000002c0: 9e36 1fbf b71b 18bf f2e8 0dbe 3df4 d4bd
000002d0: 06dc 2c3f 723c 20bf 375f ce3e c106 b23e
000002e0: 8c79 f83b 91b9 09bf 4b84 1f3e f352 0fbe
000002f0: 284c 0cbf ac5f a03e e2d2 3abc b74b a93e
00000300: 2c9c 113f 51dc febd 26c4 a6bd efbe 1bbd
00000310: 51c4 3e3e a68c 8f3e 65ca dfbe 0a39 84be
00000320: 31a6 b4be 517a da3e 5513 8fbe 1ea8 fbbe
00000330: 50ad d8bc 16e2 c8bd e8bb b1be e289 963e
00000340: cd88 673e b976 f9be 885b a53d 1de8 17be
00000350: 9c75 053e 0382 d3be ad5d 2f3d 574d d53d
00000360: bfb6 49bf 110e e3bc 6fcf 253c 4053 39be
00000370: b70d 5f3e 1db8 cb3e 8986 0cbf 3ed7 263d
00000380: 4cd3 f6bd 4436 c0be 768d 493c 0b67 f83d
00000390: c694 e13c e3bb a4bd 35a8 243f 6eae 203f
000003a0: 695b 93bc bfa2 69be 2015 f4be 519e 88be
000003b0: e702 0cbe db13 573f 91cf 2dbd 36cd 093f
000003c0: 6c30 b73e 0e70 90bd 1642 2fbf 773b e53d
000003d0: cabe 19be afd3 243f ade5 61bf 3e98 8dbd
000003e0: 8a7d 3cbf 46bf 683e 8b2d ad3e 8934 43be
000003f0: eecb 45be d5ec 0e3d 9908 dbbc c706 4f3e

Variable_16/read f4 [16]
0.1361773 0.23855695 -0.041290943 0.31745207 -0.3099051 -0.5507128 0.3097058 0.03115471
0.7369742 0.26197976 -0.020165155 0.4321583 -0.0830369 0.5627846 -0.5914563 0.070606366
00000000: 1072 0b3e 4648 743e b120 29bd 1489 a23e
00000010: e2ab 9ebe 84fb 0cbf c291 9e3e 2a38 ff3c
00000020: 57aa 3c3f 3622 863e 6531 a5bc da43 dd3e
00000030: 400f aabd a712 103f ae69 17bf 129a 903d

Variable_17/read f4 [16]
0.98929507 1.0338911 1.0224527 0.8678245 1.0403912 1.2187479 1.3610344 1.3876383
0.71967155 0.9091974 1.0361668 0.95940155 1.5812932 0.76938075 1.4219238 0.9138588
00000000: 7142 7d3f 8b56 843f bbdf 823f bf29 5e3f
00000010: 8a2b 853f eeff 9b3f 6036 ae3f 229e b13f
00000020: 653c 383f 29c1 683f 1da1 843f 579b 753f
00000030: d167 ca3f 23f6 443f 9901 b63f a6f2 693f

Variable_18/read f4 [16, 3, 3, 16]
-0.61226547 0.498741 -0.13202426 0.017501375 -0.44406486 0.073520154 0.123477116 -0.06927424
0.03902172 -0.449014 -0.39716431 0.2577824 -0.48484477 0.026654227 0.26752165 0.093905166
-0.31789222 -0.25293943 -0.117253765 -0.084902816 0.49490097 0.11908193 0.49263498 -0.6508241
0.08652959 -0.3472883 -0.49502695 0.2959394 -0.12817636 0.38415074 -0.26053393 0.42345655
-0.3316414 0.16763043 0.48878512 -0.032505415 0.11097934 0.33996487 -0.11607734 -0.17589542
-0.26682886 -0.19215712 -0.064010635 0.14576533 -0.47726306 0.056355122 0.0055772737 0.13266508
-0.21060276 0.1394939 -0.031744502 0.3186172 -0.084940135 -0.06942783 -0.6913876 0.7353584
0.3377462 -0.92387754 -0.16047539 0.06490502 0.24259117 -0.3763763 0.6223024 0.3344019
-0.45477712 0.3667134 0.34596092 -0.70346165 0.7335371 -0.25022253 0.1668243 -0.0042499574
0.25731102 -1.017445 -0.111949995 -0.021105457 0.29314345 -0.17754194 0.31843615 0.53322196
-0.33980682 -0.0866786 0.59484065 0.14826846 0.7013162 0.17365593 -0.3094715 0.36736247
0.17064431 -0.4843264 -0.30344608 0.12556519 0.13901477 -0.3671752 0.37611556 0.042454984
-0.23491493 0.093462504 -0.69116 0.5020765 0.96030056 0.2697812 -0.12077588 0.009351122
-0.043378986 -0.8360077 -0.17104144 0.16976348 -0.31502756 -1.0186787 -0.21081254 0.36703277
0.19153115 0.37513208 0.09567923 0.12300998 0.5037748 -0.2843566 -0.2768818 0.37984627
0.45547557 -0.23542179 0.10915261 0.61516297 0.43027744 -0.44036832 -0.7277901 0.7340419
-0.6250222 -0.4559888 0.68626463 -0.22148116 0.62135047 0.018293958 -0.09681703 -0.21863693
0.27263287 0.09204376 -0.6273192 0.6361529 -0.35212338 -0.22612406 -0.35947958 0.34503093
-0.6160127 -0.19179754 -0.08441566 -0.17081875 -0.17184041 -0.27757266 0.7465946 0.021647794
-0.4766246 -0.14875196 -0.33698836 -0.10080555 0.25515997 -0.26206353 -0.35679194 -0.42167416
-0.19131663 -0.16300173 0.58154213 -0.19544058 -0.48637703 -0.19300821 -0.12120784 0.04691092
0.047048036 0.1778959 -0.3091372 -0.2872344 -0.34893203 0.1647317 -0.12733988 -0.19982873
-0.022624783 0.13881214 -0.053919706 -0.35767728 -0.16855544 -0.9019793 -0.20577228 -0.07923538
0.7773115 0.12772594 -0.5275165 -0.21636488 -0.12211935 0.21469954 -0.29699597 0.016656842
0.11673371 -0.15140304 -0.7272029 -0.14145729 -0.16330327 0.17401716 0.6147289 0.048877977
-0.23445679 0.22553584 -0.22882001 -0.13348795 -0.38350084 0.22598733 0.5761934 -0.26399785
-0.5293656 0.17164658 -0.3589574 0.042041473 -0.17210849 0.37117448 0.4188232 -0.6248218
-0.05436956 0.19982326 -0.7233461 -0.0025133877 -0.78417385 0.23073608 -0.21843824 -0.15121715
0.4970428 0.082058094 0.033503003 -0.1645011 0.39982167 0.5221907 -1.1644748 0.20846538
0.13265239 0.45472246 0.18043733 -0.23425326 -0.06061021 -0.0026876803 -0.32412466 -0.1417364
0.2598668 0.06420343 -0.33544904 -0.38210797 -0.05357667 -0.048078854 0.14775622 -0.0030325619
0.725713 0.41211426 -0.005231964 0.11865151 0.14996265 -0.48405555 0.84959567 0.23684083
00000000: 6ebd 1cbf fb5a ff3e 5e31 07be 0b5f 8f3c
00000010: 785c e3be bc91 963d 92e1 fc3d a7df 8dbd
00000020: 3dd5 1f3d 2ae5 e5be 1f59 cbbe 0efc 833e
00000030: 933d f8be f759 da3c 99f8 883e 5a51 c03d
00000040: c5c2 a2be 4781 81be be22 f0bd 87e1 adbd
00000050: a963 fd3e 3ae1 f33d a73a fc3e 699c 26bf
00000060: 6d36 b13d c6cf b1be 2c74 fdbe 5e85 973e
00000070: aa40 03be 68af c43e b464 85be 4ccf d83e
00000080: e7cc a9be 50a7 2b3e 0b42 fa3e 6624 05bd
00000090: 2349 e33d e00f ae3e f5b9 edbd ee1d 34be
000000a0: cb9d 88be d6c4 44be 0218 83bd 8243 153e
000000b0: d35b f4be a1d4 663d 90c1 b63b 5bd9 073e
000000c0: 40a8 57be 7dd7 0e3e 8606 02bd cb21 a33e
000000d0: 18f5 adbd 2e30 8ebd c7fe 30bf 7340 3c3f
000000e0: 12ed ac3e 3d83 6cbf a953 24be ecec 843d
000000f0: d269 783e 65b4 c0be 364f 1f3f ba36 ab3e
00000100: 8cd8 e8be dcc1 bb3e ca21 b13e 1016 34bf
00000110: 16c9 3b3f 2b1d 80be fdd3 2a3e 3a43 8bbb
00000120: 45be 833e a33b 82bf 0a46 e5bd 5ae5 acbc
00000130: e616 963e 8ecd 35be 100a a33e 3c81 083f
00000140: 29fb adbe 8d84 b1bd 7a47 183f b0d3 173e
00000150: 7589 333f dcd2 313e 0c73 9ebe ef16 bc3e
00000160: 62bd 2e3e a1f9 f7be 495d 9bbe 2994 003e
00000170: e359 0e3e 63fe bbbe 3892 c03e 47e5 2d3d
00000180: 8a8d 70be 4569 bf3d ddef 30bf 1688 003f
00000190: 42d6 753f c320 8a3e 5859 f7bd 7335 193c
000001a0: 2aae 31bd 9a04 56bf 7d25 2fbe 7ad6 2d3e
000001b0: 4b4b a1be 1064 82bf 3edf 57be b8eb bb3e
000001c0: be20 443e 5011 c03e 79f3 c33d a8ec fb3d
000001d0: 63f7 003f 3097 91be 74c3 8dbe 367b c23e
000001e0: 1834 e93e 6912 71be 678b df3d 527b 1d3f
000001f0: 534d dc3e f577 e1be 7450 3abf 2cea 3b3f
00000200: 7401 20bf 5d77 e9be 0aaf 2f3f f5cb 62be
00000210: d310 1f3f 36dd 953c 0248 c6bd 5ce2 5fbe
00000220: 8996 8b3e 7081 bc3d fe97 20bf ebda 223f
00000230: 8449 b4be 118d 67be b50d b8be e5a7 b03e
00000240: 02b3 1dbf 9366 44be 1ee2 acbd 1ceb 2ebe
00000250: eff6 2fbe 011e 8ebe d320 3f3f b756 b13c
00000260: 2408 f4be 6f52 18be bd89 acbe 2473 cebd
00000270: 54a4 823e 312d 86be 6fad b6be ade5 d7be
00000280: 82e8 43be ede9 26be f2df 143f 9321 48be
00000290: 6906 f9be f2a3 45be d13b f8bd aa25 403d
000002a0: 71b5 403d 582a 363e 3b47 9ebe 6310 93be
000002b0: 38a7 b2be 6daf 283e 6365 02be e79f 4cbe
000002c0: 9c57 b9bc c524 0e3e e9da 5cbd 7a21 b7be
000002d0: cc99 2cbe 1ee8 66bf f8b5 52be 2946 a2bd
000002e0: e3fd 463f 97ca 023e 520b 07bf c18e 5dbe
000002f0: b619 fabd 32da 5b3e db0f 98be ee73 883c
00000300: 1512 ef3d 6609 1bbe f829 3abf 2eda 10be
00000310: f938 27be 8e31 323e e05e 1d3f 4634 483d
00000320: 7115 70be def2 663e cb4f 6abe 11b1 08be
00000330: 395a c4be 3969 673e 6981 133f ba2a 87be
00000340: 8184 07bf 1fc4 2f3e 44c9 b7be ae33 2c3d
00000350: 353d 30be 950a be3e ff6f d63e 52f4 1fbf
00000360: 9eb2 5ebd 789e 4c3e 362d 39bf a6b7 24bb
00000370: 9ebf 48bf 1446 6c3e 46ae 5fbe abd8 1abe
00000380: 657c fe3e 130e a83d 723a 093d fa72 28be
00000390: 6db5 cc3e 4aae 053f 830d 95bf f377 553e
000003a0: 07d6 073e 62d1 e83e 90c4 383e 16e0 6fbe
000003b0: 6942 78bd cb23 30bb abf3 a5be 5923 11be
000003c0: 430d 853e 177d 833d fabf abbe a8a3 c3be
000003d0: 3673 5bbd 55ee 44bd 684d 173e f2bd 46bb
000003e0: 54c8 393f a400 d33e e570 abbb 90ff f23d
000003f0: cf8f 193e 21d6 f7be 1a7f 593f 6786 723e

Variable_19/read f4 [16]
-0.042781398 -0.28364182 0.15927242 0.51591265 -0.028122885 0.23721588 0.2948847 0.06382776
0.37434545 -0.05491971 0.31752014 0.18670453 0.006910901 -0.23186836 0.13146389 -0.008703453
00000000: 8c3b 2fbd 8039 91be 4f18 233e da12 043f
00000010: f761 e6bc b8e8 723e 21fb 963e 21b8 823d
00000020: 35aa bf3e 7df3 60bd 0092 a23e 792f 3f3e
00000030: d774 e23b e66e 6dbe 789e 063e ed98 0ebc

Variable_2/read f4 [4]
1.4696358 0.73680294 0.6092264 0.6663449
00000000: 071d bc3f 1e9f 3c3f 43f6 1b3f 9495 2a3f

Variable_20/read f4 [16]
0.60470206 0.57702756 0.82290053 0.7418981 0.47131553 0.7086396 0.6402534 0.62409943
0.51968515 0.7810278 0.48489624 0.9847952 0.46305406 0.65373844 0.5940533 0.6385684
00000000: c1cd 1a3f 14b8 133f 9ca9 523f 09ed 3d3f
00000010: 4550 f13e 6869 353f a6e7 233f fbc4 1f3f
00000020: 160a 053f 70f1 473f 5244 f83e 8a1b 7c3f
00000030: 6c15 ed3e 675b 273f e113 183f 3879 233f

Variable_21/read f4 [16, 3, 3, 16]
-0.05909024 0.041223828 0.30021203 0.9589792 0.5087519 0.2604669 -0.5022227 -0.4404861
0.4509631 -0.91019547 -0.2414506 0.15593801 0.2626158 -0.25838703 0.060551133 -0.1185056
-0.09739662 -0.21233967 -0.5371639 0.26603684 -0.12588482 -0.041161563 0.10462665 -0.0034267115
0.44246253 -0.51046574 -0.34472257 0.24600293 0.17968133 -0.31654128 -0.23062538 -0.32161146
0.2338439 -0.14737692 -0.12448515 -0.073641896 -0.6179585 0.15189312 -0.28986624 -0.14446415
0.38408783 -0.5950805 -0.39239794 -0.07152763 0.03678979 0.1449884 -0.42912704 -0.37040582
0.28470898 -0.3105356 -0.0009962225 -0.12276419 -0.18946995 0.11765769 -0.013842949 -0.15446703
0.26183876 -0.038425427 -0.55761534 0.22379105 0.012811179 0.17300631 0.099929936 -0.56268245
0.554031 -0.32251626 0.5154849 0.11377379 -0.5398792 0.49622393 0.2472699 -0.22577836
-0.17757972 -0.34234187 -0.3578248 0.29433763 0.63386565 -0.058012236 -0.2704805 0.22977921
0.049997292 0.48540598 0.17382966 0.14812477 -0.16772598 -0.01785102 -0.27271464 0.116096064
0.29003835 -0.32391053 -0.22704637 -0.21234448 0.16556172 0.53958553 0.19179466 0.59922314
-0.17878334 -0.3298289 0.11354697 -0.6256872 0.24578354 0.4675729 -0.11815732 -0.63121784
-0.3197932 -0.6994461 0.307334 0.6017868 0.21157016 0.2227612 -0.52975875 0.24933536
-0.15327658 -0.024524463 0.22963215 -0.86838627 -0.08072975 0.6480972 0.199062 0.33237246
-0.1489262 -0.45677036 -0.2402961 0.38849762 1.0376467 0.3492861 -0.44341645 0.24778114
0.0034150342 0.1843653 -0.42596224 -0.56693095 -0.7425963 0.7743644 0.06832866 -0.16626091
0.028757088 -0.97229594 -0.07812821 0.43236387 0.23142308 0.53251797 -0.41466025 0.85296077
0.14044812 0.28823382 0.16699693 1.0450494 0.059902124 -0.11440122 0.3167221 -0.5309229
-0.23171833 0.4899885 0.41031948 -0.30997574 -0.25302708 0.011547727 0.49099585 0.35352814
0.5850947 -0.4208017 0.24037367 0.8028013 -0.5889764 -0.16241243 0.24930657 0.27550912
0.31227452 0.26518026 0.6479165 -0.28821743 -0.4384677 -0.6777407 0.15419418 -0.053187832
0.035348106 -0.15542509 0.19471104 0.45159283 0.54532844 -0.28611952 0.54158825 -0.47965905
0.41096863 0.3539959 0.29927382 -0.19648431 0.049674675 -0.07652456 0.55483705 0.14496383
-0.82738924 -0.50313336 -0.22653437 0.104042016 -0.3288204 0.62500095 -0.16027386 0.10554358
-0.6639378 0.5230824 -0.36820078 0.24530515 -0.7070427 -0.091029026 0.63247013 -0.06306923
-0.1104135 0.23065753 -0.59545594 0.30301303 -0.52342165 0.22745623 0.594819 0.37480462
-0.07603056 -0.31118906 -0.008193891 -0.2188538 0.0586732 0.06299102 -0.13136987 0.14939356
-0.12284255 -0.54040766 -0.1407528 0.25956893 0.10990642 0.38445914 0.031368915 0.08399067
0.008156223 -0.31394172 0.1027259 -0.052611236 0.20941892 0.7542741 0.051876593 -0.09454062
-0.73774916 -0.852306 0.20122404 -0.74360394 0.15407209 0.50828797 -0.5579358 0.15381804
-0.7974727 0.06387965 -0.43138918 0.029320912 -0.41842076 -0.6423892 0.38257465 -0.34707683
00000000: 9c08 72bd 51da 283d 64b5 993e a97f 753f
00000010: 913d 023f eb5b 853e ab91 00bf 6587 e1be
00000020: a3e4 e63e 9202 69bf d33e 77be 37ae 1f3e
00000030: 9475 863e 4e4b 84be 7704 783d 10b3 f2bd
00000040: e177 c7bd 926f 59be 9383 09bf fb35 883e
00000050: f3e7 00be 0799 28bd 7f46 d63d ae92 60bb
00000060: 738a e23e e2ad 02bf 7a7f b0be 31e8 7b3e
00000070: 62fe 373e b311 a2be 0f29 6cbe 42aa a4be
00000080: c674 6f3e fae9 16be 12f2 febd 90d1 96bd
00000090: 8732 1ebf df89 1b3e 5969 94be 69ee 13be
000000a0: 29a7 c43e 3257 18bf 62e8 c8be 147d 92bd
000000b0: e4b0 163d d777 143e 8ab6 dbbe d5a5 bdbe
000000c0: 60c5 913e 86fe 9ebe ae93 82ba cb6b fbbd
000000d0: 6904 42be 84f6 f03d 89cd 62bc 9b2c 1ebe
000000e0: bb0f 863e fb63 1dbd e1bf 0ebf 7b29 653e
000000f0: fbe5 513c 9128 313e 11a8 cc3d f50b 10bf
00000100: fad4 0d3f da20 a5be d2f6 033f 3c02 e93d
00000110: 8635 0abf 1011 fe3e 5234 7d3e 7132 67be
00000120: 75d7 35be 6f47 afbe d034 b7be 6cb3 963e
00000130: 0545 223f 3d9e 6dbd 6c7c 8abe 3e4b 6b3e
00000140: f6c9 4c3d 2287 f83e 6700 323e 05ae 173e
00000150: 5cc0 2bbe 4d3c 92bc 41a1 8bbe c6c3 ed3d
00000160: e87f 943e 9ad7 a5be d87e 68be d570 59be
00000170: 0389 293e 4722 0a3f d265 443e b066 193f
00000180: fb12 37be 55df a8be 508b e83d 092d 20bf
00000190: aeae 7b3e b765 ef3e 77fc f1bd 7e97 21bf
000001a0: efbb a3be e60e 33bf e25a 9d3e b30e 1a3f
000001b0: d9a5 583e 831b 643e 459e 07bf c551 7f3e
000001c0: 89f4 1cbe 87e7 c8bc b124 6b3e 904e 5ebf
000001d0: a455 a5bd b3e9 253f e9d6 4b3e b92c aa3e
000001e0: 1c80 18be cedd e9be 2e10 76be 29e9 c63e
000001f0: 9bd1 843f a1d5 b23e 7b07 e3be 57ba 7d3e
00000200: c4ce 5f3b 42ca 3c3e b917 dabe 6322 11bf
00000210: cb1a 3ebf bf3c 463f e6ef 8b3d 4d40 2abe
00000220: fc93 eb3c 63e8 78bf af01 a0bd cc5e dd3e
00000230: 2cfa 6c3e 1953 083f 594e d4be a35b 5a3f
00000240: a2d1 0f3e 6293 933e 3e01 2b3e 2ec4 853f
00000250: ee5b 753d 304b eabd 6629 a23e 90ea 07bf
00000260: 9247 6dbe c6df fa3e 6515 d23e 24b5 9ebe
00000270: c48c 81be ad32 3d3c cf63 fb3e a401 b53e
00000280: c4c8 153f 5273 d7be 8424 763e 6384 4d3f
00000290: 28c7 16bf 724f 26be 394a 7f3e 880f 8d3e
000002a0: 72e2 9f3e b5c5 873e dbdd 253f 3c91 93be
000002b0: d77e e0be 6a80 2dbf 14e5 1d3e 7cdb 59bd
000002c0: 2dc9 103d c127 1fbe 5562 473e 2d37 e73e
000002d0: a59a 0b3f 427e 92be 87a5 0a3f df95 f5be
000002e0: 7b6a d23e f33e b53e 6b3a 993e 2f33 49be
000002f0: ac77 4b3d e9b8 9cbd cd09 0e3f 6671 143e
00000300: c8cf 53bf 59cd 00bf a0f8 67be fb13 d53d
00000310: 265b a8be 1000 203f d51e 24be 3c27 d83d
00000320: d4f7 29bf bae8 053f d084 bcbe 4631 7b3e
00000330: c000 35bf 6d6d babd 90e9 213f 712a 81bd
00000340: 7920 e2bd 7d31 6c3e cd6f 18bf 8624 9b3e
00000350: f6fe 05bf 49ea 683e 0f46 183f 64e6 bf3e
00000360: e9b5 9bbd 2c54 9fbe ab3f 06bc 361b 60be
00000370: 4f53 703d 7001 813d d385 06be a0fa 183e
00000380: e094 fbbd 2858 0abf 8121 10be 38e6 843e
00000390: 9e16 e13d d4d7 c43e b17c 003d 4d03 ac3d
000003a0: aea1 053c f8bc a0be f561 d23d e17e 57bd
000003b0: ea71 563e 1b18 413f 8d7c 543d 839e c1bd
000003c0: 21dd 3cbf ba30 5abf ad0d 4e3e d45c 3ebf
000003d0: 13c5 1d3e 291f 023f e1d4 0ebf 7a82 1d3e
000003e0: 2c27 4cbf 55d3 823d 0bdf dcbe 6932 f03c
000003f0: 3f3b d6be 9e73 24bf d3e0 c33e 0eb4 b1be

Variable_22/read f4 [16]
0.23907828 -0.013221223 -0.12271341 -2.1200857 -1.2236094 0.94041985 -0.039042637 -0.75434554
0.6236884 0.12566833 0.18517958 -0.28174248 0.57040566 -0.6926383 -0.09097196 -0.58320355
00000000: f0d0 743e d49d 58bc 2b51 fbbd 7caf 07c0
00000010: 3c9f 9cbf 5bbf 703f 2ceb 1fbd ca1c 41bf
00000020: 0baa 1f3f 33af 003e b79f 3d3e 8d40 90be
00000030: 1b06 123f be50 31bf 824f babd d44c 15bf

Variable_23/read f4 [16]
0.8998629 0.74186385 1.1963103 1.3806615 0.9509103 0.49722412 0.7839805 0.9969665
0.518471 0.9544957 0.6556842 1.0880771 0.8536112 1.0797248 0.95246786 0.7677217
00000000: 6a5d 663f caea 3d3f b220 993f 84b9 b03f
00000010: db6e 733f 2994 fe3e f2b2 483f 3239 7f3f
00000020: 84ba 043f d559 743f ebda 273f 1c46 8b3f
00000030: 4386 5a3f 6c34 8a3f efd4 733f 6989 443f

Variable_24/read f4 [16, 3, 3, 16]
-0.16405737 -0.14918345 -0.018363915 -0.72134376 -0.078949235 -0.49271652 -0.09140089 -0.65840685
0.2967065 -0.52872545 0.13044164 0.4814165 0.29898432 0.0031690923 0.15598267 0.7257451
-0.28810063 0.21054919 -0.05016045 -0.22388196 0.46739933 -0.33362645 -0.2989282 -0.5346489
0.3311488 0.14164467 0.2363529 0.13822903 0.03578635 -0.06990831 -0.24502072 0.20597106
0.2548844 -0.3782098 -0.17606163 -0.076304935 -0.6651749 -0.3422498 -0.3713953 -0.60732305
-0.22334374 0.64869416 0.29051018 -0.3226552 0.72357345 0.62264687 -0.561167 -0.2561842
-0.26251632 -0.4312319 0.0987694 -0.24206913 -0.17259447 -0.34252974 0.35780147 -0.8310052
0.041861515 -0.21836829 -0.19770244 0.1756993 -0.118926644 -0.76563007 -0.097053334 -0.005364031
-0.53187233 -0.4404654 -0.21803476 -0.7083781 0.16811708 -0.09782635 -0.12306774 -0.59521985
0.42609063 0.51343125 -0.33354983 -0.16124988 -0.15188764 0.07157256 -0.4057386 -1.0284897
-0.20123272 0.14395048 0.76010346 -0.6541177 -0.32215157 -0.3199712 -0.06723304 -0.6072677
0.04126376 -0.10616044 -0.40496215 -0.013464753 0.81771445 0.44012743 -0.17839752 -0.12263782
0.056628995 -0.58760786 0.5507819 -0.39553067 0.14356531 -0.49244538 -0.6227071 -0.06843107
0.17657854 -0.7650881 -0.23866005 0.50466686 0.4083067 -0.3066629 0.031778593 0.48487458
0.095630236 -0.23394647 0.18655014 -0.5693546 0.17645304 0.02010106 -0.3440042 -0.07908232
-0.31056604 -0.06803126 0.14247859 -0.23653086 0.04745348 0.09522821 -0.32270232 -0.15479763
0.511468 0.16510972 -0.119242795 -0.6035925 0.11506514 0.2603495 -0.7631625 0.3581929
-0.13029933 -0.33103642 -0.37367275 -0.15905075 0.6903536 -0.034087606 0.07824977 -0.15283638
-0.43542555 -0.29850522 0.04674319 0.78018343 -0.067526855 0.04773817 0.35948122 0.058483135
-0.090484664 0.16605671 0.018717509 -0.19983721 -0.5119454 -0.64575946 0.053912055 0.05404857
-0.25267226 0.008894708 0.13239668 1.0151279 0.024368027 0.338567 -0.28349486 0.42609072
-0.17217627 -0.22411448 0.055322427 0.31601116 0.14156324 -0.32322744 -0.26790977 0.28903687
0.10243315 0.24193697 0.090569995 1.3436433 0.42193514 -0.011393712 -0.015838629 -0.56233454
1.0200907 -0.2806514 0.09878195 -0.03844842 0.11427371 0.17859383 -0.09862974 -0.0069905776
-0.2591978 -0.33367565 0.057094865 1.4837823 -0.3471954 -0.251361 0.26498583 0.17579602
-0.9947349 0.5929934 0.017410468 -0.18644038 -0.17837264 0.50796074 0.73166835 -0.18529248
0.1374588 0.598228 -0.4998655 0.52057797 -0.09281389 0.16241644 -0.714257 0.19912162
-0.05029905 0.17779331 -0.12323974 -0.34989387 0.21033353 0.10543903 0.21793425 -0.11453601
0.23482414 1.0632585 -0.18784875 0.57472444 0.7683814 0.22899906 -0.020560294 0.1588033
0.20080684 -0.04767993 0.6505885 -0.24871735 0.059176847 -0.16985446 0.31526715 0.19679525
-0.33696586 -0.16033898 0.15790091 -0.29950222 -0.34391037 -0.21312338 -0.4329671 -0.2658624
-0.086132616 0.1427092 0.24468581 -0.702444 -0.6654251 -0.21543856 -0.12043399 0.47025305
00000000: a8fe 27be 8cc3 18be ec6f 96bc fca9 38bf
00000010: 23b0 a1bd 5745 fcbe 6430 bbbd 5a8d 28bf
00000020: eae9 973e 8d5a 07bf 7e92 053e 397c f63e
00000030: 7914 993e 8cb0 4f3b ecb9 1f3e 6eca 393f
00000040: ed81 93be 359a 573e 0b75 4dbd 5041 65be
00000050: f74e ef3e 16d1 aabe 1e0d 99be c0de 08bf
00000060: 568c a93e 4d0b 113e 7f06 723e e98b 0d3e
00000070: b594 123d 172c 8fbd b6e6 7abe 14ea 523e
00000080: 3580 823e b7a4 c1be 8049 34be c345 9cbd
00000090: e748 2abf 5e3b afbe 8627 bebe 8679 1bbf
000000a0: 39b4 64be d210 263f c0bd 943e 1033 a5be
000000b0: 1c3c 393f c965 1f3f a4a8 0fbf 932a 83be
000000c0: 8a68 86be 6dca dcbe 9c47 ca3d f8e0 77be
000000d0: 9bbc 30be 0f60 afbe c131 b73e c2bc 54bf
000000e0: fb76 2b3d f09b 5fbe 8272 4abe 84ea 333e
000000f0: d08f f3bd 5500 44bf e6c3 c6bd c1c4 afbb
00000100: c928 08bf ae84 e1be 8144 5fbe 4458 35bf
00000110: e226 2c3e 2e59 c8bd f00a fcbd 5460 18bf
00000120: 8d28 da3e 3b70 033f 0bc7 aabe b01e 25be
00000130: 6f88 1bbe a294 923d f8bc cfbe 8da5 83bf
00000140: f30f 4ebe c167 133e 2496 423f 4274 27bf
00000150: 0df1 a4be 44d3 a3be 7ab1 89bd e575 1bbf
00000160: 3004 293d a56a d9bd 3357 cfbe 449b 5cbc
00000170: bc55 513f 6258 e13e d7ad 36be 8a29 fbbd
00000180: cef3 673d 786d 16bf 0b00 0d3f ff82 cabe
00000190: c902 133e cd21 fcbe bc69 1fbf 9725 8cbd
000001a0: 01d1 343e d0dc 43bf 4d63 74be d931 013f
000001b0: 930d d13e eb02 9dbe 452a 023d 7b41 f83e
000001c0: c9d9 c33d aa8f 6fbe 0007 3f3e 39c1 11bf
000001d0: 1bb0 343e faaa a43c 5221 b0be e9f5 a1bd
000001e0: 8302 9fbe f953 8bbd e8e5 113e 2535 72be
000001f0: 955e 423d 0207 c33d 3d39 a5be 4583 1ebe
00000200: 91ef 023f 8612 293e 9135 f4bd 0a85 1abf
00000210: 46a7 eb3d 884c 853e 9e5e 43bf 0f65 b73e
00000220: 306d 05be 9b7d a9be 0952 bfbe 33de 22be
00000230: 03bb 303f 729f 0bbd 6a41 a03d 2481 1cbe
00000240: 19f0 debe add5 98be ca75 3f3d 1aba 473f
00000250: 854b 8abd 1989 433d ec0d b83e 038c 6f3d
00000260: 0650 b9bd c50a 2a3e 7655 993c 20a2 4cbe
00000270: db0e 03bf 7e50 25bf e3d2 5c3d 0962 5d3d
00000280: 425e 81be 1cbb 113c ff92 073e b6ef 813f
00000290: 759f c73c a758 ad3e 3d26 91be 9028 da3e
000002a0: fa4e 30be 447e 65be c599 623d 37cc a13e
000002b0: f4f5 103e 117e a5be 782b 89be a4fc 933e
000002c0: 79c8 d13d 53be 773e c37c b93d 81fc ab3f
000002d0: e207 d83e b1ac 3abc 03c0 81bc 28f5 0fbf
000002e0: 5592 823f 8ab1 8fbe 314e ca3d 177c 1dbd
000002f0: 5608 ea3d 4de1 363e 64fe c9bd 3711 e5bb
00000300: 93b5 84be 89d7 aabe 4edc 693d 94ec bd3f
00000310: 98c3 b1be 64b2 80be 39ac 873e df03 343e
00000320: f2a6 7ebf 6ace 173f 66a0 8e3c 3aea 3ebe
00000330: 51a7 36be b709 023f 9e4e 3b3f 50bd 3dbe
00000340: 00c2 0c3e 7825 193f 5fee ffbe 9944 053f
00000350: 3515 bebd 7f50 263e 8cd9 36bf 8ae6 4b3e
00000360: 6006 4ebd 730f 363e 1e65 fcbd 4a25 b3be
00000370: ac61 573e 6bf0 d73d 282a 5f3e db91 eabd
00000380: bd75 703e db18 883f 6c5b 40be 2421 133f
00000390: a5b4 443f bb7e 6a3e 106e a8bc 559d 223e
000003a0: 4fa0 4d3e 084c 43bd f88c 263f c3af 7ebe
000003b0: 6c63 723d 54ee 2dbe b26a a13e b284 493e
000003c0: ca86 acbe e72f 24be c7b0 213e 5b58 99be
000003d0: 0515 b0be 043d 5abe ddad ddbe 1e1f 88be
000003e0: 4c66 b0bd 5c22 123e eb8e 7a3e 5fd3 33bf
000003f0: 4d59 2abf ed9b 5cbe 19a6 f6bd 02c5 f03e

Variable_25/read f4 [16]
-0.042781115 -0.28364268 0.15927272 0.5159145 -0.028122636 0.23721541 0.29488477 0.0638279
0.37434527 -0.054919288 0.31751978 0.18670371 0.0069111697 -0.23186684 0.13146347 -0.008703249
00000000: 403b 2fbd 9d39 91be 6318 233e f912 043f
00000010: 7161 e6bc 99e8 723e 23fb 963e 34b8 823d
00000020: 2faa bf3e 0cf3 60bd f491 a23e 422f 3f3e
00000030: 1877 e23b 806e 6dbe 5c9e 063e 1298 0ebc

Variable_26/read f4 [16]
1.2248026 1.3910967 1.3544757 1.1444203 0.97653735 1.2300708 0.81707287 1.1605618
0.93315184 1.1946644 0.94659823 0.967937 0.9242973 1.0835792 1.0081631 1.5819967
00000000: 55c6 9c3f 750f b23f 765f ad3f 5d7c 923f
00000010: 5afe 793f f672 9d3f b02b 513f 4a8d 943f
00000020: 0ae3 6e3f c3ea 983f 4354 723f b8ca 773f
00000030: bf9e 6c3f b9b2 8a3f 7d0b 813f de7e ca3f

Variable_27/read f4 [16, 3, 3, 16]
-0.0058857654 -0.38626027 -0.79749155 -0.2751293 0.05457688 -0.22899789 -0.121173926 0.6357802
0.80193216 -0.49714237 0.8161047 -0.09708517 0.067610554 0.47289717 -0.031032706 -0.019631991
0.015066739 -0.25025705 -0.05568775 0.5020506 -0.116082676 -0.31363735 0.10242172 -0.075223684
-0.14004093 -0.3193339 0.07096886 0.33970878 -0.5399105 0.18193817 -0.13143823 0.1956627
-0.0045835185 -0.30942383 -0.5349517 0.43856585 -0.028971687 -0.13724603 0.6731299 0.07531262
-0.16103968 -0.06558703 0.11141482 0.40404993 -0.002056021 0.119005136 -0.1871911 -0.10837588
-0.30740225 0.7868551 -0.46096393 -0.53060895 0.336389 0.7719626 0.31584227 0.2929226
-0.1454302 -0.28178233 -0.27046832 -0.36267436 0.025123727 -0.3946582 -0.19169188 0.53348565
-0.3161639 0.4878868 0.051881395 -0.27303842 -0.054448023 0.49491543 0.28072414 -0.18463647
-1.1702704 0.14880961 -0.33187598 -0.3030538 -0.13776173 -0.5228994 -0.22670926 0.046297356
0.06047334 0.29026887 -0.4100297 -0.5338872 -0.024613949 0.7455013 -0.26744086 -0.14096569
-0.4144728 -0.32153195 0.008945962 0.14434208 1.2009199 -0.3731449 0.31956673 -0.5784337
-0.2290459 -0.19668806 -0.13690373 0.31040266 0.22907746 -1.0825692 -0.96832716 -0.15736352
0.3646107 0.113912925 0.21817262 -0.20755588 -0.68869746 -0.07811205 0.35846078 -0.50423187
-0.0485712 -0.22981155 -0.011374192 0.25736338 0.019598512 -0.6684126 -0.38809946 0.037034456
-0.2952809 0.56209385 -0.0059639877 -0.26681805 -0.41820052 -0.12630485 0.013264824 -0.7715606
0.11235895 -0.789004 -0.098141134 -0.0029677763 0.25793067 -0.5110299 -0.2904195 0.29962137
0.110461615 0.77741873 -0.0214368 0.034309037 0.29392165 0.12925749 -0.09766558 -0.17844538
0.49733323 0.06945821 -0.4055841 0.18305779 0.041866496 0.07640908 -0.28596622 0.23049209
-0.38816416 -0.24164714 -0.009737852 -0.1847043 -0.08241599 -0.37415785 0.38172537 0.24142374
0.6458646 0.44383428 0.14331752 0.06289667 0.32480854 -0.016562065 -0.7147681 0.39346358
-0.5477704 0.1388118 0.34656054 0.4474806 -0.0957478 -0.20170061 -0.41377455 0.43156308
0.6087969 -0.48759195 -0.8526736 -0.273008 0.93594193 -0.35158667 0.16448934 0.32949308
0.071790405 0.032805104 -0.26779428 0.15391964 0.28227505 -0.6691371 0.4697277 0.35514417
-0.36804414 -0.27990815 -0.51788294 -0.43173385 -0.33269116 0.47043407 0.15486228 0.12146528
0.30867946 -0.8438264 0.33601204 -0.1842018 0.14265697 -0.36076543 0.42375055 -0.43143725
0.3964183 -0.036764767 0.30498564 -0.025149925 0.3564573 0.2729023 0.032472312 0.43421668
-0.13005617 0.05420203 0.3531498 0.32026342 0.1658118 -0.065955356 -0.88692474 -0.052740034
0.5992344 -0.36178812 -0.38669637 -0.04225069 0.33261958 0.031291112 -0.036583588 0.5960493
0.3997371 0.04606288 0.06130255 0.3627827 -0.019971874 -0.24970064 -0.32734004 -0.080443114
-0.26675028 0.24408731 -0.03633324 0.5305965 -0.4821085 -0.08042108 -0.5399761 -0.41786885
0.021306757 0.023448735 1.3535799 -0.6672443 0.33424193 0.24610515 -0.19377463 -0.33450785
00000000: 61dd c0bb e8c3 c5be 6828 4cbf bfdd 8cbe
00000010: 028c 5f3d 6c7e 6abe 092a f8bd 7ec2 223f
00000020: 6d4b 4d3f 7289 febe 3dec 503f 97d4 c6bd
00000030: 6777 8a3d 941f f23e 4d38 febc 45d3 a0bc
00000040: 7cda 763c b121 80be d718 64bd 6386 003f
00000050: c1bc edbd 1395 a0be 7bc2 d13d e00e 9abd
00000060: e466 0fbe bc7f a3be 1f58 913d 4fee ad3e
00000070: 9337 0abf 004e 3a3e be97 06be ce5b 483e
00000080: 5731 96bb cd6c 9ebe 98f2 08bf b48b e03e
00000090: 0856 edbc 398a 0cbe 3e52 2c3f 813d 9a3d
000000a0: 96e7 24be 7e52 86bd 742d e43d a2df ce3e
000000b0: 4fbe 06bb f7b8 f33d 06af 3fbe 2cf4 ddbd
000000c0: d463 9dbe 566f 493f 7703 ecbe fdd5 07bf
000000d0: 2e3b ac3e 579f 453f 14b6 a13e f3f9 953e
000000e0: a8eb 14be c645 90be d37a 8abe 74b0 b9be
000000f0: 46d0 cd3c a410 cabe e04a 44be 8492 083f
00000100: 3ce0 a1be 4ccc f93e 9681 543d b1cb 8bbe
00000110: e404 5fbd 8e65 fd3e 13bb 8f3e 5811 3dbe
00000120: 6ccb 95bf 8c61 183e a6eb a9be de29 9bbe
00000130: 6911 0dbe bcdc 05bf 7926 68be 4ca2 3d3d
00000140: e5b2 773d 1f9e 943e 6aef d1be d5ac 08bf
00000150: 31a3 c9bc 2cd9 3e3f 02ee 88be 4f59 10be
00000160: c735 d4be d69f a4be 1692 123c 69ce 133e
00000170: beb7 993f d90c bfbe 409e a33e 3b14 14bf
00000180: 028b 6abe 9868 49be 7e30 0cbe 19ed 9e3e
00000190: 4893 6a3e a191 8abf 4ae4 77bf e723 21be
000001a0: 41ae ba3e 2e4b e93d a568 5f3e 8789 54be
000001b0: 7a4e 30bf 36f9 9fbd 2c88 b73e 5715 01bf
000001c0: 98f2 46bd b853 6bbe d25a 3abc 22c5 833e
000001d0: 0f8d a03c 171d 2bbf f9b4 c6be 71b1 173d
000001e0: 0f2f 97be 62e5 0f3f 8e6d c3bb 609c 88be
000001f0: 611e d6be 0f56 01be b454 593c ff84 45bf
00000200: 731c e63d 2bfc 49bf 38fe c8bd 067f 42bb
00000210: 7d0f 843e dbd2 02bf ddb1 94be f967 993e
00000220: b339 e23d ea04 473f 3a9c afbc a287 0c3d
00000230: e67c 963e 135c 043e e404 c8bd 63ba 36be
00000240: 76a2 fe3e 1b40 8e3d b8a8 cfbe 8073 3b3e
00000250: 347c 2b3d 5d7c 9c3d 2a6a 92be 1e06 6c3e
00000260: 74bd c6be 5972 77be 838b 1fbc 2023 3dbe
00000270: b7c9 a8bd 9e91 bfbe 8271 c33e c937 773e
00000280: 6257 253f 3f3e e33e d4c1 123e f8cf 803d
00000290: 4e4d a63e 2bad 87bc 0bfb 36bf 0f74 c93e
000002a0: ae3a 0cbf ae24 0e3e 6270 b13e 2d1c e53e
000002b0: 6c17 c4bd 9b8a 4ebe 42da d3be d6f5 dc3e
000002c0: 1dda 1b3f a7a5 f9be d148 5abf b4c7 8bbe
000002d0: e499 6f3f 2b03 b4be e56f 283e 51b3 a83e
000002e0: d906 933d a55e 063d 551c 89be 1c9d 1d3e
000002f0: 5b86 903e 924c 2bbf 2680 f03e 75d5 b53e
00000300: 4870 bcbe 1f50 8fbe fa93 04bf 380c ddbe
00000310: 7f56 aabe bcdc f03e 3894 1e3e cac2 f83d
00000320: 3c0b 9e3e 0205 58bf c509 ac3e 669f 3cbe
00000330: ab14 123e 3fb6 b8be d5f5 d83e 58e5 dcbe
00000340: 57f7 ca3e a796 16bd 1427 9c3e 3707 cebc
00000350: 9281 b63e dab9 8b3e b001 053d a651 de3e
00000360: 722d 05be f302 5e3d 0dd0 b43e 91f9 a33e
00000370: 92ca 293e 9a13 87bd 800d 63bf ef05 58bd
00000380: 6d67 193f 4b3c b9be 11fd c5be 0f0f 2dbd
00000390: 1d4d aa3e 1c2b 003d acd8 15bd b096 183f
000003a0: 57aa cc3e 6eac 3c3d 6218 7b3d a7be b93e
000003b0: 0e9c a3bc 86b1 7fbe 1d99 a7be 5cbf a4bd
000003c0: 7e93 88be 06f2 793e 2ad2 14bd 2cd5 073f
000003d0: edd6 f6be cfb3 a4bd e03b 0abf e8f2 d5be
000003e0: 828b ae3c 9017 c03c 1b42 ad3f 86d0 2abf
000003f0: c221 ab3e fd02 7c3e db6c 46be 9d44 abbe

Variable_28/read f4 [16]
-0.7907104 0.38306898 -0.10122587 -1.6588459 -1.3149099 0.24429752 -0.06144187 -0.15390663
-0.08807747 0.9952357 -0.2060817 -0.40865 -0.51262695 -0.83189535 0.7802147 -0.49469095
00000000: ff6b 4abf 9e21 c43e 824f cfbd 1055 d4bf
00000010: f84e a8bf 2129 7a3e 78aa 7bbd b399 1dbe
00000020: f661 b4bd c4c7 7e3f 1507 53be 933a d1be
00000030: 853b 03bf 18f7 54bf 27bc 473f 2248 fdbe

Variable_29/read f4 [16]
0.96161306 0.63909465 0.6768701 1.2493768 1.0833225 0.7120682 0.84565884 0.831475
0.9592288 0.6692975 0.8134784 0.71587145 1.0789868 1.0391134 1.1034408 1.0813648
00000000: 462c 763f b59b 233f 5c47 2d3f 94eb 9f3f
00000010: 50aa 8a3f 1a4a 363f 197d 583f 8cdb 543f
00000020: 0590 753f 1557 2b3f 1f40 503f 5a43 373f
00000030: 3d1c 8a3f ab01 853f 8c3d 8d3f 296a 8a3f
