examples/style_transfer/model/soup-distribution.onnx (onnx, 134245 bytes, 48 tensors)

Variable_9/read/_47__cf__47:0 f4 [16, 16, 3, 3]
000000 86 68 08 be 40 38 5c 3e ce d7 9c be f8 07 aa 3e
       -0.13321123 0.21505833 -0.30633396 0.33209205
000010 72 77 80 be 1f 1f a2 be 10 ba 0b be da 56 6b bc
       -0.2509113 -0.3166437 -0.13645196 -0.014363969
000020 f9 d0 0f bd aa 13 10 bf 10 21 42 be ca 3a 45 3f
       -0.0351114 -0.56280005 -0.18957925 0.7704283
000030 10 2b af 3d 33 32 83 3f 58 23 a6 3e e4 2a 5b 3f
       0.085531354 1.0249695 0.3244884 0.8561232
000040 89 89 5a 3e 26 ee 27 bf e6 33 67 bf 44 c6 5e 3e
       0.21341528 -0.6559776 -0.90313566 0.2175532
000050 20 e4 72 3f c7 ed 20 3e 41 c3 a7 3e d6 f0 1e be
       0.9487934 0.15715705 0.32766154 -0.15521559
000060 54 ff 52 3f 86 4f 16 be 6f 2b 7e bf eb 20 9f 3d
       0.8242085 -0.14678773 -0.99285024 0.077699505
000070 6d 1c 82 bd 27 89 96 bb c1 b0 06 be 57 8f 7f bc
       -0.06353078 -0.0045939866 -0.13153364 -0.01559814
000080 b0 e7 80 3e a9 f3 73 3d ba 80 e2 3d 57 de 55 bc
       0.25176764 0.059558544 0.11059709 -0.013053498
000090 ff 11 42 3f fa bb bf bd 6b ae 2c bf 0a 72 90 3d
       0.7580871 -0.093620256 -0.6745364 0.07053001
0000a0 d3 50 80 be a3 33 52 bc 2c e3 dd be 2f 4f 41 3e
       -0.25061664 -0.012829694 -0.4333738 0.18877862
0000b0 94 c9 1e 3f 60 b1 47 bf de 1a c3 3d 2d 8a 62 3f
       0.62026334 -0.7800503 0.09526609 0.8849209
0000c0 d0 1d b4 be d7 2a 90 3e 0b f0 20 3e fc 6a 6c 3f
       -0.35178995 0.28157684 0.15716569 0.92350745
0000d0 d3 e8 cb bc 85 37 6a bf a3 38 f8 be d4 b9 06 3f
       -0.024891293 -0.91490966 -0.4848071 0.526273
0000e0 aa 2c 0c 3f da 22 aa 3d 16 e6 79 3c dd 72 17 be
       0.5475565 0.08307429 0.015252611 -0.1478991
0000f0 39 d3 43 3e ed 30 02 bf 58 36 e2 be 2b 3a 02 3f
       0.19123544 -0.50855905 -0.44182086 0.5087001
000100 45 cc 3e be 63 f9 4e bf bb 55 59 be b9 0b 4c 3d
       -0.1863261 -0.80849284 -0.2122411 0.049815867
000110 46 eb 87 3e 02 d2 cd be 77 55 5a 3e 06 82 2e 3f
       0.26546687 -0.40199286 0.21321665 0.6816715
000120 d1 eb 71 3d 77 e9 a3 be 8c 18 86 3e 7b cc cb be
       0.059062783 -0.32014057 0.26190603 -0.39804444
000130 c8 b7 30 bc 42 9b 9a 3e ee 09 3d be ab 0a dd 3e
       -0.010786004 0.30196577 -0.18460819 0.43172202
000140 38 99 ff 3c 91 a3 0c 3d a7 84 41 be 0c c4 ee bc
       0.03120099 0.034335677 -0.18898259 -0.029146217
000150 f0 8a 9e be 1f 97 a4 be 47 67 c6 3c ee cc 13 be
       -0.30965376 -0.32146546 0.024219168 -0.14433643
000160 10 2e ab 3d a7 48 40 3e 15 68 c4 3e 30 d1 36 3e
       0.08358395 0.18777715 0.38360658 0.17853236
000170 21 f4 9a be 30 21 9d 3e 8e a9 90 3d 91 dd 1f be
       -0.3026438 0.30689383 0.0706359 -0.15611865
000180 38 4b fa be d6 29 bf be 20 19 9f 3e 7d f2 20 bf
       -0.48885512 -0.37336606 0.31073856 -0.6287001
000190 33 b8 9b 3a 54 1a de 3e 97 48 07 3d 5b 0a 8e bc
       0.0011880457 0.43379462 0.03302821 -0.017338922
0001a0 b4 aa 26 be 59 f2 e4 3e 95 fa cc bd 8b 71 93 be
       -0.16276056 0.44716147 -0.10008732 -0.28797564
0001b0 c2 ac cc 3d 52 01 6a 3e f6 28 0e be 81 4b 56 be
       0.099938884 0.22852066 -0.13882813 -0.2092724
0001c0 18 09 9d be 0c 74 06 be 3b c7 e4 bd 2d 60 12 3e
       -0.30671 -0.13130206 -0.11170813 0.142945
0001d0 bc 29 14 3f 73 79 e9 3d 6d 9f 2a 3e ce fc 77 3d
       0.5787618 0.11400118 0.16662379 0.060543828
0001e0 9f 77 bb 3d 41 f0 1a 3e 21 92 c2 bd 0e 2a b1 3d
       0.09153675 0.15130712 -0.09500528 0.086505994
0001f0 ab 66 8f be fb 92 1c be f7 e4 67 be 17 34 19 be
       -0.28008017 -0.15290444 -0.22645937 -0.14961277
000200 b7 41 d9 3e 77 d8 64 3d fb f5 87 be 67 3e 12 be
       0.4243295 0.0558705 -0.26554856 -0.14281617
000210 53 f2 1f 3f df ef f6 3d 83 8e f3 be 8f 2d 04 3f
       0.6247913 0.120574705 -0.47569665 0.51632017
000220 5d 5b ab bd 68 c0 07 bf ee ea 9a bd 0f af 72 bd
       -0.083670355 -0.53027964 -0.075643405 -0.05924898
000230 07 2d 70 3e 70 cf d3 be 84 22 02 3e 97 b5 f0 3e
       0.23454677 -0.413692 0.12708479 0.47013542
000240 80 5a 52 3e 7f ce 1f 3e 19 1a 92 3e c8 3f 56 3d
       0.20542336 0.15606116 0.28535536 0.05230692
000250 4d 1f b3 bd 0e 69 13 be 43 61 b5 3d 60 27 3f be
       -0.087462045 -0.14395544 0.08856442 -0.18667364
000260 12 02 3e be e8 d8 74 be 60 bb 33 bf 17 41 e3 be
       -0.18555477 -0.23910868 -0.70207787 -0.44385597
000270 ae 5f b3 be 5e 48 4c be 87 bc fe bd 96 00 3f be
       -0.35033935 -0.19949481 -0.124383025 -0.18652567
000280 1c 1b fb be 13 9f dd bd 02 b0 3e 3d 68 86 92 bd
       -0.4904412 -0.108213566 0.046554573 -0.07154542
000290 8e e7 9d be 5d 2e a8 3e 61 12 b3 bc ce e4 cb 3d
       -0.30840725 0.32847872 -0.02185935 0.099557504
0002a0 4a 96 0a bf f7 85 c0 bf b1 95 33 be 12 bd ed be
       -0.5413557 -1.5040883 -0.17537571 -0.46433312
0002b0 13 91 72 3e 74 12 0e 3f ee 71 ac 3e 53 5a 60 3e
       0.23688154 0.5549691 0.3368067 0.21909456
0002c0 ce a2 c0 3d bb be 0f 3f 50 a3 88 3d 5c ea b9 bf
       0.094060525 0.56150407 0.066717744 -1.4524646
0002d0 c0 ef 2f be 1d fa 18 be e2 c0 c3 3d be 85 9d be
       -0.17181301 -0.1493916 0.09558274 -0.307661
0002e0 c5 bf 07 be 04 3a 86 be 56 0f 59 be c4 20 20 be
       -0.13256748 -0.26216137 -0.21197256 -0.15637499
0002f0 24 e5 ca 3d 81 d2 d3 be 7a c0 cd bd 52 46 05 3e
       0.09906986 -0.4137154 -0.100464776 0.13015106
000300 c0 61 25 3e 41 bd 75 3e 14 8e cb 3e 53 e0 0b bd
       0.1615057 0.23997976 0.39756835 -0.03414948
000310 69 91 68 be 1d 7e 7c be 61 3e e5 bd 8a af e1 bd
       -0.2271172 -0.24657483 -0.111935385 -0.110198095
000320 32 36 eb 3d 46 e1 88 3e 4e 40 de 3e be 1f 52 be
       0.11484946 0.2673437 0.43408436 -0.20519921
000330 d5 b8 24 bf ab f3 57 3e 53 18 0f 3f ba f8 85 be
       -0.6434453 0.21089046 0.5589649 -0.26166326
000340 a3 fa c6 3c 43 99 ca 3e cd 52 b3 3e 58 fd 9b 3e
       0.024289435 0.39570054 0.3502411 0.30466723
000350 eb 90 c9 be e1 09 20 3f b6 c0 7f 3f 9f 0a 6f 3e
       -0.39368376 0.62515074 0.9990343 0.23343895
000360 e8 f6 9d be a0 8d e7 bd 4a b9 f7 bb 4a 11 d5 3c
       -0.30852437 -0.1130631 -0.00755993 0.02600922
000370 ae 94 30 3e 95 80 01 3e eb 7f 65 be 77 9e 92 be
       0.17244217 0.12646706 -0.22412078 -0.28636524
000380 3f 09 82 bd 22 71 5f be 28 26 4b be d7 4e cb bd
       -0.0634942 -0.218205 -0.19838774 -0.09927147
000390 4a e7 77 3e 31 c8 85 be 38 b6 0c 3f 64 ce fe 3d
       0.24209324 -0.26129296 0.54965544 0.1244171
0003a0 e8 07 d0 3e 42 8b 39 3f ec 01 17 3e 7e 66 5e bd
       0.40631032 0.72478116 0.14746827 -0.054296963
0003b0 bf 76 6a be 59 43 9d bb 39 c2 e6 be a0 e2 b0 be
       -0.2289686 -0.004799288 -0.45070055 -0.345479
0003c0 00 24 d0 3e 6f 13 f2 3e 9e 73 fc be a2 de b0 be
       0.40652466 0.47280452 -0.4930696 -0.34544855
0003d0 b9 fa e7 3e 62 cc 0d be 1a 7b 2d 3f 05 72 d9 bd
       0.45308474 -0.13847497 0.67765963 -0.106174506
0003e0 24 71 df be 22 44 b3 3e a6 3c 41 3b 0a 60 c6 be
       -0.43641007 0.3501292 0.0029485612 -0.38745147
0003f0 16 30 8e be f9 08 1c 3e 42 53 19 bd 8c d6 c8 3b
       -0.27771062 0.15237798 -0.037432916 0.0061290916

Variable_8/read/_46__cf__46:0 f4 [1, 16, 1, 1]
000000 56 57 9a 3e 56 86 88 3e d8 13 8c 3e d8 04 04 3f
       0.30144757 0.2666499 0.2735889 0.5156989
000010 6b 90 9b 3e 32 b0 7d 3e d1 49 5f 3e 2a b0 92 3e
       0.3038362 0.24774244 0.21805502 0.28650028
000020 77 71 65 3e 92 79 7e 3e 51 8e 55 3e 23 a2 22 3f
       0.22406565 0.24851063 0.2085507 0.6352865
000030 f0 0b 1c 3e 2f a2 99 3e 1b 16 22 3e 8e 1b ba 3f
       0.15238929 0.3000655 0.15828745 1.4539659

Variable_7/read/_45__cf__45:0 f4 [1, 16, 1, 1]
000000 43 0b 3a bf 37 a2 d4 bd c3 5a 77 3c 4a cf 93 bd
       -0.72673434 -0.103825025 0.015097323 -0.072172716
000010 10 7f 6b bd 11 e8 74 3d 83 58 c6 3d 7f 53 ff 3d
       -0.057494223 0.05979163 0.09684851 0.124670975
000020 6a 61 21 be 82 21 4d be 76 41 9c 3e e1 40 c8 bd
       -0.15759817 -0.20032313 0.30518693 -0.09778
000030 87 d9 7f bd 84 9b be 3d c0 1b 41 3e ca 84 ac be
       -0.06246331 0.09307006 0.18858242 -0.3369506

Variable_6/read/_44__cf__44:0 f4 [16, 8, 3, 3]
000000 f3 b9 28 bf 05 5c 5e be b5 82 fc be 40 87 b8 be
       -0.65908736 -0.2171479 -0.49318472 -0.36040688
000010 8d 26 a2 3c bd 37 0a bf 72 e0 74 be 14 e9 b2 3d
       0.019793773 -0.539913 -0.23913744 0.087358624
000020 11 82 81 be db 07 88 bc c1 b5 62 3e 38 25 71 3e
       -0.25294545 -0.016605308 0.22139646 0.23549354
000030 70 02 ee 3d 7e 22 16 3d a1 aa 09 be 1f 5b 5b 3e
       0.11621559 0.036653988 -0.13443996 0.21421479
000040 d5 37 e0 3d 63 06 ab bd b1 d7 bf be 26 ce 92 bd
       0.10948149 -0.083508275 -0.37469247 -0.07168226
000050 e4 1d 0a 3d 0a 21 ff 3d 0c be 15 be 00 5e 1c be
       0.033719912 0.124574736 -0.14623278 -0.15270233
000060 42 a8 a5 3d bd ec 77 be c2 6a 9c be 9f 5b a7 3e
       0.08088733 -0.24211402 -0.305502 0.3268709
000070 ff b9 77 3e 33 e4 49 be 3c ef 5b 3e 54 fc b2 3d
       0.24192046 -0.19715957 0.2147798 0.08739534
000080 2b f1 81 be de 01 b2 3e 7d f4 52 3d 8f 7c 1a bf
       -0.2537931 0.3476705 0.051502693 -0.6034631
000090 b8 fd ad 3e 3b 19 b1 3e 45 5c 88 3e 6e c2 a0 3e
       0.33982635 0.34589562 0.26632896 0.31398338
0000a0 5b 37 89 bd 02 3b d8 3c 6c 7a 77 3e 78 1f 26 3e
       -0.06700011 0.026395325 0.24167794 0.16222942
0000b0 e4 eb 63 3c 9f 67 24 3e 05 ad fb bd bc 11 dc be
       0.013911221 0.16055153 -0.1228886 -0.4298228
0000c0 00 93 f7 3c a4 c0 60 3c d9 c8 b0 be 29 e9 89 3e
       0.030221462 0.013717804 -0.34528235 0.269357
0000d0 4e 2e 97 bc 80 59 91 be 7d b3 d7 bf 7e 6e 9b bf
       -0.018454697 -0.28388596 -1.685165 -1.2143095
0000e0 6c 2c 77 bf 66 0a b8 bf dc fc 52 bf e7 1d 54 bf
       -0.9655216 -1.4378173 -0.8241708 -0.8285813
0000f0 dc f4 a9 bf cc a5 e6 bd e9 1e ab 3d 97 9c 2f 3f
       -1.327785 -0.11262092 0.08355505 0.6859831
000100 a0 e7 2a 3f 00 62 05 3e 78 f9 93 3e ca 27 b2 bb
       0.6675968 0.13025665 0.28901267 -0.005436872
000110 df dd 1a be 2c ca cc 3e 67 d1 52 3d c9 80 88 be
       -0.151237 0.39997995 0.051469233 -0.26660755
000120 0e 8b 09 ba 3b 27 6a bf 5a 63 e1 3d 3b 53 8f bf
       -0.0005246856 -0.9146611 0.11005278 -1.1197275
000130 0c cb 8b be 92 28 9b 3e 59 f4 1b bf b8 4d d7 3e
       -0.2730335 0.3030439 -0.6091972 0.42051482
000140 a5 a5 1a 3f e5 b5 77 be 19 a0 ed be 29 2c cc 3b
       0.60409003 -0.24190481 -0.46411207 0.0062308502
000150 36 87 f3 be 0f 62 7b 3c 70 65 a9 3e a9 6c 3f bd
       -0.47564095 0.015343203 0.33085203 -0.046734486
000160 48 60 4f 3e 14 67 a0 bd 97 3e 71 3d ca e1 02 3e
       0.20251572 -0.078321606 0.05889758 0.12781444
000170 38 f1 c0 be 7b 5f 88 3e a7 3c a6 bd 98 0f 8f be
       -0.37684035 0.26635346 -0.08117037 -0.27941585
000180 ff ee 4a 3d df b0 84 be 9e 98 b4 3e 2b 67 bc be
       0.04954433 -0.25916192 0.35272688 -0.3679746
000190 93 93 9e be 82 f8 a4 3d 4c 67 17 be 4a 6a 00 be
       -0.30971965 0.080552116 -0.14785498 -0.12540546
0001a0 de f6 3b be b4 d1 59 3e 08 a4 0b be 2d c8 53 be
       -0.18355891 0.21271402 -0.13636792 -0.2068183
0001b0 3d 33 66 bf 4e 5b 6d be 26 6c b2 3e 1f 6b c9 be
       -0.89921933 -0.23179361 0.34848136 -0.3933954
0001c0 ed 87 5d 3e ca 56 0b 3f 9f 15 8d 3d db 68 ac 3e
       0.21633883 0.54429305 0.068888895 0.33673748
0001d0 f2 24 93 3e a8 e0 40 3e 59 08 7e 3e 18 de 5e 3d
       0.28739125 0.188357 0.24807872 0.054411024
0001e0 4f 81 be 3c e5 52 e2 bc 18 90 a4 be e0 16 96 3d
       0.023255019 -0.027627418 -0.32141185 0.07328582
0001f0 b2 64 ad be d0 6f 95 be b9 e9 08 3f d3 77 77 3e
       -0.33865887 -0.2918687 0.5348163 0.24166803
000200 c4 60 6b bf 45 17 e2 3c 4f 85 3f bf 1e 93 a3 3e
       -0.9194453 0.027598986 -0.7481279 0.3194818
000210 62 49 31 bf 0f 7a 80 3e 87 73 6b 3f fc f7 2a bf
       -0.692526 0.25093123 0.91973156 -0.66784644
000220 16 2a bd 3e e5 e3 51 3f 6c 0b eb 3d 72 5a b3 3e
       0.36946172 0.81988364 0.11476788 0.35029942
000230 50 34 a1 3d 79 4b 01 3f 3e 6a 2c be 08 d8 bc be
       0.07871306 0.5050579 -0.16837403 -0.3688357
000240 d4 0a 00 3e 57 16 3d 3c b5 ec 04 bf 2e 31 ae be
       0.1250413 0.011540971 -0.51923686 -0.34021896
000250 2d 58 26 3e 84 a2 3d 3e 2f 5a a2 be dc bc 00 3c
       0.16244574 0.18519026 -0.3170943 0.007857528
000260 7c c4 03 3f 9c f1 6f 3d 77 63 3e bf dc 99 27 bf
       0.51471686 0.058580026 -0.7437052 -0.65469146
000270 82 b6 14 3e e3 37 15 3e 7a d9 01 3d dd 32 0a be
       0.14522746 0.145721 0.031701542 -0.13495965
000280 70 b8 76 3e 67 e5 32 3f c7 d1 94 3c 18 1a 4e be
       0.24093795 0.6988129 0.018166436 -0.20127141
000290 21 eb c2 bd 5d 07 13 bd 74 8a 1e be 2a 9e 07 bf
       -0.095175035 -0.035895694 -0.15482503 -0.52975714
0002a0 ae ef 2e bb 1e 2d 39 3e 0b d0 9f bf 3b f9 e0 bc
       -0.0026693153 0.18083617 -1.2485365 -0.027462592
0002b0 5c cf 9a 3e 39 00 72 be 90 07 f0 bc 99 76 ee 3e
       0.30236328 -0.23632897 -0.029300481 0.46574858
0002c0 2c 51 3a 3e 37 f8 12 be 8e 8e 6f 3d 16 08 88 be
       0.18195027 -0.14352499 0.05848556 -0.2656867
0002d0 29 66 9d be 77 fb 1c bf 78 85 c7 bd 53 80 6d 3e
       -0.30742005 -0.61321205 -0.09742254 0.23193483
0002e0 de 23 44 be f1 62 5f 3e 0f ab c7 3e ca 68 6b 3e
       -0.19154307 0.21815087 0.38997695 0.22989193
0002f0 85 da f2 3d e0 43 0f 3e 8d 8c d7 3e f0 6a 9f 3e
       0.118580855 0.13990736 0.4209942 0.31136274
000300 93 24 36 3e e2 1f ef 3d 16 09 2f be af 16 68 3e
       0.1778739 0.11676003 -0.1709331 0.22664903
000310 8f 87 50 be 74 f2 21 bf 19 7e ea 3e 80 72 43 3f
       -0.20364211 -0.6326058 0.4579933 0.7634659
000320 73 be 8c 3e 30 6b 0b bd a8 78 22 3d cf a1 ac 3b
       0.2748905 -0.03403777 0.039665848 0.0052683125
000330 73 95 36 bf 37 65 5c bf 02 0d 21 be e2 20 1d bf
       -0.7132179 -0.8609194 -0.15727618 -0.613783
000340 3b 8c 7e bf d7 e7 b0 3c e1 c9 8a 3e bc 10 12 be
       -0.99432725 0.021594925 0.27107146 -0.14264196
000350 3b f4 ba 3d 0c ea 1b 3f 8f 3c f4 3e 14 8d 5b 3f
       0.091286145 0.60904 0.47702453 0.85762143
000360 43 af 42 be 5b 60 d1 3e 26 f2 a6 3e f4 3e 1c 3e
       -0.1901217 0.40893826 0.3260662 0.1525839
000370 88 a3 db 3e dc 1f 21 3e 1a 80 9a 3e cd cb 2b 3d
       0.42898202 0.1573481 0.3017586 0.041942406
000380 12 34 23 bf 60 dd 5d 3d 0f 3d 16 3e a1 46 01 3f
       -0.6375133 0.054166198 0.1467173 0.50498396
000390 27 29 23 3e ef 5e 5e bd ca 94 b5 be 60 a5 e7 bd
       0.15933667 -0.054289754 -0.3546508 -0.1131084
0003a0 cf a5 a7 be 1f 37 5b bf 68 75 55 be e4 5c 5c bf
       -0.3274369 -0.85630983 -0.20845568 -0.8607924
0003b0 8d e9 8f be 82 cf 68 bf d7 fe 39 bf a9 a6 12 bf
       -0.28107873 -0.9094163 -0.7265448 -0.57285553
0003c0 1d bf 32 c0 2f 59 0d bf 8f d0 8f be 6f 53 28 bf
       -2.7929146 -0.5521421 -0.28088805 -0.6575231
0003d0 15 8f f8 be c5 cb 1c 3e d0 7e 47 3e b0 2f 01 be
       -0.48546663 0.15312107 0.19481969 -0.12615848
0003e0 fb be 10 be c0 d1 f4 3e e1 7e 10 3e 9c 71 a0 3d
       -0.14135353 0.47816277 0.141109 0.07834169
0003f0 7f e6 79 be 50 30 f7 3d ef 58 4e 3e 19 d7 9d be
       -0.24404334 0.12069762 0.20151113 -0.3082817

Variable_5/read/_43__cf__43:0 f4 [1, 8, 1, 1]
000000 70 77 89 3f 42 5f 94 3f 43 d1 fe 3f 7c a2 4e 3f
       1.0739574 1.159157 1.9907612 0.8071668
000010 83 3b 57 3f 94 b3 18 3f 4f 25 3a 3f 41 bb a6 3f
       0.8407518 0.59649014 0.7271318 1.3025895

Variable_47/read/_42__cf__42:0 f4 [1, 3, 1, 1]
000000 c9 32 ec 3e a6 a6 e0 3e 0d 87 bc 3e
       0.46132496 0.43877143 0.36821786

Variable_46/read/_41__cf__41:0 f4 [1, 3, 1, 1]
000000 c3 54 71 bd 82 21 0a be 99 fd ae be
       -0.058918726 -0.13489345 -0.34177855

Variable_45/read/_40__cf__40:0 f4 [3, 4, 9, 9]
000000 b2 92 b9 3c 23 89 ed bc c4 46 d8 bd 51 c4 19 be
       0.022652958 -0.028996056 -0.105603725 -0.15016295
000010 15 bb f2 bc 8d 0c c1 3c 2f ac 3d be cb 1a 6f be
       -0.029630223 0.023565555 -0.18522714 -0.23350064
000020 ea b0 d0 bd 70 69 12 3d 38 8a 36 bc 74 eb 18 3d
       -0.10189994 0.035745084 -0.011141352 0.03733392
000030 0d af 8e bd fa 6c fb bd 3f 6a da bd 18 76 b3 be
       -0.06966982 -0.12276645 -0.10664796 -0.35051036
000040 15 6b 5a be de 6a 97 bb 0a d0 b6 bc 27 34 27 3b
       -0.21329911 -0.004620894 -0.022315998 0.0025513263
000050 6c d5 2e 3e 83 14 2e be 81 dd cd be d5 fa 8f be
       0.17073601 -0.17000012 -0.40208057 -0.28121057
000060 68 22 c4 be e2 84 03 3e 8d 5c b6 3e 4e 10 1f be
       -0.383075 0.1284366 0.35617486 -0.15533563
000070 57 92 72 bd 91 d0 37 3e db e9 e6 be 59 da 5e bf
       -0.05922159 0.17950656 -0.45100293 -0.8705192
000080 cb 75 27 bf 98 15 38 bf 56 da e7 3d 5c a5 08 3f
       -0.6541411 -0.7190795 0.11320941 0.5337732
000090 79 74 2a be 4e df 30 bc ca 62 8a 3e 80 cf 03 bf
       -0.16645993 -0.0107954275 0.27028495 -0.51488495
0000a0 c7 a0 8f bf 3a f8 7d bf 28 f6 89 bf d2 3a 23 be
       -1.122094 -0.9920689 -1.0778246 -0.15940407
0000b0 3a 6b d7 3e ea 35 ff bd 7d f1 0d bd 0d 03 2c 3e
       0.42073995 -0.12461455 -0.03465413 0.16798039
0000c0 ac 44 08 bf 60 f7 80 bf 07 24 5d bf 8c 76 87 bf
       -0.53229785 -1.0075493 -0.863831 -1.0583053
0000d0 ca a4 d0 be be 8b 36 3e 06 2a a1 bd 10 ca ae bd
       -0.40750724 0.17826745 -0.078693435 -0.08534634
0000e0 46 02 28 bd 0f b5 15 bf 54 f4 47 bf 9e 63 1e bf
       -0.041017793 -0.584794 -0.7810719 -0.61870754
0000f0 f7 68 61 bf 50 a7 11 bf f7 e5 de bd 66 ac 58 bc
       -0.8805079 -0.56895924 -0.10883706 -0.013224697
000100 0a 7f 08 bc f0 82 63 bc af c5 9d be 71 da 7e be
       -0.00833107 -0.013886198 -0.30814883 -0.24888016
000110 94 7e cc bd a9 a2 cc be 68 08 ba be 58 c4 15 be
       -0.0998508 -0.3996785 -0.36334538 -0.1462568
000120 bd e7 31 3d 8b aa a5 3d 8e 8e bf 3d a6 3a 22 3d
       0.043433893 0.08089169 0.09353362 0.039606713
000130 97 9f e5 3d 71 fc 42 3e ab 8b d1 3c 2c 2d 8d bb
       0.1121208 0.19041611 0.025579294 -0.0043083634
000140 ba 83 43 3c cc 34 e5 3c 36 01 2b bc 65 24 c4 bc
       0.0119332615 0.027979277 -0.0104373 -0.023943136
000150 df a9 8c 3e 99 e1 1c 3e 2a 08 66 be e8 f2 7a be
       0.2747335 0.15320434 -0.22464052 -0.24506724
000160 34 d0 44 be 9f 4c c9 bd 65 bb ca 3d 67 f8 21 be
       -0.19220048 -0.098290674 0.09899024 -0.15817414
000170 cb c0 af be 9d 59 0d bd 96 3a c0 be 5e 8e 6b bf
       -0.34326777 -0.03450929 -0.37544698 -0.9201411
000180 18 87 50 bf dc 8b 47 bf 34 10 f8 be 5d d7 db 3c
       -0.81456137 -0.77947783 -0.48449862 0.026836092
000190 da cf 80 be d1 7b cf be ec bb a5 bd c8 05 99 be
       -0.25158578 -0.40524152 -0.08092484 -0.29887223
0001a0 41 45 de be a5 65 5d be da 28 07 bf 39 4e db be
       -0.43412212 -0.21620806 -0.5279671 -0.42833117
0001b0 7b 98 3d bd 92 e7 23 be 29 e5 15 be c3 35 47 3e
       -0.046287995 -0.16006306 -0.14638199 0.19454102
0001c0 b4 76 66 3e 78 7d 14 3f 09 1c 51 3f b6 b0 3a 3e
       0.22506219 0.5800395 0.81683403 0.18231472
0001d0 98 99 97 bd 1b 21 12 3c e1 e4 27 bd 87 8d 6d bd
       -0.074023426 0.008919026 -0.04098976 -0.0579963
0001e0 4c f4 85 bd 05 da 01 be 8a df c1 3e a8 ad 24 3f
       -0.065407366 -0.12680824 0.3786586 0.6432748
0001f0 a4 16 7a 3d 30 8f 29 be 1c ee d4 bb 09 d5 c3 bd
       0.061056748 -0.16558528 -0.0064981114 -0.095621176
000200 d8 d5 c9 bd c3 8d 5b bd e1 83 95 3d 1e 4e 17 3f
       -0.098552406 -0.05360199 0.073005445 0.5910357
000210 0f e4 21 3f 75 bc d2 3d 7f aa 64 bd 17 63 08 bd
       0.63238615 0.102898516 -0.05582666 -0.033297624
000220 06 95 d8 bd 52 98 71 bd d0 03 dc 3d 74 be 81 3e
       -0.10575299 -0.058983155 0.10742915 0.25340617
000230 4d 1f 0e 3f c4 f8 d5 3e 4f 03 b0 3d 37 4c 79 3d
       0.5551651 0.41791356 0.08594381 0.0608637
000240 f0 5f 19 3d ca df ef bd ee fc 95 be 29 a7 98 be
       0.03744501 -0.11712606 -0.29294533 -0.29815033
000250 87 f8 fe be 3a 99 26 bf c1 a6 4e bf c6 dd 36 bf
       -0.49798986 -0.65077555 -0.80723196 -0.7143215
000260 4b f1 6d be c7 48 b6 3d de 9c 1c bd 9e f9 6c be
       -0.23236577 0.089006 -0.038235538 -0.23142096
000270 e1 cd 8e be 17 17 ef be 08 7f 2b bf 95 86 43 bf
       -0.27891448 -0.46697304 -0.6699071 -0.7637723
000280 67 36 25 bf b8 bf 7a be 33 9b 95 bb 13 d2 e5 3d
       -0.64536136 -0.24487197 -0.0045656203 0.11221709
000290 e9 f4 0a 3f 9b 96 0f 3f 5b c2 4a 3e a1 48 5e be
       0.54279953 0.5608918 0.19800703 -0.21707393
0002a0 0c 20 cc be 69 f2 09 3b 98 b6 53 3e 2e da 81 be
       -0.398682 0.0021049029 0.20675123 -0.2536177
0002b0 a6 a5 0e bd 2a 5e fc 3e 05 c0 d9 3e 6a 0a b7 3e
       -0.034825943 0.4929059 0.42529312 0.35750133
0002c0 c7 ec 71 3e af b0 1a be 5e e9 98 3d 20 6e bf 3e
       0.2362548 -0.15106462 0.07466386 0.37388706
0002d0 34 97 9c be 7c e0 38 be e5 3c 56 3e 73 dd 85 ba
       -0.3058411 -0.18054384 0.20921667 -0.0010213092
0002e0 0f 1b ea 3d fd 41 94 3e d5 60 15 3d 56 ef a7 3d
       0.11430942 0.28956595 0.0364693 0.081999466
0002f0 77 32 4e 3e fd a3 65 bd ce a9 03 3e 00 e4 83 3e
       0.20136438 -0.056064595 0.12857744 0.25759888
000300 72 9c 8d be bc f7 63 be 75 46 04 be 62 3a e4 be
       -0.2765842 -0.22262472 -0.12917502 -0.44575793
000310 cb c5 17 bf 8b c0 de be 0e 7d ba 3c b2 72 b4 3e
       -0.59286183 -0.43506274 0.022764709 0.35243756
000320 b7 2f 95 3e 0f b9 fe be 96 56 d1 be 17 83 93 be
       0.29137966 -0.49750564 -0.40886372 -0.2881095
000330 43 b1 56 bf fe 73 9c bf 78 ae 42 bf f5 e5 7f be
       -0.8386423 -1.2222898 -0.7604747 -0.24990065
000340 11 a2 50 bc dc ec 71 3d 4b bc 16 bf 19 4b cc be
       -0.012733952 0.059063777 -0.5888106 -0.39901045
000350 10 64 85 be cc 5c 5f bf af cd 85 bf b9 45 0c bf
       -0.26052904 -0.8725097 -1.0453395 -0.5479389
000360 47 48 3f be 54 ce 7f 3d 40 77 a2 3e 67 0a 53 bd
       -0.18679915 0.06245263 0.31731606 -0.051523592
000370 b7 1c ef 3d 30 83 2a 3d 59 96 18 bf 1e 39 34 bf
       0.11675399 0.041629016 -0.5960441 -0.70399654
000380 44 80 b9 be 1f 45 95 bd b2 4c df 3d 9a a5 e9 3e
       -0.3623067 -0.072885744 0.109033 0.45634156
000390 8f a1 b6 3e 8f d7 ce 3e b8 6e 43 3e 3f 23 a4 be
       0.35670134 0.40398833 0.19085205 -0.3205814
0003a0 dc 4f 23 be 80 f0 8e 3d 28 e4 3c be 1a c3 f9 bd
       -0.15948433 0.069794655 -0.1844641 -0.12195416
0003b0 56 d5 39 3e 8a 83 98 3d b7 b1 06 3e 38 79 8b 3d
       0.18147787 0.07446964 0.1315373 0.0681023
0003c0 fa 98 44 be ff 4e fc bd 33 a7 2d bd e3 01 d4 bd
       -0.19198981 -0.12319755 -0.04239578 -0.10351922
0003d0 03 97 99 be ef f1 01 be 07 06 84 3c c0 71 b0 bd
       -0.29998025 -0.12689947 0.016116155 -0.08615446
0003e0 03 54 00 be 55 c2 78 be 07 1b 96 be ca 90 33 be
       -0.12532048 -0.24292882 -0.29317495 -0.17535701
0003f0 93 d6 a4 be b8 c9 15 bf 16 55 79 be 05 88 8f bd
       -0.32194957 -0.58510923 -0.24348864 -0.070083655

Variable_44/read/_39__cf__39:0 f4 [1, 4, 1, 1]
000000 eb c8 80 3f 88 2a 66 3f b2 d5 61 3f 14 36 33 3f
       1.0061315 0.8990865 0.882167 0.7000439

Variable_43/read/_38__cf__38:0 f4 [1, 4, 1, 1]
000000 9b 33 17 3f ff a0 64 3f ce c2 ad 3e f7 0d 2b 3f
       0.5906312 0.8930816 0.33937687 0.66818184

Variable_42/read/_37__cf__37:0 f4 [8, 4, 3, 3]
000000 55 ab e3 be 04 8f 1c bf 89 b0 c9 3c 8c df ff be
       -0.44466653 -0.61155725 0.024620311 -0.4997524
000010 ac 9c 0e bf 04 20 f1 be e8 e5 9d 3e 96 f4 23 bf
       -0.5570781 -0.47094738 0.30839467 -0.64045084
000020 23 a3 a2 be 86 3b 05 3e 24 fe 25 bf bc 0d f6 3c
       -0.31765088 0.13010988 -0.6484091 0.030035846
000030 00 de 49 be e5 ef 86 3e 96 45 12 3e 6b 09 b0 be
       -0.19713593 0.263549 0.14284357 -0.34382185
000040 4c 0f 00 bf 0a 0e f0 be 0e 10 d5 be 2c 3f 73 be
       -0.5002334 -0.4688571 -0.4161381 -0.23754567
000050 65 dd 5f bf 8d bf 0d be 8b 34 06 be 5f 1c 6f be
       -0.87447196 -0.13842602 -0.13105981 -0.23350666
000060 d9 71 57 be 41 41 2a 3e 77 0b 7b be dd 77 a1 be
       -0.21039523 0.16626455 -0.24516092 -0.3153676
000070 f8 ea 1f bf c4 ea fb bd 21 6c 84 bc 73 75 30 be
       -0.6246791 -0.12300637 -0.016164841 -0.17232303
000080 f5 f8 61 bf af 7c 06 3e db 60 98 3c f1 60 3c bf
       -0.88270503 0.131335 0.018600872 -0.7358542
000090 62 c1 96 bd 5d 14 7f be 77 9e bc be 71 17 06 3f
       -0.073611036 -0.24910112 -0.3683965 0.5237952
0000a0 0f 90 3f be b1 5d 9c be 37 c4 80 be 28 10 18 3e
       -0.18707298 -0.3054023 -0.251497 0.14849913
0000b0 70 78 42 bf 43 36 16 be b3 1b a1 3e 44 7e 24 bd
       -0.75965023 -0.14669137 0.31466445 -0.04015948
0000c0 67 46 04 3e a7 7c bf bd 28 95 99 bd d9 4c 71 be
       0.12917481 -0.093499474 -0.074991524 -0.23564471
0000d0 fd 41 90 be a7 08 a8 be 89 d3 ac be af c4 f0 3d
       -0.28175345 -0.328191 -0.3375514 0.117562644
0000e0 41 27 9d be e9 f0 98 bf 8f cf 44 3d e1 ff a2 bf
       -0.3069401 -1.194852 0.048049506 -1.2734338
0000f0 8b 05 a7 be f6 e7 87 3d af 20 76 be 12 51 ba 3d
       -0.32621416 0.0663604 -0.24035905 0.09097494
000100 55 30 ab be 8c 12 d5 bd 35 e2 62 3e 3c 05 f5 be
       -0.33435312 -0.10403928 0.22156604 -0.47855556
000110 a3 00 44 bf f5 7a 17 3f 5a f5 15 3e 3b cc b1 3c
       -0.7656347 0.5917199 0.14644375 0.02170383
000120 67 df 82 bd 70 ce 1c 3e 46 76 92 be 2d db 28 3e
       -0.06390267 0.15313125 -0.2860586 0.16489859
000130 6c 3a 1e 3d ff 8d 4b be 57 9c a1 be ad 75 fb 3d
       0.038629934 -0.19878386 -0.3156459 0.12278304
000140 1a 29 45 3d 09 2b 0e 3e e1 3d 15 3f da 0f 48 3e
       0.0481349 0.13883604 0.58297545 0.19537297
000150 a4 c8 bb 3d 3c bc 4e bf 42 bc c2 be 86 e4 9b 3e
       0.091691285 -0.8075597 -0.38034254 0.30447787
000160 1e 73 a8 be 82 a1 2c 3f 8b fc 86 3e d1 5a 19 3e
       -0.32900327 0.6743394 0.2636455 0.1497605
000170 74 50 77 3e 30 d9 37 bf da b9 c3 bc 94 12 58 bf
       0.24151784 -0.71815777 -0.023892332 -0.8440335
000180 8a 36 ab 3c ea 84 7b be 85 de 54 3e f7 d4 80 3e
       0.02090003 -0.24562421 0.2078801 0.2516248
000190 2b 97 04 3d 3d c7 12 be b1 0e 31 3e 45 63 e7 3d
       0.032370728 -0.14333816 0.1729076 0.11298231
0001a0 68 84 2b 3f 11 d4 e9 bb 97 d7 14 bf c9 86 4c be
       0.6699891 -0.007135876 -0.58141464 -0.19973291
0001b0 da 87 45 3e 96 24 e2 be 7d df e4 3c ab 93 2a 3e
       0.19290105 -0.44168538 0.027938599 0.16657893
0001c0 32 85 d9 bc 40 64 00 3f 12 d8 09 3f d9 a7 ca 3e
       -0.02655277 0.5015297 0.5384532 0.39581183
0001d0 6a b4 32 3f 5a 11 eb be 6d 1e 9d be 4c 7b 32 3d
       0.6980654 -0.45911676 -0.30687276 0.043574616
0001e0 d6 b8 03 3e a4 c4 e8 3e 47 c8 83 3d 8a dd 3a 3d
       0.12863478 0.45462525 0.06434684 0.045621432
0001f0 e0 e7 b7 3d fa 57 1d 3f ad 12 17 be bf ca a8 3d
       0.089797735 0.61462367 -0.14753218 0.08241796
000200 da 4c 7b be a8 fb 04 bf 17 b5 67 be 84 9c 03 bf
       -0.24541035 -0.51946497 -0.22627674 -0.514107
000210 81 c2 67 3d ae f6 40 bf 97 bd 63 be 19 04 aa 3e
       0.056581978 -0.75376403 -0.22240292 0.3320625
000220 7b 9b 84 3e db 2d 5a be d6 40 12 3e 22 c9 5b 3e
       0.25899872 -0.21306555 0.14282545 0.21463445
000230 63 0d 43 be 14 c2 1f 3f 85 65 a8 3c 66 1f a0 3f
       -0.19048075 0.62405515 0.02055622 1.2509582
000240 a3 4c 2f 3e 82 f0 1a 3e 2c 13 21 3e 6a 1d 4b be
       0.17119078 0.15130809 0.1572997 -0.1983544
000250 e5 3e b7 3f e3 27 4f 3d 54 11 3a 3e a3 1b 50 3f
       1.4316069 0.05057515 0.18170673 0.8129217
000260 e0 1a 83 3d f4 ba d7 3e 87 ef dd be e9 91 c4 3d
       0.064016104 0.4213482 -0.43346807 0.09598143
000270 ef 48 e4 3e f7 46 26 3e 3c 91 6c bf 16 c4 5f bd
       0.44586894 0.16238008 -0.9240911 -0.05463036
000280 c2 9e 24 bf a7 a7 6c bd 6d fe 6c be 87 2e 09 3e
       -0.64304745 -0.057777073 -0.2314393 0.13396655
000290 d7 b3 37 be f8 f5 0b bf 53 79 f4 3e 0b 5e c7 be
       -0.17939697 -0.54672194 0.47748813 -0.38938937
0002a0 6f 04 32 3e 9b f5 79 3e 60 20 bc be c5 f2 ce be
       0.17384504 0.24410097 -0.3674345 -0.40419593
0002b0 da 95 1b be a1 b2 76 bc 15 2d 5d be a1 cf d5 3e
       -0.15193883 -0.015057237 -0.21599229 0.4175997
0002c0 23 c7 02 3f c8 9e da 3e 70 5e 28 3e 34 83 e1 be
       0.5108511 0.42699265 0.16442275 -0.44045413
0002d0 ab 62 47 3f af b4 98 3e 74 fe d1 3d 8b d4 0c 3e
       0.7788493 0.2982535 0.10253611 0.13752954
0002e0 f4 d3 42 3e 13 4b 5e be 94 0e 13 3f 02 5f 1a 3e
       0.19026166 -0.21708326 0.5744412 0.15075305
0002f0 48 4f b7 be b3 ba c3 bc 3b 30 02 bd 92 6e 41 3e
       -0.35802674 -0.023892736 -0.031784277 0.18889835
000300 26 9e 15 be 5a bf e4 be 50 62 d1 be 82 b6 0e bf
       -0.1461111 -0.4467724 -0.4089532 -0.55747235
000310 18 42 f0 be 5c 87 03 bf 92 26 c3 3e 68 a2 74 be
       -0.46925426 -0.51378417 0.38115364 -0.23890078
000320 44 c7 0c bf 11 36 88 3e 70 84 0f be 0b a2 27 bf
       -0.54991555 0.2660375 -0.14015365 -0.6548163
000330 b7 82 be be f0 c2 b5 3e e3 7c 16 bf cf 5e 84 3d
       -0.37209103 0.35500288 -0.5878431 0.06463396
000340 fa 53 f8 bc 9b ee 06 3e 6a aa dc bd b1 ba 90 3e
       -0.03031348 0.13176958 -0.107746914 0.28267434
000350 5b 6a d8 3d f3 dd 90 3e 45 d4 84 be 9b e6 93 be
       0.10567161 0.28294334 -0.259432 -0.28886876
000360 f5 4f bf bd ea a9 5b bd f3 80 9d bb c4 2f 73 be
       -0.093414225 -0.05362884 -0.0048066317 -0.2374869
000370 bd 13 27 be be 4c 67 be a3 4e b7 bd 41 f2 90 be
       -0.16316123 -0.22587869 -0.08950546 -0.28309825
000380 ab 54 13 3d bf 13 35 3e d6 27 b5 be cd 12 51 3e
       0.035969418 0.17683314 -0.35381955 0.20417328
000390 a0 65 f6 3d ab a4 cc be f8 43 40 be 7e ab 01 3e
       0.12031102 -0.39969382 -0.18775928 0.12663075
0003a0 cf 6d d6 3d 87 0f 59 3d 22 1e 68 bc 33 0b 77 be
       0.10470163 0.052993324 -0.0141673405 -0.24125366
0003b0 d1 d3 03 be d8 81 0d 3d 1b 90 dc be 90 ff cd 3e
       -0.1287377 0.034547657 -0.43078694 0.4023404
0003c0 75 d8 68 3e df 60 b4 bc 95 95 37 3f 98 01 dc be
       0.22738822 -0.022018848 0.7171262 -0.42969966
0003d0 64 94 8b bd 96 e9 94 bd 9a 9d ae be 32 a0 9f be
       -0.06815413 -0.072711155 -0.34104615 -0.31176907
0003e0 6c 38 6f 3e 67 eb 19 3f 32 24 d2 3e d0 a1 5a 3e
       0.23361367 0.6012482 0.4104324 0.21350789
0003f0 0b e1 2a 3e fc 72 8a 3e 74 ad 70 3e 81 38 eb 3e
       0.1668741 0.2704085 0.23503667 0.45941547

Variable_41/read/_36__cf__36:0 f4 [1, 8, 1, 1]
000000 d1 65 a9 3f 65 1c 80 3f 67 85 77 3f 43 0a 31 3f
       1.3234197 1.0008665 0.9668793 0.69156283
000010 4d 75 85 3f 58 b0 72 3f 3e 58 59 3f 95 c2 56 3f
       1.0426422 0.9480033 0.8490027 0.8389066

Variable_40/read/_35__cf__35:0 f4 [1, 8, 1, 1]
000000 5c 79 7e 3e a5 6a 6a 3d fa 67 29 be c7 9f a4 3f
       0.24850982 0.05723061 -0.1654357 1.286126
000010 b8 8f 70 3f 80 3f e7 3d 62 d1 00 be fc 1e 3f bd
       0.939693 0.112914085 -0.12579873 -0.04666041

Variable_4/read/_34__cf__34:0 f4 [1, 8, 1, 1]
000000 11 ca 97 3e 3c 71 67 3d da 31 45 3e 48 c2 2c be
       0.29646352 0.056504473 0.19257298 -0.16870987
000010 5b 6d 1e 3f 90 38 66 3e 0b a4 87 3f b1 aa b6 3c
       0.61885613 0.22482514 1.0596937 0.022298189

Variable_39/read/_33__cf__33:0 f4 [16, 8, 3, 3]
000000 6c 15 9a be fd 96 8f bd 69 0b d3 be 7d b6 6d 3e
       -0.3009447 -0.070112206 -0.41219643 0.23214145
000010 ec 91 e4 3d 0b 3d 0c 3f 96 89 21 bf af f9 c5 3e
       0.11160645 0.54780644 -0.63100564 0.38667056
000020 b5 50 77 bd df b1 19 bf 29 66 3c bf 66 3c 23 3e
       -0.060379703 -0.60037035 -0.73593384 0.15941009
000030 1f b1 12 be b4 5c 61 3d 5d 69 06 3f a3 1e 3a 3e
       -0.14325379 0.05502005 0.5250452 0.1817575
000040 56 2f c7 3e 12 20 3d 3e e9 48 10 bf f2 db 05 3d
       0.38903302 0.18469265 -0.5636125 0.03268046
000050 08 ad 61 bc ef 1b a9 3e a8 b4 40 bf 9e 87 0c 3b
       -0.013774164 0.33029124 -0.7527566 0.0021443139
000060 70 24 1c bf a7 dc d1 3e 78 9a 90 3e bd dd 1e be
       -0.609931 0.40988657 0.2824285 -0.15514274
000070 5f 18 01 bf ee 30 95 3f 8c 58 35 bc d9 cb 83 3e
       -0.5042781 1.1655557 -0.0110684745 0.2574146
000080 7d 16 71 bb 7c 08 d8 be 6e 6a af be 63 e6 25 3d
       -0.0036787086 -0.42193973 -0.34260887 0.040502917
000090 d3 12 57 3d f1 dd 11 3e c2 a2 51 3e db e0 5d 3e
       0.052508187 0.1424482 0.20472243 0.21667807
0000a0 d2 1b f6 be 9d 38 97 be a6 05 84 3d 14 64 7c 3e
       -0.480681 -0.2953538 0.0644639 0.24647552
0000b0 bc c2 f2 bb ef c6 64 3e e9 ab 3a bd b1 d3 21 3e
       -0.007408468 0.22341512 -0.045574103 0.1580341
0000c0 86 b5 13 bd c9 48 f7 bc 9a bb ef 3c 99 0f 81 bd
       -0.036061786 -0.030186074 0.02926426 -0.06301803
0000d0 95 08 98 3e 35 d0 09 3e b7 1a 29 bf 83 fe d8 bd
       0.29694048 0.13458331 -0.6605639 -0.10595419
0000e0 7f 53 0b be 60 e4 00 3e 10 40 06 bd fb 54 0e 3f
       -0.1360607 0.12587118 -0.03277594 0.5559842
0000f0 b8 1e 47 be 6a 10 f0 3e 6b c0 fe 3e e7 68 e2 be
       -0.19445312 0.46887523 0.49756178 -0.4422066
000100 5a 6d 5d bd 14 16 4f bf b3 60 a3 be 0a c8 9a be
       -0.054059364 -0.80893064 -0.31909713 -0.30230743
000110 2c 55 98 bd 5a 88 31 be 58 60 f2 3e c5 91 bb 3e
       -0.0743812 -0.1733717 0.4733913 0.3663465
000120 f0 41 24 be a3 01 83 3a 39 2f ff be c3 1d 86 3f
       -0.16040778 0.0009994995 -0.49840716 1.0477833
000130 91 2c 7f 3d 3b 3b 65 3f f3 65 5b 3e df 9a ad be
       0.06229836 0.89543504 0.2142561 -0.3390722
000140 a6 49 f6 be fe 6a b5 be a6 f8 8c be 87 f5 a3 3e
       -0.48103064 -0.3543319 -0.27533454 0.3202326
000150 89 bd a3 3d 8b 62 ce be 49 8c a4 be a6 de 14 3f
       0.07995135 -0.40309557 -0.3213828 0.58152235
000160 8f d9 b6 3d 24 49 b8 3e 60 d9 aa be e6 f8 22 be
       0.08928215 0.35993302 -0.3336897 -0.1591526
000170 42 f0 67 bd 9d a3 0f 3e b4 0f 20 3f 6f 78 af 3e
       -0.056625612 0.14027257 0.6252396 0.3427157
000180 59 4e 60 3c 06 67 21 3e 43 a9 36 3e 17 54 03 be
       0.013690555 0.15761957 0.17838006 -0.12825046
000190 41 5b 04 bf 4d 22 af bc 7e 12 b3 3d a1 34 5e bf
       -0.5170174 -0.02137866 0.087437615 -0.86799055
0001a0 65 85 d9 b9 fa 46 99 3e 61 37 14 be 78 05 2e 3f
       -0.00041488852 0.29936963 -0.1447425 0.67977095
0001b0 7e 96 e4 be 52 92 fd 3e 15 eb 0e be 4b 6f 6a 3e
       -0.44646066 0.49525696 -0.13956864 0.22894017
0001c0 09 b3 c4 3d 05 77 b7 3d 3d ce 20 bd 47 8a 48 bd
       0.09604461 0.08958248 -0.039259184 -0.048959997
0001d0 af 28 28 be ec 4a a3 bd d4 42 af 3e bf 7a f9 bd
       -0.1642177 -0.079732746 0.34230673 -0.12181615
0001e0 4b 66 0a bf bf 64 02 3e 9e 48 89 3e 63 6a f4 3b
       -0.54062337 0.12733744 0.26813215 0.0074589713
0001f0 3a 0c 90 3e 79 76 dd 3c bc 61 93 3e 09 31 b2 3e
       0.28134328 0.027034031 0.28785503 0.34803036
000200 dc bf 37 3e 82 bb 11 3f cd 4b 3d 3c 97 07 08 3f
       0.17944282 0.5692674 0.011553717 0.5313658
000210 fd 2a 17 3e 2f 00 a4 3e 73 c3 d6 3e c9 19 63 be
       0.14762492 0.3203139 0.4194599 -0.22177805
000220 26 bb 14 be a9 ab df 3e b2 44 1a 3e db 19 b7 3e
       -0.14524516 0.43685654 0.15065268 0.35761914
000230 74 2c 3c 3f c2 66 41 be 1c 93 e5 be be 5f 33 bc
       0.7350533 -0.18886855 -0.44838798 -0.01094812
000240 50 b3 a1 bd 6e 0a 1d bd 32 83 95 bd bc f7 e8 3d
       -0.07895529 -0.038340025 -0.07300414 0.113753766
000250 49 7b c5 3e 77 e3 8b bd ba 01 8a bf ae 54 4d 3e
       0.38570622 -0.06830495 -1.0781777 0.20051834
000260 07 bf c6 bd fb e9 58 be c0 5c 55 3d 47 ae da 3d
       -0.09704404 -0.21183006 0.052090406 0.10677772
000270 a3 c0 95 3e 12 77 be 3d 5e dd e1 be 17 3b 42 bd
       0.29248533 0.093000546 -0.44114202 -0.047419634
000280 bb cb b0 3e 31 de 9b 3e b9 2a 47 3c 4a 03 60 3c
       0.34530434 0.30442956 0.012156182 0.013672659
000290 dd 9c 67 3e bc 9f e8 be ce 65 77 3e c6 b9 e3 3e
       0.22618432 -0.45434368 0.24159929 0.4447767
0002a0 52 93 6a 3e 24 d7 fa 3e 41 65 e6 3e 4e e5 7e be
       0.2290776 0.48992264 0.44999126 -0.2489216
0002b0 48 af 56 3e 43 53 0b bf 6f 00 ab bd 14 8c 39 3f
       0.20965302 -0.5442392 -0.08349692 0.7247937
0002c0 13 73 99 3e 7b 5a 2c 3d 83 bb 12 3e c3 f8 85 3d
       0.29970607 0.042078476 0.14329343 0.06541588
0002d0 bc 90 0a bf 1d 81 8a be 26 65 f1 3d 40 19 44 3e
       -0.541271 -0.2705163 0.11786871 0.19150257
0002e0 8a 8f 08 bd 5f c5 92 3e 60 3a c5 3e 9c 1c 1c be
       -0.033340015 0.28666207 0.385211 -0.15245289
0002f0 75 dd e6 3e d9 d5 c6 3c c3 12 3f be b6 0a 2c be
       0.45090833 0.024271892 -0.18659501 -0.16800961
000300 51 59 f0 3d ab 49 4e 3e e9 ca 7c 3d f3 bf 4b 3d
       0.11735786 0.2014529 0.061716948 0.049743604
000310 c1 8f 4b 3e f1 6e 3b be 2a 23 ad be 47 9f 4d 3f
       0.19879057 -0.1830404 -0.3381589 0.8032116
000320 72 03 e6 3e 6a 3d d8 be 7f 26 1c be 44 f7 8e be
       0.44924504 -0.42234355 -0.1524906 -0.27923024
000330 04 a7 d6 be c2 68 af be 43 d0 bf 3e fa ae 89 3d
       -0.41924298 -0.3425961 0.3746358 0.06722827
000340 98 35 17 be cf 71 1d 3e 1b 98 25 bd a9 b5 50 3e
       -0.14766538 0.15375446 -0.040428262 0.20381798
000350 94 25 37 3f 26 2a d5 3d e1 83 1a 3f 8a 7d 8b 3e
       0.71541715 0.1040843 0.6035748 0.27244216
000360 d5 4d 7e 3f e8 88 a4 be e5 53 9b 3e 25 58 ad 3d
       0.9933751 -0.321357 0.30337444 0.08464078
000370 e5 0b bd bd 29 7d b3 3d 12 2a 15 3f 59 5c 65 be
       -0.09230784 0.08764107 0.5826732 -0.22398509
000380 63 59 6d 3b 3e 70 0c 3e 9e 59 8c 3e 28 68 c4 3a
       0.0036216609 0.13714692 0.27412122 0.0014984654
000390 89 42 19 3f 99 ca 11 3e 25 89 0e bf c2 0e fc 3e
       0.5986715 0.14237441 -0.55678016 0.4923001
0003a0 f9 bb e8 be f5 01 b5 be 7c 44 76 be e3 d1 15 bf
       -0.45455912 -0.35353056 -0.24049562 -0.58523387
0003b0 bd 6e fb be 04 01 a7 3d 88 91 b3 be 91 28 b6 3a
       -0.49107924 0.081544906 -0.3507197 0.0013897588
0003c0 d6 9f 22 bf 38 57 94 3d 20 00 5d 3d c9 b7 27 bf
       -0.6352514 0.07243198 0.053955197 -0.6551481
0003d0 bd 82 38 be a9 fb 90 be a0 a6 47 bf d0 00 85 3e
       -0.18018623 -0.28317 -0.77988625 0.25977182
0003e0 ed f9 e5 be 95 29 64 3d da 02 14 3f e1 07 fe bd
       -0.4491724 0.05570372 0.5781685 -0.124038465
0003f0 71 f4 b3 be 7d af 91 bf 93 8a 05 bf 2c d0 06 bf
       -0.35147431 -1.138168 -0.5216457 -0.52661395

Variable_38/read/_32__cf__32:0 f4 [1, 16, 1, 1]
000000 6e b7 16 40 8e 87 18 40 6c 93 1e 40 fb 59 e3 3f
       2.3549457 2.3832736 2.477748 1.7761835
000010 4c 7b 13 40 9b 72 d2 3f c1 68 fb 3f c4 44 d2 3f
       2.3044004 1.6441225 1.9641343 1.6427236
000020 02 6f 1e 40 87 60 1b 40 d2 f0 11 40 0f 3c fb 3f
       2.4755254 2.4277666 2.2803235 1.9627703
000030 97 4d fe 3f d3 95 11 40 01 84 0f 40 d1 a4 e2 3f
       1.9867429 2.2747695 2.2424319 1.7706548

Variable_37/read/_31__cf__31:0 f4 [1, 16, 1, 1]
000000 12 89 96 be 27 47 a8 be db 66 1d 3d 6e 80 8d 3c
       -0.2940145 -0.32866785 0.03842817 0.017273154
000010 03 02 5f 3e e3 39 0e 3f c9 58 83 be 8b f0 aa 3e
       0.21778111 0.5555708 -0.25653675 0.33386645
000020 39 20 43 be bc 64 74 be ff b6 27 3f 15 48 87 3d
       -0.1905526 -0.23866552 0.65513605 0.066055454
000030 c6 40 1e 3f ec 40 f2 bb 80 0a d3 3e 5f 5c 47 bd
       0.61817586 -0.007392993 0.41218948 -0.048672076

Variable_36/read/_30__cf__30:0 f4 [16, 16, 3, 3]
000000 ec 99 7a 3f 72 f0 f0 bd 50 65 9b 3e c6 e3 38 3f
       0.97891116 -0.11764611 0.30350733 0.72222555
000010 3b 83 82 3e 95 11 14 bc b2 cc 98 3e 9d d5 bd 3e
       0.25490746 -0.009037395 0.2984367 0.37077036
000020 d1 51 4d 3e 72 a1 62 3e 0f 7d 81 be 92 e8 48 bf
       0.20050742 0.22131899 -0.25290725 -0.78479874
000030 78 05 f0 3d c6 4c 2f be 91 c8 46 be 72 92 9c 3e
       0.11719793 -0.1711913 -0.19412448 0.3058048
000040 06 ab 07 be 4b d0 7f 3e 8d cc f1 bd 06 72 13 be
       -0.13248834 0.24981801 -0.11806593 -0.14398965
000050 cb cc 76 3f ff 13 96 be f5 e4 ec be 44 ef 7d be
       0.9640624 -0.2931213 -0.4626843 -0.24798304
000060 37 13 ee be e5 5e 44 3f 11 17 8d 3d 4d 19 4d 3d
       -0.46499035 0.767073 0.06889165 0.050072957
000070 5a b8 64 3e ec 92 70 be 92 d1 6f 3e ec b1 b9 3e
       0.2233595 -0.23493546 0.23419788 0.36268556
000080 65 8a e6 be b2 e3 a2 3d 95 36 68 3e ef f5 16 3e
       -0.45027462 0.07953586 0.22677071 0.14742254
000090 d4 1f 93 3d ce fe a3 be ae 5e 3e bf 97 41 7a 3d
       0.07183805 -0.32030338 -0.7436322 0.061097708
0000a0 ae f1 51 3f 95 56 1d 3f 5b 53 13 bf 40 db e4 be
       0.820094 0.6146024 -0.57549065 -0.44698524
0000b0 ec db 62 bf 18 39 69 3d 70 d2 2d 3f 1c f5 ca 3d
       -0.88616824 0.056939214 0.6789923 0.09910032
0000c0 23 bb 27 be 36 f5 92 be 44 35 6d bf 86 68 7a be
       -0.1637998 -0.28702706 -0.926594 -0.24453935
0000d0 f6 7e 0e 3e e3 e8 01 bf db b1 a9 3e e0 e6 9f 3e
       0.13915619 -0.5074598 0.33143505 0.3123083
0000e0 da 0d 7e be 3f f7 a5 be 87 0e 05 be 48 60 9e 3d
       -0.24809971 -0.32415196 -0.12993823 0.07733208
0000f0 94 09 14 bd 99 99 ea be 01 22 b6 be 16 08 7a be
       -0.036141947 -0.4582031 -0.35572818 -0.24417147
000100 f8 39 47 bf 0c 36 24 3d 56 d4 bc 3e 6d 8d 37 3e
       -0.7782283 0.040090606 0.3688075 0.17925043
000110 cd 38 17 bf 09 80 9a 3d a2 96 fb 3d 1d 47 2e 3b
       -0.59071046 0.07543952 0.1228459 0.002659268
000120 c1 4c 84 be e4 60 5f 3d f6 a2 ac 3e 43 3d 9c 3c
       -0.2583981 0.05453576 0.3371808 0.01907218
000130 6b 23 a3 3e 95 4e 09 3e ab c1 46 be 65 82 11 3e
       0.3186296 0.13408883 -0.19409816 0.14209898
000140 06 ea a2 3d 86 c8 84 be 0a f0 97 bd 8f c0 84 3e
       0.07954793 -0.25934237 -0.07418831 0.2592816
000150 f1 3f 31 3f af c8 e5 3e b6 96 9b be 7d e3 7e be
       0.6923819 0.44879672 -0.3038842 -0.24891467
000160 95 c0 22 3e 16 71 5a 3e 6c 9d 82 3e ce c2 63 be
       0.15893777 0.21332201 0.25510728 -0.22242281
000170 69 1e e2 bd 0b 62 62 be b9 7a b5 3e 49 af 08 3e
       -0.110409565 -0.22107713 0.35445192 0.13348116
000180 4b 89 c8 3e ef 44 09 3f 13 a5 43 3a 1e fd 2a be
       0.39167246 0.5362081 0.00074632576 -0.16698119
000190 d5 6b 5f 3c 23 4e 4a be 30 96 d6 3d 75 1e 57 3f
       0.013636549 -0.1975637 0.10477865 0.8403085
0001a0 66 8c 6a bd 63 9b 20 3f 0c c4 92 be f6 ae 1a be
       -0.0572628 0.627371 -0.28665197 -0.15105805
0001b0 85 1e 08 bf 27 53 da be c0 41 30 bf 17 f7 b3 bd
       -0.5317157 -0.42641565 -0.68850327 -0.08787363
0001c0 9d 8f 8a 3e 2b f7 5c bd c9 52 98 3d 55 ee 1c 3e
       0.27062693 -0.053946655 0.07437665 0.15325291
0001d0 0d 62 93 bd 54 06 1b be 1c 8c 0d 3e d0 79 2d 3e
       -0.07196436 -0.15139133 0.13822979 0.16940999
0001e0 78 2b e2 3d 25 33 36 bf 21 3b d1 be c1 46 24 3e
       0.11043447 -0.7117179 -0.40865424 0.16042615
0001f0 be 4d 84 be 1b 1a 05 3f cd fa 4a 3e 5b b1 a3 3e
       -0.25840563 0.5199296 0.19822235 0.3197125
000200 66 8b dc 3d fb 43 54 3d e5 5e ee 3d ff 3d 81 3d
       0.10768776 0.051822644 0.116391934 0.06310653
000210 c3 34 3a 3c 2d 36 99 3e 48 29 a8 3d 83 cc 06 3e
       0.011365118 0.29924145 0.08210999 0.13163953
000220 1c aa 4d 3b 55 26 53 3e a0 4b ac bc 10 aa 38 3e
       0.003138191 0.20620091 -0.021032155 0.18033624
000230 64 85 8f bd 80 0b 68 be 4c cc d3 bc bb 65 0f be
       -0.07007864 -0.22660637 -0.025854252 -0.14003651
000240 03 5c 56 bf 8e d5 e7 be c7 01 dd bd de 75 8b bf
       -0.8373415 -0.45280117 -0.107913546 -1.0895345
000250 db 07 33 be 0f c2 88 be 75 a4 1a bf 33 e5 4f be
       -0.17483465 -0.26710555 -0.6040719 -0.20302276
000260 3b f6 67 bd da 68 d8 bd e8 b9 1c bf 65 47 96 be
       -0.056631308 -0.10566874 -0.6122117 -0.29351345
000270 00 9b b3 3d e7 b4 54 3f ce 1e 67 bf 12 2f 7f be
       0.08769798 0.83088535 -0.9028138 -0.249203
000280 f2 e0 45 3f 78 d5 9e be bd 7d e6 3d 66 8c e5 3c
       0.77296364 -0.3102224 0.112544514 0.028021049
000290 5e c2 e6 be 67 8d 62 3e df e1 ba 3e 84 50 bb 3d
       -0.45070165 0.22124253 0.3650045 0.091462165
0002a0 65 3a 9b 39 68 4b 0b be 12 3e 3b be 24 17 13 3c
       0.0002960741 -0.13602984 -0.18285397 0.008977685
0002b0 db 28 92 be e6 fa 9e be c0 74 9c be ef fb a6 bd
       -0.28546795 -0.31050795 -0.30557823 -0.08153521
0002c0 e0 68 6c 3d 47 6a 16 bd 3f a2 33 bd 6a ac f4 3e
       0.057717204 -0.036722448 -0.0438559 0.47787791
0002d0 3c 3a 9e bf 6c 75 65 be 8e d1 10 bd 44 08 c9 bd
       -1.2361522 -0.22408074 -0.035356097 -0.0981603
0002e0 ca ab 0a bc 66 82 a2 3e 56 03 40 be ed 6f 7d bd
       -0.008463809 0.3174011 -0.18751273 -0.06187432
0002f0 49 e7 07 3f 53 44 1e be 79 4b 63 be ad a7 9a bd
       0.5308729 -0.15455751 -0.2219676 -0.07551513
000300 ba 6a 1f be cb 04 b3 3e fe c6 d8 be 78 1e 07 3e
       -0.15568057 0.34964594 -0.4233932 0.13195217
000310 b2 a2 dd 3d b0 76 90 be 86 98 b0 3e 13 a9 ca be
       0.10822047 -0.2821555 0.34491366 -0.39582118
000320 e6 e0 7f bf d2 04 19 3e df 5d 02 be e0 cc 5d bf
       -0.9995254 0.14943245 -0.12731121 -0.8664074
000330 1f fe 05 3e ab f0 64 be 8a 68 dd be 5b f6 0d 3e
       0.13085221 -0.22357433 -0.4324382 0.13863508
000340 49 98 05 3f e1 70 da be a0 84 12 3e 26 66 2d 3d
       0.52185494 -0.42664245 0.14308405 0.042333744
000350 8a 9e 7d be 30 12 18 3d 44 b6 a8 3d 18 d7 91 bc
       -0.24767509 0.03712672 0.082378894 -0.01780276
000360 fe 14 9d 3d 34 aa 00 3e 66 2d c3 3d 74 b0 9f be
       0.076700196 0.12564927 0.095301434 -0.3118931
000370 f6 57 98 be 5a d7 fb bd 4b 61 99 3e 8e 89 a3 3e
       -0.2975461 -0.122969344 0.2995704 0.31940883
000380 af 5d c3 be c1 97 9e be 63 fe 8d 3e 1b 5c e6 3d
       -0.38157412 -0.30975154 0.27733144 0.112480365
000390 0b e3 c4 3e 9c ab cf 3e 6c f1 89 3e 56 15 12 be
       0.3845447 0.40560615 0.26942003 -0.14265952
0003a0 e2 70 1b 3d 5a a7 ad bd 6a 8b a8 3e ab 27 59 be
       0.03794945 -0.084791854 0.32918864 -0.21206538
0003b0 ab 45 49 3e 4b c6 9c be 53 6a 80 3e b8 e7 8c 3f
       0.19655482 -0.30620036 0.2508112 1.1008215
0003c0 e7 f1 e7 3e 45 c4 e5 3b 63 bf 4d 3e c0 fd 32 3d
       0.45301744 0.0070119225 0.2009254 0.043699026
0003d0 6a f0 d3 bc dc 75 2f 3d f8 0b ac 3e e2 68 dc be
       -0.025871474 0.04283701 0.3360288 -0.4304877
0003e0 33 a6 11 3e 3e 62 6a 3e b5 87 44 bc 77 68 87 bc
       0.14223556 0.22889039 -0.011995246 -0.016529305
0003f0 d0 ac 3e 3f 85 7b 08 3f 52 47 ea 3d 0a df d5 3e
       0.7448244 0.53313476 0.114393845 0.41771728

Variable_35/read/_29__cf__29:0 f4 [1, 16, 1, 1]
000000 02 3f 87 3f 51 c7 7a 3f c8 21 c2 3e be 84 62 3f
       1.0566103 0.9796038 0.37916398 0.884838
000010 16 bb 9a 3f 1c 3c 03 3f f5 3d ad 3f b5 e4 65 3f
       1.2088344 0.51263595 1.3534533 0.89802104
000020 cb 2f a5 3f 2f 0e 14 3f 65 d9 6d 3f 1c a4 5f 3f
       1.290521 0.5783414 0.9290984 0.87359786
000030 61 5e 41 3f 0a 00 61 3f 8c c0 6b 3f ee a5 15 3f
       0.75534636 0.87890685 0.9209068 0.58456314

Variable_34/read/_28__cf__28:0 f4 [1, 16, 1, 1]
000000 48 b5 1b bf f2 9e 84 bf 1a 35 10 3f f0 de d3 bd
       -0.6082349 -1.0361006 0.56331027 -0.10345256
000010 20 b9 84 bf 02 85 fd 3e e2 0b 81 be b2 44 52 bf
       -1.0368996 0.4951554 -0.25204378 -0.8213607
000020 24 ac 3f be c3 fc ae 3f 96 d4 14 bd e9 91 fc 3d
       -0.1871801 1.3670887 -0.03633555 0.12332518
000030 4d b9 85 bf af d0 31 3f df 31 09 bf d0 75 f9 bf
       -1.0447174 0.6945905 -0.5359172 -1.9489079
