examples/style_transfer/model/starry-night.tflite (tflite, 150728 bytes, 52 tensors)

Conv2D_12_bias f4 [16]
00000000: 0000 0000 0000 0000 0000 0000 0000 0000
00000010: 0000 0000 0000 0000 0000 0000 0000 0000
00000020: 0000 0000 0000 0000 0000 0000 0000 0000
00000030: 0000 0000 0000 0000 0000 0000 0000 0000
0.0 0.0 0.0 0.0 0.0 0.0 0.0 0.0
0.0 0.0 0.0 0.0 0.0 0.0 0.0 0.0

Conv2D_13_bias f4 [3]
00000000: 0000 0000 0000 0000 0000 0000
0.0 0.0 0.0

Conv2D_1_bias f4 [8]
00000000: 0000 0000 0000 0000 0000 0000 0000 0000
00000010: 0000 0000 0000 0000 0000 0000 0000 0000
0.0 0.0 0.0 0.0 0.0 0.0 0.0 0.0

Conv2D_bias f4 [4]
00000000: 0000 0000 0000 0000 0000 0000 0000 0000
0.0 0.0 0.0 0.0

Variable/read f4 [4, 9, 9, 3]
00000000: 77d8 d63f aa1e ee3f 16b2 023e 2584 8640
00000010: 112a fe3f e0d5 433f 7474 4740 0340 313f
00000020: 346d f83e 9bc4 a93f 868a 07bf f991 353d
00000030: 4fb7 8ebf 9221 2ec0 f98d 29c0 6ddf 65c0
00000040: 1fa8 7ec0 60f0 7fc0 4c8d 8ac0 3cb5 55c0
00000050: 7519 5ac0 142b 95c0 e9a8 ccbf ea40 e4bf
00000060: 3fac 93c0 1c71 443d c9bf aabf e23a 8740
00000070: 8b1e 5640 dda4 2740 83be ed40 9413 8940
00000080: c9e6 8440 55bc cf40 2210 7d40 9ef0 7d40
00000090: 6c57 9e40 3a61 6540 4b74 4840 a0d6 0440
000000a0: c8c1 f13e e4a4 5abf b0c1 debf 8323 1bc0
000000b0: f4fa 79c0 77bd 8fc0 766d 57c0 1923 88c0
000000c0: fbeb b0c0 7c0a 23c0 ab03 7bc0 d3b0 c5c0
000000d0: 4128 9fbf 410f 3ac0 55d8 b840 b77e 9040
000000e0: efae 9c40 424e 1641 203a cb40 51ed dd40
000000f0: 4dcd 0c41 9407 d240 14fa d140 bf86 f140
00000100: 4a6f dc40 8208 cd40 9710 9740 bfd7 8640
00000110: 809e 1240 b0f3 c93d b818 1a3e 205d d7bf
00000120: a698 60c0 410c 09c0 6609 50c0 9c1e a1c0
00000130: b0a8 21c0 1034 8ac0 1c70 b4c0 2b43 e9bf
00000140: 0844 80c0 3956 9f40 c255 8140 3d91 bb40
00000150: f817 0e41 2e4a bf40 18e1 f240 d9e1 0a41
00000160: 60e9 de40 b35d dd40 24fc f340 88c0 f840
00000170: 3536 c740 d5b0 b840 e424 ad40 aa2e 6740
00000180: d7c7 b13f 4300 da3f 38f0 523e d7ca 1bc0
00000190: 7ab2 a7bf 1672 8bbf dc6d 48c0 ea92 a9bf
000001a0: 3a58 ffbf 94a1 79c0 7c85 a6bf f2f2 04c0
000001b0: 536d 4c40 5df3 e93f 07bc 9540 5f7c c340
000001c0: 5032 7040 01ed af40 2b64 bb40 2f4f 9240
000001d0: e764 7940 d0aa 9740 b0cd ad40 3700 6440
000001e0: 68aa 8140 27f7 8f40 eb72 1240 caa1 273f
000001f0: 68fa 7a3f 8375 73be 3e9e f5bf 6db5 93bf
00000200: af4a 2cbf 5697 dabf 9f7d 4fbf 494e 4dbf
00000210: dae3 d4bf ad54 95be f0a0 abbd a512 21bf
00000220: 01d6 40bf fb0f fd3f 1d9b cc3f 1cb5 37be
00000230: 3545 e63f d8b8 933f 77b9 863e 71c2 1fbe
00000240: 9099 ef3e 205a ac3f 4f82 57bf 4727 2f3f
00000250: c4b0 d83f f0f0 8ebe 05ec 64bf 46c3 bdbe
00000260: b58c 8fbf 3fa4 edbf 4e9b bcbf f249 74bf
00000270: 0488 c4bf 727e b9bf 1a51 30bf 6b77 94be
00000280: b0b4 0bbf 45a3 213f dedb 84c0 4c25 74c0
00000290: bc5b d3bf ffe9 29c0 d388 39c0 7b63 fdbf
000002a0: 5724 54c0 c953 4ec0 c6e8 79c0 d936 82c0
000002b0: 0567 37c0 3436 96c0 55d5 49c0 7aae 04c0
000002c0: abe4 55c0 bb2a 33c0 8252 37c0 cbea 2fc0
000002d0: c2bf 56c0 6a6f 64c0 5694 1cc0 168c e7bf
000002e0: be74 3ac0 7645 f3bf 98ba 243f 055d c7bf
000002f0: 7314 ad3e 444c b9c0 7f80 87c0 4218 0ac0
00000300: 0b03 6bc0 a02f 39c0 403e 13c0 474f 9ac0
00000310: 193f 6dc0 a2c1 9ac0 899f c0c0 f978 87c0
00000320: 0ebe c4c0 3b3a 97c0 f4d7 53c0 a482 7bc0
00000330: 83af 5cc0 9b68 5bc0 cc72 15c0 94bd 6ac0
00000340: a516 82c0 d36b debf 4f94 c5bf c87d 68c0
00000350: f3bd 1abf dd13 713f 5cd2 27c0 1fb9 e63f
00000360: 703f afc0 1b18 44c0 68b7 82bf e264 4ac0
00000370: 1594 96bf 4334 e3be 9044 46c0 6909 e4bf
00000380: 88ae 0fc0 8b72 90c0 b4f2 25c0 e3fc 7cc0
00000390: 4d49 37c0 20e5 dcbf 7495 93bf 49ac 18bf
000003a0: 3433 adbf 62fa ad3f 4f18 eebd 7b0c e0bf
000003b0: 5b76 2b40 d000 fb3f 59ad 43bf b3fe 8e40
000003c0: dee6 9f40 1269 bc3e 0a10 d940 ca98 4c3e
000003d0: aff2 613e 1486 e73d 6651 0a3d ac2b 6b3d
000003e0: ed0d 563d fbbe 8e3d f3a1 5e3d e482 ab3d
000003f0: 187d b43d 82a4 703c 7938 31bd 40c8 4f3d
1.678481 1.8603108 0.12763247 4.203631 1.9856588 0.7649822 3.1164827 0.692383
0.48520815 1.3263124 -0.52945745 0.044328663 -1.1149691 -2.720799 -2.6492903 -3.5917618
-3.9790113 -3.9990463 -4.329748 -3.3391867 -3.4078038 -4.6615086 -1.5989047 -1.783231
-4.614776 0.047959432 -1.3339778 4.225938 3.3456142 2.6194375 7.429506 4.28364
4.153172 6.4917397 3.9541097 3.967811 4.9481716 3.5840592 3.132098 2.0755997
0.47218156 -0.85407853 -1.7402859 -2.4240425 -3.905942 -4.491878 -3.366056 -4.2542844
-5.528806 -2.547515 -3.9220989 -6.177835 -1.243416 -2.907181 5.7764077 4.515468
4.896354 9.394106 6.3508453 6.9352193 8.800122 6.563425 6.561777 7.5476985
6.888585 6.4072886 4.720775 4.213836 2.290924 0.09860933 0.15048492 -1.6825294
-3.509317 -2.141373 -3.2505736 -5.0349865 -2.5259209 -4.3188553 -5.638685 -1.8223623
-4.0083046 4.979275 4.0417185 5.8614793 8.880852 5.977805 7.5899773 8.680139
6.965988 6.917688 7.624529 7.7735023 6.225367 5.771586 5.4107533 3.6122231
1.3889111 1.703133 0.20599449 -2.4342554 -1.3101342 -1.0894191 -3.1317053 -1.324796
-1.99488 -3.900487 -1.3009486 -2.0773282 3.1941726 1.8277394 4.6792026 6.108932
3.7530708 5.497681 5.8559775 4.572166 3.8967836 4.739601 5.4313583 3.562513
4.0520515 4.49892 2.288264 0.65481246 0.9803834 -0.23775296 -1.9188917 -1.1539742
-0.6730146 -1.7077434 -0.8105106 -0.8019758 -1.6632035 -0.29166165 -0.08380306 -0.62919074
-0.75326544 1.9770502 1.5984837 -0.17940181 1.798987 1.1540785 0.26313373 -0.15601517
0.46796846 1.3465004 -0.8418321 0.6841931 1.6928945 -0.27918196 -0.8942264 -0.37063044
-1.1214815 -1.8565749 -1.4734895 -0.9542533 -1.5354009 -1.4491713 -0.6887375 -0.2899736
-0.5457258 0.63139755 -4.1518393 -3.8147764 -1.651237 -2.654907 -2.898976 -1.9795984
-3.314718 -3.2238638 -3.9048324 -4.0691953 -2.8656628 -4.6941166 -3.1536458 -2.0731492
-3.3420818 -2.799483 -2.8644109 -2.7487056 -3.355454 -3.5693002 -2.4465537 -1.8089626
-2.9133754 -1.9005573 0.6434722 -1.5575262 0.33804664 -5.79056 -4.2344356 -2.1577306
-3.6720607 -2.8935318 -2.3006744 -4.8221774 -3.7069762 -4.836137 -6.0194745 -4.233517
-6.1482 -4.725858 -3.3100557 -3.9298487 -3.4482124 -3.4282596 -2.3351316 -3.667821
-4.065264 -1.7376655 -1.5435885 -3.632677 -0.6044609 0.94170934 -2.6222143 1.8025244
-5.476494 -3.0639713 -1.0212221 -3.1624074 -1.1763941 -0.4437581 -3.0979347 -1.7815372
-2.2450275 -4.5139823 -2.5929384 -3.952935 -2.863849 -1.7257423 -1.1529984 -0.59637886
-1.3531251 1.3592036 -0.1162573 -1.7503809 2.6790988 1.9609623 -0.7643638 4.468591
4.996932 0.36798912 6.783208 0.1998016 0.22065233 0.1130487 0.033769034 0.057414696
0.052259374 0.069700204 0.054353666 0.08374575 0.08812922 0.014687659 -0.043266747 0.050728083

Variable_1/read f4 [4]
00000000: 669a 0c40 54ce 73bf 2d5e 7fbe 2d61 2640
2.1969237 -0.95236707 -0.24938269 2.5996811

Variable_10/read f4 [16]
00000000: 6073 8ec0 a9aa 83bf aef2 c4bf 8078 05c0
00000010: cbab e3bf 1cd8 52bf fffa b1bf dfe1 36bf
00000020: b361 3fbf 7230 f33f 9cc2 9abf 782a 18c0
00000030: f376 d6bd 1c6e b7bf 8739 a5bf 15cc 70be
-4.451584 -1.0286456 -1.538656 -2.0854797 -1.7786802 -0.82361007 -1.3904723 -0.714384
-0.7475845 1.8999159 -1.209064 -2.377592 -0.104719065 -1.4330478 -1.2908181 -0.23515351

Variable_11/read f4 [16]
00000000: 445a 5d41 6dfa 9c3d 1e7c 9a40 01dd 553e
00000010: 73db 8840 9a0b f83c 29b2 32bd 979f 3440
00000020: 6049 6840 3baa 0640 9518 0c3e f784 a940
00000030: af4c 4840 78e2 7b40 2f85 90bd e9aa 2340
13.8345375 0.076649524 4.827651 0.20885088 4.276788 0.03027897 -0.043626938 2.8222406
3.6294785 2.10414 0.13681252 5.297481 3.1296804 3.9356976 -0.07056653 2.5573065

Variable_12/read f4 [16, 3, 3, 16]
00000000: a1d5 b3c0 a607 a83f be0e f63f 57a5 e43f
00000010: d268 9040 28bd 82bd 06fe f9be 1f74 1fbf
00000020: 5189 1740 567d 0f40 4115 343e e63f f040
00000030: 678a 1d40 cbaa c640 9012 4abd 26d8 c0c0
00000040: c3fd a1bf 6074 8c3e bbe4 11bf bd0e 293f
00000050: 0434 2840 854c b0bd 5cb3 2f3f 6ef6 65c0
00000060: 5d29 3740 8937 0f40 7f6d 09be c0c8 5e3f
00000070: 5f3c 93c0 6e2f 933f 68e6 b5be 6a43 32c0
00000080: 4e52 9440 7e44 d5be 6906 083f cd14 f3be
00000090: 6c19 abc0 767f 853d f740 4bbf 58d5 d3c0
000000a0: 5611 8ec0 1b05 6d40 86dc 1b3f 0cfb 60c0
000000b0: 195a e8c0 4ece b6bf 87ce 03be e8fe eebf
000000c0: 9fb7 4bc0 9a21 ee3e aaa1 1bbf 0a4c 123f
000000d0: 99d8 8440 9802 453d 001d 18bf 8627 d2bf
000000e0: 7685 8840 c093 1dc0 ae49 b33e fe90 9c40
000000f0: 9764 44c0 5138 763f 1e2e 60bf aafc f8c0
00000100: efc6 dd3e 7f4a d6bd a5c0 29bf 4b3a 0bbf
00000110: 21d7 ee3f 49e3 24bd b615 82bf 2534 1abd
00000120: 0e95 9e40 d452 713f 4941 8cbe 75e7 babe
00000130: 2f8e 79c0 cda1 2940 ac35 04be 3e5c 9ec0
00000140: b7ac 99be 8a36 f8be b484 b93f 4902 2fbf
00000150: e7b4 6abe 79ef 4b3d 89c1 87bf 6ad6 57c0
00000160: 0577 73bf 8c0a b73f 1bf7 063f e8d7 7fc0
00000170: 8f23 25c0 6a96 b13f 89da 20bf 8d4e 8f3e
00000180: 3186 6140 6f40 2b3e a9f7 813f 218f b13e
00000190: da80 1f41 a790 adbd 7e01 4c3d 70df 6b40
000001a0: fa78 ac40 8a8e bfbe 8988 3c3f 3c00 fa40
000001b0: 58ed c9c0 e003 e6bd dab7 9ebd f409 e2c0
000001c0: fafa b240 a5a1 77bd ebf2 2341 d7c4 6cbf
000001d0: 0f6f 5b40 ca63 8dbc 03fd edbe cfc7 0541
000001e0: f77b 6840 fd61 3740 a62d 16bf d2d6 5d40
000001f0: 5313 6cc0 9df2 b740 4091 c4bd 8ead f7bf
00000200: 0114 d1bf a907 95bd 5ba0 2340 644c ec3e
00000210: f01f cb40 a390 34bc db28 cfbe 0942 5040
00000220: 78c7 863f 7109 933f a548 c23e bad8 cc3e
00000230: 1d2c a4bf 8480 7d40 5579 f0be 8422 59c0
00000240: ef1a c23f 3b5a 18be 3a3a ea3f 440a 99be
00000250: 82fd 693e ece6 80bd bfbb 873f 4bcd 7940
00000260: e2e3 03c0 64de 0fc1 9c8c a3be 34c6 0bc0
00000270: cbd1 2bbf 91b3 b440 d224 91be b9c1 40c0
00000280: afe9 01bf 11e6 04bf f957 4f40 5024 85be
00000290: 59a9 0240 25fb f43d 6024 eb3e 2d0e 1141
000002a0: 98ef 36c0 c8e3 a0c0 ba92 0b3c ff9f 08be
000002b0: 3017 aebf 0462 9b40 4178 84bf 1f0d c2c0
000002c0: e312 8d3f deaf fc3d 1613 ca40 a2ed 6a3f
000002d0: 32c7 1fc0 9a35 273e 33e4 363f 22cc c83e
000002e0: e9ea 0640 2637 ffc0 c1c5 813e 9562 da3f
000002f0: ed2b 9140 b1e2 d340 dd07 87be aae6 0bc1
00000300: eb24 5a40 05bd 9bbe 45ad 0f40 6966 a83e
00000310: 9b13 39bf 9f60 7e3e f8cd 97be d149 87bf
00000320: 74d2 8dc0 56f1 50bf ed61 2fbd fdab 96c0
00000330: 5b66 993f c379 28be cd8a 0dbe d14c 933f
00000340: 42c2 60bc 79b3 72be e2a8 8f40 5bf2 5f3e
00000350: 9141 e73f 7294 423e 6d86 213f e078 1f40
00000360: 34c5 01c0 3899 0440 c9c2 15bf 66fc a83f
00000370: 9537 2440 0de6 ef40 5d5b 823f a2e9 bbbf
00000380: 340a 62c0 faa7 713f 436a 193f bba7 483f
00000390: 71fe acc0 ea48 923d 823e ae3e 4e42 82c0
000003a0: 5ad7 bfbf bed7 92c0 214c bbbd 0701 4dbf
000003b0: b79d 8ec0 d6fb f03e 1537 7d3e 5052 81c0
000003c0: 92e6 dcbf 088e 3f3e d07a 28bf d7d0 e8be
000003d0: 4ab0 1940 ab68 8a3e 8375 323f 75cc 21c1
000003e0: 3dbc 833f 1fcf 0540 fd59 033f 8608 e4be
000003f0: a19b 55c0 2b1b a2bf cd24 703e ec32 99be
-5.6198277 1.3127334 1.9223249 1.7862958 4.5127954 -0.06383735 -0.48826617 -0.6228656
2.3677561 2.242025 0.17586233 7.5078 2.4615724 6.2083488 -0.04933411 -6.0263853
-1.2655567 0.27432537 -0.5698964 0.66038114 2.6281748 -0.08608345 0.68633056 -3.5931659
2.8618996 2.2377646 -0.13420676 0.8702507 -4.6011195 1.1498849 -0.3552735 -2.7853646
4.635047 -0.41653818 0.5313478 -0.47476807 -5.3468533 0.06518452 -0.79396003 -6.619793
-4.439616 3.7034366 0.6088337 -3.5153227 -7.2609982 -1.4281709 -0.12871753 -1.8671541
-3.1830823 0.4651001 -0.60793555 0.57147276 4.15144 0.048098177 -0.5941925 -1.6418312
4.2662916 -2.462143 0.3501715 4.8926992 -3.0686395 0.9617968 -0.8757037 -7.780843
0.43315837 -0.10463428 -0.6630958 -0.54385823 1.8659402 -0.04025582 -1.0162876 -0.037647385
4.955695 0.9426701 -0.2739356 -0.36504713 -3.8993032 2.6505005 -0.12911099 -4.94876
-0.30014583 -0.4847911 1.4493623 -0.6836286 -0.22920571 0.049788926 -1.0605937 -3.3724618
-0.95103484 1.4300094 0.52720803 -3.9975529 -2.5802953 1.3874028 -0.6283346 0.27989617
3.5238154 0.16723798 1.0153705 0.3467951 9.968958 -0.08474856 0.04980611 3.6855125
5.3897676 -0.37413436 0.73645836 7.8125286 -6.3102226 -0.11231208 -0.07749911 -7.063715
5.593137 -0.06045689 10.246806 -0.92487854 3.4286535 -0.017259497 -0.46482095 8.361281
3.6325662 2.8653557 -0.58663404 3.4662366 -3.6886795 5.748366 -0.09598017 -1.934984
-1.633423 -0.07276852 2.5566623 0.4615203 6.3476486 -0.011020812 -0.40460858 3.2540305
1.0529623 1.1487256 0.37946048 0.400091 -1.2825962 3.960969 -0.4696757 -3.3927317
1.516447 -0.1487817 1.8299019 -0.29890645 0.22850612 -0.06294045 1.060417 3.903155
-2.0607839 -8.991795 -0.31943214 -2.1839724 -0.67116994 5.6469197 -0.28348404 -3.011824
-0.507472 -0.51913553 3.2397444 -0.26004267 2.0415862 0.119619645 0.4592619 9.065961
-2.8583736 -5.0278053 0.008518869 -0.13342284 -1.3600826 4.855715 -1.0349199 -6.0641017
1.1021389 0.123382315 6.31483 0.9176885 -2.496533 0.16329041 0.71441954 0.3921824
2.1080878 -7.975482 0.25346187 1.7061335 4.536612 6.6214223 -0.26373187 -8.743814
3.4085033 -0.30417648 2.2449505 0.32890633 -0.7229554 0.24841546 -0.2964933 -1.0569402
-4.43194 -0.8161825 -0.042818 -4.7084947 1.1984361 -0.16452698 -0.1382248 1.1507818
-0.01371819 -0.23701276 4.4893656 0.21869795 1.8066884 0.1900194 0.6309574 2.4917526
-2.0276613 2.0718517 -0.58500344 1.3202026 2.5658925 7.4968324 1.0184132 -1.4680674
-3.5318727 0.94396937 0.5992777 0.78380936 -5.4060597 0.071428135 0.34032065 -4.070594
-1.4987595 -4.5888357 -0.0914538 -0.8007969 -4.4567523 0.47067136 0.24728043 -4.041298
-1.7257864 0.18706524 -0.65812397 -0.45471832 2.4013848 0.2703298 0.6971056 -10.112416
1.0291821 2.0907667 0.51309186 -0.44537753 -3.3376238 -1.2664541 0.23451538 -0.29921663

Variable_13/read f4 [16]
00000000: 362a a03e a0e2 b2bd 28d1 673f 07de 27be
00000010: c7f2 a73d 3db6 8abf 46a3 4c3e c247 45bf
00000020: b107 72bf 027c 52be 1f53 f9be c47f 3f3e
00000030: b230 f6be d774 7dbe 3229 cf3d e90c ab3d
0.31282204 -0.087346315 0.9055352 -0.1639329 0.08200603 -1.0836865 0.19984159 -0.7706262
-0.94542986 -0.20555118 -0.4869623 0.18701082 -0.48084027 -0.24751602 0.10115279 0.08352072

Variable_14/read f4 [16]
00000000: 0b65 883f ba15 9f3f e667 303f 2558 123f
00000010: 2847 d03f a314 8d3f 468e 293f cf52 7e3f
00000020: 4e33 343f f5f4 723f edb3 983f 6bb1 5440
00000030: b5a3 bd3f 159d 413f eb5e 333f 223d 813f
1.0655836 1.2428505 0.68908536 0.5716575 1.6271715 1.1021923 0.6623272 0.99345106
0.70390785 0.94905025 1.1929909 3.3233287 1.4815584 0.75630313 0.7006671 1.0096781

Variable_15/read f4 [16, 3, 3, 16]
00000000: b906 3e40 7c7d a43f 424f 1840 6446 873f
00000010: ee33 e03f fb70 8ac0 ff6b e740 86e2 a840
00000020: da28 e63d 77a4 93be 8146 98c0 4cff f53e
00000030: b80d 8f3f 7790 a63e b5e8 29c1 c163 e83f
00000040: 529c c140 e640 81c0 715d e43f 584b 2ec0
00000050: 1d40 8ebf 7eae bd3f 5b41 1fc0 7f07 37c0
00000060: d5cc 86bf bd0e 98c0 3932 b6c0 8321 b7bf
00000070: a32f 35c0 92f7 adc0 9d6e cf40 0b2a 71bf
00000080: ed84 85c0 1129 b3bf 5db1 a740 9288 1bc0
00000090: 5300 5dbe 5097 4040 8b33 aec0 942d ddbf
000000a0: d609 b240 aeb8 4cc0 32ee 653e 81b5 82bf
000000b0: 2d38 c2c0 bfd2 3ac0 db2a 4340 231c 433e
000000c0: 7613 f13f fc24 f53f cfd3 5140 4768 4240
000000d0: 504a c73f 254d 78c0 4c78 3bbf 95ce a840
000000e0: 53a2 ef3f 7e49 1840 2f93 bfc0 f75e 2340
000000f0: bb5f 86bf 67fc 8040 45a4 afc0 a9df 5c40
00000100: 9933 9740 eb6b d9be 8929 9840 f72c 78bf
00000110: 25ff 1e40 b538 03c0 2fcc 9b3f df5b 98c0
00000120: a2f3 4dc0 dbe0 98c0 d89b 06c0 f3b8 d4bf
00000130: dea1 36bf 55da 02c0 0858 2040 1645 223f
00000140: e8c2 c6bf 3e62 aec0 93ed 0f40 c1f6 8ec0
00000150: 6dff d63f 1acc bc40 372a cec0 7277 47c0
00000160: 6152 8bbf 251a 80c0 528d ed3e 7415 afbf
00000170: bfdf c0c0 ef93 423f ef06 f0bf f3c9 a3c0
00000180: cd9d 6a40 3c6b 3dc0 8466 1041 7007 ac3f
00000190: cbbe 56c0 8720 f5c0 d27e aabf b18a c740
000001a0: 1d1f fe3f 7431 f040 9b34 c5c0 c525 4e40
000001b0: 648e 87c0 18ae 7e40 9733 b2c0 11a4 1940
000001c0: 0114 3341 f880 433f aea1 bf40 6f0e 1dbf
000001d0: f111 473d 6ba7 5fc0 de16 2b40 3fb9 eabf
000001e0: a116 68be 5849 cfbe 2e98 93c0 daa5 1640
000001f0: 3138 1340 69fe 12c0 5416 a63f ac60 73bf
00000200: ede5 4840 4106 55bf 327e 1cc0 87e4 efc0
00000210: 88ca 2e40 350e 3e41 5d6e 17c1 f494 10c1
00000220: dc1b 20c0 da9d 423f 6434 af40 0bdc 0cc0
00000230: c92e 03c1 3b5a e83f 68a5 c5bf aeed e03f
00000240: 9d08 1a3d e2dd 3cc0 794a 313f d999 12c0
00000250: c80c cfc0 0072 4f40 bf90 1240 7b03 d83f
00000260: 4460 c8be fd1a fabd 7b66 9140 d740 c63f
00000270: 438b 1140 b3bb c2be 1c04 9b40 f4c0 ce3f
00000280: 9264 f33e bf03 183f 17bb fcbe bdd5 f7c0
00000290: 16a3 4a3f c696 6640 c4c4 8940 ec48 6c40
000002a0: c3e4 1e40 c7a3 4ebf bad1 43be d0e5 9b40
000002b0: 889d 50be a712 fd3d 3558 8440 ecf8 a740
000002c0: 92e7 1440 5ed0 8e40 a024 9fc0 9ced 52c0
000002d0: 85e5 f7bf 22c6 ce40 270f 2c40 73b8 ec3f
000002e0: dc97 5840 bab1 16c0 dfed 8bc0 9e5d ba3f
000002f0: b03d 5240 c402 32c0 f03b d240 1c7b 2441
00000300: d85b b3c0 20b9 60c0 8217 213f d2fd 0440
00000310: 5ec3 22c1 f661 2a40 3b67 2dbf 5d40 dfbf
00000320: 7ef5 953d 4142 1840 4357 0bbf 568c 1cbf
00000330: 9f7d 5540 9031 99bf 4e56 0440 9ea5 60c0
00000340: 79f0 7abe fa69 a9c0 faa7 e13f e029 82c0
00000350: 4898 d4c0 548e 4b40 cf6b 0d3e 02e5 7bbf
00000360: 8f90 ab3f d0b4 763f 246a b53f 1850 2f3f
00000370: 0538 fa3f ce16 ad3e 3b9b c73d 591e 8ebe
00000380: 6f98 4b40 af4b d1bf 4332 51bd e6e4 25bf
00000390: b7ee 6bc1 47d3 0240 9637 0fbf 2c8e b03e
000003a0: 949a 4c40 9dd1 a8bd c75f 26bf a1db 8fbf
000003b0: 58bd a040 6b79 81bf 8785 b740 9114 5940
000003c0: cd9c a3c0 6daf e0bd f7a5 2dc0 2463 393f
000003d0: 5b2d 873f 176e 9140 6e47 08c0 21e1 79c0
000003e0: d63f 153b 3d94 a13f 85f5 9240 9a39 9ac0
000003f0: 8906 d840 2cb6 4340 ef22 cb3f 192c 29c1
2.9691603 1.2850795 2.3798375 1.0568357 1.7515848 -4.3262916 7.231933 5.277652
0.112382606 -0.28836414 -4.7586064 0.4804634 1.1176062 0.32532093 -10.619313 1.8155442
6.050332 -4.039172 1.7841016 -2.7233486 -1.1113316 1.4818876 -2.488364 -2.8598325
-1.053126 -4.751799 -5.6936307 -1.4307102 -2.8310325 -5.436471 6.4822526 -0.9420478
-4.1724763 -1.3996907 5.240401 -2.4302106 -0.21582155 3.0092354 -5.443792 -1.7279534
5.5637007 -3.198772 0.22454146 -1.0211641 -6.0693574 -2.919113 3.0494907 0.19053702
1.8834064 1.9151912 3.2785528 3.0376146 1.5569553 -3.8797085 -0.73230433 5.2752175
1.8721412 2.3794856 -5.9867167 2.5526712 -1.0497965 4.030811 -5.4888024 3.4511511
4.7250485 -0.42465147 4.75507 -0.9694361 2.4843228 -2.0503361 1.2171687 -4.7612147
-3.2179952 -4.777448 -2.103262 -1.6618942 -0.7134074 -2.044576 2.505373 0.63386667
-1.5528231 -5.4494925 2.2488754 -4.4676213 1.67967 5.8999147 -6.442653 -3.1166654
-1.0884515 -4.0031915 0.4639688 -1.3678422 -6.0273128 0.7600698 -1.8752116 -5.118402
3.6658814 -2.95967 9.025028 1.343977 -3.355395 -7.6602206 -1.3319952 6.23568
1.9853245 7.5060368 -6.1626716 3.2210553 -4.2361317 3.9793758 -5.5687976 2.4006388
11.192384 0.76368666 5.9884863 -0.6135015 0.048601095 -3.4945934 2.6732707 -1.8337783
-0.22664882 -0.40485644 -4.6123266 2.3538728 2.3003047 -2.296778 1.2975564 -0.95069385
3.1390336 -0.8321267 -2.4452024 -7.4966464 2.7311115 11.8784685 -9.464444 -9.0363655
-2.5017004 0.7602211 5.4751453 -2.2009304 -8.198922 1.8152536 -1.5441103 1.7572534
0.03760587 -2.9510427 0.6925426 -2.29064 -6.47031 3.241333 2.2900846 1.6876062
-0.39135945 -0.12212179 4.54376 1.5488538 2.2741249 -0.38033828 4.8442516 1.6152635
0.47537667 0.59380716 -0.49361488 -7.744841 0.791551 3.6029525 4.3052692 3.6919508
2.4827125 -0.80718654 -0.19122973 4.8718033 -0.20372593 0.12357073 4.1357675 5.249136
2.326634 4.4629354 -4.973221 -3.2957525 -1.9366919 6.461686 2.6884248 1.849379
3.3842688 -2.3545976 -4.372787 1.455982 3.285015 -2.7814188 6.5698166 10.280056
-5.6049614 -3.5112991 0.62926495 2.077992 -10.172697 2.662229 -0.6773564 -1.7441517
0.073222145 2.3790438 -0.54430026 -0.61151636 3.3357923 -1.196825 2.0677676 -3.5101085
-0.24505796 -5.2941866 1.7629387 -4.0676117 -6.643589 3.180562 0.13810657 -0.98396313
1.3403491 0.9636965 1.4173017 0.6848159 1.9548346 0.3380646 0.09746405 -0.27757528
3.1811788 -1.6351222 -0.051073324 -0.64802396 -14.74578 2.0441453 -0.5594419 0.3448347
3.1969347 -0.082431056 -0.64989895 -1.12389 5.0231133 -1.0115179 5.7350497 3.3918803
-5.1128907 -0.1097096 -2.7132547 0.724169 1.0560716 4.5446887 -2.1293597 -3.9043658
0.0022773645 1.2623364 4.5924706 -4.8195314 6.7507977 3.057994 1.5870036 -10.573266

Variable_16/read f4 [16]
00000000: 75dc 5dbe e789 c13f b7d3 c03f 13d6 85bd
00000010: f552 06c0 68b4 84bf 09f9 c93e 988c 3fbe
00000020: 2175 7dc0 bb82 c0bf 010b a1bf 1985 b03d
00000030: aea5 a53f bf69 80c0 78cc c4be 77a8 ddbf
-0.21666129 1.512021 1.506461 -0.06534972 -2.0988133 -1.0367556 0.3944781 -0.18705976
-3.960274 -1.5039896 -1.2581483 0.08619136 1.2941186 -4.0129085 -0.38437247 -1.7317036

Variable_17/read f4 [16]
00000000: 6474 4240 f723 4740 7dfb 4b40 adb3 a040
00000010: c5d8 7840 8570 343c a36f a040 f88a c540
00000020: f987 ec40 50b5 4b40 87bd 6740 adb4 ae40
00000030: f17d db40 0406 6d40 5b6d 3b3c a292 6740
3.038354 3.1115701 3.1872246 5.021933 3.8882306 0.011013155 5.0136275 6.173214
7.391598 3.1829414 3.6209428 5.459555 6.8591237 3.7034922 0.011439647 3.6183248

Variable_18/read f4 [16, 3, 3, 16]
00000000: 13c8 4cc0 969e aec0 48db b7bf b25b d63f
00000010: 96ff 0d40 54c2 32bd c238 f1bf fa68 46c0
00000020: 13d0 3641 7d54 1540 b236 b93d 30d5 46c0
00000030: e4b3 8740 7d2b 4abc 8919 d5be 9f5f 1b40
00000040: 4361 0940 a895 49c0 83dc 1cc0 126a 1b40
00000050: 1cb7 be3d 1fac 6cbe 6817 7c40 e879 b3c0
00000060: df8a cc40 680a 9dbe 6c1b 44bf 93e4 31c0
00000070: 33c8 5a40 8717 a93f aaa0 28bf 7e45 a540
00000080: 6a4a ad3f 90f2 2bc0 596d 9cc0 2709 c2bf
00000090: 43a6 63c0 b8a9 313d ad4d b03f c905 e2c0
000000a0: ed70 993e 1ef4 5440 3403 1040 862c e83e
000000b0: c4fa 56bf c686 683f e29e 16bf c61f 4fc0
000000c0: a72f e13f e6d5 7ac0 354f 9d3e 165b 2241
000000d0: 4758 33be a58c 4c3e 697a 35c0 9ee3 8dbf
000000e0: 6366 f840 2d38 e1be 4a2d d2bf 6201 e4bf
000000f0: f05e 7640 e4bf 6ec0 f92e e2bd 963c e03f
00000100: eaad de3f 95c2 1840 4ccb 663f b40e da40
00000110: 080c 4ebf 0dd3 b6bd f5f0 1ac0 9225 a9c0
00000120: 37e3 b040 f5ce b9bf c2cb 193f fabf 95c0
00000130: f863 bebc 886d 19c0 8449 113e 1dc0 2840
00000140: f961 3d40 6fec e03e 1e37 52c0 d96f 30c0
00000150: 5e1b 743f d6a2 42bd cacc e43f 4767 18c0
00000160: 46a6 97c0 3ced 1dc0 9e2c 763f 022d d53e
00000170: 927c bfbf 9bc6 da3f 5e50 023d 5b85 233e
00000180: 2040 2f40 3066 08c0 5322 ea3f 7fc5 0d41
00000190: 625d 103f 88fd b43d 3a8f 8f3f 378f 103f
000001a0: 63f1 4b41 946d 24c0 239c b0bf 765c 0dc0
000001b0: f180 0541 5436 94c0 aadb 323e 81dc 8040
000001c0: 9cd7 f13f 7af4 a03f b39b 7140 9674 5440
000001d0: 82a4 10bd 1f05 803d 1b55 6cc0 2dc1 bebf
000001e0: ee60 ea40 a824 e93f 52d8 763f 4f12 e83e
000001f0: c81d 7640 3999 21c0 47d4 c2bc 001f bb3f
00000200: 1b6a 153e 2207 99bf 91bd 17c0 bad0 d9bf
00000210: 4512 0041 2a82 863d cabd cabf 7179 0940
00000220: 208f 2040 21ec 123e e68f 2e3c 0dfb b1c0
00000230: 9878 043e 6ef7 bf40 cc9c 253e 2965 39bf
00000240: 59f7 a4be 8d47 c0bf 41c6 8040 7dba c4be
00000250: 17c6 963f 6b04 c8be fc94 8f3e 5292 5f3f
00000260: 13bd 86c0 d0b8 1640 ad97 86c0 cb4e 7040
00000270: 3d2c 7340 d411 39c0 068d c3be a27b 103f
00000280: 81d3 f3bf 51a7 acc0 5941 a040 462e 99bf
00000290: f805 6b40 a837 73be 5cad 853e c859 09bf
000002a0: 2d63 b5bf 2609 00c0 c15b 523f 0227 dcbd
000002b0: 5ff9 23bf 1d2a cfc0 2837 92be 78e1 b83e
000002c0: 87f1 b040 634f c2c0 f727 7140 a289 8cbd
000002d0: bc2a 1341 0f11 0f3e d7b8 533e 3285 5440
000002e0: 53b9 4fc0 ee20 2bc0 35d4 7d3f 6cca e0bf
000002f0: 3d36 4040 4b8a 9bc0 c90f 173e 8fb8 3f41
00000300: 722c b640 6790 973f 5d6c 7cc0 39c2 2dc0
00000310: 7d31 3d40 cacb 2cbe 4206 233f fbdc f93f
00000320: c030 59c0 50bb 773e 12b5 083e 26d9 bb3d
00000330: 958f 3540 aba3 98bf d68c 9cbe 5803 8bc0
00000340: 3d47 603f 8359 a03f 0d5c 923f 5ebc dbbf
00000350: e53a b4bf bc3a aabd d975 f03f 397c f33e
00000360: ede4 02c0 094d c2bf c0a8 7140 994f a140
00000370: eb81 0cc0 3f0f 62c0 0087 81be de13 09c0
00000380: 2b10 8d40 ccb6 213e 1128 67c0 2188 3641
00000390: 53dc d340 0b41 c4ba 4944 1bc0 d995 29c0
000003a0: bbfc 27c0 3eac ff3f fc81 1c40 37a9 2dc0
000003b0: 2c33 4341 0254 1940 c10c 1c3c ddf6 b740
000003c0: 74e8 f640 c7e8 923f a98d a03e 125f 77c0
000003d0: 606f 6040 faa0 843d 9b3e f2bf 3fcd 2cc0
000003e0: 7360 bac0 de9d b840 5383 acbf a630 5dc0
000003f0: 87ee 0d40 2564 09be bbe2 ae3e d4a2 1cc0
-3.1997116 -5.4568586 -1.4363794 1.6746733 2.2187247 -0.043642357 -1.8845446 -3.1001573
11.425799 2.3332818 0.090436354 -3.106762 4.2407093 -0.01233947 -0.41621044 2.4277112
2.1465614 -3.1497593 -2.450959 2.428349 0.09312269 -0.23112534 3.9389286 -5.608631
6.391952 -0.30672002 -0.7660434 -2.779576 3.4184692 1.3210305 -0.65870154 5.164733
1.3538334 -2.6866798 -4.888348 -1.5159043 -3.5570228 0.043374747 1.3773705 -7.063206
0.29968968 3.3273997 2.2501955 0.4534647 -0.8397639 0.9083065 -0.58836186 -3.2363143
1.7592667 -3.9193053 0.30724493 10.147238 -0.17514144 0.19975527 -2.8355963 -1.1085088
7.7624984 -0.4398817 -1.6420071 -1.7812922 3.8495445 -3.730462 -0.110441156 1.7518489
1.7396824 2.3868763 0.90153956 6.814295 -0.8048711 -0.089269735 -2.4209569 -5.285836
5.527736 -1.4516283 0.60076535 -4.6796846 -0.023241028 -2.3973103 0.141882 2.6367257
2.9591048 0.43930385 -3.284614 -2.7568266 0.9535426 -0.047518574 1.7874997 -2.3813035
-4.739047 -2.4676046 0.9616183 0.416359 -1.4959891 1.709186 0.031814925 0.1596884
2.7382889 -2.131237 1.8291725 8.860717 0.5639249 0.0883742 1.1215584 0.5646853
12.746432 -2.569188 -1.3797649 -2.2087684 8.34398 -4.631632 0.17466608 4.026917
1.8893924 1.2574608 3.7751281 3.3196158 -0.035313137 0.06250977 -3.6926944 -1.4902703
7.324332 1.8214312 0.9642383 0.45326468 3.8455677 -2.524977 -0.023782862 1.4618835
0.14591257 -1.1955302 -2.3709452 -1.7016823 8.00446 0.065677956 -1.5839169 2.1480372
2.5087357 0.14347889 0.010654425 -5.561896 0.12936628 5.998954 0.16173095 -0.72419983
-0.3221996 -1.5021836 4.024201 -0.3842353 1.1779202 -0.3906587 0.28043354 0.8733264
-4.2105803 2.35503 -4.206015 3.7548091 3.799575 -2.8917131 -0.3819353 0.5643865
-1.9048921 -5.3954244 5.007977 -1.1967247 3.6722393 -0.237517 0.26108825 -0.5365262
-1.4170891 -2.0005584 0.82171255 -0.10749628 -0.64052385 -6.473891 -0.28557706 0.3610952
5.5294833 -6.0721908 3.7680643 -0.06862189 9.197933 0.13971351 0.2067598 3.3206296
-3.2456863 -2.6738849 0.9915193 -1.7561774 3.0033104 -4.8606315 0.14752115 11.982558
5.6929255 1.1840943 -3.944114 -2.7149794 2.9561455 -0.16874614 0.63681424 1.9520563
-3.3936005 0.24192548 0.13350323 0.09172277 2.8368886 -1.1924948 -0.305762 -4.344158
0.876087 1.2527317 1.1434342 -1.716686 -1.4080473 -0.08311984 1.8785964 0.47555712
-2.0452225 -1.5179759 3.7759247 5.0409665 -2.1954296 -3.5321805 -0.2529831 -2.1418376
4.4082236 0.15792388 -3.6118205 11.408235 6.620645 -0.0014972998 -2.4260428 -2.649771
-2.6248004 1.9974439 2.4454336 -2.713453 12.199993 2.3957524 0.009524525 5.7488847
7.7158756 1.1477288 0.31358078 -3.8651776 3.5067978 0.06476016 -1.8925356 -2.7000272
-5.8242736 5.769271 -1.3477577 -3.4560943 2.2176836 -0.13417108 0.34157357 -2.4474382

Variable_19/read f4 [16]
00000000: f927 a03e 6ce4 b2bd b5d0 673f 02e1 27be
00000010: 89e2 a73d 9fb6 8abf 649e 4c3e eb45 45bf
00000020: 6f07 72bf 027a 52be bd54 f9be ad83 3f3e
00000030: c230 f6be 8575 7dbe 482e cf3d 2d14 ab3d
0.31280497 -0.08734974 0.90552837 -0.16394427 0.08197505 -1.0836982 0.19982296 -0.7705981
-0.9454259 -0.20554355 -0.48697463 0.18702574 -0.48084074 -0.24751861 0.10116249 0.083534576

Variable_2/read f4 [4]
00000000: 643f b240 0ae7 9e3c 8522 11bb 029f 923f
5.570238 0.019397277 -0.002214582 1.1454775

Variable_20/read f4 [16]
00000000: fe4e 0940 9c51 ee3f d51c 0640 1769 1840
00000010: d9e6 2640 4734 f53f 0e48 0740 a5bb 1940
00000020: 452e b23f d89b 0740 acc5 bc3f 77ab 4b40
00000030: 913a d43f 9876 1c40 b5dc e83f 87ce b33f
2.1454463 1.8618655 2.0955098 2.3814142 2.6078398 1.9156579 2.1137729 2.402078
1.392037 2.118887 1.4747825 3.1823404 1.6580373 2.4447384 1.8192354 1.4047402

Variable_21/read f4 [16, 3, 3, 16]
00000000: bb06 8ec0 ded8 0040 6452 6040 5dd8 11c1
00000010: 20e7 0c3f 465e 9240 2ff5 2cc0 d792 bcbe
00000020: ce49 9840 a93c d5c0 4ed8 90bf 07a1 f6bf
00000030: 1030 1fc0 5a1d bdbf d8e4 01c1 06af 1740
00000040: 7443 f8c0 932e 7d40 3690 08c0 2730 3ac0
00000050: 49a9 25c0 fcf0 0c40 a70a 4740 71f8 743f
00000060: c639 773f 320a d7be e18c e83f 85ca 7bc0
00000070: f8db 7cc0 79be 293f fa4e f23f 9fba d1be
00000080: b714 f1c0 dbfc 0340 43e9 fbc0 99e4 53c0
00000090: e3e6 5fc0 b954 833f 0724 14c0 6230 ccbf
000000a0: 6cde 45bf 056d 993f 353e bd40 2504 9840
000000b0: 806b c8bf 779f f3bf 93fc 873d 3c4f d63f
000000c0: 45da 1bbf 0d04 08c0 bbb0 cf3f 8df7 f8bf
000000d0: 3580 0041 53d4 843f c9fe c2be bb42 453e
000000e0: c3f7 a340 fa71 383f 4a22 0dc0 b31b 3ac0
000000f0: ae85 3440 c5c7 0cc0 04b8 ecc0 148d 1140
00000100: 054b 1640 6ed7 8ebe 74f8 9b3e a7f1 8b40
00000110: 94af e9be bc85 3f3e b4f8 9fbf 1106 ad3f
00000120: b4f1 8b40 c2d5 473f 19f1 75c0 082f 9dbe
00000130: ba93 c93f 8e2b b5bf e303 2740 0fd2 193d
00000140: 6423 1cc0 06e6 0f40 a81c 2fc0 d8d7 4d40
00000150: 2ef7 44c0 c9c4 3640 be09 03c1 76c8 38c0
00000160: d0d2 1ec0 bc8b 9d40 62bb b13f 62b8 0641
00000170: 4d98 16c0 5d66 1dc0 7a8a 73bf d75a c6c0
00000180: 77aa 1640 c785 ba40 1216 e43f a39d dcc0
00000190: 7417 8440 3a59 2240 44a9 ec3f 1fe4 eec0
000001a0: 299b db3e 8d56 a040 c8b5 9e3c b4c0 323e
000001b0: bfde 2040 8689 1fc0 2383 5fc1 e153 973f
000001c0: 22e0 2b40 49be 5640 babc 0a40 4150 b23f
000001d0: fe6e 21be c93e 813f 2b88 b2bf 5db1 4fc0
000001e0: fd79 c83f ade6 bbbf 133d 85bf 85a0 923f
000001f0: 8f78 cb40 f805 eabe a480 21c0 ddab c4bf
00000200: 020a 23c0 f6b5 5640 bcbf b8c0 139a 19c0
00000210: 6ca1 b03f b5ff f440 f410 41c0 cd4b e0c0
00000220: ce9e b23e f603 0041 f285 94bf 1d03 4e40
00000230: 3f86 bbbf 5ae6 703f a546 7fc0 fe67 12c0
00000240: f7fc c2c0 b7d2 59c0 3f3b 1d40 af9b 5f3d
00000250: 90e3 0c40 5ead b240 517a 6840 8ab7 ac40
00000260: c636 bd3f d44b f23f b779 ddbf 2d9d a540
00000270: 20d2 a93f 5628 563e 2bd0 a440 76a5 9cc0
00000280: 84a7 76c0 ead3 c6c0 3d24 2dbf d512 1a40
00000290: b6f5 b53e d881 9440 1b65 5d40 47fc 5540
000002a0: bddc 16c0 beb7 cb3f 878d 8c40 4df2 7640
000002b0: c1a8 10c0 8f4c f93f 361b a43f 69e5 a8c0
000002c0: 908b 06c1 ea6d 7540 2fe5 2ac0 4186 b0bf
000002d0: a702 d5bf d55a d63f c9ac 49c0 73e5 c2bf
000002e0: c8f5 b23f 3a3e 1140 8f8c cb40 ed72 5840
000002f0: 9ca5 4ebf ad41 82c0 cae9 49be 992b a3c0
00000300: 95cb 12bf 21b5 f5c0 ec47 d8be 502b cd3f
00000310: d0a0 3d3f f8c9 1241 7d23 2a40 e4f3 c73f
00000320: b924 e5be 41c8 0ac0 3db7 18be f93f 0741
00000330: 4280 e23f c4bb 25c0 f9b9 c240 ff40 6bbf
00000340: 4434 5340 a23d 0bc0 b45d 8dbc 36c9 3dbf
00000350: 296e 2240 ab5b b53e 8d34 2041 2b75 9abe
00000360: 2e26 b2c0 6988 663f b96e 4f3e faf8 583e
00000370: 6d50 d1bf 2d83 383f fdba 2e40 e3c7 81bf
00000380: c2c8 5fc0 8fc8 cf3f 9c7b f9bf e0ec 57bf
00000390: ecfb af3f 147f 0dc0 1067 0d40 a517 06c0
000003a0: 1335 6740 8bb5 a040 bc24 4ac0 7542 d9bf
000003b0: fe23 d4bd e1b5 dfc0 00d4 6f40 487a 86c0
000003c0: 40c5 df3e 6405 0ec0 8b9b c13f ccdd e040
000003d0: d635 4ac0 90cb 3341 81ed 0540 a785 5bc0
000003e0: d6fd b0c0 65f7 92c0 5134 f43f e7c1 46bf
000003f0: 7cd2 c840 05a7 c1c0 175e a240 2363 653f
-4.4383216 2.0132365 3.5050287 -9.115323 0.5504017 4.574008 -2.7024648 -0.3683078
4.7590094 -6.663655 -1.1316011 -1.9267892 -2.4873085 -1.4774582 -8.11837 2.3700576
-7.758234 3.9559677 -2.133802 -2.909189 -2.5884573 2.2022085 3.1100252 0.9569159
0.9657253 -0.41999966 1.8167993 -3.9342358 -3.9509258 0.66306263 1.8930352 -0.40962693
-7.5337787 2.062308 -7.8722243 -3.3108275 -3.4984672 1.026023 -2.314699 -1.5952265
-0.77292514 1.1986395 5.9138436 4.750506 -1.5657806 -1.903304 0.066399716 1.674293
-0.6087993 -2.1252472 1.6225809 -1.9450547 8.031301 1.0377296 -0.3808501 0.19263737
5.1239944 0.72048914 -2.2052178 -2.9079406 2.8206592 -2.199693 -7.397463 2.2742357
2.3483288 -0.27898735 0.30462992 4.3732486 -0.45641768 0.1870336 -1.2497773 1.3517476
4.373255 0.78060544 -3.8428404 -0.30699944 1.5748208 -1.4153917 2.6096122 0.037553843
-2.43966 2.2484145 -2.736124 3.216299 -3.0775867 2.8557608 -8.189878 -2.8872352
-2.481617 4.9233074 1.388531 8.420015 -2.3530457 -2.4593728 -0.95133173 -6.198589
2.3541543 5.8288302 1.7819235 -6.894243 4.127863 2.536696 1.8489156 -7.465347
0.42891815 5.0105653 0.01937379 0.17456323 2.5135953 -2.4927688 -13.969516 1.1822473
2.685555 3.355364 2.167769 1.3930742 -0.15764996 1.0097286 -1.3947805 -3.2452004
1.5662228 -1.4679772 -1.0409263 1.1455237 6.3584666 -0.4570768 -2.5234766 -1.5364949
-2.5474858 3.354856 -5.773405 -2.400029 1.3799262 7.656214 -3.0166597 -7.009253
0.34886783 8.000967 -1.1603377 3.21894 -1.4650344 0.9410149 -3.9886868 -2.2875972
-6.0933795 -3.403486 2.456741 0.05459183 2.2013893 5.583663 3.6324656 5.3974047
1.478234 1.8929391 -1.730277 5.1754365 1.326725 0.20913824 5.150411 -4.895198
-3.8539743 -6.2133684 -0.6763342 2.4073994 0.35539025 4.64085 3.459296 3.3435228
-2.3572228 1.5915449 4.3922763 3.8585389 -2.2603 1.9476489 1.2820804 -5.278004
-8.409073 3.8348336 -2.6702383 -1.3790971 -1.6641434 1.674647 -3.151171 -1.5226272
1.3981256 2.269423 6.360908 3.3820145 -0.8072145 -4.070517 -0.1971809 -5.099072
-0.5734189 -7.6783605 -0.42242372 1.6028843 0.74073505 9.174309 2.658416 1.5621305
-0.4475458 -2.1684725 -0.1491365 8.453118 1.7695391 -2.5895853 6.0852017 -0.9189605
3.300065 -2.1756368 -0.017256595 -0.7413515 2.5379736 0.354215 10.01283 -0.30167517
-5.5671606 0.90051895 0.20257081 0.21188727 -1.6352669 0.7207516 2.7301629 -1.0139126
-3.4966283 1.6233081 -1.9490848 -0.8434582 1.3748755 -2.2108812 2.2094154 -2.0951931
3.6126144 5.022161 -3.158492 -1.6973406 -0.103584275 -6.990952 3.7473145 -4.202427
0.43705177 -2.219079 1.5125593 7.027075 -3.159536 11.237198 2.092621 -3.4300325
-5.530986 -4.5926995 1.9078466 -0.7763962 6.275694 -6.051638 5.0739856 0.89604396

Variable_22/read f4 [16]
00000000: 38ac 4d40 e6b9 53bf 573f 3dbf ce48 953e
00000010: c5ff 1fbf a25f 32c0 1f6d dfbf 1099 0bc0
00000020: 4a6e 1cbe d5e7 993e 0779 e0c0 0859 9b3f
00000030: 3c87 09c0 480a 43c0 9292 94be d507 3d3f
3.2136364 -0.82705534 -0.73924774 0.29157108 -0.6249965 -2.787087 -1.7455176 -2.1812172
-0.15276447 0.30059686 -7.014774 1.2136545 -2.148879 -3.0475025 -0.29018074 0.73840076

Variable_23/read f4 [16]
00000000: 3242 6240 153a 4f40 72f9 7c40 b9f4 3240
00000010: 5e5e 9440 efe2 c040 b065 8c40 dc4d 8440
00000020: 9d6f 8340 0188 8840 b041 0741 505c 6a40
00000030: 3097 9a40 3a52 b040 bdd9 6740 81aa 8240
3.5352902 3.23792 3.952725 2.7961867 4.6365194 6.027702 4.387413 4.1345043
4.1073747 4.266602 8.453537 3.6618843 4.8309555 5.5100374 3.6226647 4.0833135

Variable_24/read f4 [16, 3, 3, 16]
00000000: fda3 26c0 fd0f e540 9a2d 88c0 d9e3 ae40
00000010: 8c6f 7540 3dad 863e dee1 91be 3cee 14c0
00000020: a2ef bc40 e1c5 1f40 a4a9 0240 e32f 1340
00000030: e2a4 8a40 a3da c2bf 9823 f93f f927 21c0
00000040: bb9d e23e ba29 9b3f aba0 b93f 40ef 1dc0
00000050: 9700 7e40 e106 8540 88d4 8b40 7573 bfc0
00000060: af9b c1be 150f 59bf 1e1b ea40 4de3 8640
00000070: cbb0 5c40 4581 3a40 d058 553c d426 0441
00000080: c91f 2dc0 474a f2c0 25b9 0f41 0709 dcbf
00000090: d4c3 8240 26a8 11bf d3a9 a13d ab08 d140
000000a0: 2fa3 97c0 4202 a8c0 ccc0 43c0 8e95 17bf
000000b0: ad59 80c0 5761 87bc 2f17 3e3f c2b1 8540
000000c0: fa03 21c0 2c95 8f40 931d 96c0 722a 1540
000000d0: 2f14 00c0 ffbc b03e 83d3 2e3d 4703 3240
000000e0: c8fd 5d40 adef 0abf aa5e e840 c488 1d3e
000000f0: ba5c 42c0 8aba c6bf 3007 1ec0 80dc b1c0
00000100: 83b3 5140 e234 afbf 53ce 16c0 236d 6940
00000110: 3acd 2bc0 fae1 52c0 8457 84c0 4a95 c240
00000120: dd75 913f 96d3 e7bf 3f04 4540 a747 28c0
00000130: 015d 8ec0 c275 a73e 7306 c0bf 341f 98bf
00000140: 9160 9340 a314 bebf 7bc3 9abd 3be6 9c40
00000150: 26c0 31c0 9db6 12c0 9604 a6c0 656f 4b40
00000160: a572 aac0 b31d edbf 8a7c f43f f225 7540
00000170: 7be4 d6c0 4bce 3cc0 49b6 4bc0 5db1 6cc0
00000180: cab4 67c0 6315 ac40 6d1b c2c0 a7e2 aa3f
00000190: 8de8 10bf c82b 683f 4565 bf40 fec1 6f40
000001a0: a394 aa40 04ff 84c0 123b 1c40 46dd 993f
000001b0: aee7 4ac0 8003 f8bf 4dd8 ab3f b385 80c0
000001c0: 0602 b0bb 0d50 68c0 6e30 90c0 f8c4 ee3f
000001d0: 8463 a0bf 74f2 7f40 818e ef3f f902 7c40
000001e0: 1d1c 1641 a1b5 793f 1305 8abf 3d3c 2d3f
000001f0: b2d9 23c0 3669 3640 c73a c040 f786 b1c0
00000200: c154 ad40 9531 6f40 e776 bf3f 34f0 4440
00000210: a94f 3bbe 575e 42bf cdd6 c340 7ac7 6f40
00000220: f31b 643f 657a b2bf 0a4f f340 0e17 b840
00000230: 4371 99c0 1f53 4c40 bfe4 e9bf aa1d fb3d
00000240: 4e49 b6c0 b77c 7bc0 7afa 3540 f793 2ebf
00000250: e18a aa3f 2627 acbf 3302 3940 81d7 5140
00000260: 807c 9640 9e89 3b40 4854 9fbe 77ed 10c1
00000270: d7b2 1cc0 52aa 5540 f40c 2d40 e3df 57c0
00000280: 63e9 fac0 a568 ae3e 5759 6c40 f5f8 3fc0
00000290: 5022 cc3f cda1 6dbf cbde 00c1 075c cb40
000002a0: db2d 463f 346d 4840 aa7a 78bf fea5 95c0
000002b0: 9696 6ac0 d6db 7640 01c2 3a40 278a e7bf
000002c0: eb63 a1c0 06b1 6e3e fffd 183f a4c2 68c0
000002d0: 1d48 fb40 1205 303f 546e c83f 6871 b940
000002e0: fab5 c93f 5e68 2040 56a8 ddbf 1d68 dabf
000002f0: b86c acbf ad4d 9bbf 6f02 8cc0 8883 fb3f
00000300: ff8c 19c0 df1b 0541 b7c1 3cbf 513b f6be
00000310: 0fa3 3040 3c6d 3ec0 be61 6740 e255 c540
00000320: 332f afbf ed66 0940 8ee6 a03f 8bb7 bec0
00000330: 5b67 1740 ee3f a6bf b562 5bc0 f5ed 573f
00000340: 9b9e dbbe 2389 80bf 827c 9bbe b68c 9dc0
00000350: afbc 6d3f 5a85 b8bf b904 c73f 6292 293f
00000360: d486 91bf 72e4 1d40 bd00 b7bf fe3c 3c3f
00000370: b378 f13f b6e3 dd40 030c bfbf 16f4 0cbf
00000380: e82e b5c0 4cd0 a040 ac69 ac40 22a8 4dc0
00000390: 5df6 0241 88cd e83f 75e6 98bf 5248 07c0
000003a0: 160b 903e 03fa 0bbe 05ac a0bf 98fe 8bc0
000003b0: c3d1 7abf 4e23 44c0 e0c6 6bc0 b8b1 1d40
000003c0: b519 9fc0 e851 4441 81cb 2cc0 1283 b03e
000003d0: 11e9 1cbf 18c2 ff3f f6fc ad3f 831a b4be
000003e0: 3d04 17bf d879 0ac0 79f5 3fc0 44e1 c5bf
000003f0: 61d2 95bf e9f8 9b40 fec6 663f 713b 0040
-2.603759 7.1582017 -4.2555666 5.4653134 3.8349333 0.26304045 -0.28492635 -2.3270407
5.904252 2.4964526 2.041604 2.2997978 4.3326273 -1.5222973 1.9463987 -2.5180647
0.44260964 1.2122109 1.4502157 -2.4677277 3.968786 4.1570897 4.3696938 -5.982844
-0.3781409 -0.8478864 7.31581 4.2152467 3.4482906 2.91414 0.013021663 8.2594795
-2.705065 -7.571567 8.982701 -1.7190255 4.086405 -0.568972 0.078937195 6.532308
-4.73867 -5.2502756 -3.0586424 -0.5921258 -4.0109468 -0.016525907 0.74254125 4.177949
-2.5158677 4.4869595 -4.69111 2.3307157 -2.001232 0.34519193 0.042682182 2.78145
3.4686146 -0.54271966 7.2615557 0.15384203 -3.0369096 -1.5525677 -2.4691887 -5.5581665
3.2765815 -1.3688014 -2.356343 3.6472862 -2.684401 -3.2950425 -4.135683 6.080724
1.1364094 -1.8111446 3.0783842 -2.6293733 -4.448853 0.3270703 -1.5001968 -1.1884522
4.605538 -1.4850048 -0.07556816 4.9031043 -2.7773528 -2.2923958 -5.18806 3.178674
-5.3264947 -1.8524688 1.9100506 3.830441 -6.7153907 -2.9500911 -3.1830008 -3.6983254
-3.6204095 5.3776107 -6.065848 1.3350419 -0.56604844 0.90691805 5.981112 3.7462153
5.330644 -4.15613 2.4411054 1.2020652 -3.1703906 -1.9376068 1.3425385 -4.0163207
-0.005371335 -3.629886 -4.505912 1.865386 -1.253037 3.9991732 1.8715364 3.9376814
9.381864 0.9754277 -1.0782799 0.6767004 -2.560162 2.8501716 6.007175 -5.547725
5.416596 3.7374012 1.4958161 3.0771608 -0.18292107 -0.759252 6.119971 3.74655
0.8910515 -1.3943602 7.6033983 5.7528143 -4.795076 3.1925733 -1.8272933 0.12261517
-5.6964483 -3.929487 2.8434129 -0.68194526 1.3323632 -1.3449447 2.8907592 3.2787783
4.7026978 2.9302745 -0.3111899 -9.057975 -2.4484155 3.3385205 2.7039156 -3.37304
-7.8409896 0.34064212 3.6929529 -2.9995701 1.5947971 -0.92825013 -8.054393 6.354984
0.7741372 3.1316652 -0.9706217 -4.6765127 -3.665441 3.8571677 2.918091 -1.8089036
-5.043447 0.23309717 0.5976257 -3.63688 7.852553 0.68757737 1.565867 5.7950935
1.575866 2.50637 -1.7316997 -1.7063023 -1.3470678 -1.213308 -4.375297 1.9649515
-2.3992307 8.319304 -0.73733085 -0.4809213 2.7599523 -2.9754171 3.6153407 6.1667337
-1.3686279 2.146907 1.257036 -5.959905 2.3656833 -1.298826 -3.4278996 0.8434747
-0.42894444 -1.0041851 -0.3036843 -4.9234266 0.92866033 -1.4415696 1.5548316 0.6623899
-1.1369271 2.4670682 -1.42971 0.73530567 1.886496 6.9340467 -1.4925541 -0.55059946
-5.661976 5.025427 5.3878994 -3.213387 8.185147 1.8187723 -1.194533 -2.113789
0.28133458 -0.1366959 -1.2552496 -4.3748283 -0.9797632 -3.0646548 -3.6840134 2.463972
-4.971888 12.269997 -2.699921 0.34475 -0.6129313 1.9981108 1.3592823 -0.35176477
-0.5899084 -2.1636868 -2.9993575 -1.5459371 -1.1704828 4.8741345 0.9014739 2.003628

Variable_25/read f4 [16]
00000000: 2727 a03e 8de6 b2bd ecd0 673f b0df 27be
00000010: 91e1 a73d a6b6 8abf fba1 4c3e 2545 45bf
00000020: 5307 72bf 127a 52be a954 f9be 2484 3f3e
00000030: cc30 f6be 5676 7dbe 8630 cf3d be14 ab3d
0.3127987 -0.0873538 0.90553164 -0.16393924 0.0819732 -1.083699 0.19983666 -0.7705863
-0.94542426 -0.20554379 -0.48697403 0.18702751 -0.48084104 -0.24752173 0.10116677 0.08353566

Variable_26/read f4 [16]
00000000: ccd6 e83f ac0b 5240 7695 6340 121f 3c40
00000010: b953 3440 6f39 4d40 5a2c d340 1738 4e40
00000020: f8ff e13f 23e1 4440 1d99 e43f f61e 6e40
00000030: d051 3640 6767 2a40 d8ec 5140 55c3 f13f
1.8190551 3.2819624 3.5559974 2.9393964 2.81761 3.2066305 6.599164 3.2221735
1.765624 3.0762413 1.7859226 3.7206397 2.8487434 2.6625612 3.2800808 1.8887736

Variable_27/read f4 [16, 3, 3, 16]
00000000: 2209 47c0 3b91 8dc0 edca 37bf 17a2 7040
00000010: 62e0 b2bf 828d bec0 79df a6bf b264 8a3f
00000020: 8bdf b2bf 3110 ddbf cb10 bcc0 cde1 90c0
00000030: 0a47 2640 13cf 723f 716a 8340 62e7 ed3f
00000040: e72d 2fbf 1486 1f40 4c1f f8bf 760a 8fbf
00000050: e6fd b4be 8545 ad3f e569 f1bf 1033 0340
00000060: a3e6 36c0 1939 d53f a690 ba3f be69 aac0
00000070: ecae 373e d13d 8ec0 7ac0 a2c0 3738 f73f
00000080: ff3c 623f 7fda b5c0 3fa8 2ac0 5a0e 86be
00000090: 5e54 0b40 10f5 bec0 738c c1c0 1860 98c0
000000a0: 6e25 33bf 1a75 96bf 9758 0240 01b1 3cc0
000000b0: f9c6 6a40 d9bf b5c0 bca1 0640 5182 b040
000000c0: 5e27 1dc0 0737 76c0 b621 313f 3602 5640
000000d0: 8be7 a440 7b76 2fc0 1a16 82c0 8261 6d3f
000000e0: 8917 54c0 19da 8ec0 d808 cec0 c0c9 1cc0
000000f0: 849d ed3f 9b0e 15c0 197c 6940 552d 5440
00000100: 534c 56bd b633 5c40 1157 83bf 04b9 c1bd
00000110: d9ad 98bf f94a 4740 cba0 e9bf b999 6b40
00000120: 9c13 99c0 c2e3 b2bf 82c6 f23e ad81 6d40
00000130: 036f 69c0 08f6 c6bf a8eb f1bf 0265 7bbf
00000140: 665e debd daec c9bf e1e8 fbbf 2a75 cc40
00000150: dfa8 043f 45cb d1c0 686b 61bf 0b21 3bbf
00000160: 7e05 d9c0 e4a9 adc0 fd6c 0440 b13f 7f40
00000170: 6be3 b43f 9a06 a6c0 899e 1e40 5f7a 3cc0
00000180: e9cd 15c0 ae17 c83f 9afb ff40 0dc3 5140
00000190: 8b56 0241 01fc a9c0 08c1 7ebf e190 ac40
000001a0: 5a12 e8c0 7817 b2bf 476c f6c0 809a a7c0
000001b0: 69f1 98bf 18be ad3f 714b 56bf 52c2 e740
000001c0: cc14 c6bf 9dd4 c8c0 b360 0140 67cf bd3d
000001d0: 45bf 7f40 2a0a fcbf f3a8 a7c0 93a2 0e40
000001e0: bbb0 34be 70a2 10be 92e2 a5c0 ce82 6c40
000001f0: ebd3 bebf 179c 74c0 891b f8be d2ca d93f
00000200: 21c8 c03e 6c52 203e 5a2b 913f 756b 1c41
00000210: 42af 1a40 f2ef 27c1 b6bb 883f d448 0240
00000220: d21d fdc0 b074 903f 7512 09c0 daf3 57c0
00000230: 21f6 bd3f c731 02c0 b7c0 15c1 63e9 0dc0
00000240: 2a87 7dbe 177f d13e c1d4 b4c0 780f 4c3f
00000250: fadb 0d40 f35b bd40 c284 07c0 4667 8e40
00000260: 9086 cbbf 9346 ce3e 5599 0f40 b05b 5840
00000270: f8b9 1440 67b1 c2bf 7226 953e 39be a1bf
00000280: e9d0 703d 56bb c6bf 5ecb 24c0 dcc2 43c0
00000290: 1732 8540 a886 b740 4c9c 4dc0 8254 5d40
000002a0: f373 a6c0 6b91 343f 41b4 353f be4a ddbf
000002b0: 5bb3 2b40 a815 9d3f 7a4d 8dc0 82a9 9dc0
000002c0: 21d9 d23f cdc6 60c0 2db7 adc0 40f9 c53f
000002d0: 7a39 1541 fa80 3d40 a888 1fc0 82eb 5240
000002e0: c7ef ce3f a83f 6e40 4abd 91c0 acfc 8940
000002f0: 599d c540 7c5f 1bc0 042f fcbb 13bd 08c1
00000300: 4aec 8e40 6e89 7dc0 0429 943f f9a3 9d40
00000310: 53b9 4c40 6bfe 5640 57ed c7bd 3b88 9640
00000320: 3cf3 72c0 4d0c 5b40 568b b4bf 5aa4 0140
00000330: 81ae 3e40 7845 3bc0 eb3f 3abf c9d5 f4bf
00000340: 8541 a33f 9b8a a53f 9282 8b3f 3952 1ec0
00000350: 3d34 883f fc6e 213f 3209 82be 20bb 4dc0
00000360: fbcb 9440 1893 a33f 4f68 b3c0 9e49 b9bf
00000370: b00f 7440 68ee 183e e542 92c0 81f7 d8bf
00000380: ea88 b9c0 7e09 95c0 f81a 563f ae5c 49c0
00000390: f8ef 6140 7c45 85be 9834 1440 1f0d db3f
000003a0: 9d54 0341 4a45 27c0 05f5 10c1 ae22 0940
000003b0: 7930 8540 ce33 88c0 183b 06c0 b000 8ec0
000003c0: 4cfd 2840 bd6e 043f afbd c7bf e0fc b5c0
000003d0: d74c 6dbf c5e1 4440 67ec bc40 2c2a 7940
000003e0: 720d a1c0 bb77 cfc0 27b7 b93f d41f 7340
000003f0: 976e e240 5c52 a0c0 4624 033f 01e5 943f
-3.1099324 -4.4239783 -0.71794015 3.7598932 -1.3974726 -5.954774 -1.3036948 1.081198
-1.397447 -1.7270566 -5.87705 -4.5275636 2.5980859 0.9484722 4.1067433 1.8586237
-0.68429416 2.4925585 -1.9384551 -1.1175067 -0.3534996 1.3536841 -1.8860441 2.0499916
-2.857827 1.665805 1.4575393 -5.325408 0.17937821 -4.445046 -5.0859957 1.931403
0.8837432 -5.682922 -2.666519 -0.26182824 2.1770244 -5.967415 -6.0483947 -4.76173
-0.6997899 -1.1754487 2.036657 -2.9483035 3.6683943 -5.679669 2.1036215 5.515908
-2.4555278 -3.8471086 0.69192064 3.343885 5.1532645 -2.7416065 -4.065198 0.9272691
-3.3139365 -4.4641232 -6.4385796 -2.4498138 1.8563695 -2.3290164 3.6481993 3.3152668
-0.052318882 3.4406562 -1.0260946 -0.09459117 -1.1928054 3.113951 -1.8252195 3.6812575
-4.7836437 -1.3975756 0.47417074 3.7110398 -3.6474006 -1.5543833 -1.8900042 -0.98201
-0.10857849 -1.5775406 -1.9680444 6.3893023 0.51820177 -6.556063 -0.88054514 -0.73097295
-6.7819204 -5.4269886 2.069152 3.9882624 1.4131902 -5.188306 2.4784262 -2.944969
-2.3406928 1.5632226 7.999463 3.27753 8.146129 -5.312012 -0.9951329 5.3926854
-7.25224 -1.3913412 -7.7007174 -5.23761 -1.1948673 1.3573637 -0.83708864 7.2424707
-1.5475097 -6.275954 2.021527 0.092680745 3.9960492 -1.9690602 -5.2393737 2.2286727
-0.17645542 -0.14124465 -5.1839075 3.6954837 -1.4908422 -3.822027 -0.48458508 1.7015021
0.37652686 0.15656441 1.1341355 9.776235 2.416947 -10.49608 1.0682285 2.035695
-7.90989 1.128561 -2.1417515 -3.3742585 1.4840738 -2.0342882 -9.3595495 -2.2173698
-0.24758592 0.40917274 -5.650971 0.79711103 2.2165513 5.9174743 -2.117478 4.4501066
-1.590044 0.4028822 2.2437336 3.3805962 2.3238506 -1.5210389 0.29130894 -1.2636176
0.058792982 -1.552592 -2.5749125 -3.0587683 4.1623645 5.7351875 -3.2126646 3.458283
-5.201654 0.7053439 0.7097817 -1.7288435 2.682822 1.2272234 -4.4157076 -4.926942
1.6472512 -3.5121338 -5.4286103 1.546669 9.326532 2.960997 -2.4927158 3.2956243
1.6166924 3.7226353 -4.5543566 4.3120937 6.1754575 -2.427703 -0.0076960344 -8.546161
4.466344 -3.961513 1.1575017 4.926266 3.1988113 3.3592784 -0.09762066 4.7041297
-3.7960958 3.4226258 -1.4105022 2.0256562 2.9794009 -2.926115 -0.7275378 -1.9127742
1.275437 1.2932924 1.0899222 -2.4737685 1.0640942 0.63059974 -0.2539764 -3.2145462
4.6499 1.2779264 -5.606483 -1.4475591 3.8134575 0.14934695 -4.570666 -1.6950532
-5.797963 -4.6574087 0.836349 -3.1462817 3.5302715 -0.26029575 2.31571 1.7113379
8.208158 -2.613604 -9.059819 2.1427417 4.162167 -4.256324 -2.0973568 -4.437584
2.64046 0.51731473 -1.5604762 -5.6871185 -0.92695373 3.0762799 5.9038577 3.893199
-5.0328913 -6.4833655 1.4509019 3.7988176 7.0759997 -5.0100536 0.51227224 1.1632386

Variable_28/read f4 [16]
00000000: 4497 04c0 1a17 673f 1405 083f 8f15 2cc0
00000010: 8a5d 1bbf 1f8e 943f 2a6e 20c0 4eba 0a3f
00000020: 9f53 9dc0 6f60 8a3f d809 c0c0 999d a2be
00000030: 2d5d 7940 aa80 5ec0 b458 0bc0 ac62 a2c0
-2.0717325 0.90269625 0.5313275 -2.6888158 -0.60689604 1.1605872 -2.5067239 0.5419053
-4.9164577 1.0810679 -6.0012016 -0.31760862 3.896312 -3.476603 -2.177289 -5.074545

Variable_29/read f4 [16]
00000000: a2f9 6240 cfd8 2d40 0b18 2440 d85b 9640
00000010: c84d 5040 02f0 6840 93dd 5640 61cf 2940
00000020: 8a9b 9f40 8be8 4f40 09f8 a340 68f2 3940
00000030: 8e36 2140 5ad0 5a40 2278 8b40 593f 7b40
3.5464864 2.716358 2.5639675 4.6987114 3.2547474 3.639649 3.3572738 2.6532824
4.9877367 3.2485683 5.1240277 2.9054203 2.5189548 3.4189668 4.3584146 3.9257414
