examples/style_transfer/model/starry-night.onnx (onnx, 134099 bytes, 48 tensors)

Variable_9/read/_47__cf__47:0 f4 [16, 16, 3, 3]
4.7411885 -2.7650063 2.1349566 4.4023743 -3.1577218 5.9201655 1.073598 6.108575
-2.3169599 -5.131109 0.9778954 -0.119232304 -1.0308034 -1.8890108 0.9737619 -1.0041406
-1.2693603 2.047599 -1.0462062 -0.15715195 -0.06536917 0.26361918 -0.42571396 0.14649132
0.124857925 0.22744413 -0.777476 0.17144056 0.30453536 0.6021553 0.13355441 0.18004808
0.20525758 0.14901416 0.25528687 0.04841216 -0.22571352 -0.11855653 -0.19256264 -0.028442334
-0.26406878 0.06576665 -0.07637691 -0.19615947 0.0033371043 -0.08161324 -0.05617909 0.028636107
0.14974983 -0.29125923 -0.16111055 -0.15148981 -0.34053114 -0.14331873 -2.1988835 0.04446195
-7.6942086 -2.465221 0.020133652 -3.485242 1.9375825 -1.7947476 5.402492 -8.213946
-4.1473317 -4.6515594 1.2605072 1.5477461 -1.8587247 2.3698814 -2.1925926 4.303772
3.3248227 -3.7004776 4.670071 1.3367833 2.3024702 1.1523128 -2.6596005 3.607161
-3.2551205 -0.046751328 -0.051129624 0.19045919 -0.018237192 -0.18674666 -0.07967001 -0.089259245
-0.16926317 -0.16587056 -0.07492018 -0.039325755 0.50312805 -0.42055127 -0.06986737 0.22433242
-0.34790838 -0.13441929 -0.29319686 -0.26178223 0.09342546 0.08973546 -0.22473618 -0.15264283
0.04519318 -0.1404078 -0.023531197 0.09619958 -0.20727332 0.03460085 -1.2638495 -0.013435577
-0.25437188 -0.9059735 0.23230772 -0.64354867 -0.3733249 -0.48405614 0.9108297 0.87845016
0.57900494 0.06564516 -0.86797434 -0.3702728 -0.26681602 0.548194 2.7330859 6.464986
-0.47718635 0.67608523 -0.5887916 -2.3778665 3.8064947 -7.161609 7.706018 -1.1834196
1.0580839 0.15690891 -0.8060242 -0.24746004 0.9403178 0.82201105 2.0659847 2.0829098
1.9587648 0.7132818 -4.0067854 1.2514291 2.0275679 -4.6981273 4.023263 1.7375324
-5.3560886 -0.93368745 2.361497 0.33684954 -4.6139846 2.3781843 0.9634521 -1.3265328
0.17746137 1.777943 0.22553083 -0.30504623 -0.8164432 -0.13570662 -0.62193215 -0.7821201
-0.5271644 -1.0199978 -0.9678667 0.017217537 0.024597466 0.07442182 0.12902783 -0.1515728
0.10784168 -0.016022056 0.074547544 0.19440615 -0.73341763 -0.055543445 -0.098302975 -0.55462325
0.0518171 -0.37900043 -0.109016806 0.05821299 0.0029088024 0.022598151 -0.051120553 -0.00415366
0.03496347 0.12431047 -0.043763727 -0.007832563 -0.04251125 -0.2007394 1.4673909 0.718127
-0.5628383 2.0289836 0.6177337 -3.265203 -1.4882512 -1.0673872 -0.7994046 2.3258004
1.0802714 -1.6816077 5.028074 -1.0576518 -2.3883665 -2.1317286 -2.4699094 2.8144412
1.7296523 1.6984193 -1.9899515 0.37261418 8.772759 -4.7843614 4.2065716 5.120389
-5.8600063 0.02750675 0.03997284 -0.23036714 0.13606854 -0.1166535 -0.2706603 -0.06388821
0.13800298 -0.23626602 -0.119042896 0.063729614 0.0154411085 -0.08186733 0.008834155 0.20517609
0.08262255 0.0010898722 -0.101558626 -0.03132897 -0.027129062 0.032217715 0.11066177 -0.13183758
-0.1425134 -0.15767998 -0.05503818 -0.5522468 -0.66997194 -0.5486781 -0.04398923 -0.84411407
00000000: d1b7 9740 ddf5 30c0 21a3 0840 40e0 8c40
00000010: 1d18 4ac0 ff71 bd40 a96b 893f 7279 c340
00000020: 1249 14c0 0c32 a4c0 5a57 7a3f 1130 f4bd
00000030: 5ef1 83bf 1bcb f1bf 7648 793f ae87 80bf
00000040: 667a a2bf dd0b 0340 16ea 85bf 71ec 20be
00000050: 45e0 85bd 18f9 863e 2ef7 d9be d201 163e
00000060: 83b5 ff3d 1de7 683e ab08 47bf 1d8e 2f3e
00000070: 0fec 9b3e da26 1a3f 7dc2 083e 865e 383e
00000080: 0b2f 523e 2b97 183e f6b4 823e d44b 463d
00000090: 7221 67be c4cd f2bd 242f 45be e6ff e8bc
000000a0: 0634 87be aab0 863d 7f6b 9cbd 07de 48be
000000b0: 52b3 5a3b d824 a7bd 0c1c 66bd 4596 ea3c
000000c0: 0558 193e ee1f 95be 2afa 24be 2520 1bbe
000000d0: 195a aebe 25c2 12be 82ba 0cc0 bc1d 363d
000000e0: f536 f6c0 2ec6 1dc0 54ef a43c 340e 5fc0
000000f0: b402 f83f 4aba e5bf 37e1 ac40 536c 03c1
00000100: f1b6 84c0 93d9 94c0 4d58 a13f 8b1c c63f
00000110: b1ea edbf 23ac 1740 7053 0cc0 80b8 8940
00000120: e5c9 5440 a0d4 6cc0 3971 9540 b71b ab3f
00000130: ac5b 1340 fc7e 933f e536 2ac0 badb 6640
00000140: e553 50c0 527e 3fbd 4c6d 51bd bc07 433e
00000150: 2a66 95bc 843a 3fbe 082a a3bd 8dcd b6bd
00000160: 5353 2dbe f9d9 29be c06f 99bd 0b14 21bd
00000170: 00cd 003f 7f52 d7be a016 8fbd 66b7 653e
00000180: 0c21 b2be 36a5 09be e61d 96be 5208 86be
00000190: d955 bf3d 3ac7 b73d 3e21 66be 674e 1cbe
000001a0: 7c1c 393d 10c7 0fbe 7fc4 c0bc 4904 c53d
000001b0: 753f 54be 9fb9 0d3d d2c5 a1bf e520 5cbc
000001c0: 083d 82be e1ed 67bf 13e2 6d3e 9bbf 24bf
000001d0: 7124 bfbe 35d6 f7be 232c 693f 1ce2 603f
000001e0: ab39 143f f870 863d 9133 5ebf 6594 bdbe
000001f0: 1c9c 88be 7156 0c3f e1ea 2e40 2ae1 ce40
00000200: c551 f4be ec13 2d3f 0cbb 16bf f72e 18c0
00000210: 9c9d 7340 e72b e5c0 b397 f640 4b7a 97bf
00000220: 4b6f 873f bbac 203e 9a57 4ebf 2a66 7dbe
00000230: abb8 703f 516f 523f 1839 0440 654e 0540
00000240: ceb8 fa3f a399 363f 9637 80c0 d42e a03f
00000250: acc3 0140 0f57 96c0 92be 8040 7667 de3f
00000260: 1465 abc0 2406 6fbf c422 1740 8b77 ac3e
00000270: c3a5 93c0 2c34 1840 cca4 763f d4cb a9bf
00000280: 6fb8 353e a393 e33f 8ef1 663e 052f 9cbe
00000290: 6c02 51bf adf6 0abe f236 1fbf 0639 48bf
000002a0: 3ff4 06bf 4a8f 82bf 1dc6 77bf cb0b 8d3c
000002b0: a080 c93c 786a 983d df1f 043e e635 1bbe
000002c0: 19dc dc3d b040 83bc 62ac 983d 6812 473e
000002d0: 42c1 3bbf 8681 63bd 1253 c9bd cafb 0dbf
000002e0: 2b3e 543d 580c c2be 3444 dfbd bf70 6e3d
000002f0: 9ba1 3e3b c21f b93c c963 51bd 6d1b 88bb
00000300: db35 0f3d 7d96 fe3d 9841 33bd 2654 00bc
00000310: 4720 2ebd a18e 4dbe 77d3 bb3f 2cd7 373f
00000320: 2c16 10bf deda 0140 cc23 1e3f 16f9 50c0
00000330: 047f bebf 25a0 88bf c8a5 4cbf ead9 1440
00000340: 5546 8a3f ec3e d7bf fbe5 a040 2261 87bf
00000350: ffda 18c0 3e6e 08c0 ff12 1ec0 ce1f 3440
00000360: 3f65 dd3f ce65 d93f bbb6 febf 49c7 be3e
00000370: 395d 0c41 7d19 99c0 3c9c 8640 3ada a340
00000380: 2c85 bbc0 d655 e13c 90ba 233d 5de5 6bbe
00000390: 8d55 0b3e 08e8 eebd fd93 8abe d2d7 82bd
000003a0: a750 0d3e b8ef 71be c3cc f3bd ac84 823d
000003b0: b4fc 7c3c 0faa a7bd 22bd 103c ae19 523e
000003c0: 0336 a93d 0bda 8e3a f8fd cfbd ce52 00bd
000003d0: c43d debc b9f6 033d a3a2 e23d 6e00 07be
000003e0: 08ef 11be dc76 21be b76f 61bd 0c60 0dbf
000003f0: 4883 2bbf 2b76 0cbf 0d2e 34bd dc17 58bf

Variable_8/read/_46__cf__46:0 f4 [1, 16, 1, 1]
1.714191 0.05940346 -0.017057095 0.110981785 0.030343156 0.037621014 5.439429 1.7047967
4.059128 0.14366348 0.13809603 0.19079849 0.009786947 0.201026 4.9660077 -0.11291152
00000000: 9c6a db3f 0b51 733d 52bb 8bbc 6b4a e33d
00000010: 3692 f83c 7e18 1a3d cd0f ae40 c736 da3f
00000020: 60e4 8140 851c 133e 0c69 0d3e ae60 433e
00000030: 6e59 203c c2d9 4d3e 89e9 9e40 283e e7bd

Variable_7/read/_45__cf__45:0 f4 [1, 16, 1, 1]
3.1343324 -2.4708169 -0.470661 -0.6946769 -0.6378125 -0.73094517 -1.0057704 1.0029228
-0.14568944 -0.66750497 -0.63742864 -1.2176394 -0.35458833 -1.394327 -0.47352207 -3.2537858
00000000: e798 4840 dd21 1ec0 7bfa f0be 58d6 31bf
00000010: ae47 23bf 391f 3bbf 16bd 80bf c65f 803f
00000020: 9d2f 15be 9be1 2abf 862e 23bf 9cdb 9bbf
00000030: 9a8c b5be 4f79 b2bf 7c71 f2be 073e 50c0

Variable_6/read/_44__cf__44:0 f4 [16, 8, 3, 3]
-8.84263 -4.5060863 -5.3167887 -8.020834 -4.2212806 -0.30261925 -1.0087442 0.0998282
0.4914494 0.24339911 0.12017052 0.46758154 -0.6397323 0.11380988 0.49086076 -0.49743629
-0.041655395 -0.28761882 -0.008672863 0.13594384 -0.06201404 0.029630326 0.030224022 -0.16775955
-0.2555771 -0.3240101 -0.04024976 -4.4364533 -7.440265 -5.776974 -3.6265466 -11.742061
-9.250487 -3.8640966 -12.113405 -7.6519055 2.3891108 1.5186113 -0.48247784 -0.16451749
-2.1656616 -1.121207 -1.7645754 -0.45527688 1.2377031 -0.09981812 -0.029278092 0.05844224
-0.1480762 0.0754243 -0.09244582 0.070265576 0.07119857 -0.078905426 -0.0694934 -0.44615653
-0.0889003 -0.05923516 -0.4388448 -0.35127425 -0.33733696 -0.6489791 -0.35685757 6.3174896
4.87515 -0.041807298 8.483295 1.4694369 -1.7733816 -1.2461243 -2.7970312 -2.436358
-2.4901261 -3.454359 -3.4940305 -2.3307855 -2.272377 -1.4501 -0.97485125 -0.49846414
1.6042607 1.2993765 0.12723586 0.04902894 1.4423652 -0.9450527 -0.7270595 0.81603396
-0.94602853 -1.5132922 -0.39444745 -0.37031987 0.25007203 0.00530565 -0.25286752 0.22971436
0.1601881 -0.0009650952 0.322033 -2.0242233 -3.757958 -2.254988 -2.4658062 -2.7892687
-2.414115 -2.2767694 -2.374033 -1.7505574 -1.288168 2.7122252 1.4026781 0.058289673
1.5425543 1.8302132 -0.3238759 0.720225 2.8094492 -0.13553412 -0.07581674 -0.14008799
-0.24037679 -0.041101336 0.02509971 -0.008866887 -0.20864515 0.07581879 -0.36000228 -0.07537617
-0.35592213 -0.8460788 -0.59335476 -0.09148546 -0.20226078 -0.24462393 0.52813476 1.2854259
2.1016898 1.8132758 -0.2764087 0.5877308 -1.556818 1.0521982 0.09543852 -1.3658166
0.09468618 0.02757868 0.43750504 0.11267731 -0.20484488 0.023800245 0.25674766 -0.24904136
-0.18495889 -0.7856104 -0.51401633 -0.3063564 -0.94588006 -0.30501696 -0.1441435 -0.70931536
0.055482063 -0.109919906 0.04214321 0.32199377 -0.122190684 0.10592535 -0.05815357 0.10217534
-0.16567455 -0.2344528 0.0065779556 0.046727803 -0.011726374 -0.31959334 0.010907697 -0.16915767
-0.03687608 -0.14175136 -0.4280894 0.010478501 0.60299253 0.84300035 -0.83055174 1.1830262
-0.08492759 -0.4898452 1.6547173 -1.226033 0.49685037 0.06931518 0.07723744 0.12661776
0.055257622 -0.027682802 -0.015064529 0.14248067 0.004401298 -0.026429888 -0.16670056 -0.14086625
0.039153315 0.14450169 0.06710882 0.028509835 0.056549415 -0.0074417726 0.31280175 -0.93483585
-0.5962716 -0.9253258 -0.34233946 0.3316034 -0.31741536 -0.01504081 0.24567162 -0.0027085629
-0.0038677442 0.06961184 0.10680454 -0.18156892 0.25104064 0.06530832 0.11957078 0.30028597
-0.11517983 -0.027817933 -0.22434007 -0.07211722 0.010646269 -0.028087987 -0.37503162 -0.08557992
-0.2581731 -0.3155752 -0.1418376 0.19170657 -0.19836676 -0.2773483 -0.072039545 -0.0031804482
-0.06795376 0.0018209049 -0.2556817 -0.33456087 -0.22455011 -0.11017331 -0.1449482 -0.16530482
-0.06761057 -0.05939034 -0.16370454 0.15210794 -0.337703 -0.22680953 -0.12303618 -0.9287535
00000000: 6a7b 0dc1 dc31 90c0 2223 aac0 5655 00c1
00000010: bb14 87c0 e9f0 9abe 881e 81bf ba72 cc3d
00000020: 419f fb3e 9e3d 793e f61b f63d d966 ef3e
00000030: 7fc5 23bf 2815 e93d 1a52 fb3e f8af febe
00000040: d99e 2abd c642 93be a018 0ebc dd34 0b3e
00000050: 6f02 7ebd 4cbb f23c 5e98 f73c 29c9 2bbe
00000060: 00db 82be a7e4 a5be efdc 24bd 6df7 8dc0
00000070: a716 eec0 f9dc b8c0 5719 68c0 7bdf 3bc1
00000080: ff01 14c1 5c4d 77c0 82d0 41c1 69dc f4c0
00000090: 31e7 1840 db61 c23f 5607 f7be 4677 28be
000000a0: 339a 0ac0 b683 8fbf 9bdd e1bf 0d1a e9be
000000b0: 0e6d 9e3f 716d ccbd 9cd8 efbc 2161 6f3d
000000c0: 4aa1 17be 0e78 9a3d 3c54 bdbd 66e7 8f3d
000000d0: 8ed0 913d 2b99 a1bd 8e52 8ebd a16e e4be
000000e0: 5c11 b6bd 91a0 72bd 44b0 e0be 38da b3be
000000f0: 6eb7 acbe 7f23 26bf 09b6 b6be e028 ca40
00000100: 3b01 9c40 213e 2bbd 94bb 0741 8216 bc3f
00000110: 2bfe e2bf 0081 9fbf 8f02 33c0 4aed 1bc0
00000120: 3a5e 1fc0 3814 5dc0 329e 5fc0 972b 15c0
00000130: a06e 11c0 e09c b9bf da8f 79bf b136 ffbe
00000140: 6a58 cd3f f851 a63f 1e4a 023e 92d2 483d
00000150: 6c9f b83f f9ee 71bf 9220 3abf 9ae7 503f
00000160: ed2e 72bf 8fb3 c1bf 04f5 c9be 919a bdbe
00000170: 7109 803e 05db ad3b da77 81be 3e3a 6b3e
00000180: 5908 243e 71fe 7cba 82e1 a43e e08c 01c0
00000190: 6282 70c0 b951 10c0 c5cf 1dc0 6183 32c0
000001a0: dc80 1ac0 97b6 11c0 28f0 17c0 4412 e0bf
000001b0: b0e2 a4bf 1995 2d40 f58a b33f 27c1 6e3d
000001c0: 6b72 c53f 6d44 ea3f 10d3 a5be aa60 383f
000001d0: 04ce 3340 75c9 0abe cf45 9bbd 3a73 0fbe
000001e0: 5525 76be e059 28bd e89d cd3c 6b46 11bc
000001f0: 13a7 55be e246 9b3d 3852 b8be d25e 9abd
00000200: 6d3b b6be 9f98 58bf 19e6 17bf bb5c bbbd
00000210: 731d 4fbe b27e 7abe d733 073f d688 a43f
00000220: 1682 0640 6c19 e83f 7185 8dbe 8775 163f
00000230: d045 c7bf 6eae 863f 4575 c33d 14d3 aebf
00000240: d4ea c13d afec e13c a900 e03e 5dc3 e63d
00000250: dbc2 51be bbf8 c23c 6e74 833e b304 7fbe
00000260: dd65 3dbe c31d 49bf 9396 03bf bfda 9cbe
00000270: 3225 72bf 2f2b 9cbe 5b9a 13be b195 35bf
00000280: 2941 633d b01d e1bd 5c9e 2c3d 5edc a43e
00000290: 1c3f fabd 64ef d83d 7032 6ebd 4e41 d13d
000002a0: 97a6 29be 6514 70be e48b d73b a765 3f3d
000002b0: fa1f 40bc bda1 a3be 32b6 323c ab37 2dbe
000002c0: 5f0b 17bd 4527 11be 892e dbbe 05ae 2b3c
000002d0: b85d 1a3f dfce 573f 0a9f 54bf 676d 973f
000002e0: 84ee adbd fdcc fabe c7cd d33f a6ee 9cbf
000002f0: 2c63 fe3e 1ef5 8d3d aa2e 9e3d 16a8 013e
00000300: d155 623d 0bc7 e2bc 37d1 76bc 74e6 113e
00000310: c338 903b 7e83 d8bc 8db3 2abe 3e3f 10be
00000320: 3a5f 203d 40f8 133e 5970 893d 758d e93c
00000330: 5ca0 673d 1dda f3bb 8d27 a03e 6751 6fbf
00000340: 41a5 18bf 27e2 6cbf 1e47 afbe ecc7 a93e
00000350: 4484 a2be bb6d 76bc 5791 7b3e 2582 31bb
00000360: fb79 7dbb a790 8e3d 57bc da3d 34ed 39be
00000370: 6688 803e 5ec0 853d 86e1 f43d 15bf 993e
00000380: 67e3 ebbd 6fe2 e3bc 67b9 65be 31b2 93bd
00000390: b06d 2e3c c718 e6bc 2504 c0be 8644 afbd
000003a0: 442f 84be 1393 a1be e03d 11be ba4e 443e
000003b0: a820 4bbe 9900 8ebe 7889 93bd 116f 50bb
000003c0: 572b 8bbd 6eab ee3a b6e8 82be 904b abbe
000003d0: 77f0 65be 8ba2 e1bd 4d6d 14be ab45 29be
000003e0: 6977 8abd 4943 73bd 2aa2 27be 2fc2 1b3e
000003f0: 68e7 acbe c240 68be 65fa fbbd cac2 6dbf

Variable_5/read/_43__cf__43:0 f4 [1, 8, 1, 1]
3.8478484 -0.10821601 0.010528511 2.082485 9.113106 0.06514886 -0.072087914 3.4750285
00000000: 2643 7640 5ba0 ddbd c77f 2c3c 6f47 0540
00000010: 48cf 1141 c46c 853d d4a2 93bd de66 5e40

Variable_47/read/_42__cf__42:0 f4 [1, 3, 1, 1]
0.31373188 0.35258305 0.3899561
00000000: 77a1 a03e c485 b43e 53a8 c73e

Variable_46/read/_41__cf__41:0 f4 [1, 3, 1, 1]
-0.4262513 -0.3101634 -0.14316581
00000000: 9c3d dabe bdcd 9ebe 0f9a 12be

Variable_45/read/_40__cf__40:0 f4 [3, 4, 9, 9]
-0.9160106 -3.9003158 -2.3199224 -2.0631335 -3.460454 -3.512192 -3.4183476 -1.9567834
-1.4824677 -1.968633 -5.091714 -1.8049372 -1.2896292 -3.5347116 -3.0939476 -2.7834594
0.5282139 1.3188337 -3.0856528 -4.301141 0.21413898 0.08725678 -2.3300822 -1.7261944
-1.2978208 3.0897384 4.2331533 -3.219058 -4.167862 0.6737387 -0.0235465 -2.081071
-2.9926865 -4.81687 -0.29415572 2.4415364 -2.9260535 -4.313399 -0.6989846 -1.0638214
0.29832095 1.9147009 -2.1129253 0.38013142 2.9042022 -1.6279728 -3.579956 -4.381224
-7.0066204 -2.8229287 3.3872273 -0.17884633 0.2890708 2.1608412 1.1173465 -0.097581066
-3.211754 -9.549328 -6.5689244 0.020224456 -3.646489 -3.5873659 -0.8350329 0.85056454
1.1231279 -0.102585234 -4.016603 -2.377719 2.0533936 -1.597145 -2.6614938 -0.49010262
-1.4418087 0.048028342 0.5769792 -0.30927217 1.0269415 3.2821424 0.9751778 -0.18739258
0.86441237 -0.67517215 -2.1514647 -1.8496606 -0.7527128 -0.5074911 -0.31275237 -0.38861594
-0.43289676 -0.099248305 -0.23139283 -0.92434907 0.19565502 1.8322136 2.144556 2.660415
2.1646972 0.48254386 -0.089145005 0.75359595 1.4057673 1.9589918 2.5508704 2.8598826
4.342513 4.527183 2.1973448 0.6715004 0.76358354 3.0166714 4.060614 2.3264775
-0.21251032 0.8478685 2.3455834 0.9294086 0.18054414 1.5031937 6.5219107 10.75114
8.912977 2.9071796 1.0645134 2.0432124 -0.17929819 -1.1774127 -0.0044239853 3.707426
9.412516 9.535856 4.490903 1.7991604 1.9481255 -0.85612816 -2.0238192 -3.5409527
-3.750952 1.4258925 3.3032427 1.3973408 0.37056893 0.6360324 -0.93838286 -1.2782189
-2.2653904 -2.773968 0.11477687 1.9041784 1.6076654 1.2450355 0.9988754 0.49564117
0.17556717 0.14230226 -0.21523322 0.5668525 1.8875563 1.4826543 1.135326 1.1489086
0.77524155 0.2786438 1.1280667 2.1038384 2.6615334 3.066087 2.948289 1.9348539
-1.1934712 -0.9208096 0.6291263 1.4600431 2.2308817 3.3346608 4.280083 6.793557
6.888305 0.7388724 -0.31873697 1.3543713 -0.6420111 -1.4628222 -1.6117822 -1.7361182
3.9418972 7.301333 1.1940296 -0.51757914 1.1590629 -0.39607334 -0.056480985 -0.6489036
-3.221051 2.4034312 6.7439504 1.3526278 0.17186534 1.2820637 -0.26882446 2.0680757
3.3983061 -2.0450883 0.74560905 4.8409142 0.14766797 0.30412742 1.6162521 -2.2946458
0.31337306 2.5292482 -2.856492 -1.2265198 2.0978863 -0.9088628 0.43421236 1.7065918
-3.6414547 -2.03478 0.35244694 -2.2701633 0.38304976 3.2205205 1.7288644 2.2921531
2.014788 -3.6946115 -4.057905 -2.560146 -3.5737846 -0.5633577 1.9353802 1.1308385
1.660862 1.6545763 -1.7062149 -2.342709 -2.2154205 -3.0177207 -1.7519175 -0.74754363
-0.7215524 0.2763748 0.5981176 0.36804238 -1.1147679 -1.3813795 -0.74263406 -1.9946758
-3.3582091 -3.386606 -1.6229692 -0.11621733 -2.138992 -4.1714587 -2.0444844 0.3316573
00000000: ac7f 6abf c69e 79c0 9c79 14c0 610a 04c0
00000010: 1478 5dc0 c1c7 60c0 35c6 5ac0 e177 fabf
00000020: 80c1 bdbf 2bfc fbbf 52ef a2c0 2f08 e7bf
00000030: 9212 a5bf b738 62c0 3d03 46c0 3324 32c0
00000040: 0739 073f 8bcf a83f 567b 45c0 f2a2 89c0
00000050: 4047 5b3e afb3 b23d 1120 15c0 f0f3 dcbf
00000060: fe1e a6bf 46be 4540 fe75 8740 0c05 4ec0
00000070: 205f 85c0 247a 2c3f 97e4 c0bc 4430 05c0
00000080: 2d88 3fc0 cd23 9ac0 949b 96be 2242 1c40
00000090: 7644 3bc0 5d07 8ac0 a8f0 32bf 4d2b 88bf
000000a0: 86bd 983e eb14 f53f 2b3a 07c0 96a0 c23e
000000b0: 73de 3940 6a61 d0bf 001e 65c0 fd32 8cc0
000000c0: 3c36 e0c0 ddaa 34c0 55c8 5840 7e23 37be
000000d0: 1701 943e 394b 0a40 3605 8f3f 95d8 c7bd
000000e0: 618d 4dc0 0cca 18c1 a134 d2c0 c2ad a53c
000000f0: 1360 69c0 6797 65c0 b7c4 55bf 99be 593f
00000100: a8c2 8f3f 3518 d2bd 0388 80c0 8c2c 18c0
00000110: cd6a 0340 3f6f ccbf ea55 2ac0 bbee fabe
00000120: 308d b8bf 5eb9 443d e9b4 133f ec58 9ebe
00000130: d272 833f 9f0e 5240 41a5 793f d7e3 3fbe
00000140: 214a 5d3f 15d8 2cbf 99b1 09c0 aec1 ecbf
00000150: c9b1 40bf f0ea 01bf 1421 a0be abf8 c6be
00000160: a5a4 ddbe b242 cbbd 3ef2 6cbe 24a2 6cbf
00000170: ca59 483e fa85 ea3f 6840 0940 3d44 2a40
00000180: 668a 0a40 fd0f f73e a891 b6bd aaeb 403f
00000190: 2ff0 b33f 3ec0 fa3f 7641 2340 5108 3740
000001a0: def5 8a40 afde 9040 4ca1 0c40 73e7 2b3f
000001b0: 367a 433f 2511 4140 8df0 8140 02e5 1440
000001c0: 4e9c 59be e90d 593f 0a1e 1640 b9ed 6d3f
000001d0: 90e0 383e a768 c03f 7eb3 d040 ab04 2c41
000001e0: 8e9b 0e41 3b0f 3a40 fa41 883f fec3 0240
000001f0: f299 37be 76b5 96bf 14f7 90bb 7846 6d40
00000200: aa99 1641 de92 1841 7ab5 8f40 e34a e63f
00000210: 2d5c f93f 372b 5bbf 4186 01c0 f89e 62c0
00000220: 990f 70c0 a583 b63f 5468 5340 10dc b23f
00000230: 36bb bd3e 05d3 223f dc39 70bf ad9c a3bf
00000240: 28fc 10c0 b188 31c0 2310 eb3d 1ebc f33f
00000250: fbc7 cd3f 535d 9f3f 4cb6 7f3f aec4 fd3e
00000260: e1c7 333e afb7 113e 1966 5cbe 3f1d 113f
00000270: 729b f13f 9ec7 bd3f 5d52 913f 700f 933f
00000280: 3b76 463f 66aa 8e3e 7d64 903f 4aa5 0640
00000290: 9056 2a40 c53a 4440 c4b0 3c40 4ba9 f73f
000002a0: aac3 98bf 2eba 6bbf 6c0e 213f b1e2 ba3f
000002b0: c4c6 0e40 156b 5540 71f6 8840 d264 d940
000002c0: ff6c dc40 be26 3d3f 7e31 a3be 0a5c ad3f
000002d0: d75a 24bf c23d bbbf e14e cebf 1f39 debf
000002e0: 0b48 7c40 85a4 e940 f6d5 983f 1180 04bf
000002f0: 2c5c 943f 20ca cabe 9b58 67bd 8c1e 26bf
00000300: b325 4ec0 d1d1 1940 71ce d740 e822 ad3f
00000310: 78fd 2f3e aa1a a43f 5ca3 89be 5a5b 0440
00000320: d97d 5940 bae2 02c0 3ce0 3e3f c5e8 9a40
00000330: 4636 173e 97b6 9b3e 59e1 ce3f 7adb 12c0
00000340: 6f72 a03e 34df 2140 c4d0 36c0 9afe 9cbf
00000350: c543 0640 3cab 68bf 1551 de3e 9a71 da3f
00000360: 980d 69c0 d639 02c0 ed73 b43e 5b4a 11c0
00000370: 191f c43e 021d 4e40 6e4b dd3f a3b2 1240
00000380: 49f2 0040 8474 6cc0 5cda 81c0 6fd9 23c0
00000390: e3b8 64c0 3638 10bf 8aba f73f 51bf 903f
000003a0: 2097 d43f 28c9 d33f 4065 dabf f2ee 15c0
000003b0: 73c9 0dc0 5622 41c0 d53e e0bf 055f 3fbf
000003c0: a8b7 38bf ff80 8d3e 3c1e 193f 0d70 bc3e
000003d0: b7b0 8ebf 0bd1 b0bf 441d 3ebf 8951 ffbf
000003e0: e6ec 56c0 27be 58c0 74bd cfbf 5a03 eebd
000003f0: 3fe5 08c0 977c 85c0 d5d8 02c0 fcce a93e

Variable_44/read/_39__cf__39:0 f4 [1, 4, 1, 1]
3.067696 2.7824378 2.4536934 3.3696885
00000000: 2255 4440 7613 3240 5009 1d40 faa8 5740

Variable_43/read/_38__cf__38:0 f4 [1, 4, 1, 1]
4.6317396 1.1716489 1.161544 0.75267524
00000000: 3637 9440 97f8 953f 79ad 943f 53af 403f

Variable_42/read/_37__cf__37:0 f4 [8, 4, 3, 3]
0.6726378 -3.1698978 -0.75457776 -3.2111943 -1.5428427 -1.317311 1.1810926 -5.3857374
-1.4273437 3.0089557 -0.36440015 1.2640197 3.9233625 1.5129019 1.7657014 4.8262076
-1.3687918 1.2311257 -2.9788234 0.92341083 -3.6925974 -0.83652824 -8.125384 -5.293281
0.93947756 -5.364183 2.4855707 -0.16053948 1.4888451 0.6020853 -2.182434 1.2876565
2.771184 3.0440845 3.3096755 -1.9211249 -0.7574284 0.8892348 0.08869185 4.6716113
5.6983447 0.6586705 4.0190926 3.519639 -0.5195497 1.8741688 -1.0701455 -1.0406379
-1.7836337 -1.8456521 -1.8679751 3.720285 0.27029482 -3.6797795 0.1003357 0.11928099
3.7226422 4.4661913 5.06546 1.6294223 -0.09373251 -5.2939463 -0.14598727 -2.8160818
0.6625313 -3.8960185 -0.8021487 -3.2954268 -1.3060195 1.0995972 -4.781312 -2.7697864
-0.9863794 -1.4872559 -4.450936 4.360488 5.3965945 0.37527445 -2.2992158 2.0040324
2.2788858 -4.036749 0.21933761 2.5163968 -0.39281288 -5.8868413 -1.5017651 1.2800889
-0.7879953 -5.2235584 -3.1582372 -1.7274388 4.0480585 -0.22139196 -2.4499302 -3.8795884
-0.713753 -0.17171839 -4.7338195 -1.8405503 -3.36945 0.20457383 0.3443279 0.25340065
1.6116467 -1.5019342 -6.2434382 -3.8212554 -0.2502905 -0.6301633 -0.46650848 0.39741665
-0.10511131 -0.3096446 1.2371598 1.2812119 -0.64921236 -0.20985016 -3.6212974 -2.2401462
0.38628298 0.3698359 -2.4706178 7.8406744 5.399441 5.6655188 -1.1972923 -1.7140915
2.2396739 -2.100235 4.073571 1.0062968 2.0271032 -1.0410981 -2.7046165 3.1714146
1.7173476 0.020429041 1.9069123 2.2872279 3.276779 4.4596834 3.0180085 3.3475296
-1.6232951 1.0884444 0.07881073 -1.62765 0.8033387 1.2618537 -3.2514815 0.7347345
-0.9081344 -2.6328597 0.9289101 -3.1682363 -0.47011653 -2.9234986 -0.098622225 -3.3318694
-1.4648445 -1.8922099 -0.0811916 -0.14438587 -4.6879067 -2.6814132 1.6595463 -0.4716567
-2.0392606 3.8232648 0.9629143 -3.5631618 1.5874193 3.502201 6.1254125 2.8677485
5.842441 5.7177973 3.835971 -2.4018698 5.729853 4.6327367 2.963465 4.4717937
3.4400818 0.4565742 6.5228214 3.112285 0.5027376 -1.2381897 -0.9880067 -2.851161
-0.9191302 4.993147 0.43312714 0.0787419 -0.008326697 2.5291069 0.18152465 2.6116462
-2.278942 -2.798014 -1.1638231 0.2782633 2.5640426 -3.015687 -2.2129357 1.5527852
-1.0065806 2.7989821 -0.93546975 5.342794 0.85148066 0.29822358 4.3617463 0.50539756
1.4049077 0.19261898 3.059057 1.1529691 -2.59501 0.01651468 -1.5247735 -4.3976917
-2.1130266 2.945049 0.09156607 -2.623761 -0.18018219 -0.07940759 -1.1391288 5.0018687
1.4563655 3.4386904 2.0925388 -0.6499445 6.777631 -1.0697595 -2.6776125 6.7718663
4.4727364 0.9188407 -1.5076877 -5.151381 -2.3399749 -1.244361 -1.3548203 -2.252859
3.957085 -0.19410154 3.960731 0.04095172 0.26783326 -1.0240933 -5.2140536 4.498211
00000000: fe31 2c3f 9bdf 4ac0 022c 41bf 3584 4dc0
00000010: df7b c5bf a69d a8bf 0b2e 973f f657 acc0
00000020: 33b3 b6bf bb92 4040 a892 babe 66cb a13f
00000030: 5f18 7b40 c5a6 c13f 8102 e23f 4b70 9a40
00000040: 9234 afbf 8795 9d3f 0ba5 3ec0 a764 6c3f
00000050: 8453 6cc0 b726 56bf 9301 02c1 8f62 a9c0
00000060: 9a81 703f 63a7 abc0 9713 1f40 7664 24be
00000070: 7a92 be3f 4322 1a3f 00ad 0bc0 eed1 a43f
00000080: 145b 3140 48d2 4240 b9d1 5340 6ce7 f5bf
00000090: d4e6 41bf e4a4 633f 13a4 b53d d77d 9540
000000a0: d758 b640 a19e 283f 689c 8040 c441 6140
000000b0: 3601 05bf c3e4 ef3f 87fa 88bf 9f33 85bf
000000c0: 1c4e e4bf 543e ecbf cf19 efbf 2619 6e40
000000d0: 1564 8a3e 8281 6bc0 ce7c cd3d 9749 f43d
000000e0: c53f 6e40 0aeb 8e40 4018 a240 e990 d03f
000000f0: d5f6 bfbd 0268 a9c0 b07d 15be af3a 34c0
00000100: a79b 293f 5e58 79c0 9e59 4dbf 46e8 52c0
00000110: a62b a7bf 9abf 8c3f 8200 99c0 2e44 31c0
00000120: 5c83 7cbf 675e bebf 116e 8ec0 1e89 8b40
00000130: e7b0 ac40 f923 c03e 5a26 13c0 1142 0040
00000140: 44d9 1140 0c2d 81c0 0a9a 603e a50c 2140
00000150: c51e c9be 0161 bcc0 d739 c0bf f4d9 a33f
00000160: 0fba 49bf 6427 a7c0 8f20 4ac0 b71c ddbf
00000170: b289 8140 93b4 62be a8cb 1cc0 2d4b 78c0
00000180: 84b8 36bf f2d6 2fbe 737b 97c0 2797 ebbf
00000190: 12a5 57c0 cd7b 513e bf4b b03e bbbd 813e
000001a0: 704a ce3f 613f c0bf 3fca c7c0 738f 74c0
000001b0: 1426 80be 6252 21bf 33da eebe 327a cb3e
000001c0: 9944 d7bd bd89 9ebe 415b 9e3f c0fe a33f
000001d0: c832 26bf f6e2 56be 56c3 67c0 8e5e 0fc0
000001e0: e2c6 c53e 225b bd3e 9a1e 1ec0 cee6 fa40
000001f0: 38c8 ac40 ee4b b540 e040 99bf 5a67 dbbf
00000200: d156 0f40 406a 06c0 b25a 8240 55ce 803f
00000210: 0fbc 0140 b442 85bf 7018 2dc0 75f8 4a40
00000220: 0cd2 db3f ce5a a73c b415 f43f f161 1240
00000230: bfb6 5140 bab5 8e40 0d27 4140 ed3d 5640
00000240: 22c8 cfbf 2552 8b3f 8567 a13d d656 d0bf
00000250: 9ba7 4d3f 6c84 a13f 4618 50c0 8f17 3c3f
00000260: 7f7b 68bf c680 28c0 0dcd 6d3f 62c4 4ac0
00000270: 1db3 f0be 9a1a 3bc0 73fa c9bd 593d 55c0
00000280: 0680 bbbf ef33 f2bf c847 a6bd e4d9 13be
00000290: 5503 96c0 469c 2bc0 036c d43f fd7c f1be
000002a0: 3f83 02c0 5fb0 7440 8d81 763f d80a 64c0
000002b0: 8e30 cb3f 1024 6040 6103 c440 3189 3740
000002c0: 47f5 ba40 32f8 b640 8d80 7540 3cb8 19c0
000002d0: f55a b740 613f 9440 69a9 3d40 ef18 8f40
000002e0: 4d2a 5c40 18c4 e93e f4ba d040 ad2f 4740
000002f0: 69b3 003f 007d 9ebf 02ee 7cbf 6c79 36c0
00000300: 1e4c 6bbf dcc7 9f40 d7c2 dd3e 6f43 a13d
00000310: b36c 08bc e3dc 2140 99e1 393e 3625 2740
00000320: 30da 11c0 a912 33c0 28f8 94bf 8778 8e3e
00000330: 4619 2440 0401 41c0 bda0 0dc0 aac1 c63f
00000340: a2d7 80bf 8622 3340 f27a 6fbf 2bf8 aa40
00000350: a3fa 593f c3b0 983e 6d93 8b40 bc61 013f
00000360: 04d4 b33f e93d 453e 97c7 4340 7e94 933f
00000370: a514 26c0 cb49 873c c72b c3bf e4b9 8cc0
00000380: d43b 07c0 af7b 3c40 fe86 bb3d b3eb 27c0
00000390: ae81 38be 72a0 a2bd f9ce 91bf 4f0f a040
000003a0: 2f6a ba3f 8113 5c40 28ec 0540 c362 26bf
000003b0: 5ae2 d840 e1ed 88bf 015e 2bc0 21b3 d840
000003c0: a820 8f40 2539 6b3f e9fb c0bf 1dd8 a4c0
000003d0: 26c2 15c0 3947 9fbf c06a adbf d82e 10c0
000003e0: e140 7d40 8ec2 46be 9e7c 7d40 febc 273d
000003f0: 7121 893e 7d15 83bf 87d9 a6c0 58f1 8f40

Variable_41/read/_36__cf__36:0 f4 [1, 8, 1, 1]
2.7817717 2.8546824 4.328176 3.7413635 3.6324005 3.160104 2.9807987 4.95998
00000000: 8c08 3240 1eb3 3640 6b80 8a40 8072 6f40
00000010: 4079 6840 253f 4a40 68c5 3e40 28b8 9e40

Variable_40/read/_35__cf__35:0 f4 [1, 8, 1, 1]
0.7290489 -0.7103036 -1.3240355 1.4022322 1.1912742 3.847284 0.0046153255 -1.6555654
00000000: f3a2 3a3f 75d6 35bf ff79 a9bf 587c b33f
00000010: ac7b 983f e739 7640 283c 973b 91e9 d3bf

Variable_4/read/_34__cf__34:0 f4 [1, 8, 1, 1]
3.3528614 -1.445023 -1.078273 4.9426756 1.4186025 -0.41696656 -1.2047603 0.21514246
00000000: 4895 5640 83f6 b8bf da04 8abf 662a 9e40
00000010: c494 b53f a47c d5be 9635 9abf 4e4e 5c3e

Variable_39/read/_33__cf__33:0 f4 [16, 8, 3, 3]
0.40456456 -2.542482 1.3883924 0.30145496 -6.8944893 -2.402788 -0.22817932 -3.8611977
-0.17667791 0.6296678 2.0829177 -1.3982012 -6.5709963 1.6387508 3.9376945 -1.0833608
-1.232704 0.66515297 -4.083569 -3.946787 2.7123137 -1.6243733 0.38255084 0.9284692
-6.677387 -0.9183773 4.363292 -2.046404 -1.1867634 3.233421 0.80936474 4.71412
-4.2152734 -5.1572175 -2.8522105 0.81776136 -1.149106 1.6621988 2.0137599 0.8877778
2.003186 -3.8728929 -1.9377428 -3.0325513 -3.977995 -2.7419674 -1.1919695 2.2154226
-2.5122678 -0.8300477 -0.10755857 2.3863654 3.759503 0.49350694 1.2279632 -2.664301
1.6713037 5.3948145 -0.11123367 3.577268 -2.560095 2.4549901 6.1705666 -4.648531
0.70103455 -1.5857375 -8.346519 -6.5003166 1.8281053 -1.2400961 1.6267291 1.6226103
-5.0373197 -3.485921 -5.6232524 -0.12682804 3.2074797 -8.421325 -4.9054203 -5.6757216
-3.0611982 2.553172 3.463853 5.652616 -0.19340801 3.2277312 -4.2826757 2.6602
-0.93895143 -3.3062952 -0.5825244 0.07761602 -4.0279665 -2.618479 0.06775877 2.2259953
1.2515625 -4.7893724 -2.342977 -1.1614599 2.9437237 -2.7963338 3.7525306 -2.3449802
4.914308 1.192154 -4.3941793 2.2090316 2.5236754 0.44907323 -5.776674 4.8880687
2.216496 -2.2360785 0.51387525 3.7766914 2.2478452 0.5547971 5.087397 2.6782572
4.361875 3.938448 3.2786722 4.648973 3.9627843 4.826505 -2.5315154 -5.6965547
-2.1173887 0.22540039 -2.782137 -3.1655254 -1.7130327 4.1301575 3.4223306 -2.9088717
1.362868 0.98296314 3.1612322 -2.172714 2.9868004 3.50956 -0.3102203 3.7407324
-0.59203017 -0.50636834 -3.2187433 3.2912698 3.9040604 0.39028254 -3.344479 -2.4339738
-0.4471897 5.00184 0.3272275 -0.3714067 6.6410627 0.12017596 2.209119 3.6021686
2.876198 3.8093703 -2.0771024 3.2988036 4.0595927 -2.9788153 4.6011534 2.8933623
1.5591033 3.161135 1.9546711 -1.5767004 -3.3724217 -2.2152276 -2.7243428 -1.5087993
2.718546 2.3526087 5.833364 6.714965 -0.5087296 0.9681234 3.3092842 -0.98479116
3.4535422 -0.16302386 -1.0858235 0.46211746 -0.29060104 5.4288116 2.5144274 3.5903618
-0.5011728 1.942863 0.47514233 -0.07475118 6.624156 3.848494 4.9613976 1.0643967
-0.949185 0.22943458 -0.36248067 -1.5280259 1.555491 1.1359124 -0.18849096 6.573641
1.9323275 -1.7157829 10.299051 2.5635283 -3.1483028 5.8961177 3.038927 -0.39172572
0.095921665 -1.6392386 -2.6261573 3.297432 1.5579588 3.8811684 2.3510594 0.06486433
-3.60447 1.7854352 -3.9576652 3.864922 -0.8345208 -2.691924 8.791918 -1.1003543
1.7922325 -1.5790583 0.7444904 -0.3232297 -0.59147465 -2.4095078 -0.93265337 0.39655113
-3.3392775 -0.49345493 0.5371477 -4.733674 0.4540927 6.6779966 -4.085272 2.6552544
0.3260446 -6.300147 4.394715 1.1294348 -5.3554983 -4.110103 3.4909368 -4.8128586
00000000: 1623 cf3e 06b8 22c0 d8b6 b13f 4e58 9a3e
00000010: a89f dcc0 47c7 19c0 d7a7 69be dd1d 77c0
00000020: 0eeb 34be e931 213f 864e 0540 42f8 b2bf
00000030: 9a45 d2c0 96c2 d13f 3003 7c40 91ab 8abf
00000040: 3fc9 9dbf 7747 2a3f 99ac 82c0 2998 7cc0
00000050: 8c96 2d40 77eb cfbf b4dd c33e 28b0 6d3f
00000060: 28ad d5c0 c61a 6bbf 17a0 8b40 48f8 02c0
00000070: dde7 97bf 5ff0 4e40 8732 4f3f 12da 9640
00000080: 85e3 86c0 ed07 a5c0 9e8a 36c0 cf58 513f
00000090: e815 93bf eec2 d43f 71e1 0040 6845 633f
000000a0: 3334 0040 7add 77c0 f507 f8bf 5215 42c0
000000b0: 7897 7ec0 657c 2fc0 7592 98bf 7cc9 0d40
000000c0: ffc8 20c0 027e 54bf ab47 dcbd 36ba 1840
000000d0: b29b 7040 f1ac fc3e e62d 9d3f e883 2ac0
000000e0: 48ed d53f 52a2 ac40 7ace e3bd f5f1 6440
000000f0: 99d8 23c0 8f1e 1d40 4875 c540 c4c0 94c0
00000100: 0077 333f 72f9 cabf 588b 05c1 9802 d0c0
00000110: 5bff e93f 78bb 9ebf a938 d03f b2b1 cf3f
00000120: b931 a1c0 5419 5fc0 aff1 b3c0 36df 01be
00000130: 5947 4d40 bfbd 06c1 34f9 9cc0 839f b5c0
00000140: acea 43c0 2c67 2340 c4af 5d40 3be2 b440
00000150: c00c 46be 2693 4e40 ae0b 89c0 b840 2a40
00000160: 1f5f 70bf 579a 53c0 5220 15bf 26f5 9e3d
00000170: 1ae5 80c0 2995 27c0 1cc5 8a3d b576 0e40
00000180: 3333 a03f 8a42 99c0 56f3 15c0 b8aa 94bf
00000190: f865 3c40 22f7 32c0 7629 7040 2814 16c0
000001a0: 0342 9d40 8198 983f 1e9d 8cc0 c660 0d40
000001b0: e683 2140 edec e53e 83da b8c0 0f6b 9c40
000001c0: 12db 0d40 e91b 0fc0 548d 033f 50b5 7140
000001d0: b2dc 0f40 2f07 0e3f f5cb a240 9168 2b40
000001e0: 7b94 8b40 880f 7c40 c4d5 5140 63c4 9440
000001f0: 429e 7d40 bb72 9a40 5904 22c0 2d4a b6c0
00000200: 4c83 07c0 5ccf 663e 880e 32c0 f897 4ac0
00000210: a844 dbbf 402a 8440 7707 5b40 f42a 3ac0
00000220: 7572 ae3f 79a3 7b3f a151 4a40 bf0d 0bc0
00000230: bd27 3f40 a29c 6040 32d5 9ebe 2968 6f40
00000240: 4a8f 17bf 5ba1 01bf e4ff 4dc0 2aa4 5240
00000250: 20dc 7940 1dd3 c73e f20b 56c0 3ac6 1bc0
00000260: 0cf6 e4be 130f a040 5d8a a73e 0529 bebe
00000270: 9683 d440 d01e f63d 3562 0d40 ee89 6640
00000280: a113 3840 b9cc 7340 3fef 04c0 991f 5340
00000290: 2fe8 8140 e9a4 3ec0 a63c 9340 d92c 3940
000002a0: b290 c73f 0950 4a40 aa32 fa3f 52d1 c9bf
000002b0: c2d5 57c0 4ac6 0dc0 a25b 2ec0 5620 c1bf
000002c0: a8fc 2d40 2491 1640 ebaa ba40 fee0 d640
000002d0: 1a3c 02bf efd6 773f 50cb 5340 461b 7cbf
000002e0: d606 5d40 baef 26be 44fc 8abf a99a ec3e
000002f0: a9c9 94be d3b8 ad40 61ec 2040 7dc8 6540
00000300: dc4c 00bf bcaf f83f db45 f33e 2617 99bd
00000310: 16f9 d340 ba4d 7640 c5c3 9e40 273e 883f
00000320: cafd 72bf e6f0 6a3e 1197 b9be 5a96 c3bf
00000330: 541a c73f 9465 913f c603 41be 445b d240
00000340: 8256 f73f c69e dbbf eac8 2441 d910 2440
00000350: cb7d 49c0 ffac bc40 c87d 4240 4690 c8be
00000360: 9472 c43d 92d2 d1bf f612 28c0 2009 5340
00000370: 326b c73f 1065 7840 c277 1640 97d7 843d
00000380: a3af 66c0 2489 e43f 634a 7dc0 e25a 7740
00000390: 28a3 55bf 7c48 2cc0 b2ab 0c41 69d8 8cbf
000003a0: e067 e53f 951e cabf ec96 3e3f 5d7e a5be
000003b0: e26a 17bf 6035 1ac0 5fc2 6ebf c008 cb3e
000003c0: b9b6 55c0 20a6 fcbe 8382 093f 427a 97c0
000003d0: d77e e83e 26b2 d540 8cba 82c0 b0ef 2940
000003e0: 51ef a63e ce9a c9c0 81a1 8c40 5291 903f
000003f0: 3e60 abc0 f785 83c0 826b 5f40 f002 9ac0

Variable_38/read/_32__cf__32:0 f4 [1, 16, 1, 1]
7.1153054 7.4307528 8.979403 6.1521344 9.217079 7.981697 14.224953 9.391604
7.515886 10.296157 9.051473 7.7989893 9.800491 11.482939 7.5872374 11.660214
00000000: 95b0 e340 bac8 ed40 a2ab 0f41 49de c440
00000010: 2879 1341 106a ff40 6899 6341 0344 1641
00000020: 2382 f040 0fbd 2441 d5d2 1041 5291 f940
00000030: d0ce 1c41 1eba 3741 a6ca f240 3d90 3a41

Variable_37/read/_31__cf__31:0 f4 [1, 16, 1, 1]
-0.67982846 -0.4112594 -0.39424932 0.12176728 -0.66607744 0.39609 0.059843384 0.8546337
-0.6529384 -0.09923194 0.21305506 0.38369727 0.30208924 -0.61135226 -0.17320657 -0.3436645
00000000: 3d09 2ebf 9890 d2be 0cdb c9be 2061 f93d
00000010: 0d84 2abf 4fcc ca3e 561e 753d 46c9 5a3f
00000020: f926 27bf 1e3a cbbd 1b2b 5a3e f873 c43e
00000030: 71ab 9a3e 9581 1cbf 105d 31be cbf4 afbe

Variable_36/read/_30__cf__30:0 f4 [16, 16, 3, 3]
-4.0118065 -2.8197007 0.96709526 5.3613544 -3.3480046 2.2650385 2.9691985 -0.46739575
2.0357642 4.655518 7.1394835 -4.338701 -5.9215984 7.126358 -2.931597 -2.6730006
2.4803019 0.37823302 -5.882077 0.4288 10.12252 -0.8964339 -2.081578 1.4978327
-6.699948 -2.8636198 3.9891837 1.5787263 5.273332 -0.75851625 1.0021825 -1.500949
1.8748192 1.1562339 5.593409 -4.4017754 5.2965913 -6.9169164 -0.37204832 1.6208701
1.2595335 2.4711819 -1.104839 -6.092031 -10.28434 -2.2483919 0.33714217 -3.441345
-0.07516893 1.5191196 5.60664 0.69355917 1.5676985 -0.7625734 -0.47652116 -1.4713473
-6.049345 -1.0183489 7.602253 3.1756241 -1.2981783 -1.7216172 1.5334969 5.0069323
-1.4750305 -1.247968 3.192725 2.1795063 -4.953283 -1.0614191 7.9057975 1.7208489
4.0785546 -0.6262944 -2.6428869 0.897653 4.7910423 1.4278855 3.5377762 0.7126405
-4.178799 -5.3923573 3.8966396 0.13026382 -0.7012661 -2.2600322 -2.1670456 2.099734
-4.5413537 2.1051035 1.9340612 -1.5729921 -4.3936257 0.022176603 3.502943 -5.8021007
3.5051434 -0.3560824 2.461551 -5.064218 2.951714 -3.3700478 0.07374413 2.0023472
-2.2593167 -0.06624116 4.394922 -0.56075144 3.5842738 -0.009097077 -0.6741799 -2.5160186
-0.19476391 -2.0366342 2.7345276 2.5156074 2.129481 -2.6538568 -3.954667 1.8874896
4.364381 3.0673904 7.8704877 3.8727026 4.0415406 4.947012 4.597505 2.8010812
-2.7931166 3.962598 3.088961 -2.5618107 2.4027925 -4.4002867 5.039026 -12.189244
-5.5811086 1.8453765 -2.3554425 -6.9252973 -5.5834684 3.1773617 -0.5083634 0.11039439
1.7750916 0.6488365 -1.2747338 2.2451308 0.95303816 0.41724312 -0.15707731 2.6016238
-2.7613182 5.5994897 1.6290709 1.7578027 0.6393762 0.5002823 -0.7665305 -4.2125177
-3.7424269 -1.941106 -1.9490973 -8.005152 -5.4451766 -1.3854387 -2.018663 -0.53088516
0.083041355 -2.7795434 2.4892986 3.3100893 -0.53597367 -2.4650905 -3.803762 2.086521
-2.9812024 -1.7119044 -3.168519 -1.995867 -1.5570158 -3.6280696 -2.2893455 1.2758664
-1.2330962 -2.875531 -1.330738 -0.34922406 -3.6101959 1.043189 -0.31943965 -6.1023345
1.9588495 6.9288716 0.70331585 0.7311013 2.5407434 2.9917552 1.6913615 1.9517416
2.5020678 -1.1704954 0.14159939 -0.536476 -0.34166923 2.9098916 1.3884609 -5.3185406
-1.2268422 -1.9012294 1.8423276 3.4155366 -1.6364912 4.474214 5.3623533 5.9679003
-6.077623 -3.1920943 -6.808709 -6.045431 2.5962806 2.4401636 -5.5811744 3.8795738
3.9093819 1.4702986 0.9060909 6.278853 4.617177 2.1261003 4.0703626 -1.456028
-1.1159366 0.42597568 -1.6379904 -3.6488268 -0.046082422 -2.7066672 6.6463137 2.5567305
-4.4820166 -6.310435 -6.554965 -6.47059 1.5923052 -0.56801814 -6.234679 0.8560732
0.9135001 -6.2950416 -2.651723 0.8361307 1.2926891 1.0259558 -2.1432729 -3.494385
00000000: b860 80c0 fa75 34c0 8e93 773f 3790 ab40
00000010: b545 56c0 64f6 1040 5907 3e40 7f4e efbe
00000020: f649 0240 01fa 9440 a676 e440 a3d6 8ac0
00000030: bc7d bdc0 200b e440 499f 3bc0 7112 2bc0
00000040: 44bd 1e40 c2a7 c13e fa39 bcc0 ac8b db3e
00000050: d8f5 2141 b17c 65bf 9338 05c0 fbb8 bf3f
00000060: f965 d6c0 8c45 37c0 c94e 7f40 b413 ca3f
00000070: 23bf a840 1f2e 42bf 8447 803f 191f c0bf
00000080: 13fa ef3f 79ff 933f 35fd b240 58db 8cc0
00000090: ad7d a940 6157 ddc0 1e7d bebe ac78 cf3f
000000a0: 6538 a13f d827 1e40 5d6b 8dbf ebf1 c2c0
000000b0: a88c 24c1 a7e5 0fc0 e69d ac3e ff3e 5cc0
000000c0: 2bf2 99bd 8372 c23f 9869 b340 188d 313f
000000d0: 58aa c83f 0338 43bf 95fa f3be 1c55 bcbf
000000e0: 3c94 c1c0 4259 82bf a845 f340 6d3d 4b40
000000f0: b52a a6bf f45d dcbf a049 c43f ca38 a040
00000100: cdcd bcbf 6abd 9fbf 9b55 4c40 087d 0b40
00000110: 4b81 9ec0 95dc 87bf 4bfc fc40 c744 dc3f
00000120: 8583 8240 d454 20bf 0f25 29c0 96cc 653f
00000130: 3850 9940 f4c4 b63f ed6a 6240 9c6f 363f
00000140: b9b8 85c0 318e acc0 8b62 7940 e163 053e
00000150: 2d86 33bf 5ea4 10c0 e0b0 0ac0 0b62 0640
00000160: c552 91c0 04ba 0640 518f f73f ce57 c9bf
00000170: 9598 8cc0 b5ab b53c 3830 6040 cfaa b9c0
00000180: 4554 6040 6f50 b6be 0d8a 1d40 130e a2c0
00000190: e2e8 3c40 ddae 57c0 2a07 973d 7526 0040
000001a0: a598 10c0 72a9 87bd 33a3 8c40 688d 0fbf
000001b0: be64 6540 e80b 15bc 0e97 2cbf 7306 21c0
000001c0: 3170 47be 3758 02c0 8002 2f40 b6ff 2040
000001d0: 6b49 0840 cad8 29c0 4419 7dc0 4299 f13f
000001e0: 02a9 8b40 2050 4440 09db fb40 5cda 7740
000001f0: 4d54 8140 ec4d 9e40 c31e 9340 ea44 3340
00000200: 6cc2 32c0 359b 7d40 89b1 4540 b5f4 23c0
00000210: 5ac7 1940 26cf 8cc0 b33f a140 2507 43c1
00000220: 7198 b2c0 4c35 ec3f 92bf 16c0 099c ddc0
00000230: c6ab b2c0 e559 4b40 1b24 02bf 7416 e23d
00000240: 3436 e33f 261a 263f 7a2a a3bf 39b0 0f40
00000250: 4ffa 733f e4a0 d53e e0d8 20be 0181 2640
00000260: 70b9 30c0 052f b340 6585 d03f aeff e03f
00000270: 29ae 233f 8012 003f 583b 44bf f2cc 86c0
00000280: ec83 6fc0 2976 f8bf 057c f9bf 1a15 00c1
00000290: e33e aec0 0e56 b1bf c631 01c0 17e8 07bf
000002a0: 9611 aa3d 0ae4 31c0 ab50 1f40 81d8 5340
000002b0: 9235 09bf 0bc4 1dc0 d670 73c0 8f89 0540
000002c0: 05cc 3ec0 af1f dbbf 04c9 4ac0 9278 ffbf
000002d0: 4b4c c7bf 4b32 68c0 a384 12c0 974f a33f
000002e0: 19d6 9dbf b308 38c0 9f55 aabf 7fcd b2be
000002f0: 730d 67c0 3887 853f 988d a3be 5346 c3c0
00000300: 95bb fa3f 51b9 dd40 820c 343f 7429 3b3f
00000310: 8a9b 2240 eb78 3f40 897e d83f abd2 f93f
00000320: e121 2040 cbd2 95bf 6eff 103e 7e56 09bf
00000330: 45ef aebe aa3b 3a40 16b9 b13f 7c31 aac0
00000340: 2a09 9dbf 7c5b f3bf 64d1 eb3f 2798 5a40
00000350: 8b78 d1bf c32c 8f40 6698 ab40 0af9 be40
00000360: e37b c2c0 464b 4cc0 f2e0 d9c0 2c74 c1c0
00000370: 7629 2640 a42b 1c40 fb98 b2c0 f04a 7840
00000380: 5033 7a40 bf32 bc3f 93f5 673f 5dec c840
00000390: eabf 9340 0712 0840 6940 8240 205f babf
000003a0: 03d7 8ebf 7c19 da3e aba9 d1bf 6186 69c0
000003b0: ecc0 3cbd 093a 2dc0 9aae d440 79a1 2340
000003c0: ae6c 8fc0 15ef c9c0 46c2 d1c0 130f cfc0
000003d0: a8d0 cb3f a369 11bf 7e82 c7c0 9d27 5b3f
000003e0: 24db 693f fb70 c9c0 d4b5 29c0 a90c 563f
000003f0: d676 a53f 8552 833f 622b 09c0 01a4 5fc0

Variable_35/read/_29__cf__29:0 f4 [1, 16, 1, 1]
3.7353163 2.9580524 3.6164002 3.7896793 2.5535915 3.908549 3.1345665 3.3779607
3.7849045 1.4146231 3.38845 3.0374339 3.6997292 2.6929348 3.1386669 2.3271012
00000000: 6c0f 6f40 bb50 3d40 1a73 6740 1b8a 7240
00000010: 0b6e 2340 ab25 7a40 bd9c 4840 8230 5840
00000020: e03b 7240 5f12 b53f 5ddc 5840 5165 4240
00000030: 5dc8 6c40 0b59 2c40 ebdf 4840 3aef 1440

Variable_34/read/_28__cf__28:0 f4 [1, 16, 1, 1]
-2.6714227 -1.3643094 -7.815204 -3.0121913 -10.31547 -2.5868714 -1.3821545 -1.1227541
-3.1465313 1.9901756 -3.4343386 -0.9894472 -1.3826647 -8.576422 -2.4666557 -8.65249
00000000: 97f8 2ac0 b1a1 aebf 2716 fac0 bec7 40c0
00000010: 2a0c 25c1 4d8f 25c0 70ea b0bf 68b6 8fbf
00000020: c560 49c0 13be fe3f 34cc 5bc0 694c 7dbf
00000030: 28fb b0bf 0639 09c1 b0dd 1dc0 9970 0ac1

Variable_33/read/_27__cf__27:0 f4 [16, 16, 3, 3]
1.8088682 5.2850733 -1.7338326 1.2061124 -1.6316808 2.3279228 4.88266 -2.5132802
-4.0517864 -3.1350608 -4.4090123 -2.4810407 -3.8125875 -1.1168611 0.15647635 -6.1835704
2.8306973 -8.812453 1.4348447 -0.23077634 -3.129167 -0.77691257 -1.8863131 2.0849319
0.8859066 3.7559016 5.1872497 -1.7020801 2.3962584 7.4327755 0.32395312 -2.581778
-0.7955602 3.3552444 -0.42025998 2.4635668 0.5010683 -0.21817064 3.1381037 0.040631544
9.306249 0.43392578 2.4232285 -0.75666887 -0.2395692 3.0704718 1.0442255 -2.1123385
-1.6380987 2.0546095 -1.9710275 -1.0007337 0.77260715 0.8824205 -4.5793867 -2.985704
-7.465423 1.6950384 -3.750008 2.3915243 4.7157855 -2.603056 -4.5704546 0.41827354
-2.0656202 1.2065294 -3.762931 -3.223616 5.0106378 6.834623 7.8170257 -5.6960754
4.041333 -2.535529 1.3057972 -3.1466405 -3.3380806 -5.982928 -1.006394 0.3606847
-1.2512122 -2.849449 -4.3055053 0.52102494 -1.873825 3.4402442 -0.3835937 -0.91815954
0.45634443 -6.674781 2.1940205 -0.9561973 -4.4838433 2.1319585 -0.040911477 -2.7158482
2.0148878 2.7733834 2.6033056 -2.554918 0.74473476 4.5460668 -2.6020422 1.7192309
0.16132307 0.94877946 2.2777169 -0.18682547 -1.6454724 0.02298009 -5.854344 1.9337842
-4.6114044 -2.4356449 -2.2459905 -4.3024116 -0.12930429 -4.328603 -3.8823628 -3.728754
-2.620038 3.358929 6.981794 -0.51388025 0.20710737 2.1823094 -3.1519334 1.2406039
4.2703843 1.6076936 8.538646 4.2887297 -2.2198184 -4.464161 -2.1254063 0.68872124
0.644701 -1.3915744 -0.7179242 1.1635221 1.455211 6.0540247 2.426345 6.7312326
2.3013854 0.04602669 0.8603603 1.9360353 4.005842 -2.9753342 -2.0472 1.9394464
-4.738699 -3.9435494 -2.2349455 -3.115254 -0.55509025 4.9468307 -0.5672569 0.74235547
5.601762 -0.7605474 -0.20966655 3.6567364 2.3557444 4.8504024 6.0093117 5.1878247
1.9401733 6.8419533 3.6994936 2.7355857 3.3626204 2.8062575 -0.19355771 7.0760083
-1.7638003 -1.2922866 -3.3917558 -3.0350382 -3.0177104 -1.2524709 1.2163136 -0.8416491
5.8897605 1.0128299 0.8639973 -2.1493058 -1.0987139 0.39900982 0.49215665 5.539865
-3.4760828 -6.81304 -1.3687257 -1.4589984 -4.492217 1.8714105 2.0972776 2.173409
-3.1094477 2.1783698 -1.8229214 2.0795414 1.646324 -0.19081548 4.134905 0.99246365
-9.473265 -5.4465027 -1.1180366 -4.6351123 -2.760033 0.79446936 4.3052306 -4.055719
-2.4764457 -6.66319 -2.8061876 -5.130068 -0.70354986 -0.80068403 1.7237803 3.342191
2.2821372 -3.2270396 -0.4393738 -3.7777665 -0.40442875 2.0660882 -2.2786844 -0.651187
-0.55997866 1.9748268 1.1654662 0.11765663 -4.952848 -0.65673435 0.50028145 -1.2923632
-4.8677864 1.4664589 -0.48626852 -3.8320513 -3.8676488 -2.383729 -2.5560358 2.0242648
-2.4758136 0.45843583 8.587164 5.257243 1.5176995 0.31834096 1.8588905 -1.4245493
00000000: fe88 e73f 521f a940 3aee ddbf e461 9a3f
00000010: ebda d0bf b0fc 1440 c03e 9c40 95d9 20c0
00000020: 3ca8 81c0 d6a4 48c0 a116 8dc0 5fc9 1ec0
00000030: 6f01 74c0 4ef5 8ebf 563b 203e cfdf c5c0
00000040: 252a 3540 cfff 0cc1 fea8 b73f a250 6cbe
00000050: 4644 48c0 bee3 46bf b572 f1bf 866f 0540
00000060: c6ca 623f b160 7040 f3fd a540 c3dd d9bf
00000070: 4c5c 1940 4cd9 ed40 2fdd a53e da3b 25c0
00000080: d5a9 4bbf 53bc 5640 512c d7be 14ab 1d40
00000090: 0346 003f 2068 5fbe b1d6 4840 436d 263d
000000a0: 65e6 1441 852b de3e 2d16 1b40 0db5 41bf
000000b0: a151 75be 9c82 4440 2ea9 853f 8e30 07c0
000000c0: 38ad d1bf b97e 0340 a14a fcbf 0b18 80bf
000000d0: 95c9 453f 4fe6 613f 568a 92c0 c615 3fc0
000000e0: bfe4 eec0 05f7 d83f 2200 70c0 bc0e 1940
000000f0: b7e7 9640 7898 26c0 2a41 92c0 f327 d63e
00000100: 1f33 04c0 8e6f 9a3f ddd3 70c0 b94f 4ec0
00000110: 2557 a040 3bb5 da40 1325 fa40 4046 b6c0
00000120: 9a52 8140 1b46 22c0 5d24 a73f 8f62 49c0
00000130: 1da3 55c0 2574 bfc0 85d1 80bf aaab b83e
00000140: b927 a0bf 5f5d 36c0 b3c6 89c0 e461 053f
00000150: 7fd9 efbf f62c 5c40 6566 c4be 810c 6bbf
00000160: faa5 e93e ce97 d5c0 d56a 0c40 59c9 74bf
00000170: a57b 8fc0 0272 0840 cb92 27bd 75d0 2dc0
00000180: ecf3 0040 1d7f 3140 8f9c 2640 c783 23c0
00000190: f0a6 3e3f 6179 9140 dc87 26c0 c20f dc3f
000001a0: e031 253e 36e3 723f 1dc6 1140 2d4f 3fbe
000001b0: d79e d2bf be40 bc3c c956 bbc0 3e86 f73f
000001c0: a090 93c0 9be1 1bc0 4fbe 0fc0 5bad 89c0
000001d0: 5868 04be ea83 8ac0 a278 78c0 e8a3 6ec0
000001e0: b4ae 27c0 b1f8 5640 db6a df40 a88d 03bf
000001f0: f413 543e f5aa 0b40 47b9 49c0 1ccc 9e3f
00000200: fda6 8840 e7c8 cd3f 4b9e 0841 463d 8940
00000210: 8111 0ec0 68da 8ec0 a806 08c0 0950 303f
00000220: 200b 253f 1c1f b2bf e1c9 37bf 4bee 943f
00000230: 5b44 ba3f 92ba c140 3d49 1b40 4266 d740
00000240: e649 1340 7c86 3c3d 9340 5c3f 01d0 f73f
00000250: dc2f 8040 e06b 3ec0 5305 03c0 c83f f83f
00000260: 6ca3 97c0 1d63 7cc0 5909 0fc0 5260 47c0
00000270: 651a 0ebf 704c 9e40 c037 11bf 020b 3e3f
00000280: a241 b340 3cb3 42bf d4b2 56be f807 6a40
00000290: 84c4 1640 7f36 9b40 484c c040 a902 a640
000002a0: 9957 f83f 48f1 da40 81c4 6c40 d613 2f40
000002b0: 2c35 5740 b999 3340 fe33 46be a96e e240
000002c0: 35c4 e1bf a669 a5bf 8712 59c0 113e 42c0
000002d0: 2b22 41c0 f750 a0bf 2ab0 9b3f 5176 57bf
000002e0: eb78 bc40 69a4 813f ed2e 5d3f 3a8e 09c0
000002f0: a8a2 8cbf 044b cc3e f5fb fb3e 9346 b140
00000300: 2478 5ec0 6c04 dac0 6732 afbf 76c0 babf
00000310: 3ec0 8fc0 618a ef3f cc39 0640 2219 0b40
00000320: 3101 47c0 696a 0b40 7d55 e9bf 3517 0540
00000330: bfba d23f 2265 43be 2451 8440 1912 7e3f
00000340: 7e92 17c1 c049 aec0 d31b 8fbf d752 94c0
00000350: 61a4 30c0 5862 4b3f 73c4 8940 73c8 81c0
00000360: 167e 1ec0 da38 d5c0 9498 33c0 8429 a4c0
00000370: d81b 34bf a1f9 4cbf d5a4 dc3f 75e6 5540
00000380: 890e 1240 d187 4ec0 9af5 e0be edc6 71c0
00000390: 4911 cfbe ca3a 0440 f7d5 11c0 31b4 26bf
000003a0: c35a 0fbf 20c7 fc3f ff2d 953f f6f5 f03d
000003b0: bb7d 9ec0 be1f 28bf 7212 003f 286c a5bf
000003c0: e8c4 9bc0 edb4 bb3f 30f8 f8be 5440 75c0
000003d0: 8f87 77c0 048f 18c0 1796 23c0 8e8d 0140
000003e0: bb73 1ec0 1ab8 ea3e 0665 0941 563b a840
000003f0: fa43 c23f 96fd a23e 20f0 ed3f a257 b6bf

Variable_32/read/_26__cf__26:0 f4 [1, 16, 1, 1]
4.6032968 5.4182067 3.9931474 4.1787977 4.7357163 5.624445 6.2838492 6.657819
4.2053475 4.141505 5.9452233 4.940345 5.5189085 3.0978813 5.133201 6.11048
00000000: 354e 9340 f361 ad40 ba8f 7f40 b6b8 8540
00000010: fd8a 9740 74fb b340 4b15 c940 da0c d540
00000020: 3592 8640 3587 8440 453f be40 4e17 9e40
00000030: e69a b040 b043 4640 2f43 a440 0d89 c340

Variable_31/read/_25__cf__25:0 f4 [1, 16, 1, 1]
-0.67983013 -0.41125908 -0.3942454 0.121768564 -0.6660764 0.39609057 0.05984462 0.8546358
-0.65293413 -0.09923329 0.21305563 0.3836957 0.3020854 -0.61135155 -0.17320389 -0.34366465
00000000: 5909 2ebf 8d90 d2be 88da c9be cc61 f93d
00000010: fc83 2abf 62cc ca3e a21f 753d 69c9 5a3f
00000020: b126 27bf d33a cbbd 412b 5a3e c373 c43e
00000030: f0aa 9a3e 8981 1cbf 5c5c 31be d0f4 afbe
