examples/style_transfer/model/sunflowers-bew.onnx (onnx, 133913 bytes, 48 tensors)

Variable_9/read/_47__cf__47:0 f4 [16, 16, 3, 3]
00000000: 21a7 cebe 1c8f 23bf 56a2 5dbe 58a0 283e
00000010: ab14 803d ed8d 083e 559d bf3c 0e03 df3c
00000020: 3085 143f 20d1 053e 3edb 57bf b537 13bf
00000030: d414 373d b75e c63d bf1f 87be b8c2 d23e
00000040: 7bad 01bf 3db1 ac3e 9fa0 0c3e 2b72 ebbe
00000050: 1425 f7bd 1970 f0bc 7b99 033e c9d0 9f3d
00000060: d59d bcbe 87ed 953d 27db 91be f42d 143e
00000070: e04e a43d bf5d 32be c8d0 893e d8ef 5ebf
00000080: a8fc 92be ab7c f93d 058c dfbe b236 4fbe
00000090: a8b7 28be 719c 23bf 4087 29bf 0d97 563f
000000a0: c2b2 093f b9a6 393f b767 8ebd 259b 5d3e
000000b0: 1afe ff3e 6f0e 08bf 79d2 c7be f422 823e
000000c0: e8ce a93e fc66 76bb 91fd bebe 9467 ea3e
000000d0: 204d 623e a0f3 0cbf 8719 d2bd ef32 dcbd
000000e0: 73df 143e 2ec2 abbe a916 463e e489 51bb
000000f0: cffa 59be 420a 77be 3b29 2bbd 732c adbe
00000100: 0cb4 89be eaf7 08bf cb16 0d3c 6d73 a4bc
00000110: b866 733e 1e8d 053e 4b77 773e 2397 ad3e
00000120: c171 20bf 7864 45be 00f6 84bf 51f6 e03e
00000130: afad 333b 4f89 19be 9d98 1c3f e6ac 653f
00000140: 5115 853f a926 893e 15dc 28be c8e9 2abf
00000150: bc0a af3e 10ba 1ebe 41a5 e23e dca1 7e3e
00000160: 42bb 0c3f 268d bc3d be32 433e 440e ecbd
00000170: 6675 7ebd 29ef 56be 1bff 97be 760b b03e
00000180: 0954 f3be 4e57 0ebf da6a b7be adc6 a63c
00000190: 73a3 2f3f 613e a5be 8732 d53e 5300 883d
000001a0: 94d9 6d3e b161 4bbe 8009 fa3e 9855 b9bd
000001b0: 2cc4 acbe d722 a8bb b2e3 51bf 10fa 8ebe
000001c0: 7464 96be 45bd 463d 695d 8dbd c854 993e
000001d0: cdfb ef3e 87c2 303e 16b2 bb3c 8a8f a9be
000001e0: 1bb6 aabd 9461 43be ab10 c0be 45ef 5abc
000001f0: 5610 493d aa57 7cbe 465a e63d de1b c83e
00000200: 4451 ba3d 4f38 a7be 9a7c 983d 8c5d 53be
00000210: d90a 703e bcae 8b3e c6ac 86be fddb 78bf
00000220: 13ab 03bf 1541 12bc d267 81be 6118 013f
00000230: bc8a c13e 33c0 79be 615e a1be 4fe3 a3be
00000240: 44fe e43c b518 34be c7f9 203e 227c 643e
00000250: 9b97 ebbd a7dc 933e e59c 663e 0b5e 16be
00000260: 2a8e 123e 9ab4 063f 4a2d a43d c23f 6f3d
00000270: 0a1f ac3e 0e6e d0be 3bdc 70be fc1a 34be
00000280: ecc2 18bf 224c 10be b567 a83e 4884 113e
00000290: 3b50 99bc 5ad8 453e 759e 36be b725 44bd
000002a0: 3c8c d5bd 827d bc3a 60a2 7f3e ca0c 163f
000002b0: 6f97 d03e d615 eb3e 5a3f e6be 9295 0cbf
000002c0: 9360 53bd 7995 afbe fcd9 8d3e efce 8f3e
000002d0: 14ff 3ebf e3dd 60bf f888 313f d863 fdbe
000002e0: 2049 cf3e 9cfb 6b3f 17c4 d13c 926c d4be
000002f0: d1a4 403e 4484 16be 5f23 69be b9ee 72be
00000300: 2c91 883d fc86 113b a8da 5db7 e585 a83b
00000310: 0b16 8dbe 1469 d03d ae55 dabe 5a28 32bc
00000320: bdeb ce3d 4149 983d 91f4 f73d f280 233e
00000330: fef8 6f3c 7f79 1d3e 87aa 393e b0d5 853e
00000340: 6251 003f 1f21 993e b994 2c3d 0e3c 033f
00000350: b879 663d dc0f 9cbd 4084 df3e 4950 24bf
00000360: 5845 3a3e e2c7 c43e f1c2 e83e 978d d83e
00000370: 89b1 603e e9de d13e b965 173f 1e22 acbd
00000380: 13e9 363f ea9c 5d3e 9cc0 6cbd dcea 6dbd
00000390: 7abd 073e f98b 753e fcd6 073e 66e0 8f3e
000003a0: dedb 523f c08a 943e 8f96 2fbd ece7 03bd
000003b0: b033 a53c f273 8dbd ecb5 edbb 9e3d 883e
000003c0: 439f 12bd d040 8abe 7f36 e7be b3e3 c73e
000003d0: 7569 fdbd 470c 553e cfcc 38be 4c20 793d
000003e0: a09d bd3d c2c0 81bd 00c1 77bb a47f 09be
000003f0: 2287 0bbf bb5c 2ebf 5889 11bf 52d6 d2be
-0.40361884 -0.6389024 -0.21643957 0.16467416 0.06253942 0.1333539 0.023390451 0.027223136
0.5801573 0.13068056 -0.8431891 -0.5750688 0.044697598 0.09686034 -0.26391408 0.41164184
-0.50655335 0.33728972 0.13733147 -0.4598554 -0.12067619 -0.029350327 0.12851517 0.078034945
-0.36839166 0.07320695 -0.28487512 0.14470655 0.08022857 -0.17418574 0.269171 -0.8708472
-0.28708386 0.12181982 -0.43661514 -0.20235708 -0.1647631 -0.63910586 -0.66222 0.83824235
0.5378839 0.72520024 -0.06953376 0.21641214 0.49998552 -0.53147024 -0.39027765 0.25417292
0.3316567 -0.0037598005 -0.3730283 0.4578215 0.22099733 -0.5505924 -0.10258775 -0.10751902
0.14538364 -0.33546585 0.19344582 -0.0031973058 -0.21287082 -0.24125007 -0.041787367 -0.33822975
-0.26895177 -0.53503287 0.008611391 -0.02007457 0.23769653 0.13042113 0.241666 0.3390437
-0.62673575 -0.19276607 -1.0387573 0.43937925 0.0027416756 -0.14993785 0.6117037 0.8971695
1.039713 0.26787308 -0.16490205 -0.6676297 0.34187877 -0.15500665 0.44266704 0.24866432
0.5497323 0.092066094 0.19062325 -0.115261585 -0.06212368 -0.2098967 -0.29686818 0.34383744
-0.4752505 -0.55601966 -0.3582371 0.020358408 0.6860878 -0.32274154 0.41640112 0.06640687
0.2322753 -0.19861485 0.48835373 -0.09049529 -0.33743417 -0.0051311064 -0.8198806 -0.27925158
-0.29373515 0.048520345 -0.06902582 0.29947495 0.46871796 0.17261706 0.022912066 -0.33117324
-0.08335515 -0.19080192 -0.37512717 -0.01336271 0.049087845 -0.24642816 0.11247687 0.3908376
0.090975314 -0.32660148 0.07445641 -0.20641154 0.23441638 0.2728175 -0.2630369 -0.97210675
-0.51432914 -0.00892665 -0.2527452 0.50427824 0.37801158 -0.24389724 -0.31517318 -0.3200936
0.027953275 -0.1758755 0.15720282 0.22312978 -0.11503526 0.28879282 0.22520788 -0.14684312
0.14312044 0.52619326 0.08016451 0.058410414 0.3361743 -0.40708965 -0.23521511 -0.17588419
-0.5967243 -0.14091542 0.32891622 0.14210618 -0.018715015 0.19320813 -0.17833884 -0.04788753
-0.10427138 0.0014380666 0.24964285 0.58613265 0.40740535 0.45915097 -0.44970208 -0.54915726
-0.051605772 -0.34293726 0.2770537 0.28087565 -0.7460797 -0.8783857 0.6934962 -0.49490237
0.40485477 0.921808 0.025606198 -0.41489083 0.18812872 -0.14698893 -0.22767399 -0.23723878
0.06668314 0.00222057 -1.3223536e-05 0.0051429146 -0.2755588 0.10176292 -0.42643493 -0.010873878
0.10103557 0.07435847 0.12107194 0.15967157 0.014646767 0.15378378 0.18131457 0.26139593
0.5012418 0.29908082 0.04213402 0.5126351 0.056268424 -0.076202124 0.43655586 -0.64185005
0.18190515 0.38433748 0.45461228 0.42295524 0.21942724 0.4099038 0.5913959 -0.08404945
0.71449393 0.21641889 -0.057800874 -0.058085307 0.13255873 0.23979177 0.13265604 0.2810089
0.8236674 0.29012108 -0.042868193 -0.0322036 0.020166248 -0.069068804 -0.007254353 0.2660951
-0.035796415 -0.27002573 -0.45158765 0.39040908 -0.1237363 0.20805465 -0.18046878 0.060821816
0.0925858 -0.06335594 -0.0037804246 -0.13427597 -0.5450307 -0.68110245 -0.56850195 -0.41179138

Variable_8/read/_46__cf__46:0 f4 [1, 16, 1, 1]
00000000: 77a4 1e3f 8c95 be3e 3e7f 183f 24f8 b03e
00000010: eed3 f23e 9d1b ab3e 93f8 993e 67b0 c43e
00000020: f482 cb3e 010c f23e fa93 423e 2874 163f
00000030: 83ef c33e f184 7a3e 34d9 f23e 7eae 113f
0.61969703 0.3722347 0.59569156 0.34564316 0.47427315 0.33419505 0.3007246 0.38415834
0.39748347 0.47274783 0.19001761 0.5877099 0.3826867 0.24464776 0.47431338 0.5690688

Variable_7/read/_45__cf__45:0 f4 [1, 16, 1, 1]
00000000: 375f 85bd 772a 0cbe 04d8 23bf e8d9 ec3e
00000010: 8fba 4ebe a3d5 4e3d a96c 82be d861 223e
00000020: 9b19 b03c 3a15 b2be da40 963e a91c 27be
00000030: f209 cf3c 2582 253e c3f8 47be 42ba be3c
-0.065123014 -0.13688074 -0.6400149 0.4626 -0.20188354 0.05049671 -0.25473526 0.15857637
0.021496585 -0.3478182 0.29346353 -0.16319527 0.025273297 0.16162927 -0.19528489 0.023282174

Variable_6/read/_44__cf__44:0 f4 [16, 8, 3, 3]
00000000: 9742 d73c ce93 933b 075d b23c 3cdc 863d
00000010: 192b cf3d 68ef febd bc47 8abe 0603 c53c
00000020: 4bab 46be d1b2 943e 0b1c 13bf 004c d53e
00000030: 784b 04bf ed7c a83e 6ce7 83be 3dfa a3be
00000040: 4368 f33e 6331 9bbe 4987 e9be 0a10 3f3f
00000050: 1d83 d5be 7cb8 fabd c2d5 a7be 6145 403e
00000060: e8d7 233f b20a c9bf f639 3c3f 531f 07be
00000070: d422 abbd 4d3d 20be d7ef b6bd 5919 11bd
00000080: 4bdc 77be 48cf 113e c0fa cc3c d31e 3cbe
00000090: a6b6 5b3c 5405 ee3d af9a c8be ff26 40be
000000a0: 79af 73be 7f05 debe a741 26be 6399 22bc
000000b0: a5d6 06be 1c3f dc3d 0192 94be 961d 51be
000000c0: 27a3 ae3c d3f5 5c3e 9606 a1be f318 02be
000000d0: 88dc 593d 1050 febe 8e1d bcbe e4ee e53d
000000e0: 1cc8 febd 2849 8bbe ddee 753e b9c4 93be
000000f0: d798 a93e b99f 65be 7873 82bd c4db 95bc
00000100: 1d47 1d3e 37a5 c4be edc1 a13d 891a 10be
00000110: f126 0cbe 0cc1 17be 180c 8fbe eeb9 00bf
00000120: 3f4d 11bd ce89 9fbd f417 13bc da71 c6bd
00000130: 6ce0 843d 5c12 303e 7df8 d1bd e2bb d1bd
00000140: 8262 6bbe d162 b83e bdbb d1be 91e0 0dbf
00000150: 3cff 2fbd b8d3 56bf 1624 f7bd 10e7 08bf
00000160: 6a63 f8bc 7cca 8f3d 68d7 243e 49ac ab3d
00000170: ca3f f83d 3a56 a33e fa8d 8f3d 6d1a 28bd
00000180: 9ef1 483e 4332 9cbd 2c6a 20bf 91a7 82be
00000190: 2970 08bf 3360 7d3d 1703 79be d938 a8bd
000001a0: 6ec1 fb3e 3ef0 97be 7b45 5e3e 418e 313f
000001b0: 5802 64bf ecc4 8bbc 623a ea3d 46ab 12bf
000001c0: 1e0d 883e fff2 ca3e ad05 4dbf 17ce 913e
000001d0: ec3c 5e3f 1327 52bf f6d7 eabd 8db7 853d
000001e0: 546c 22bf 0f9e 863e ce7e a03e 3a76 dcbd
000001f0: 0047 ec3e ce7b 5f3f 57b6 b8bd 555c df3e
00000200: 56dc f7be bb88 fdbd b8c6 b8bd f2e9 4abe
00000210: dae0 08bf 9385 9abe fe2a 0e3f 1991 edbe
00000220: c62a cc3d 206f e03e 9db5 b3bd a609 933e
00000230: f03a d03e 205d 8e3e 98f3 ee3e 4873 5c3f
00000240: 00f0 b0bd 09ac 14be dc59 24be 774c 1ebf
00000250: bccd 0ebe fdd8 9bbe 571d 45bf 8740 f0be
00000260: 4bd1 f0be 1950 d8be 5e37 ffbd eac1 e6be
00000270: fd2a e7be a605 133d a04b a0be 468d d4be
00000280: 56b2 3bbe 0145 4cbe 1bc0 06bd 79dd eabe
00000290: a518 f3be f02b fbbd ff87 a9be 752f 15bf
000002a0: c3f8 733e 4993 50bf 694c 2cbf 7148 67bd
000002b0: c59f aabd 324f 0b3e 9c5f c1bd da05 983e
000002c0: aed5 fd3e 8269 90bd 17ac 713e 4804 dd3e
000002d0: f081 23bf 0594 12bf f773 00bf 1bc3 73be
000002e0: 77af e6bd 53ee cfb9 0557 013e f6c3 0d3f
000002f0: cc33 ab3e decd 5b3d 4f8b 0cbe f17e afbe
00000300: 17ba 683d 29f7 c6bd 2f45 78be 0c0a 953e
00000310: ee83 013e 3793 013e c8ac 48bf edff 6fbf
00000320: 9fee 06bf d719 1dbf 44b1 60bf 02d9 52bf
00000330: d856 89bf 09cc 96bf 9b4b 59bf a108 493e
00000340: e007 523e 54f4 1f3e 88ea f6bc bb8e aa3e
00000350: b7b4 9e3d a2a6 a53d e564 d23e 3704 4d3e
00000360: 86db cb3e 3c4f e23e 4e72 0a3f 2e1b 3f3e
00000370: 4195 8a3e a9e9 bc3e e009 083e 5289 ad3e
00000380: 971b 953e 0955 94bc b478 593d 3ab8 0f3f
00000390: 6a64 2c3e ca05 233e 6698 a2be 6c3d f4bc
000003a0: 1e8a 0dbe 7e37 5abf 4191 c6be 75a7 8a3d
000003b0: 0454 a13d f3a4 a8bd bb97 483e 77ad f03e
000003c0: 9cb8 db3d f8c6 efbd bc6f a53e 21a3 44bf
000003d0: a31b 4bbe ef6c c1bd d61c e4be 0252 5dbe
000003e0: c1cf 85be e104 2bbf 8c6c 40bf b81d 43bf
000003f0: 3cd6 ebbe 487e 10bd c5a4 0ebe 617c 383e
0.02627687 0.0045037037 0.021772875 0.06584975 0.10115642 -0.12448007 -0.27007854 0.024049293
-0.1940128 0.29042676 -0.57464665 0.41659546 -0.51677656 0.3290781 -0.25762498 -0.32026854
0.47540483 -0.30311117 -0.45611027 0.7463385 -0.41701594 -0.12242219 -0.32780272 0.18776466
0.6400132 -1.5706389 0.7352594 -0.13195543 -0.08356252 -0.15648384 -0.089324646 -0.035424564
-0.24205129 0.14239228 0.02502191 -0.18371134 0.013410246 0.1162211 -0.39180514 -0.18764876
-0.23797406 -0.43363568 -0.16235982 -0.009924266 -0.13167818 0.10754225 -0.29017642 -0.20421442
0.021318031 0.2157815 -0.31450337 -0.1270483 0.05318883 -0.49670458 -0.36741298 0.112272054
-0.124405116 -0.2720425 0.240169 -0.28861025 0.3312442 -0.2242421 -0.0636968 -0.018293269
0.15359159 -0.384073 0.078983165 -0.14072622 -0.1368673 -0.14819735 -0.27938914 -0.50283706
-0.03547406 -0.07789956 -0.008977879 -0.09689684 0.064881176 0.17194504 -0.102524735 -0.10240914
-0.22986796 0.3601289 -0.40963545 -0.55420786 -0.04296802 -0.8391681 -0.1206743 -0.53477573
-0.030320842 0.07021043 0.16097796 0.0838247 0.12121542 0.31901723 0.07009502 -0.041040827
0.1962342 -0.07626774 -0.62662005 -0.25518468 -0.5329614 0.06185932 -0.24317585 -0.08213968
0.49171013 -0.29675478 0.21706192 0.6935769 -0.89066076 -0.017061673 0.11436917 -0.5729259
0.26572508 0.39638516 -0.80086786 0.28477547 0.8681171 -0.8209087 -0.114669725 0.0652915
-0.63446546 0.26292464 0.31346744 -0.107647374 0.4614792 0.87298286 -0.090191536 0.4362513
-0.4841029 -0.12379595 -0.090222776 -0.19815806 -0.53468096 -0.30180034 0.5553435 -0.46399763
0.09969096 0.43834782 -0.08774874 0.287183 0.40669966 0.27805424 0.46670222 0.86113405
-0.08639526 -0.14518751 -0.16049904 -0.61835426 -0.13945669 -0.30438986 -0.76997894 -0.4692423
-0.47034678 -0.4224861 -0.12461732 -0.4506982 -0.45149985 0.03589406 -0.31307697 -0.41514033
-0.18329749 -0.19948198 -0.03289805 -0.45872095 -0.4747974 -0.1226424 -0.3311157 -0.5827554
0.23825364 -0.8147474 -0.6730409 -0.05646557 -0.08331255 0.1360443 -0.09442064 0.29691964
0.49577087 -0.07051374 0.23600803 0.4316733 -0.63870144 -0.5725711 -0.5017695 -0.23804896
-0.11263936 -0.00039659682 0.12630852 0.5537714 0.33437955 0.053663127 -0.13725017 -0.34276536
0.056818094 -0.09715111 -0.24245141 0.29109228 0.12647983 0.12653814 -0.78388643 -0.93749887
-0.52707857 -0.61367553 -0.87770486 -0.8236238 -1.0729628 -1.1781017 -0.8488099 0.19632198
0.20510817 0.15620548 -0.03014113 0.3331202 0.07749312 0.08088423 0.410926 0.20021139
0.3981592 0.44201076 0.54080665 0.18662712 0.27066997 0.3689702 0.13285017 0.3389383
0.29122612 -0.018106954 0.053093627 0.5614048 0.1683518 0.15920177 -0.31756896 -0.029814444
-0.13822219 -0.85240924 -0.38782695 0.06770221 0.07877353 -0.082345866 0.1958913 0.47007343
0.10728571 -0.11707872 0.3231181 -0.76811415 -0.19834761 -0.094446056 -0.4455325 -0.21613315
-0.26135066 -0.6680432 -0.7516563 -0.7621722 -0.46061885 -0.03527668 -0.13930042 0.18016197

Variable_5/read/_43__cf__43:0 f4 [1, 8, 1, 1]
00000000: aef6 0f3f 5fca d13f 528d cb3f 69c3 123f
00000010: 4d6c 453f c96a 353f e228 753f 55a5 023f
0.5623578 1.6389884 1.5902503 0.5732942 0.7711838 0.70866066 0.9576551 0.51033527

Variable_47/read/_42__cf__42:0 f4 [1, 3, 1, 1]
00000000: d121 563e 8c70 663e fa09 a23e
0.20911337 0.2250387 0.31648237

Variable_46/read/_41__cf__41:0 f4 [1, 3, 1, 1]
00000000: 1276 ae3e 4742 6d3e d209 23bf
0.34074455 0.23169814 -0.6368686

Variable_45/read/_40__cf__40:0 f4 [3, 4, 9, 9]
00000000: 621b cc3d 2f5d 933d 3164 5d3d e0b6 ac3c
00000010: c051 2abd b909 42bd b8c3 363d 11e7 8fbc
00000020: 60d2 b3bd 891d 1f3e 9baf 2f3e 9421 353e
00000030: 2066 4c3e 29fe 0d3e 26df 70ba e6e7 43bc
00000040: dd9a 843d 5e2e 5e3b afa0 dcbc 3f0e f03d
00000050: 141c 8a3e 19cd a63e 9a65 ab3e bfe2 f6bc
00000060: ecf9 5cbe 3150 f2bd 734a 29be fc27 1b3d
00000070: 4ec2 323e 1f92 ff3d 71d5 a93d 71f4 7f3e
00000080: c8dd 43bd 32f4 0fbe a671 363e ba08 863d
00000090: 28d3 1c3e 94ef 0b3d 4f76 c8be 538d 06bf
000000a0: b6cf 9cbe d03c 01bf 3832 15bf d721 be3e
000000b0: 0bb6 133f 63e4 363d 5f15 aabe 44d0 35bf
000000c0: cd3a 5bbf 143f 53bf c573 8ebf bcc0 c3bf
000000d0: b2ff 16bf 2907 383e 08c3 9cbe acf3 1abf
000000e0: ea5b eabe 07d2 cebe d187 67be f5b1 a2be
000000f0: 84ec 83bf eb24 53bf 8b55 1ebe 2863 e5be
00000100: 60ed e2be 2815 42bb 82fd 97bd 2264 273e
00000110: 6635 053f 52cb 423d a7d2 87be 3569 d3bd
00000120: b22d 48be 8ee6 a9bd ace6 f03d 7bc3 17be
00000130: 6d56 e2bd 54e5 943e 9f6b 5d3e 1e13 c93c
00000140: 92fa 89bb dbc9 d0bd f916 79bd ca98 90bd
00000150: 4215 3bbe cd99 babe 6e05 87be 40d1 a5be
00000160: f82b 47be 1c11 1a3e 3ab4 2bbd c8b2 bc3c
00000170: 0dd3 15bd 2831 3ebe 7653 f0be 3ef6 61be
00000180: 63af e5be 593c fabe 655a 503e 87e3 d53d
00000190: dcad 2f3d 80f4 40bd b29e 4ebd e5db 9ebe
000001a0: e314 d2bd 6dc7 19bf e78e 96bf d610 79be
000001b0: b6a5 ee3d ffda bbbd 6580 25be b4c7 d73d
000001c0: 5bcc 97bd 77b3 2a3e a796 e9be bb84 d2bf
000001d0: c9c9 46bf 9320 c33d 8cd5 15be bb91 a6bd
000001e0: 397c b03e be77 7dbc 770c 393e fb27 e2bd
000001f0: 8387 a5bf 5e3e 42bf e521 0b3d ed43 37bd
00000200: 81f6 4a3e 8b16 093f d279 bebe 52ea 16bf
00000210: 4c75 a4be 7be6 87bf 7c6f 38bf 7196 3dbe
00000220: 4053 4ebe dbd4 d33d c366 e23e 29f7 c9be
00000230: 080b 40bf b9a7 a8be 790c 13bf ad77 d4be
00000240: bcb8 66be f475 b1be 62a1 53be 3171 1a3e
00000250: 9fba 9dbe be38 0dbf 6c88 f1bd ee9b 07be
00000260: 6311 32be daf8 a6bd 60f5 1dbe 18a2 0abe
00000270: 821f 8c3d 2668 80bd ec3e 12be 785d 0c3e
00000280: 3869 b7ba aaac 20be dc27 2a3d bf6d 51be
00000290: 2e10 a4be aa6d e2bd da4b b2bc b533 b8be
000002a0: 42f9 e0be d996 b5bd 3db1 463c 4e8c 163e
000002b0: 5a04 dabd 266f 0bbe 9fde 8b3e cfb9 d33e
000002c0: 4705 febc bc54 8cbe 4d33 50bc 8f76 35bd
000002d0: ae2c efbd 7b03 bdbe a746 97be 16bd 08bc
000002e0: 4ac2 6b3e 3352 d63d 625d 76bd bb0a e53d
000002f0: 0afa eb3c 0edd 13bf 5045 6bbf 8550 2bbf
00000300: 6cb3 04bf 31bb 09be b9cc 8a3d 559c 7e3d
00000310: 648f 5d3e cd62 f13d 6a8f 30bf 7290 4abf
00000320: ecbd 94be a725 b0be 296e 68be 912a 163e
00000330: 9835 bd3e 4ee4 623e 1d56 49bd efbb 06bf
00000340: 41b4 afbe f550 973e fd56 bd3d 4285 c6bd
00000350: c256 f93c 4413 3e3e 9a26 90bd 42ce 7cbe
00000360: ab70 1dbf 1ec6 f3be 42b7 bb3e a296 583e
00000370: 35c7 073c 0c9a d03d d4fc 8f3e e8d6 153e
00000380: 537d 8abd ef10 04bf c500 22bf ddee 833d
00000390: 308b d43d 3cc6 6bba a062 a13d 6c68 0c3e
000003a0: 4bcc e83d 912e 7e3d 9589 29bd 2001 2dbe
000003b0: be14 413d bee4 323e ac47 0d3e 91ea 5b3d
000003c0: 63da c8bd 2ba2 3ebe f8a4 cfbd 73b4 06be
000003d0: b39c 84be c686 67be 227d 5ebd d23b 8b3d
000003e0: 0593 763e 960c ab3e c982 a43b c13e e9bd
000003f0: 538f b7be f950 eabe dc2d 9dbe 043a bfbd
0.0996616 0.07195508 0.054050628 0.021083295 -0.04158187 -0.047372553 0.044620246 -0.017566236
-0.0878036 0.1553861 0.17156832 0.1768859 0.19960833 0.13866486 -0.0009188525 -0.011957144
0.0647485 0.0033902149 -0.026932089 0.11721467 0.26974547 0.32578352 0.33475953 -0.030137418
-0.21579713 -0.118317015 -0.16532306 0.03787993 0.17456934 0.12479042 0.08292664 0.24995591
-0.04781893 -0.14057997 0.17816791 0.06544633 0.15314925 0.034164026 -0.39152762 -0.52559394
-0.3062722 -0.5048342 -0.5827975 0.37135193 0.5769965 0.0446514 -0.3321943 -0.71020913
-0.856366 -0.82518125 -1.112908 -1.5293193 -0.5898391 0.17971481 -0.30617547 -0.60528064
-0.4577325 -0.40394613 -0.22610404 -0.31776395 -1.0306554 -0.8247821 -0.1546232 -0.44802213
-0.44321728 -0.002961466 -0.074214 0.16346791 0.52034605 0.047557183 -0.26527902 -0.10322801
-0.19548681 -0.08295928 0.11762747 -0.14820664 -0.11051641 0.29081213 0.21623085 0.024545249
-0.0042107785 -0.10194751 -0.060812924 -0.07060392 -0.18269828 -0.36445466 -0.2637133 -0.32386208
-0.19450366 0.15045589 -0.041919924 0.023034468 -0.036578227 -0.18573439 -0.46938676 -0.2206659
-0.44860372 -0.48874167 0.20346983 0.10443788 0.042890415 -0.047108173 -0.050444312 -0.3102714
-0.1025789 -0.60069925 -1.176236 -0.24322829 0.116527006 -0.091726296 -0.1616226 0.10536137
-0.074120246 0.16670023 -0.4562275 -1.6446756 -0.7765165 0.095276974 -0.14632243 -0.08133265
0.34469774 -0.015470443 0.18071161 -0.11042782 -1.293198 -0.75876415 0.03396787 -0.044742513
0.19820596 0.5355002 -0.37202317 -0.58951294 -0.3212074 -1.0617212 -0.7204511 -0.1851442
-0.20148945 0.10343333 0.44219026 -0.3944638 -0.7501683 -0.32940462 -0.57440907 -0.41497555
-0.22531408 -0.34660304 -0.20667031 0.15082242 -0.30806443 -0.55164707 -0.117935985 -0.13243076
-0.17389445 -0.081529334 -0.15425634 -0.13538396 0.06841947 -0.06269865 -0.14281815 0.1370753
-0.001399315 -0.15690866 0.04154192 -0.20452021 -0.32043594 -0.11056073 -0.021764684 -0.3597695
-0.4394017 -0.088666625 0.012127218 0.1470196 -0.10645361 -0.13616619 0.27318284 0.41352698
-0.031008376 -0.27408397 -0.012707544 -0.04430252 -0.11678444 -0.36916718 -0.2954609 -0.008345863
0.23023334 0.10464897 -0.06014765 0.11183687 0.028805751 -0.5775918 -0.9190264 -0.6691974
-0.51836276 -0.13450314 0.06777329 0.06216081 0.2163673 0.11786423 -0.6896883 -0.79126656
-0.2905115 -0.34403726 -0.22698273 0.14664675 0.3695495 0.22157404 -0.04915439 -0.52630514
-0.3431721 0.29553953 0.09245107 -0.09693386 0.030436877 0.18562037 -0.07038613 -0.24688056
-0.6150004 -0.4761209 0.36663252 0.21151212 0.008287241 0.10185632 0.2812258 0.14632761
-0.06762185 -0.5158834 -0.63282424 0.06442044 0.103781104 -0.0008994078 0.07880139 0.13711709
0.11367091 0.062056128 -0.041390974 -0.1689496 0.047138922 0.1747007 0.13796872 0.053690497
-0.09807279 -0.1861655 -0.10138887 -0.13154773 -0.25900802 -0.22610006 -0.054318555 0.06798519
0.24079521 0.3340804 0.0050204736 -0.113889225 -0.35851535 -0.45764902 -0.3069905 -0.093372375

Variable_44/read/_39__cf__39:0 f4 [1, 4, 1, 1]
00000000: 0324 633f d824 6d3f 27b6 273f 6cd7 6e3f
0.88726825 0.92634344 0.6551232 0.9329746

Variable_43/read/_38__cf__38:0 f4 [1, 4, 1, 1]
00000000: baf7 e9be 09b2 583f 81ef 023f f21f 893f
-0.45696813 0.8464666 0.51146704 1.0712874

Variable_42/read/_37__cf__37:0 f4 [8, 4, 3, 3]
00000000: 4511 66bd eada 0dbf ff44 da3d 7aa7 c6bd
00000010: b4bc c4be 003a 3fbd 9e4d 96be 3984 dc3d
00000020: 6bb3 3abe a693 1b3f 8aae d23e 294b 673b
00000030: dfda 5e3f 51ea a03e 587b e2be 2256 663e
00000040: 7d59 033f 97ce 3c3e 8d90 11bd d445 bb3d
00000050: 16cc 23be ce84 a23b af8c fd3d 2a27 f4be
00000060: 04af 00be c84b 0c3e be1e 3c3d cd45 1ebb
00000070: a077 62bd 6c0f 4e3d ca84 35be 9cb6 69be
00000080: 50ba 8abe 4dd2 db3d 4218 13bf 0963 8dbe
00000090: d28c 813e a55d bc3e 198d 62bd 3742 173e
000000a0: 76c8 ce3e d87a 6f3e a33e 9b3c 00b2 543f
000000b0: 4618 0b3e e8af 67be c404 86be 9ebe a8be
000000c0: c1ef 14be 5502 d53e dedf 71bf cd8b f03e
000000d0: 1ca6 0e3e 8812 4a3d 4b4b 14be 3a42 9f3e
000000e0: 26af 3fbf 4573 0dbf d076 e63e b10c 9ebd
000000f0: 5426 be3e c9f4 bc3e dcc5 a6be 60c7 f53e
00000100: 72f3 eebd dd49 8cbe 51ef 043e 73c9 f73e
00000110: 6e8b ccbe bbff 923e 9f62 24bf b2a1 023d
00000120: 1a0f c53d 900c 08be b2ee c1be 96b8 d8be
00000130: d45c f43d e0ce 00bf 4096 26bf 9cbe 24bc
00000140: 9855 65be ea64 d9bc 2aca 75be 10dd 29bf
00000150: 4a3e 5f3e 05cd 22bf 67a2 2ebf 062b 3e3e
00000160: 8e8e 4fbd b85f f4be 8569 a5bd 2d03 fcbe
00000170: 15c4 cb3e db74 633e c392 f1bd 0ce5 ebbe
00000180: 6a8d a13e 3917 6ebe 05f8 b3bc c8e6 c73e
00000190: 91ca 6cbd be96 44bc 1c75 d93d 4bc3 333f
000001a0: 8413 113e 50e1 8ebe 089f 30bf 9a7a 523e
000001b0: 5f22 62be 0621 26be 9e84 0bbf 27ea a9bd
000001c0: e3fe 31be 8537 b53c 94ff 8cbc 679f 33bd
000001d0: 5dbf 05be 50af 9ebe 6523 8dbd cecd 513e
000001e0: 69e2 4bbe 2f0b 733e 82c2 243e 6b99 9b3d
000001f0: ff69 1e3f 5f89 bd3e 8d37 b93e c016 a63b
00000200: 341e c1bd 8064 853d 1b9c ad3e 312f 71be
00000210: 0814 f53e 0a3f e03e 04b2 7c3e 8eab c73e
00000220: 5405 2e3e d5ce eb3e 732a 51be 8af2 153f
00000230: a4c6 4fbc e5d7 283f ace9 153f 59e3 303f
00000240: 9435 f43d f1b8 2c3d e418 6cbd 136e cc3e
00000250: 561c b83e d025 5bbc eee2 9e3e 346e 923e
00000260: 33d4 113f d1df 383d 9892 c5be 715d f83e
00000270: 1d7c cd3e b933 8f3e b82c d2be a76a 693e
00000280: 34e5 53be 604f 293e 5f7c fc3d 5adc dd3e
00000290: 2a76 3d3e 2e6b 8b3d 214e ac3e cf7e d2bd
000002a0: 0e75 ee3e 162b 8a3e e12e 923e b322 7bbe
000002b0: 4433 bebe 2430 153f 2dea 23be be3e 023f
000002c0: e05d 293f 2d42 293e 7348 383e 6d6e efbd
000002d0: d7d2 523f 0180 2b3e 722c 423f b456 953e
000002e0: db90 953e 5ea2 8b3d f04b 273e a481 14bd
000002f0: d384 1bbe 62fe 77be 271d 0abf 37ea 233e
00000300: 1bc0 f93d c52a 30be 3ee1 a9be 3f8e 07be
00000310: f5dd d53d 891d 5abe d91a 08bf 7046 e4bd
00000320: c53d b2be 11fc 293f 1df5 af3e c560 173f
00000330: 0c27 353e 5ba7 61bd f912 d73d 6569 80be
00000340: f911 be3d fc8b e2be 1b24 adbe 0074 e3be
00000350: e0ac 84be d99c c5be ddba 63be 2df7 9abe
00000360: 5d63 99be 376c aabe 822f f3be 108a 6fbe
00000370: 467d 04bb a7f0 d4be c13a babe 4054 0dbf
00000380: 921e 19bf 9fa3 523c 5f5a 0ebf 729b 16bf
00000390: 448a 04be 689c c9be 0929 4fbf 5740 a0be
000003a0: e7c8 10bf 138f 16be afa4 bfbe 4260 b83e
000003b0: 4869 5fbc 2c19 16bf ceed be3e bfef 38bf
000003c0: e914 853e 95c1 2b3f 5e3f d13e fa6a 26be
000003d0: 244d dfbe 942b 623e 3ae7 21be adf5 bdbe
000003e0: 934a 72bd ddc9 db3e 49fe 163e 3872 203e
000003f0: 59f1 3d3f b10d 2a3e 9a30 0d3f dc6d 273f
-0.056168813 -0.5541216 0.10657691 -0.09699912 -0.3842522 -0.046686172 -0.29356092 0.10767407
-0.18232505 0.6077217 0.41148788 0.0035292602 0.8705272 0.3142877 -0.4423473 0.22493795
0.51308423 0.18438183 -0.035538245 0.09144178 -0.15995821 0.004959679 0.12380349 -0.4768613
-0.12566763 0.13700783 0.045927756 -0.0024150491 -0.055289865 0.050307676 -0.17726436 -0.22823566
-0.2709527 0.10733471 -0.5745889 -0.2761462 0.2530275 0.36790195 -0.055310342 0.14771353
0.40387315 0.23386705 0.018950766 0.83084106 0.13583478 -0.22625697 -0.2617551 -0.3295793
-0.14544584 0.41603342 -0.9448222 0.4698166 0.13930553 0.04933408 -0.14481847 0.31105214
-0.7487663 -0.5525401 0.45012522 -0.077172644 0.37138617 0.36905506 -0.3257283 0.48003674
-0.11667527 -0.27400103 0.12981917 0.4839588 -0.39950126 0.28710732 -0.64212984 0.031892486
0.09622021 -0.13286042 -0.37877423 -0.42328328 0.11931768 -0.50315666 -0.65073013 -0.01005521
-0.22395933 -0.026537377 -0.240029 -0.6635294 0.21801105 -0.63594085 -0.68216556 0.185711
-0.05067306 -0.47729278 -0.08076767 -0.49221173 0.39798036 0.22212546 -0.11795571 -0.46073186
0.31553203 -0.23251046 -0.02196885 0.3904326 -0.05781037 -0.01199883 0.1061804 0.7021987
0.14167601 -0.27906275 -0.6899266 0.20554581 -0.22083424 -0.16223535 -0.5449923 -0.08296614
-0.17382388 0.0221212 -0.017211713 -0.04385319 -0.1306128 -0.30993128 -0.068915166 0.20488665
-0.19910587 0.23734735 0.16089824 0.075976215 0.6188049 0.37018868 0.36175194 0.00506863
-0.09429589 0.065133095 0.33908162 -0.23553158 0.47866845 0.43798095 0.24677283 0.38998073
0.1699422 0.46056238 -0.2042635 0.5857321 -0.012681637 0.6595443 0.5855968 0.69096905
0.11924282 0.04216856 -0.057640925 0.3992773 0.3595912 -0.013375714 0.3103251 0.28599703
0.56964415 0.045135323 -0.38588405 0.4850879 0.40133753 0.2796915 -0.41049743 0.22794591
-0.20692903 0.16534185 0.123284094 0.43332177 0.18502107 0.06807552 0.33653358 -0.10278093
0.4657368 0.26985997 0.2855139 -0.24524955 -0.37148488 0.5827658 -0.160073 0.50876987
0.66158867 0.1652915 0.17996387 -0.11690984 0.82352966 0.16748048 0.7584907 0.29167712
0.29212078 0.068180785 0.16337562 -0.036256447 -0.15187387 -0.24218133 -0.5395073 0.16007315
0.12194844 -0.17203815 -0.3317966 -0.13237856 0.104427256 -0.2130033 -0.53165966 -0.111462474
-0.3481275 0.6640025 0.34366694 0.59132034 0.17690676 -0.055091243 0.105016656 -0.2508041
0.09280772 -0.44247425 -0.3381661 -0.44424438 -0.25913143 -0.38596228 -0.22239251 -0.30266705
-0.2995862 -0.33285686 -0.47497183 -0.2339251 -0.002021627 -0.41589853 -0.3637295 -0.5520668
-0.5981227 0.012856393 -0.55606645 -0.5883094 -0.12943369 -0.3937714 -0.8092199 -0.31299087
-0.5655655 -0.14703016 -0.3743033 0.3601094 -0.013635941 -0.5863216 0.37290806 -0.72240824
0.25992516 0.6709226 0.40868658 -0.16251746 -0.4361354 0.22086936 -0.15810862 -0.37101498
-0.05915315 0.42927447 0.1474544 0.15668571 0.7419639 0.16606785 0.55152285 0.6540201

Variable_41/read/_36__cf__36:0 f4 [1, 8, 1, 1]
00000000: 7852 773f 7f2e 973f eeee 963f 31f0 923f
00000010: 9408 743f af5a 6b3f 2fc9 8c3f 2828 683f
0.9661021 1.1811064 1.1791666 1.1479551 0.9532559 0.9193525 1.0998896 0.90686274

Variable_40/read/_35__cf__35:0 f4 [1, 8, 1, 1]
00000000: 78a2 05be d877 6c3e d727 97be 77a9 b53e
00000010: 9af5 ac3e 3bf7 8b3e ff5c 033f e1a2 8a3e
-0.13050258 0.23092592 -0.29522583 0.35480854 0.3378113 0.2733706 0.51313776 0.27077392

Variable_4/read/_34__cf__34:0 f4 [1, 8, 1, 1]
00000000: 1e15 d93e 075f d93e a0ae 903f 3efe d2bd
00000010: c36b b2be 63b0 293e b2f3 533e 046a 233d
0.42398924 0.42455313 1.1303291 -0.10302399 -0.3484784 0.16571192 0.20698431 0.039896026

Variable_39/read/_33__cf__33:0 f4 [16, 8, 3, 3]
00000000: 3332 c03e f9dc 41bf 61de 36be c08e 763d
00000010: c576 e1bd b9d8 d4be 73e5 bebd 0b66 20be
00000020: d10a 82be 746b 2c3e ea29 ad3d 9886 913d
00000030: d582 b5be 1c3a 683e 075a fd3d f1ba f83e
00000040: 6e2c db3e 352e 293f 218b e0bd 6fda 903e
00000050: fadf e2be 2e49 22bf 4c06 c9be c7a1 fabe
00000060: d30f cb3d 6b0e bbbe d8e8 da3e 619b a1be
00000070: ad9c bebe 3d07 4bbe 7b47 053d e48b 3e3f
00000080: a817 3b3f c6b5 18bf fc70 133e 31bf a73e
00000090: 98f0 743d 9e21 e83c f8ce 7fbe 3cbe 1c3f
000000a0: 2057 8e3e d3fd 7b3e a3e4 4d3e 55f9 443e
000000b0: e25d 46bf e68e a03e 7de7 61be bf4d dabe
000000c0: 10b8 543d 66e1 263d 10d5 27bf 1722 9dbd
000000d0: 2b9c e53e a54d afbe e4be d4bd e0f8 52bf
000000e0: 0774 5cbe e74d 143e 635e d4be bdb1 08bf
000000f0: 7c50 33be 5bf6 5abf e3c8 1fbd aa51 383e
00000100: 3858 6b3e a8c7 ebbc 08cd 5b3e d2d8 de3e
00000110: 6bd0 a6bc 3d5e ac3e 6daa fb3e 6b0c 583e
00000120: 7fc8 e93e 1def e4be dfcb 03bf 096d 8cbe
00000130: d8e7 d4be 7d88 2ebf c4bf 08bf fad3 58be
00000140: 4767 cabe 05fb 473e 9fdb b13e 10e4 713e
00000150: 340a a43e 7a22 c8be 89a5 d6be 6095 373e
00000160: 34c7 213f 918b 48be 234f 15bf d174 d13e
00000170: 27a0 b5bd efe0 92be 0265 cf3d 8f32 133b
00000180: b3e4 0fbe cd72 b1bb b3a6 cabe 372e 35bf
00000190: 0223 96be b2d8 cdbe 6d1b 1b3d cd8d ce3c
000001a0: 163e c5bd fa04 8c3d 2792 07be 26b9 afbd
000001b0: 7049 033b e528 3e3d 5fa7 cf3e 58c5 3cbe
000001c0: 34c4 f23d b25f a63e 34d2 b3be ef02 273f
000001d0: 968b 44be 6f36 913e 0c08 543f a7be 073f
000001e0: 48e3 98be a1cf 023f b732 803e b3c9 cf3e
000001f0: 08d6 83be 1740 7e3e 7c1c 123f 6523 503e
00000200: 614b f63e fb94 443e e136 f73e 4f14 123f
00000210: 1e8d d63d f010 7fbe 6b11 103f ee4a 86be
00000220: b0be ad3d c57f 99be e7d4 923e 8783 96be
00000230: d3db 8fbe 14b1 0b3f 5a2a 26bd 0b62 7e3d
00000240: 548b 1ebe e0da afbe dfda 933e 997d b3be
00000250: 8a28 523f 0a39 b7be dd4a 5d3e bd1c 993e
00000260: 0ebb 973d 848a 3b3e 4d03 53be bae2 113f
00000270: 276c 79be f1e5 e3be 6303 dabe 9307 a9be
00000280: c9c4 41bd ece4 52bf 9ea5 563f 5852 6abe
00000290: 7fb1 34be 21b4 033e 6d9a 8abe 984c debe
000002a0: b145 093e 1499 b6be 1237 0cbf cc83 3f3e
000002b0: 1705 88be b359 f43c 3f53 2d3e 9146 173f
000002c0: 75cd 973e 1ba6 ec3d ca71 013d d446 1d3f
000002d0: 9f5d 62bf 2ea0 03bf befc fe3e 5e7e 7c3d
000002e0: a827 c6be 5104 4f3d e58f fb3d 3848 813e
000002f0: 03e4 3b3e 8793 a63b 934e babe 6fc1 0e3e
00000300: 2e06 33be 4094 913e 08e8 79be 0e27 7b3e
00000310: c585 b53e 383e 913e eada 4c3e 7385 893e
00000320: 3ad5 dbbe c1fa c5be d3f9 903d bf64 ebbe
00000330: 2a63 e7bd 26a5 b73d 5093 cabd edb8 4ebd
00000340: c4a6 bbbe 91b1 79be bf6a 54be 7996 913e
00000350: 04af 843d 0caa 573c e7ae a13e 2fe6 673f
00000360: f086 e53e 9171 85be 482e ceba 1fd3 0abd
00000370: 9b22 f63d 8b61 99bd eb7b 5bbe 2214 473f
00000380: 9047 653d 7b22 4ebe ef8c 213d 410d eb3e
00000390: 65ef b4be 156a 623e c649 4bbf 50a0 50bd
000003a0: 765e 033e e152 adbd 8a07 02bd 9c36 4ebe
000003b0: c35d 1e3f 6ba6 1ebf 3ebc 2bbf 318e 303e
000003c0: 4eb7 cb3c 9c10 d1bd b289 e7bc 81a3 0ebe
000003d0: 83dd adbe 6a40 79be b1f1 16bf edf5 8fbd
000003e0: 133b 7ebf 0bc1 933e 4a09 06bf 7cd0 043e
000003f0: 2da1 85bc 3fc4 e0be 32e5 cdbe 4c16 193c
0.375383 -0.757278 -0.17858268 0.06019473 -0.110089816 -0.41571596 -0.09321108 -0.15663926
-0.25398877 0.16837865 0.0845526 0.0710575 -0.3545138 0.22678417 0.12370687 0.48580125
0.42807335 0.6608613 -0.10964037 0.28291652 -0.44311506 -0.63392913 -0.39262617 -0.4895155
0.099151276 -0.36534438 0.4275577 -0.31563857 -0.3722891 -0.1982698 0.032538872 0.74432206
0.7308297 -0.59652364 0.14398569 0.32763055 0.05979976 0.028336342 -0.24981296 0.61227775
0.27800846 0.24608545 0.20106749 0.19235738 -0.77487004 0.31359023 -0.22060962 -0.4263744
0.05193335 0.0407423 -0.6555948 -0.07672518 0.4484571 -0.34238926 -0.10387972 -0.82411003
-0.21528636 0.14482842 -0.4147826 -0.5339621 -0.17511171 -0.8553216 -0.03900994 0.17999902
0.22982872 -0.028781727 0.21464932 0.43524796 -0.020363053 0.33665648 0.49153462 0.21098487
0.4566078 -0.4471368 -0.5148296 -0.27426937 -0.41583133 -0.68177015 -0.5341761 -0.21174613
-0.3953192 0.1952935 0.3473787 0.23622155 0.32039034 -0.39088804 -0.41923168 0.17928076
0.63194585 -0.1958449 -0.5832388 0.40909436 -0.08868437 -0.28687236 0.101266876 0.0022460555
-0.14052086 -0.0054152966 -0.39580306 -0.70773643 -0.29323584 -0.40204388 0.037867952 0.0252141
-0.096309826 0.06836887 -0.13239346 -0.08580236 0.0020032786 0.04642572 0.40557382 -0.18434656
0.11853829 0.32494885 -0.3512131 0.6523885 -0.19193873 0.28361842 0.8282478 0.5302529
-0.29860902 0.51098067 0.25038692 0.40583572 -0.2574923 0.24829136 0.57074714 0.20326002
0.48104385 0.19197457 0.48284057 0.5706224 0.10476135 -0.24908805 0.5627658 -0.26229042
0.084836364 -0.29980293 0.28678057 -0.29397222 -0.280974 0.54567075 -0.040567733 0.06210522
-0.15482837 -0.34346676 0.28877923 -0.3505676 0.8209311 -0.35785705 0.2161059 0.29904738
0.07408725 0.18314558 -0.20606728 0.5698658 -0.24357663 -0.4451137 -0.4258071 -0.3301359
-0.04730681 -0.8238056 0.8384646 -0.22882974 -0.17645834 0.12861682 -0.27070943 -0.4341781
0.13405491 -0.35663664 -0.5477153 0.1870262 -0.26566383 0.029827928 0.16926287 0.5909205
0.2964894 0.115551196 0.03160266 0.614362 -0.88424104 -0.5141629 0.49802202 0.06164395
-0.3870213 0.050541226 0.12283305 0.2525041 0.18348698 0.0050835046 -0.36388072 0.13940977
-0.17482826 0.28433418 -0.24404919 0.24526617 0.3545362 0.28367782 0.20005384 0.26859626
-0.42936116 -0.38667873 0.070789 -0.459753 -0.11298211 0.089670464 -0.09891379 -0.050469328
-0.3665067 -0.24384142 -0.20743845 0.28435114 0.06478694 0.013163101 0.31578752 0.9058561
0.44829512 -0.26063207 -0.0015730346 -0.033892747 0.12018319 -0.07489308 -0.2143399 0.77765095
0.05597645 -0.20130341 0.039441045 0.4590855 -0.35338894 0.2211078 -0.79409444 -0.050934136
0.12829003 -0.084630735 -0.03174547 -0.2013802 0.6186182 -0.61972684 -0.6708411 0.17241742
0.02486768 -0.10208246 -0.0282639 -0.1392956 -0.33958063 -0.24340978 -0.5896254 -0.070293285
-0.9930889 0.28858218 -0.52357924 0.12970155 -0.016312206 -0.43899724 -0.40213925 0.009343695

Variable_38/read/_32__cf__32:0 f4 [1, 16, 1, 1]
00000000: fd35 1d40 6d6d 1440 46d4 0f40 2c09 0d40
00000010: 58c7 2340 6ebe 2340 8278 2440 6388 2740
00000020: ede6 1740 7628 1a40 63c2 1940 9500 2940
00000030: e09c 1d40 bc9c 3040 bcf8 f43f c2f6 3c40
2.4564202 2.3191788 2.2473311 2.2036848 2.559042 2.558498 2.5698552 2.6176994
2.3734696 2.4087195 2.4024894 2.6406605 2.4627 2.7595663 1.9138408 2.952561

Variable_37/read/_31__cf__31:0 f4 [1, 16, 1, 1]
00000000: 339a 873e c5ae 213e 84cf 8ebd 4b45 a23d
00000010: 03ec 853d ba2f 3bbd d77f 4ebd 5f09 82bd
00000020: 58c7 76be 0f45 b6bd d581 023f 3f37 83bd
00000030: 9de3 04be 5b53 633e fcf2 aa3e 7cbd b1bd
0.26484832 0.15789326 -0.06973174 0.07923373 0.06539156 -0.045699812 -0.050414886 -0.06349444
-0.24099481 -0.08899891 0.5097936 -0.06407022 -0.12977453 0.22199766 0.33388507 -0.086787194

Variable_36/read/_30__cf__30:0 f4 [16, 16, 3, 3]
00000000: 6599 0cbd c0b6 d0bc e7fa 033e fdd4 2ebe
00000010: b09e 52be fe80 dbbe c4ad ad3e 6f02 b13e
00000020: 1685 123e 8a15 673e 0aa0 be3e 5b12 74be
00000030: 106d 903e d8aa 783e e28e 15be d747 b23d
00000040: c898 d0be 4d09 9fbd 7ca6 b03e f65b 88ba
00000050: 2f58 d53d 052c 26be bebd 403d 3227 60b8
00000060: 6f1a 2fbd 14f9 22be abec 16be cf18 7a3e
00000070: 27ce 9b3e 361c ea3d 59b1 5f3d b278 c0be
00000080: 5d95 93be c1d5 e5bd 41c0 c7be e045 5fbe
00000090: 4a76 07bf aae4 86bd 651e 0a3e ac5a 263f
000000a0: b5a7 af3e 8d14 90bb 66ba adbe 43dd 18bf
000000b0: fc88 c4bd 4e24 1cbd 2eca c4be c5e8 70bd
000000c0: d95f 823e 0fb2 82be a622 32bf a60f 7c3d
000000d0: a11a 313e f011 72be 2da3 763e 339a 423e
000000e0: bac5 b43e fe9a 29bf 3d94 aa3c f0a7 673e
000000f0: c85b 903d a463 cabd a26c 103e 905d 353e
00000100: aace e7be d005 48bf 6bbb 2e3e e580 083f
00000110: d112 273f 8c74 57be f9b1 ecbe d6b6 8cbe
00000120: eef6 31be db2c 523e d0d6 37be 918a e73d
00000130: de28 e23d 8019 38be aee4 433d 4311 b73e
00000140: 61c4 c33d b225 413e e532 ccbd 97ab bdbe
00000150: db61 84bf dccc 153e 9b66 f4bd dfeb 6e3e
00000160: 4a6b 81be 37cf 27be 3417 b5be 6234 87be
00000170: 126d 05be 63c6 50bf db65 263f fcec b13e
00000180: 2225 28bf f149 483e c825 3f3e 840d af3e
00000190: 8280 ebbe 336f d8bd adc9 a33d 63aa 00bf
000001a0: c1a8 ab3d f394 72bc c747 babd 89e5 d53e
000001b0: e6d4 9c3e 914c 6ebc f01c 8abd c85b bcbc
000001c0: 4204 d3be 031c 78be 3de9 a43d db94 953e
000001d0: a6f9 95be ccd0 10bd 9dcd 24be 7c87 15be
000001e0: 54b3 853e d482 8dbe b690 103e 0f64 0fbe
000001f0: 6286 01be 6a91 363e 4611 173d bc94 84be
00000200: bae1 ccbe e749 6c3f 1945 913f f91f 5e3f
00000210: 4d72 16bf e44a 62bf 1c4b f3be 67c0 8dbe
00000220: 5591 9a3e c366 86be 0241 593e ef6a 763d
00000230: c966 b3be b0f6 13bf 1d35 773d c442 9d3e
00000240: e8f6 623e b239 9c3e 2cc1 32be 3b1b 203f
00000250: 63dd 06bf a252 dfbe bf25 493f e52c d1be
00000260: 94d2 0c3e def5 3e3d 4229 47be 986e d5bd
00000270: fc69 383f 9248 903e 5fb1 66be 4a92 013e
00000280: ab28 a53e 97aa 5abd ef53 dbbe 3def d5bd
00000290: bf80 69be 6f7e b3be 6ab9 99be a7cd 65be
000002a0: dbae 4abf 017b e7be 58a8 e3be 8c54 59bd
000002b0: 4ab1 e23d c0a9 b73e 0bd0 2a3e ae33 bb3e
000002c0: 9098 a73e 3de0 eb3e 2286 6f3f cace 333f
000002d0: 763c 17bf ff31 6dbd 05ad 423e 29d4 f93e
000002e0: bd94 00bf 3c18 c53e e2ea 803e 9ce3 8f3f
000002f0: 24d9 b63e 97c0 2c3e ba6b 48bd 54d8 083f
00000300: 6d72 ed3d 2ddb 90be d411 123f d301 473e
00000310: 8eeb 92be 40db 413f 0a85 d2be 700c 5bbd
00000320: de37 a7be 5282 ac3e a2e4 6f3d ebd5 873e
00000330: 8a43 763e 565b 5f3d 76d8 f73e 44e4 6d3d
00000340: e48a 35bf 33f4 733f 5cc7 be3d a646 963e
00000350: 04dd 113e c558 41bd 67b1 43bd d070 8f3d
00000360: f15b 593f 00dd bd3d 65af 273f 082e 053e
00000370: 5529 37be d8b9 27be 0173 823e 662f 913e
00000380: 54e5 c83d 6868 493e 6cf3 6dbe dcb2 09be
00000390: 03d7 29be 56f2 1bbf 7308 fa3e 1e3d 0b3f
000003a0: 267c 333f 21c0 743e 6029 16bd 6734 fc3d
000003b0: adc0 7fbe aad3 493e 86ba 503e 9fcd cbbe
000003c0: 18fe 883e 6908 f4bd b198 94be e6fe 243f
000003d0: 0320 dc3d 5a19 d23e d7c6 86be c0fe 273e
000003e0: 9f9a 63bc fc8e 9d3e abf4 b43e c75c 91be
000003f0: 0888 bfbd 9b06 c3be 4265 efbe 1f48 e0bd
-0.034325976 -0.025477767 0.1288868 -0.17073436 -0.20568347 -0.4287185 0.33921635 0.3457217
0.14308581 0.2256681 0.37231475 -0.23835127 0.28208208 0.24283922 -0.14605287 0.087051086
-0.40741563 -0.07765446 0.34502017 -0.0010403383 0.1041721 -0.1622773 0.047055952 -5.3442265e-05
-0.04274982 -0.15915328 -0.14738719 0.24423526 0.3043072 0.11431162 0.05461249 -0.37592083
-0.28824893 -0.11222411 -0.39013866 -0.21803999 -0.5291487 -0.06586583 0.13488157 0.64982104
0.34307638 -0.004396981 -0.33931273 -0.5971262 -0.0959644 -0.03812056 -0.384355 -0.058815736
0.2546375 -0.25526473 -0.6958412 0.06153836 0.17295314 -0.23639655 0.24085684 0.19004135
0.35307103 -0.66252124 0.020822639 0.22622657 0.07048756 -0.09882286 0.1410394 0.17711473
-0.4527486 -0.7813387 0.17063682 0.5332168 0.65263087 -0.21040553 -0.46229532 -0.27483243
-0.17379352 0.20524924 -0.17953038 0.11305726 0.11042951 -0.17978477 0.047825508 0.35755357
0.09558941 0.18862036 -0.09970645 -0.37044975 -1.0342363 0.14628929 -0.11933633 0.23332165
-0.25277168 -0.1638764 -0.35369265 -0.26407152 -0.13029888 -0.81552714 0.6499917 0.34751117
-0.6568166 0.19559456 0.18666756 0.3419 -0.4599648 -0.105680846 0.07997451 -0.5025999
0.08381797 -0.01480602 -0.09095722 0.41776684 0.3063118 -0.014544622 -0.06743801 -0.022992983
-0.41214186 -0.24229436 0.08052299 0.2921513 -0.2929203 -0.035355374 -0.1609406 -0.14602464
0.2611338 -0.27638876 0.14117703 -0.14003013 -0.12648919 0.17828909 0.036881708 -0.25894725
-0.40015966 0.92300266 1.1349212 0.86767536 -0.5876816 -0.88395524 -0.4751824 -0.27685854
0.30189005 -0.26250276 0.21216205 0.060160574 -0.35039356 -0.5779829 0.060353387 0.30715
0.221645 0.30512768 -0.17456502 0.6254155 -0.5268156 -0.4361773 0.7857322 -0.40854564
0.13752204 0.046621196 -0.19449332 -0.10421485 0.7203672 0.28180367 -0.22528599 0.12653461
0.3225759 -0.053385343 -0.42837474 -0.10446022 -0.22803019 -0.350574 -0.30024272 -0.22441731
-0.7917306 -0.45211032 -0.44464374 -0.053059146 0.110689715 0.35871696 0.16680925 0.36562866
0.32733583 0.46069518 0.93564045 0.7023741 -0.5907663 -0.057909008 0.19011314 0.48794678
-0.50226957 0.38495052 0.251792 1.1241336 0.3571254 0.16870342 -0.04893086 0.5345509
0.115940906 -0.28292218 0.57058454 0.1943429 -0.2869534 0.75725174 -0.41117126 -0.05347866
-0.3265981 0.33693177 0.05856765 0.26530394 0.24049202 0.054530464 0.48407334 0.05807902
-0.70915055 0.95294493 0.093153685 0.29350775 0.14244467 -0.047203798 -0.047776606 0.07003939
0.84905916 0.09270668 0.65502006 0.13005841 -0.1788686 -0.16379488 0.25478366 0.28356475
0.09809366 0.19668734 -0.2323739 -0.13447136 -0.16585927 -0.6091665 0.4883457 0.5439013
0.7011131 0.23901416 -0.036660552 0.123146825 -0.24975844 0.1970965 0.20383653 -0.39805314
0.26756358 -0.119156666 -0.29022744 0.64451444 0.10748293 0.41034967 -0.26323578 0.16405773
-0.013891845 0.3077315 0.35342917 -0.28391096 -0.09352118 -0.38090977 -0.4675694 -0.10951256

Variable_35/read/_29__cf__29:0 f4 [1, 16, 1, 1]
00000000: ddbe 353f 4bd7 463f 6db5 333f f999 123f
00000010: 256e 533f 19c9 5f3f f8be 433f f457 823f
00000020: cd7a 2c3f 0306 823f e1e6 843f d3ff 823f
00000030: 57c8 723f f036 7c3f b297 6e3f 86ab 8b3f
0.7099436 0.7767226 0.7019871 0.57266194 0.8258994 0.87416226 0.7646327 1.0183091
0.6737488 1.0158085 1.0382959 1.0234321 0.94836944 0.9852133 0.9320022 1.091172

Variable_34/read/_28__cf__28:0 f4 [1, 16, 1, 1]
00000000: 1e51 ecbe 8c58 52bf 88c0 0c3d 651b be3f
00000010: 9fe4 85bf 86b9 47be dc30 bcbe 1761 63bf
00000020: 3e17 18bd fee4 44bf 5bb5 73bf 6c66 55bf
00000030: cb13 24bf c61d 0cbf 4bab 0cbf 4f6d e9bf
-0.46155638 -0.8216636 0.0343633 1.485211 -1.0460395 -0.19504365 -0.36756027 -0.8882002
-0.03713154 -0.76911914 -0.951986 -0.8335941 -0.640927 -0.5473293 -0.5494887 -1.8236483

Variable_33/read/_27__cf__27:0 f4 [16, 16, 3, 3]
00000000: 406f 73bf 7f79 09bf 01ac efbd bcf2 10bf
00000010: dc6a e3bb 0ade 00be 4b0a 90be b054 923e
00000020: bbba 163f 94fc b13e 85a0 b63e 568a 10be
00000030: 9624 733e 047c 6f3e 753f 323d 8285 e7bd
00000040: 3607 c0bd 4012 203e c12b b2be ba9b 2abe
00000050: c75a b8be 273a 413e e124 613e f5c7 95bd
00000060: 43ab 6e3e 4f6a d13d efbf 75be dc25 663c
00000070: 35c8 173f eff8 d6bd 808a a33e 572c 1d3f
00000080: 012f 21bf e0d6 6d3e 821b 0c3d ae62 ebbe
00000090: f25a 23bf ad45 17be fee1 debe 3b8f 463d
000000a0: 2bfe b43e 3459 63bd 8a69 bfbe d252 9dbc
000000b0: 157a 3c3e 6902 4fbd 2472 353d 7bfd d33e
000000c0: 82b7 06bf a6c8 2dbf ef46 f83d 0781 54bf
000000d0: 25f4 a73d 77ef e43e f35a 063f aa02 fb3e
000000e0: 4b69 15bf 5750 58be 6dae 143f 8784 9a3d
000000f0: 00ee 69bd 3cc0 9ebe a5f1 79bf 5c70 563e
00000100: 7d43 c2be 8533 ae3d 483f e6bd f2e7 65bf
00000110: 96af 403f fc47 89be 2c75 053f 8bda 0b3e
00000120: af5d adbe e7c3 debe 0ba0 75be 83f1 72be
00000130: 9d28 a63e 104c 82bd eecb 103d 115b 923e
00000140: 4f02 d6bd 64ff c0be ab31 303b 7d85 083f
00000150: 3209 23be b1e4 0cbf 95da b43e 3444 203d
00000160: cf6e a0be 08e2 a0be 73f8 103e 11a9 81bc
00000170: 744a 5fbe 6f3c bebe 1012 003f aed4 ec3d
00000180: 7685 49bd 8625 d1be bfdf e2be a7af fb3c
00000190: 4573 3b3e b14c 08bf ac53 c13e 6783 be3e
000001a0: 5b67 24bf f3f3 d4bd 3742 013f b631 c6be
000001b0: 9df9 2c3f 42e1 1f3f fdab c03d aef0 b3be
000001c0: f076 26be 91f1 b6bd ecc5 90be e094 dfbe
000001d0: d6a4 05be b720 9abd 75d3 f5be 00e6 78bd
000001e0: 6a6a 35be 5524 eabe 2be2 46be f626 833e
000001f0: ac62 a43d 8ddc 8b3e d21f 6bbf 6dd2 1bbf
00000200: debc 80be cf72 143e 33b1 80bd 7524 65be
00000210: d78a 463e adec 56bf cb06 c1be 6fe8 183e
00000220: 6b7c ee3e a999 923e 009f 903e 60be 71bd
00000230: cb06 1cbd a5f5 263e 6725 13bf 091c 49bf
00000240: 41c5 d63d c63e 623d ee46 cfbe 43d6 4f3e
00000250: 5374 21be caef eabe 244c e13e 2c93 b83e
00000260: c22c 4a3e bc92 d73e 4b7f 19be bea7 513e
00000270: 99f9 97be cf36 10bf b53f b63c 5b72 953e
00000280: 7019 36be 7455 1bbf 7751 4b3f 1a06 df3e
00000290: ab21 bbbd 6eb5 1e3e be06 38be a203 5a3e
000002a0: 7ae7 b9be bf8b c6be 96a9 453c d8a7 3c3f
000002b0: 92c6 6c3e 4c34 eb3e 684e cbbe b7c6 e0bd
000002c0: 2211 e13e b3a1 dd3e c6b5 6d3e eb5c ad3e
000002d0: 7b7c 6dbb c32e fc3e a6ba 76bc 14c6 2e3e
000002e0: 6d3d 5f3e 77a7 26bd 2e5c 993e 294e a6be
000002f0: 98ed 2abe 0794 2dbf 3844 bcbe 61bb 2f3e
00000300: 445f 33be 0f33 fbbe e0de 3fbe a27f efbe
00000310: 3508 5a3d cd48 f5bd bece 0e3d 820b 81bd
00000320: b32e 343e a2b6 63be db50 f53d 5658 8cbe
00000330: 6b83 573e 9db3 8ebe ec9f 0e3c 3ede 813f
00000340: 6159 0b3f 8b4e 413f 9a15 40bb 5602 23bf
00000350: 53d0 2a3e 9dd9 efbe 4d22 673e ed3b 8d3e
00000360: 7afd 1ebf 062a 19be 1680 43be 13e4 6abf
00000370: 16f7 383f 061f f0bd 3c68 9cbd 6227 91be
00000380: 668e e6be b478 1bbc ff5c da3d 959c b3bd
00000390: 2b6a 763f 4cb4 cebd 1137 3f3e 5f55 8a3e
000003a0: f9cd 03bf 3e63 2dbf 5d87 56be 38db 06bf
000003b0: dea8 963d a412 333e c19c 00be a32e 103f
000003c0: 789b 273f 4a7b 1cbd 9048 23be 6e00 123e
000003d0: 214a d73e 0271 a53e b7bd 34be f83e 083d
000003e0: ef25 ae3e 7595 ffbe 9e68 0abe baf8 273d
000003f0: 5076 013f 88d5 103f e7ee 68be bfbd 2abe
-0.9509163 -0.53701013 -0.11702729 -0.56620383 -0.006940229 -0.12584701 -0.28132853 0.28580236
0.5887868 0.34763014 0.35669342 -0.14115271 0.23744425 0.23387152 0.04351755 -0.113047615
-0.093763754 0.15631962 -0.34799007 -0.16660967 -0.36006758 0.1886984 0.21986724 -0.073135294
0.23307519 0.10225355 -0.23998998 0.014047112 0.59289867 -0.10496699 0.31941605 0.6139578
-0.6296235 0.232265 0.03420592 -0.45973724 -0.63810647 -0.14772673 -0.43531793 0.04847644
0.35350165 -0.055504993 -0.37385207 -0.01920453 0.18405946 -0.050539408 0.044298306 0.41404328
-0.5262376 -0.6788429 0.121229045 -0.8300938 0.08200864 0.44713947 0.5248253 0.4902547
-0.5836379 -0.21124397 0.5807865 0.07544809 -0.05711174 -0.31006038 -0.97634345 0.20941299
-0.37942114 0.0850592 -0.11242539 -0.89807045 0.7526792 -0.26812732 0.52131915 0.13657586
-0.33860537 -0.43508837 -0.23986833 -0.23724942 0.3245286 -0.06362164 0.035350733 0.28585103
-0.10449659 -0.37694848 0.0026885073 0.53328687 -0.15921476 -0.55036455 0.35323015 0.039127544
-0.3133454 -0.31422448 0.14157276 -0.015827687 -0.21805745 -0.37155482 0.5002756 0.11564003
-0.049199544 -0.4084894 -0.4431133 0.030723406 0.1830569 -0.5324202 0.3775915 0.37209627
-0.6422021 -0.10398092 0.5049166 -0.387098 0.6756838 0.6245309 0.09407804 -0.35144562
-0.16256309 -0.08932794 -0.28276002 -0.4366827 -0.13051161 -0.07525771 -0.4801289 -0.06076622
-0.17716375 -0.45730844 -0.19422214 0.25615662 0.08026633 0.27316704 -0.9184543 -0.6086796
-0.25144094 0.14496921 -0.06283798 -0.22377189 0.193889 -0.8395489 -0.37700495 0.14932416
0.46579298 0.28632858 0.28246307 -0.059019446 -0.038092416 0.16304643 -0.57478946 -0.78558403
0.10486842 0.055235647 -0.40483803 0.20296578 -0.1576703 -0.4588607 0.44003403 0.36049783
0.19743636 0.42104137 -0.14989965 0.20474145 -0.29682615 -0.5633363 0.022247175 0.2918881
-0.17783141 -0.60677266 0.7942118 0.43559343 -0.09137281 0.15498897 -0.17971322 0.21290448
-0.36309415 -0.38778493 0.012064358 0.7369361 0.23122624 0.45938337 -0.39708257 -0.10975402
0.43958384 0.4328743 0.23213872 0.33859953 -0.0036237526 0.49254426 -0.015059149 0.17067748
0.21800776 -0.04068705 0.2995314 -0.32481506 -0.16692197 -0.67803997 -0.36770797 0.17161323
-0.1751681 -0.49062392 -0.18737364 -0.46777064 0.053230483 -0.11976776 0.034865133 -0.06301023
0.1759594 -0.22237638 0.119783126 -0.27411145 0.21046226 -0.2787141 0.0087051205 1.0145948
0.54433256 0.7551047 -0.002930975 -0.6367544 0.16681032 -0.46845713 0.22571678 0.27584782
-0.62105525 -0.14957437 -0.1909183 -0.91754264 0.72252023 -0.11724667 -0.07637069 -0.2835036
-0.45030516 -0.009489227 0.10662269 -0.087701 0.9625575 -0.10092983 0.1867335 0.27018258
-0.51486164 -0.67729557 -0.20950074 -0.5267825 0.073564276 0.1748758 -0.12559797 0.5632116
0.654716 -0.038203515 -0.15945649 0.14257976 0.42048743 0.3231278 -0.17650495 0.033263177
0.34013316 -0.49918714 -0.13516471 0.04100869 0.50571156 0.5657582 -0.22747384 -0.16673945

Variable_32/read/_26__cf__26:0 f4 [1, 16, 1, 1]
00000000: 7f47 9f3f 5dda 703f 22b8 df3f 8507 ae3f
00000010: 5d75 ad3f 0349 943f 6f42 bc3f e6b3 b33f
00000020: a52b 9e3f 8075 973f 9095 903f 0086 c23f
00000030: 23f6 d83f 486f d03f 205c b73f f652 f83f
1.2443694 0.94083196 1.7478068 1.3596045 1.3551441 1.1584781 1.4707774 1.4039276
1.2357069 1.1832733 1.1295643 1.5197144 1.6950115 1.628396 1.4324989 1.9400318

Variable_31/read/_25__cf__25:0 f4 [1, 16, 1, 1]
00000000: 349a 873e ccae 213e 8ccf 8ebd f344 a23d
00000010: 0fec 853d af2f 3bbd f47f 4ebd 5109 82bd
00000020: 64c7 76be fe44 b6bd e081 023f 0837 83bd
00000030: c0e3 04be 5a53 633e f6f2 aa3e 76bd b1bd
0.26484835 0.15789336 -0.0697318 0.07923307 0.06539165 -0.04569977 -0.050414994 -0.06349433
-0.24099499 -0.08899878 0.50979424 -0.06406981 -0.12977505 0.22199765 0.3338849 -0.08678715
