examples/style_transfer/model/sunflowers-bew.tflite (tflite, 150728 bytes, 52 tensors)

Conv2D_12_bias f4 [16]
000000 00 00 00 00 00 00 00 00 00 00 00 00 00 00 00 00
       0.0 0.0 0.0 0.0
000010 00 00 00 00 00 00 00 00 00 00 00 00 00 00 00 00
       0.0 0.0 0.0 0.0
000020 00 00 00 00 00 00 00 00 00 00 00 00 00 00 00 00
       0.0 0.0 0.0 0.0
000030 00 00 00 00 00 00 00 00 00 00 00 00 00 00 00 00
       0.0 0.0 0.0 0.0

Conv2D_13_bias f4 [3]
000000 00 00 00 00 00 00 00 00 00 00 00 00
       0.0 0.0 0.0

Conv2D_1_bias f4 [8]
000000 00 00 00 00 00 00 00 00 00 00 00 00 00 00 00 00
       0.0 0.0 0.0 0.0
000010 00 00 00 00 00 00 00 00 00 00 00 00 00 00 00 00
       0.0 0.0 0.0 0.0

Conv2D_bias f4 [4]
000000 00 00 00 00 00 00 00 00 00 00 00 00 00 00 00 00
       0.0 0.0 0.0 0.0

Variable/read f4 [4, 9, 9, 3]
000000 5e 70 98 3e f3 f6 a9 bd b4 ea 93 be af b9 d5 3e
       0.2977323 -0.08299055 -0.28890002 0.41743228
000010 61 0c 91 be 65 ec 12 bf 31 39 f8 3c 20 f3 3f bf
       -0.28329757 -0.5739196 0.030300708 -0.74980354
000020 56 e8 5d bf 14 fe 3e 3e 7f 0d 0f bf ca 59 b1 be
       -0.8668264 0.1865161 -0.5587997 -0.34638816
000030 2e d5 15 3e a3 9d ca be e1 b6 20 3e af fd 6a 3e
       0.14632103 -0.39573392 0.15694763 0.22948335
000040 ad 66 18 bf 93 9a 2b 3e 3c e8 29 3e 9b 32 09 bf
       -0.5953167 0.16758184 0.16592497 -0.5359284
000050 e6 44 39 be aa fe 81 3e 06 a7 f7 bd 65 98 90 3e
       -0.18092689 0.25389606 -0.12092404 0.28241268
000060 ed b6 f0 3e 36 57 ba 3d fd 87 ac 3e 90 27 09 3f
       0.4701456 0.090986654 0.336975 0.5357599
000070 78 34 5e bd 10 76 01 bf d8 4c 1a 3f 6f bd 26 be
       -0.054249257 -0.50570774 0.60273504 -0.162832
000080 53 18 eb be c9 2e 41 3e d3 a5 83 be 6a dc bc be
       -0.45916995 0.18865503 -0.2571245 -0.36886913
000090 93 c5 26 3e c6 ac 1e be ea 4e 71 3d 4f 89 03 3d
       0.16286306 -0.15495595 0.05891315 0.03211337
0000a0 39 fa a4 be 0e 40 14 3e ad 03 4c be f4 7d 74 bf
       -0.32222155 0.1447756 -0.19923277 -0.9550469
0000b0 fa fd f3 3c 70 6a c6 bd 1a 09 4d bf e0 28 14 3e
       0.029784191 -0.0968827 -0.8009201 0.14468718
0000c0 71 8b de 3e b6 a8 87 be ba 2b 10 3e 29 6f bb 3e
       0.4346576 -0.26495904 0.1407918 0.36608246
0000d0 38 b1 3d 3e 42 24 12 3f 73 1a c7 3e 4d 56 09 be
       0.18524635 0.57086575 0.38887367 -0.13411827
0000e0 06 68 29 bf a5 31 ff 3e f4 b1 6a be fa d5 e1 be
       -0.6617435 0.49842563 -0.22919446 -0.44108564
0000f0 26 93 5d 3e 36 ae b1 be ec 02 40 be 44 47 33 bd
       0.21638164 -0.34703225 -0.18751115 -0.043769136
000100 5a 93 dc be 07 10 8b 3e 5e 5d b3 be 44 79 e5 be
       -0.4308117 0.27160665 -0.3503217 -0.4481908
000110 a8 c1 89 3d 38 74 d3 be d4 6b 92 bf 80 5d 58 be
       0.0672639 -0.41299605 -1.1439157 -0.21129417
000120 39 5f 37 be 22 5a 4d bf 06 f7 1c 3d 1c b8 fd 3d
       -0.17907418 -0.80215657 0.038321517 0.12388632
000130 9b d2 bc be bd 9b 35 3d 4a 89 80 3e f3 4c ef 3d
       -0.3687943 0.044337977 0.25104743 0.11684599
000140 2c 41 a3 3e dc d2 91 3e af 8f 9e be ce b4 03 bf
       0.3188566 0.28481185 -0.30968997 -0.5144776
000150 88 9c 7f 3e 80 a1 00 bf cc 7e b6 be 5b 10 a0 3d
       0.24962056 -0.5024643 -0.35643613 0.078156196
000160 a2 53 d8 be 42 24 e0 bc 83 41 9a bd 56 42 fd be
       -0.42251307 -0.02736104 -0.075320266 -0.49464673
000170 a7 13 95 bd de 89 e7 bd 8e 80 4f bf 3f ba 9f bd
       -0.07279139 -0.11305593 -0.81055534 -0.077991955
000180 75 ea 79 be e8 25 a1 bf 2e 0a 08 bf 25 b0 eb be
       -0.24405845 -1.2589693 -0.5314053 -0.46032825
000190 fc c4 a1 bf 2a 3d 63 be a5 92 9c bd 75 aa 19 bf
       -1.263824 -0.22191301 -0.07645158 -0.6002572
0001a0 39 15 8d be 62 d7 58 3e 5f 0c 76 be eb 0d 2c 3d
       -0.27555254 0.21175912 -0.24028157 0.04200546
0001b0 e3 db b8 3e e0 71 32 bf ee dc 2c bf 7a b7 5c 3e
       0.3610526 -0.6970501 -0.6752461 0.21554366
0001c0 d6 ab a5 be 0f 0e 90 be 44 44 28 3e 1f d4 8e be
       -0.32357663 -0.28135726 0.16432291 -0.2789621
0001d0 62 86 b9 bd c4 29 57 be ae bf 88 be 12 2f 96 3e
       -0.090588346 -0.21012026 -0.2670874 0.29332787
0001e0 cb 39 2a be 3b 85 4e bf e9 91 cb bd c5 31 83 be
       -0.16623609 -0.80672044 -0.099399395 -0.2562391
0001f0 cf ec c4 bf ae ef ea be 48 32 9e be 74 36 91 bf
       -1.5384768 -0.45885986 -0.30897737 -1.1344743
000200 f4 44 9e be c1 e7 89 3d c9 a6 04 bf 95 3a 24 be
       -0.30911982 0.06733657 -0.51816994 -0.16037972
000210 64 1b 96 3d 37 39 fb be 6b 1b 3b bc 91 0a 92 3d
       0.07329443 -0.4906709 -0.011420111 0.07130922
000220 3f 6b 0e bf 64 c7 f6 be 8b 6b 56 3e 57 57 d6 be
       -0.55632395 -0.48198998 0.20939462 -0.4186351
000230 85 d7 1b be 49 a9 1e 3e e9 23 26 be d7 9e f0 3d
       -0.15218933 0.15494265 -0.16224636 0.11749046
000240 7e 25 75 be 44 3c 02 bf 63 9e a6 bd d4 42 8e be
       -0.23940083 -0.5087321 -0.081356786 -0.2778536
000250 71 f1 6b bf ac 02 42 be 70 f0 aa be 8a 48 a9 bf
       -0.92165285 -0.18946332 -0.33386564 -1.3225262
000260 89 e4 9d be a0 3e cd be e0 f2 81 bf 06 30 ee be
       -0.3083842 -0.40086842 -1.0152245 -0.46521014
000270 28 c3 ca be 2d ab 56 bf da 29 a3 be 25 e8 bc bc
       -0.39602017 -0.83854944 -0.31867868 -0.023059914
000280 d1 7e 0b bf ba 7e b0 3c c1 10 85 3e 35 78 1a bf
       -0.5449038 0.021544803 0.25989345 -0.6033967
000290 9a 55 37 bf 5e b7 28 3e b2 d9 e7 bd 66 de b1 be
       -0.7161499 0.16476199 -0.11320819 -0.3473999
0002a0 74 8b ff 3c c9 14 dc bd 0a b9 cb 3b 69 ef 87 bc
       0.031194426 -0.10746152 0.0062171267 -0.016593652
0002b0 92 53 ba be 04 cd 50 bd 99 3e 89 bd a1 a6 3c bf
       -0.36391884 -0.050976768 -0.06701393 -0.73691756
0002c0 fe a8 56 be fc f2 16 be 0a cd 44 bf e3 22 ec bd
       -0.20962903 -0.14741129 -0.76875365 -0.115300916
0002d0 5c cb e9 be e0 a7 41 bf ba ab 27 be 53 b7 5e be
       -0.45662963 -0.7564678 -0.16374102 -0.2174962
0002e0 d0 63 37 bf 35 02 76 be e2 93 7b 3e 04 4f fa be
       -0.71636677 -0.2402428 0.24568132 -0.4888841
0002f0 88 d1 60 be 68 80 83 3d f8 1e 59 bf d6 34 4c bf
       -0.2195493 0.06420976 -0.8481288 -0.7976812
000300 c2 50 0e bd 2e c5 20 bf ab 6d 2b bf 24 97 44 be
       -0.034744985 -0.6280087 -0.66964215 -0.1919828
000310 22 91 de be 5f 91 b8 be 0e ce 8b be 04 69 3e bf
       -0.43470103 -0.3604841 -0.27305645 -0.7437899
000320 a3 8f 58 be a1 1a d0 bd 7f ea 4c bf 3f 8b 88 bd
       -0.21148543 -0.10161329 -0.8004531 -0.06667184
000330 b4 dd b3 bd 49 6d a0 be 1f c2 1f bd b9 e2 6e be
       -0.08782521 -0.31333378 -0.039003488 -0.23328675
000340 ec 81 6e be ae df d3 3d 87 2b f2 3c d7 2e a4 be
       -0.23291749 0.10345398 0.029561771 -0.32066986
000350 cf 03 98 3d d8 ee 31 3e e2 e2 37 bd f4 76 33 3d
       0.074226014 0.17376268 -0.044894107 0.043814614
000360 fc 1d 22 bd 75 96 2d bf ef 77 52 bf 5f a7 34 3d
       -0.039579377 -0.67807704 -0.82214254 0.04410493
000370 ac f3 c6 be f8 f0 1a bf 4e cb 52 3e e6 3d a0 be
       -0.38857782 -0.6052394 0.20585367 -0.31297225
000380 c2 87 9a be 67 48 1f be e1 9c 37 bf 8a 16 08 bf
       -0.301817 -0.15554963 -0.71723753 -0.5315939
000390 47 6e 60 bd 2c ac 49 bf 7a fa 4c be 18 60 17 bd
       -0.05479267 -0.7877834 -0.20017424 -0.036956877
0003a0 a3 f2 ef be 22 4a 3e be 15 84 99 3e b4 9e 40 be
       -0.46864805 -0.18582967 0.29983583 -0.1881054
0003b0 ec 20 9d 3d c5 3c c0 3e 39 1c 34 bd 02 be 3c 3e
       0.07672295 0.37546363 -0.043972228 0.18431857
0003c0 90 13 2b 3f 20 c7 df 3e 1f c7 98 3e 21 09 dc bd
       0.66826725 0.43706608 0.29839417 -0.10743929
0003d0 b6 2c 5d be 0e 9c de be 63 8a de bd 18 09 28 be
       -0.21599087 -0.43478435 -0.10866239 -0.16409719
0003e0 f1 fd 99 be 64 2c 46 be 16 41 05 bd 8c a6 4d be
       -0.30076554 -0.19352871 -0.032532774 -0.20083064
0003f0 29 ef 5e be 51 55 ac bd e2 30 94 be 39 13 4f be
       -0.2177092 -0.0841471 -0.28943545 -0.20222177

Variable_1/read f4 [4]
000000 60 2e 18 3e 27 eb 08 bd 0b d6 b3 3d 8d 2f 3e 3f
       0.1486144 -0.033427384 0.0878106 0.74291307

Variable_10/read f4 [16]
000000 bf e1 51 be 4c f2 17 be b4 a0 af 3d a1 d7 83 3f
       -0.20496272 -0.14838523 0.085755736 1.030018
000010 fa 94 d1 be 70 51 60 3e 56 74 57 3e 5d d6 6a be
       -0.40933973 0.21906066 0.21040472 -0.22933336
000020 e4 f5 22 3f 60 35 17 bf 11 18 15 3f 0b 26 8b 3e
       0.6365645 -0.5906582 0.5823985 0.27177462
000030 c4 de 26 3e 27 25 9d 3e 81 11 ba be ec eb 82 be
       0.16295916 0.30692407 -0.3634148 -0.2557062

Variable_11/read f4 [16]
000000 f7 8e 84 3f 7f 1f f5 3f e2 a3 69 3f 8c 89 8b 3f
       1.035613 1.9150237 0.9126569 1.0901351
000010 d6 01 67 3f ea 11 a3 3f 77 41 85 3f 56 fa 6d 3f
       0.90237176 1.2739842 1.0410603 0.9296011
000020 52 20 5a 3f 28 eb 89 3f d4 b0 75 3f 45 d4 4c 3f
       0.85205567 1.0774889 0.95972943 0.800114
000030 92 7f 7e 3f ba 1c 65 3f 0d e5 84 3f 7d 17 95 3f
       0.99413407 0.8949696 1.0382401 1.1647793

Variable_12/read f4 [16, 3, 3, 16]
000000 a1 41 cd be c0 b2 2b be 59 31 e3 be 4e 12 d6 bd
       -0.40089133 -0.16767406 -0.44373587 -0.1045271
000010 8c 19 bb be 15 86 37 3e 13 b2 28 bd 3d 4b 01 bf
       -0.36542928 0.17922242 -0.04118545 -0.5050543
000020 b3 70 bc bc 15 46 28 be 7e ba 41 3e c5 2f 25 bf
       -0.023002958 -0.16432984 0.18918797 -0.64526016
000030 20 d2 81 3f 09 47 68 bd 90 85 2f be 62 75 cc 3e
       1.014225 -0.05670837 -0.17140794 0.39933306
000040 1d b0 eb be cb 6e 68 3e 4b b1 07 bf e6 fe cc 3e
       -0.460328 0.22698514 -0.530049 0.40038222
000050 5c 41 89 bf 62 0e d3 3e 8e 56 fc 3d b6 e8 39 bf
       -1.0723071 0.4122191 0.123211965 -0.72620714
000060 5e 2d 77 3e fa 76 23 bf 57 ca bc be 56 5a 5f bf
       0.241384 -0.6385342 -0.36873123 -0.87247217
000070 e9 66 e6 3e 05 2e b0 bd 87 e7 41 be dd fc c3 3e
       0.4500039 -0.086025275 -0.18935977 0.38278857
000080 20 15 03 be cd 5b 33 3e aa 76 b0 be be 1d 99 3e
       -0.12801027 0.17515488 -0.34465533 0.29905504
000090 02 ac 96 bf 0b be b1 3e a4 1e b1 3e 5d a4 1c bf
       -1.1771243 0.34715304 0.3459369 -0.611883
0000a0 5c a2 c4 3e f5 3e e9 be 34 99 80 be e9 4c 6a bf
       0.3840512 -0.45555845 -0.25116885 -0.91523606
0000b0 5e f6 fb be 51 22 c8 be 6f 22 a3 be 40 7b 38 be
       -0.492114 -0.3908868 -0.31862208 -0.18015766
0000c0 86 c5 49 3d 8b a7 8d 3d 90 b7 e3 bc a4 0f 25 bf
       0.04926064 0.06916722 -0.02779749 -0.6447699
0000d0 ea 51 4c be 6c 4e b3 3c d1 e1 56 be 43 56 60 be
       -0.19953123 0.02188798 -0.2098458 -0.21907906
0000e0 08 74 03 3e be 23 f8 3e bc ba 02 bd 63 47 dd bb
       0.12837231 0.4846477 -0.031916365 -0.0067528947
0000f0 97 8c 17 3f be 50 2e be 34 55 aa 3d f8 31 5f 3e
       0.591989 -0.17022988 0.083170325 0.21796405
000100 31 9c b8 3d 93 59 cf bd e0 38 08 be 67 07 f5 3d
       0.09014166 -0.10124507 -0.13302946 0.119643025
000110 c6 48 00 bf 47 fa 05 3d 0b 12 e0 bd b4 91 99 be
       -0.50111043 0.032709386 -0.109409414 -0.29993975
000120 00 14 90 3d 2d 11 20 3f e2 66 36 be b6 4a f7 bc
       0.07035065 0.6252621 -0.17812684 -0.030186992
000130 31 72 13 3f 64 64 ba bd 2b 4b c2 3e 74 be e3 3e
       0.5759612 -0.09101179 0.37947974 0.44481242
000140 94 e1 61 bd 55 b7 71 3e 23 a6 71 be 06 5e a7 3e
       -0.05514677 0.23605092 -0.23598532 0.32688922
000150 e5 48 9f 3c 5f 42 91 be 37 b7 02 3c e0 f3 36 3d
       0.019443939 -0.2837095 0.007978252 0.04466617
000160 36 1b cf 3e 08 0f 87 3e 9b 76 91 be a8 f9 29 be
       0.40450448 0.26378655 -0.284108 -0.16599143
000170 a6 87 ab be 64 57 04 be a6 d7 fb be 73 06 67 3e
       -0.3350193 -0.12923962 -0.49187964 0.22561054
000180 bc ef 0d 3e dc f2 76 3d 70 3d 01 3d b9 7e 1b bf
       0.13860983 0.060290202 0.031552732 -0.6074024
000190 04 d1 94 3d c4 a9 1c 3b 8d 4e 47 bd 1f fc aa bd
       0.07266429 0.00239049 -0.048658896 -0.083488695
0001a0 41 9b 86 bd 6e 77 cf 3e df a5 6d bd f0 5a d0 3c
       -0.06572581 0.40520805 -0.058019515 0.025433987
0001b0 29 48 2c 3e da 55 d7 be 34 b7 f3 3e 28 97 83 3e
       0.16824402 -0.42057687 0.4760071 0.2570126
0001c0 70 fc 25 be a3 ac 02 bd f4 4c 28 3e 9e 4f 75 bd
       -0.16209579 -0.03190292 0.16435605 -0.059890382
0001d0 75 81 4f 3e 61 32 6f be 64 9f a7 be 60 8b 3e 3f
       0.20264228 -0.23359062 -0.32738793 0.7443142
0001e0 42 7e b5 3e 29 8a 76 3f 52 c7 d6 be 4c 38 b2 3e
       0.3544789 0.96304566 -0.41948944 0.34808576
0001f0 f3 4b 6a 3e ab d0 93 be 9f bd 23 3f c9 c6 91 3e
       0.22880535 -0.2887014 0.63961214 0.28471974
000200 85 c8 ce 3d 5a 03 b6 be 5e 49 6d 3e 03 63 f3 3e
       0.1009684 -0.35549432 0.23172519 0.47536477
000210 49 ca ec 3e 46 a6 67 bf 32 cc f9 bd bb 0f 50 3f
       0.4624808 -0.9048809 -0.1219715 0.81274
000220 ea 9e e0 3e 6f 9e 53 3f 31 9a 16 bf 8d 1e b7 3e
       0.43871242 0.82663625 -0.5882903 0.35765496
000230 56 45 a5 3d 4c ee 76 be 45 81 4c 3f e1 32 86 3d
       0.080698654 -0.2411434 0.7988475 0.06552673
000240 06 90 04 be e6 94 db be d4 58 13 3e 57 e6 02 3f
       -0.12945566 -0.42887038 0.14389354 0.5113272
000250 15 4a 44 3d 2a 2f 7e 3d dd 7b bf be a6 bb f3 3e
       0.047922213 0.062056698 -0.37399188 0.47604102
000260 56 ee 3b 3e 4d 55 01 bf 0b 0b 68 bd 21 4f f6 3e
       0.18352637 -0.50520784 -0.056651156 0.48107246
000270 f5 65 b2 3e 89 88 24 3f 36 e7 72 3d 33 f9 4f 3d
       0.34843412 0.64270836 0.05930253 0.050774764
000280 92 8e c7 3e 27 52 06 be 70 34 d1 3e 32 0c 1d 3e
       0.3897596 -0.13117276 0.4086032 0.15336683
000290 d6 db 2e 3e 73 8d c5 3b a4 52 d9 be fd 81 b9 3e
       0.17076048 0.006028825 -0.42445862 0.36231986
0002a0 0d cb 31 be b6 4c 15 3e 86 70 49 bf 84 c0 48 3e
       -0.17362614 0.14580044 -0.7868732 0.19604689
0002b0 38 ed 1f bd df 6b 49 bf db d3 53 3e d0 70 18 3f
       -0.03904459 -0.78680223 0.20686285 0.5954714
0002c0 de 34 7d bd c8 5d 51 3e a3 ae 0e be 0d 8c b4 3e
       -0.061817996 0.20445931 -0.13933806 0.352631
0002d0 c6 be 03 3d ea 9a 0d 3f 3c c0 f1 bd e1 5d 80 be
       0.032164358 0.55314505 -0.11804244 -0.25071624
0002e0 79 62 b8 3e fb 94 ae 3d 0f 3b 3d 3f 90 0b 8d 3d
       0.3601263 0.085245095 0.7391824 0.06886971
0002f0 b8 64 e9 be cb 94 4b bf 70 db 02 3f 26 0a 6c 3e
       -0.45584655 -0.79523915 0.51116085 0.23050746
000300 0a 18 2e bd 8b a5 13 bf 65 0c bc 3e 3e 7d 89 bd
       -0.042503394 -0.57674474 0.36728206 -0.06713341
000310 d9 28 2b be da f1 85 be cb fb 80 bd 85 90 2d 3f
       -0.16714801 -0.2616108 -0.06298026 0.67798644
000320 58 b0 b8 be db fa 63 be cb c7 5a bf bf 53 86 3d
       -0.3607204 -0.22263663 -0.8546111 0.06558942
000330 01 b6 a3 3a 8a 51 02 3c a2 ed d3 3e 05 26 84 be
       0.0012490154 0.007954011 0.41392237 -0.25810257
000340 e4 c2 ff 3e 6e 10 1b bf 65 d1 b6 be de e4 0d be
       0.49953377 -0.60571945 -0.3570663 -0.13856837
000350 2e 52 c3 bd 50 c5 75 3e b6 62 4e 3e 20 8f 0b 3e
       -0.09537159 0.2400105 0.20154843 0.13628817
000360 66 70 9e bd 65 2a 51 be 01 bf 23 3f f4 89 6e bc
       -0.07736282 -0.20426328 0.63963324 -0.014559258
000370 fd ae 14 be a0 1f fa be a9 06 84 be 05 04 2d bd
       -0.14519878 -0.48852253 -0.2578633 -0.04224016
000380 c6 6a be 3e 75 f0 d5 3e 54 37 81 bd 6c 0d 28 3f
       0.37190837 0.41785017 -0.06309381 0.6564548
000390 69 33 02 3f e8 6c 44 3e 3d f3 9b be 16 42 a4 3d
       0.50859696 0.1918217 -0.30459014 0.080204174
0003a0 a3 9c 16 bf 17 4d 18 be a7 59 c2 3d 50 31 0a 3c
       -0.5883276 -0.14873157 0.09489756 0.008434609
0003b0 b1 fe 6f bd 27 50 c5 be f5 17 07 bf 73 d8 de 3e
       -0.058592502 -0.38537714 -0.5277093 0.43524513
0003c0 2b f3 b5 3e 04 c0 aa 3e 64 00 4c bd 87 92 0d bf
       0.35537085 0.3334962 -0.04980506 -0.5530171
0003d0 cf 4b cf be ce 8f 2c 3f 9d e1 91 3e c6 fa 4c 3e
       -0.40487525 0.6740693 0.28492442 0.20017537
0003e0 c4 a8 b6 be f4 8e 55 3d ff 7d c0 3e c7 06 89 be
       -0.35675633 0.052138284 0.37596127 -0.26762983
0003f0 ed a3 4b 3c c6 ab 90 be 3c d0 84 3e ea f6 6e be
       0.01242922 -0.28256053 0.2594012 -0.23336378

Variable_13/read f4 [16]
000000 c3 b9 45 3e b8 22 b4 bd 56 eb b8 bd 1c 9b d0 3d
       0.19309144 -0.087956846 -0.09029262 0.10185835
000010 0e c8 e5 bd 5e 0b 26 3e 64 11 61 bd e9 23 84 be
       -0.11219798 0.16215274 -0.054948226 -0.25808647
000020 42 70 8f bd b1 5e 1d 3a bf 61 c1 3e c7 a8 a1 bb
       -0.07003833 0.0006003185 0.37769887 -0.00493345
000030 15 a1 08 be bb d9 22 3e 6b 7f 2f 3e 02 2d 44 3d
       -0.13342698 0.1590337 0.1713845 0.047894485

Variable_14/read f4 [16]
000000 76 c9 1b 3f f9 55 23 3f 33 69 8b 3e 6d 03 ff 3e
       0.6085428 0.6380306 0.27228698 0.498073
000010 53 0d f7 3e 80 bf d0 3e 8d f8 b3 3e 54 d4 e9 3e
       0.48252353 0.40771103 0.35150567 0.45669806
000020 20 31 2c 3f 9f 92 cb 3e f0 d3 b2 3e 90 78 a8 3e
       0.6726246 0.397603 0.3492732 0.32904482
000030 4f a4 0e 3f 08 37 0f 3f a0 3f 16 3f d7 89 81 3f
       0.55719465 0.55943346 0.58690834 1.012019

Variable_15/read f4 [16, 3, 3, 16]
000000 e0 e0 10 bf 50 df 43 be fa ca 64 be be 04 31 bd
       -0.5659313 -0.19128156 -0.22343054 -0.043217413
000010 dc aa 63 3e e2 0a 85 3e 7c 0b a6 3e 3f 33 a3 3e
       0.22233146 0.25984865 0.32430637 0.31875035
000020 4e c4 af bc c9 85 31 3f 72 e1 61 be 72 dd 4e 3d
       -0.02145591 0.69344765 -0.22058657 0.050504155
000030 f0 6e 7f bd 3c 3f f3 be ad 9b dd 3b ab 3b 4e 3e
       -0.062361658 -0.47509181 0.0067629428 0.20139949
000040 ee 07 3c be f8 4b 01 3d c2 da 00 be ad da 10 bd
       -0.183624 0.03156659 -0.1258345 -0.035364795
000050 09 2a 8e 3e 48 07 f4 3e 67 7a 03 3f 51 52 ae 3e
       0.27766445 0.47661805 0.51358646 0.34047177
000060 17 58 33 bd 04 7a 57 bd c9 77 d4 be 1d 85 f1 bd
       -0.04378518 -0.052606598 -0.4149764 -0.117929675
000070 d9 0a 08 3f 0e 91 b7 be 8c b2 16 3e dc b8 c1 3e
       0.5314155 -0.35852855 0.14716548 0.3783635
000080 4d ff a8 3d 12 c3 82 3e c1 02 96 bd d7 64 eb 3e
       0.0825182 0.25539452 -0.07324744 0.45975372
000090 40 e7 9c bd eb d1 df 3e 44 6a 97 3e ca 7f 8d bd
       -0.07661295 0.43714842 0.29573262 -0.069091395
0000a0 b0 26 2c be 24 98 f0 3e d0 a0 21 3d 7e 6c c6 bd
       -0.16811633 0.46991074 0.039460003 -0.09688662
0000b0 65 b6 07 3e 55 cb 5b be ea 68 50 be 1d a4 fd 3e
       0.13253172 -0.21464284 -0.20352522 0.4953927
0000c0 69 1b 1f be 20 06 4d be 03 bb 44 3d 44 d5 75 3e
       -0.155378 -0.20021868 0.04802991 0.24007136
0000d0 e2 ac 1e 3e 2b a1 a8 3c 55 f5 18 be 11 6e 71 3e
       0.15495637 0.020584663 -0.14937337 0.23577143
0000e0 41 01 64 3e 8a bf 8c 3e 3b e9 a3 3e 35 7e 65 3f
       0.22266103 0.27489883 0.32013878 0.896457
0000f0 6c 2b 96 be 3b 1e 7d bf c6 e3 b1 3d b1 d5 17 bf
       -0.29330003 -0.98874253 0.086860225 -0.5931044
000100 45 11 5e be 28 f1 0e 3d ac e9 00 be 87 e0 06 3e
       -0.21686275 0.034897953 -0.12589139 0.13171588
000110 89 99 a6 3d ad 0b a4 be 43 2c 0d be 64 b4 aa 3d
       0.08134753 -0.32040158 -0.13786416 0.08335188
000120 90 ca 76 3e 9d 6d 13 bf 9a 8b 15 be 40 29 07 3f
       0.24100709 -0.5758913 -0.14604035 0.5279732
000130 f7 56 cd be ce 22 03 bf bf 7a 85 3e df 18 01 bf
       -0.4010541 -0.5122498 0.2607021 -0.50428575
000140 8b 9d 9b bc f9 94 2d bf 1c cd ef 3d 24 01 71 be
       -0.01899602 -0.6780544 0.117090434 -0.23535591
000150 0f 2c fe bc 73 07 9a be 61 ec 2d bf 7d c9 92 be
       -0.031026868 -0.30083808 -0.6793881 -0.28669348
000160 67 d5 f0 bd 69 d7 5e bd c9 a5 cf be eb e5 fb 3e
       -0.11759453 -0.05440465 -0.40556172 0.4919885
000170 37 3f 16 bf 08 5d 61 be 76 a5 5a 3d be 3a 83 bf
       -0.5869021 -0.22008145 0.053380452 -1.0252302
000180 2e f3 6f 3f 74 e1 83 be 2b 0e ae 3e 16 82 6a 3d
       0.9373044 -0.25757945 0.33995184 0.057252966
000190 9b 02 9a be 3e 24 e5 be bb 8c 55 bf 1f c0 f6 3e
       -0.30080113 -0.44754213 -0.8341786 0.48193452
0001a0 0a 3f 06 bf 8b 00 86 3f 1d a0 98 3e a3 d1 f8 3e
       -0.5243994 1.0468916 0.29809657 0.4859744
0001b0 fb 97 16 3d e5 50 ee bd 75 4f ae 3e 5b 8e 32 bf
       0.036766034 -0.11636523 0.34044996 -0.6974847
0001c0 18 83 1a 3f cd a7 9c be de 16 82 3e 5d 7e 4c 3e
       0.60356283 -0.30596772 0.2540807 0.19970079
0001d0 66 cc d4 be d7 63 29 be ab e2 86 bf 09 68 80 3e
       -0.41562194 -0.16541992 -1.0537924 0.25079373
0001e0 01 27 f3 bd 78 b5 b9 3d 5d 7c 8d be b1 2d db bc
       -0.11872674 0.090678155 -0.27633944 -0.026755186
0001f0 74 78 d6 be 12 01 f4 3e 1c 4b 67 3e e2 9f 87 be
       -0.41888773 0.47657067 0.22587246 -0.26489168
000200 2c 68 b5 3d 03 ae 02 bf 71 ca 88 3d 88 ce 6c 3e
       0.0885776 -0.5104677 0.06679238 0.2312566
000210 df c2 7a be bc 8e 82 be f7 b6 87 bf d4 07 27 bd
       -0.244884 -0.25499523 -1.0602711 -0.04077895
000220 ea ca ca 3e 37 73 32 bf d6 32 0c bf 6b c0 dd bd
       0.39607936 -0.69707054 -0.5476507 -0.108277164
000230 b2 fe 45 bd 2d 16 fc 3e 21 cd 12 3f 2c 00 8b be
       -0.0483386 0.4923567 0.5734425 -0.2714857
000240 0d fd 70 3e ed 13 e2 3e 71 09 cb 3e a4 38 22 3e
       0.23534031 0.44155827 0.3965564 0.15841919
000250 ac c5 83 be 0f fb 97 3e f9 96 97 3e b6 f6 a7 be
       -0.2573675 0.2968373 0.2960737 -0.32805413
000260 c1 3d ad be 33 1c 57 be 80 c1 2b 3e 55 cc 44 be
       -0.33836177 -0.21006851 0.16773033 -0.19218571
000270 fc 4e ea 3d fb d3 06 3e 7b ff ac 3d b8 1e 2a 3f
       0.11440846 0.13166802 0.084471665 0.66453123
000280 f1 51 1d be 32 8d b2 be cc 38 ae 3e 42 f7 38 3e
       -0.1536329 -0.34873348 0.34027708 0.18063071
000290 9d 51 18 bf 94 c7 f9 3e ca d2 a8 bd 11 5d df 3d
       -0.5949953 0.4878508 -0.0824333 0.10906423
0002a0 f5 80 d2 be 3a 43 a7 3e ee 5f 4a bd 7d 9f 9a bd
       -0.4111401 0.32668477 -0.049407892 -0.07549951
0002b0 5d 5f 61 bf dd 51 af be ac 3e b0 be ce 11 0e 3f
       -0.8803614 -0.34242144 -0.34422815 0.5549592
0002c0 53 9b e9 be eb c6 5e bf 5d 39 7c 3e ed 1f 1f 3e
       -0.45626315 -0.87022275 0.24631257 0.15539522
0002d0 91 96 43 bf a6 a1 d5 3e 87 02 39 be b2 2e fa bd
       -0.7640162 0.4172489 -0.1806737 -0.12215938
0002e0 da 6e 0a 3e eb 73 25 be 3e aa f9 bd 33 e1 d7 bb
       0.13518849 -0.161575 -0.12190674 -0.006588125
0002f0 ec 8d b4 be 80 cc 00 bf 55 62 3d bc bd 5a 3b bf
       -0.35264528 -0.5031204 -0.011559089 -0.7318533
000300 47 97 94 be 2d dc 32 bf 0a 42 93 3e 7f 6d 2b 3a
       -0.29021665 -0.6986721 0.2876132 0.00065394485
000310 3f 74 d7 be 63 5b dc 3e 03 5b 4e 3d f2 dd 6e 3e
       -0.42080876 0.43038473 0.050379764 0.23326853
000320 96 32 78 3c d3 1e 99 be 63 fa c0 be d0 bb 17 3e
       0.015148779 -0.2990633 -0.3769103 0.14817739
000330 58 ad f1 be 10 d1 df bc a2 d9 f4 bd a3 e5 f4 3d
       -0.47202563 -0.027321368 -0.11955573 0.11957862
000340 86 2d 34 be a6 a2 d1 be 82 4e 85 be 0f 96 c5 bd
       -0.17595491 -0.40944403 -0.2603646 -0.09647762
000350 4c c8 7b 3e 6b 0a c0 3c ca 01 c3 be 51 e0 70 be
       0.24588126 0.023442468 -0.38087302 -0.2352307
000360 06 16 de 3e fe 9f a6 be cb 89 11 bf 49 43 e4 3e
       0.43376178 -0.3254394 -0.5685088 0.44582585
000370 ed 5b 7b be 7d 01 8c be 9e dd a4 bd d8 aa 19 bf
       -0.24546786 -0.27344885 -0.080500826 -0.6002631
000380 03 4b 5d 3e 62 57 be 3e 26 d2 f3 3c 3e 30 ae bd
       0.21610646 0.37176043 0.029763293 -0.08505295
000390 d1 dd a9 3e 35 94 f4 be dd 4f 57 bf 4b b0 a9 be
       0.33177045 -0.47769323 -0.84106237 -0.33142313
0003a0 0a e9 d7 bd 3b e9 74 be 47 15 1a 3e 78 4e 9e 3e
       -0.105424955 -0.23917095 0.15047179 0.30919242
0003b0 74 58 90 3e 8c be 81 3e 63 05 c1 bc 16 96 b0 be
       0.28192484 0.25340688 -0.023562139 -0.34489506
0003c0 dd 87 a0 be b6 f8 09 bd 27 64 32 3b 30 aa 9b be
       -0.31353655 -0.033684455 0.002722034 -0.3040328
0003d0 80 e7 9b 3e 06 76 21 bd cf 36 f5 be e7 f0 b9 3d
       0.30450058 -0.039419197 -0.47893378 0.090791516
0003e0 6b f3 f9 3d 53 1c 97 3d 37 9d ae be f6 b1 56 3e
       0.122046314 0.07378449 -0.3410432 0.20966324
0003f0 45 f4 f4 3e 07 1f c8 bd c4 2b 2e 3e 91 c7 8f bf
       0.47842613 -0.09771543 0.17008883 -1.1232778

Variable_16/read f4 [16]
000000 45 da 86 3e 0f a1 b3 3d 0a f2 36 bf 41 e0 43 be
       0.263384 0.08770954 -0.7146307 -0.19128515
000010 81 35 c3 bf a7 09 5f 3e 41 96 f4 bd 22 3f a7 3e
       -1.5250703 0.21781026 -0.11942721 0.32665354
000020 cb c5 95 bd eb 21 fb be b5 bc 80 3f a9 06 cf 3e
       -0.07313117 -0.49049315 1.0057589 0.4043477
000030 91 7f 2e 3f d2 6e a3 be 1b 7d 3a 3f 72 92 a4 bf
       0.681634 -0.31920487 0.72847146 -1.2857192

Variable_17/read f4 [16]
000000 26 16 2d 3f ec b0 a5 3f 3a a7 62 3f 44 1a 4e 3f
       0.6761192 1.2944617 0.8853642 0.8050883
000010 aa 70 a2 3f e0 2a 85 3f 73 a0 b7 3f 71 ec 45 3f
       1.2690632 1.040371 1.434584 0.77313906
000020 13 27 63 3f d1 57 84 3f b9 7b 30 3f 7f 32 39 3f
       0.887315 1.03393 0.68938786 0.72342676
000030 22 10 34 3f fc a3 5a 3f 14 47 21 3f 87 34 76 3f
       0.70337117 0.8540647 0.6299908 0.961739

Variable_18/read f4 [16, 3, 3, 16]
000000 29 fc 3b 3e 0e d8 d6 3e 85 0a 66 bd 55 58 f4 bd
       0.1835791 0.41961712 -0.056162376 -0.119309105
000010 af fe fd 3e 50 f7 96 3d 83 f1 37 be 13 d3 07 bf
       0.4960837 0.0737139 -0.17963223 -0.5305645
000020 90 7f 5a 3e 76 fe 48 bd 58 ca 0b bf 8e f0 27 bf
       0.21337724 -0.049070798 -0.5460563 -0.6560143
000030 8a 78 8c 3f c9 41 19 be 95 da f9 be 5c ac 50 3d
       1.0974286 -0.14966501 -0.48799577 0.050945625
000040 12 ae 92 be 18 bc b7 3e 68 e4 de 3c dd 0a ab 3d
       -0.2864843 0.35885692 0.027208522 0.083516814
000050 7f 80 c8 bb 8d 24 65 be ac 53 ad be fc 9a 1c bd
       -0.0061188336 -0.22377224 -0.338529 -0.038233742
000060 cd ca d8 3c 61 1b cc bc 53 d7 8a be 29 c9 8e be
       0.02646389 -0.024915399 -0.27117404 -0.27887848
000070 82 e0 9e 3d 77 00 c5 3d a7 98 ac be 15 9d f5 3e
       0.07757665 0.09619229 -0.33710214 0.47971407
000080 88 35 1d bf fc 8d 4c bc ce 28 02 3c ab 84 6a 3f
       -0.6140981 -0.012485024 0.007944299 0.91608685
000090 fb c7 de bd a3 15 2b be 68 44 c5 bc 84 9e 0a bd
       -0.10877987 -0.16707473 -0.02408047 -0.03384258
0000a0 69 f0 2b be ad ea d4 3d 63 99 8b 3e fc 9c 0b 3f
       -0.16790928 0.10396323 0.27265462 0.54536414
0000b0 1d ea 0c bf de 88 e0 3e b1 66 55 3e 82 6d 4b 3f
       -0.5504473 0.4385442 0.20839955 0.7946397
0000c0 d9 ed c8 3e 29 df cf 3e 96 79 9b be cf 6a eb be
       0.39243963 0.40599945 -0.303662 -0.45979926
0000d0 a3 8b c3 be 86 78 8e be e6 5e b1 be b0 6c aa be
       -0.38192472 -0.27826327 -0.34642714 -0.33286047
0000e0 5a c7 ff 3e 51 cd b8 3d 49 5b 06 bf 78 9a 95 be
       0.4995678 0.09023536 -0.5248304 -0.29219413
0000f0 cc 56 95 3f 08 22 d0 be 2d 4e 33 be 4a 51 0f 3e
       1.1667113 -0.40650964 -0.1751029 0.13995853
000100 fe b3 f4 bd e4 93 7c bd c0 2a 8d bd f8 fa 89 be
       -0.11948393 -0.061664477 -0.068929195 -0.26949286
000110 11 d8 b1 be ec 46 43 bd d2 9c a1 be e0 d1 c8 be
       -0.34735158 -0.04767506 -0.31564957 -0.39222622
000120 db b3 22 3e 5c 5b 4b be 07 6e e6 bd a1 e2 8b be
       0.15888922 -0.1985907 -0.11251455 -0.27321342
000130 7a 7c da 3c a3 79 a0 be b2 3d 3c 3e 6e b1 10 3f
       0.026670683 -0.313428 0.1838291 0.56520736
000140 a4 a8 5a be 41 0f d7 3e 60 c1 08 be e0 8b 8c 3e
       -0.21353394 0.42003825 -0.13355017 0.27450466
000150 16 e7 dd 3c fc 02 7e 3f 2a 60 0a 3f b8 49 ce be
       0.02708773 0.99223304 0.54052985 -0.40290618
000160 88 c7 68 bc f4 c5 b6 3e d2 ad 6a 3f f0 6e a6 bb
       -0.014207728 0.356979 0.9167148 -0.0050791427
000170 43 fc be be 39 24 25 3e 42 97 4c 3f 8e b2 73 3f
       -0.37301835 0.16127099 0.799183 0.9519433
000180 d6 9a c0 3e c1 1d b1 3e f9 9e 8a be 2d 21 50 be
       0.3761813 0.34593013 -0.27074412 -0.20325156
000190 76 8c 81 be 2a 0a 17 3e df 60 ff 3d fe be c6 be
       -0.25302476 0.14749971 0.124696486 -0.3881759
0001a0 d4 05 bb 3e 12 d7 15 be 6e a2 c8 bc 72 95 8e 3d
       0.36527884 -0.14632824 -0.024491515 0.06962098
0001b0 16 0d 41 3f c8 f4 c0 be d3 b2 4d 3d da 35 2e 3e
       0.7541059 -0.37686753 0.05021937 0.1701273
0001c0 c7 28 ba 3d ec f6 83 be 90 f3 53 be 6f 99 a0 be
       0.09089809 -0.25774324 -0.2069838 -0.3136706
0001d0 98 9b eb be 01 32 a9 be d8 4b cb 3d ea 6e cd be
       -0.46017146 -0.33045962 0.099265754 -0.40123683
0001e0 95 21 77 3e 7d 33 1b 3e fd c8 91 be 0d 49 4c be
       0.24133904 0.1515636 -0.28473654 -0.19949742
0001f0 1c 20 36 be 78 44 54 be c2 fe 07 3e d1 ea df 3d
       -0.17785686 -0.20729244 0.13280776 0.109334596
000200 7d b3 8f be ad 6c 3a be 3c 61 bc be d6 35 d6 ba
       -0.28066626 -0.18205519 -0.36792934 -0.0016342949
000210 62 6d c7 3d 20 49 af be fa 4c 31 3f 18 2c 8e be
       0.0973766 -0.34235477 0.6925808 -0.27768016
000220 c2 ac d2 bb 77 a0 a8 be 6c f5 8c 3d e7 17 69 3f
       -0.0064292857 -0.32934925 0.06882748 0.910521
000230 0c 25 ff be 03 b9 fe 3d 59 a0 90 3e 17 81 33 3f
       -0.49832952 0.12437632 0.28247336 0.7011885
000240 36 1e b4 3e 66 80 14 3e e7 72 10 bf 1c 51 15 3d
       0.351793 0.14502105 -0.5642533 0.036454305
000250 c3 b7 7c be eb 5f 14 3d d1 f0 af 3c 10 e3 9a 3e
       -0.24679475 0.036224287 0.021477135 0.3025136
000260 69 3c 8e be d9 c1 42 3e ad 27 14 3f 60 8b e1 3e
       -0.27780464 0.1901926 0.5787304 0.44051647
000270 dd 49 b3 bd fc 5d d9 3e b2 f5 93 3e 28 4b 20 3f
       -0.08754323 0.42454517 0.28898388 0.6261468
000280 3a d5 53 3e 32 d5 ec be 36 b3 98 be 0b d7 9c 3e
       0.20686808 -0.46256405 -0.29824227 0.30632815
000290 fd 95 97 be e6 89 d1 bd 66 6e 8b 3d 1b 8e 3a 3f
       -0.2960662 -0.1023138 0.06808166 0.72873086
0002a0 eb 7b 09 bf 2a 59 65 3e be 2e 19 3e bb d3 60 3e
       -0.5370471 0.22397295 0.14959237 0.21955769
0002b0 44 70 e6 be cf 6a 11 be 68 df d6 3e b9 bc 91 3d
       -0.45007527 -0.142009 0.4196732 0.07116074
0002c0 02 b5 bf 3e 2d 1d 00 3e c5 5b db be 37 02 2c 3f
       0.37442786 0.1251113 -0.42843452 0.6719088
0002d0 ea e7 bd bd 0a 57 bf 3d de a2 eb bd 2e d3 54 3e
       -0.0927275 0.09342773 -0.11505674 0.20783684
0002e0 08 5f 63 3f 00 4e e5 3e 0d b8 30 bf 5c 94 6a bf
       0.8881688 0.44786072 -0.6903084 -0.9163263
0002f0 04 6a 24 bf 22 2b c4 3d 1a 60 7d 3f 95 56 af be
       -0.64224267 0.095785394 0.98974764 -0.34245744
000300 b3 18 cd 3e e9 03 a8 3d e1 61 87 be 44 c5 25 bb
       0.40057907 0.08203871 -0.26441863 -0.0025294581
000310 d3 75 0a be 4b 82 e0 3e 93 c4 88 bd cc 46 97 3e
       -0.13521509 0.43849406 -0.066781186 0.295462
000320 a2 d6 1c bf 7a 58 eb 3d ec 8b 15 3f 12 98 0d 3f
       -0.61265004 0.11491485 0.5841663 0.55310166
000330 cc e9 f4 3c 7e 81 b9 be bb ec d9 3d ea 4d 95 3e
       0.02989664 -0.36231607 0.10640856 0.29161006
000340 2d fe ef bb b7 1d 80 3d 8b 98 20 be 63 6b 34 be
       -0.0073240013 0.06255668 -0.1568319 -0.1761909
000350 ff 68 59 3e 88 68 61 3e d0 cf 0d bd 58 9e 43 3e
       0.21231459 0.22012532 -0.034622014 0.19103372
000360 9d d5 84 be ea c1 64 be 61 81 37 3e f5 0b ca 3d
       -0.25944224 -0.22339597 0.17920448 0.09865562
000370 56 82 b8 be c8 fd d4 be a6 9f 28 3e 25 91 93 3e
       -0.36036938 -0.4159987 0.16467151 0.28821674
000380 23 b0 d2 bc 0c 00 2c 3f 3c a1 22 bf 04 11 80 bd
       -0.025718754 0.6718757 -0.63527274 -0.062532455
000390 af 0a 17 3e 63 7a a3 3e 0f e8 be be 48 c7 75 bc
       0.14750169 0.3192931 -0.37286422 -0.015001126
0003a0 51 45 71 3f e9 e8 21 3e 45 8d 00 bf a5 d2 84 be
       0.94246393 0.15811504 -0.5021556 -0.2594196
0003b0 c3 7c 8a be 34 23 f3 3d a0 ea b2 3d 91 6d 65 bd
       -0.2704831 0.11871949 0.087361574 -0.056012694
0003c0 a9 87 17 3f f1 33 ca 3d 9d f4 99 3e 68 43 61 3e
       0.59191376 0.09873188 0.30069438 0.2199837
0003d0 c8 a7 1e 3f 76 cb 40 3e f3 6c 22 3e 47 55 e5 3e
       0.61974764 0.18827614 0.15861873 0.44791624
0003e0 90 ef 78 be c5 51 ac 3d c1 8f 29 3f 35 9b 88 3e
       -0.24310136 0.08414034 0.66234976 0.26680914
0003f0 1a d4 16 3e 93 79 1a 3e 66 39 07 3f 74 6c e3 be
       0.14729348 0.1508544 0.5282196 -0.4441868

Variable_19/read f4 [16]
000000 6d b9 45 3e fc 22 b4 bd 04 eb b8 bd bc 9b d0 3d
       0.19309016 -0.08795735 -0.09029201 0.10185954
000010 94 c7 e5 bd 8f 0b 26 3e 94 10 61 bd be 23 84 be
       -0.11219707 0.16215347 -0.05494745 -0.2580852
000020 78 70 8f bd ae a7 1d 3a fe 61 c1 3e 7c bb a1 bb
       -0.070038736 0.0006014061 0.37770075 -0.00493568
000030 12 a1 08 be d3 d9 22 3e 48 7e 2f 3e de 24 44 3d
       -0.13342693 0.15903406 0.17138016 0.04788672

Variable_2/read f4 [4]
000000 9a 10 f2 3e 78 5c 1b 3f 59 8f e4 3e 7a 2d fa 3f
       0.4727829 0.6068797 0.44640616 1.9545128

Variable_20/read f4 [16]
000000 14 73 4a 3f 97 84 39 3f 87 c8 21 3f 85 37 5f 3f
       0.79081845 0.7246794 0.63196605 0.8719409
000010 f5 1d 10 3f 5e ac 1a 3f 99 5f 55 3f a6 35 25 3f
       0.5629571 0.6041926 0.83348995 0.64534986
000020 1f d0 47 3f 3c ac 15 3f 8c 2d 26 3f 69 7b 1c 3f
       0.7805194 0.58465934 0.6491325 0.6112581
000030 fe 1f 0d 3f 88 c9 33 3f 07 dc 49 3f 76 4a 7e 3f
       0.5512694 0.7022939 0.7885136 0.9933237

Variable_21/read f4 [16, 3, 3, 16]
000000 1d e6 06 bf 2a c2 1f 3e d5 ec 2f 3e 5c a4 e7 3e
       -0.52694875 0.15601411 0.17180188 0.45242584
000010 66 0d 62 3d 7a c2 33 3e 4a 6e 9e be 7e 0e 6e bf
       0.05518856 0.17554656 -0.3094352 -0.92990863
000020 24 77 ac be 11 7b d0 3e 2f de 7e 3e 13 8f 96 3d
       -0.33684647 0.40718892 0.24889444 0.07351508
000030 dc 0a c0 3e 7c 4c bb be fe 39 00 3f 09 e3 a7 3e
       0.37508285 -0.3658179 0.5008849 0.32790402
000040 49 b6 87 3e 78 29 f5 be d8 28 67 be 64 29 95 3f
       0.2650626 -0.478832 -0.22574174 1.1653256
000050 a8 e2 e2 3e 02 a3 38 be 06 32 0f 3f 6b 28 1c bf
       0.4431355 -0.18030933 0.55935705 -0.6099917
000060 74 7d 47 be c2 3d dd be e2 bb c6 be 4e 1a 94 3e
       -0.1948145 -0.4321118 -0.38815218 0.2892632
000070 18 55 08 3f 7b 1b c6 be de 18 07 3e 5b 7c e6 bc
       0.5325484 -0.3869284 0.1319308 -0.02813547
000080 94 ee 7f 3d f0 b1 c5 be 26 84 2e 3e 3d c3 12 bd
       0.062483385 -0.38612318 0.17042598 -0.035830725
000090 6a c3 5f bc 1d 23 92 be 0b f3 00 3f 26 89 c4 3e
       -0.01365743 -0.28542414 0.50370854 0.38385886
0000a0 27 4c c6 3d 28 ef 22 3f 1f 63 0f bf 13 d0 e0 3e
       0.09682494 0.63646173 -0.5601062 0.43908748
0000b0 b1 c3 7d bc 40 04 8e bd 4b 8c ae be 2f 99 6b bf
       -0.015488551 -0.069344044 -0.3409141 -0.92030615
0000c0 88 7c 0c be d7 03 d3 bd 93 ff df bc 42 02 97 be
       -0.1371938 -0.10303467 -0.027343547 -0.2949391
0000d0 f1 d1 0e 3d 26 03 e6 3d eb 5a 20 3f 2a de 9a bd
       0.034868184 0.11231069 0.6263873 -0.07561906
0000e0 70 12 a7 3e 40 b7 88 3c 67 39 7b 3c 41 03 c9 bd
       0.32631254 0.016688943 0.01533351 -0.09815074
0000f0 cd 5d 07 be 57 f5 c9 be 76 f6 bd 3e 1a d7 44 3e
       -0.13219376 -0.39444992 0.37102097 0.1922268
000100 c4 d6 90 3e f3 ff 11 bf d8 50 27 3e 28 bb 2b 3f
       0.28288853 -0.5703117 0.16339433 0.6708245
000110 57 80 86 3e 71 92 31 3d 13 18 0e 3e 4d 7b 3a be
       0.2626979 0.043352548 0.13876371 -0.18211098
000120 6a 60 d6 3d e6 f3 4e bf 2d d7 22 3d b2 be 08 bd
       0.10467608 -0.8084091 0.03975599 -0.033384986
000130 90 0e 34 3e 54 13 6a be 20 1f 1e 3f 31 ee d9 3e
       0.1758368 -0.22858936 0.61766243 0.42564538
000140 51 30 99 3d c5 10 6b be 78 dd 03 3f ce 1a 20 bf
       0.07479919 -0.22955616 0.5150981 -0.625409
000150 a5 48 da 3e f1 ac 5a 3d 9f c1 5a be 69 db db 3e
       0.42633548 0.053387586 -0.21362923 0.42940834
000160 4e 6a 83 be 5b 60 59 3d 0d 32 10 3f f9 b3 86 3d
       -0.25667042 0.053070407 0.5632637 0.06577296
000170 2b 94 bb be ff 7d 65 be e0 56 39 bf 19 1a 81 3e
       -0.3663648 -0.22411345 -0.72398186 0.25215223
000180 06 4e 5a bd ba 5b 24 3d 2f 27 0c 3e b3 8d 4d bf
       -0.053297065 0.04012654 0.13686822 -0.8029434
000190 58 8f c2 3e c4 9b 3d be ea 9d 2c bf c0 44 62 be
       0.37999988 -0.18516451 -0.6742846 -0.22096539
0001a0 29 a9 71 3e 33 ed 7f be 4b 69 c4 3e 39 5f e7 bd
       0.23599686 -0.24992828 0.38361582 -0.11297459
0001b0 15 37 1a 3d 85 d9 14 3f 8c 06 ab 3d c8 81 ad be
       0.037650187 0.5814441 0.08350858 -0.33888078
0001c0 c5 b5 93 3d 3a 3c 3c bf c7 26 cd bc a4 37 99 3e
       0.07212404 -0.735294 -0.025042905 0.29925263
0001d0 83 c2 d0 3e c1 5e 59 3e eb 5e 62 be 5a e5 f8 bb
       0.407734 0.21227552 -0.22106521 -0.0075957
0001e0 b7 e2 c4 3e 83 ba 86 bf c1 50 f9 bd 03 d8 9f 3d
       0.3845422 -1.0525669 -0.12173606 0.07804873
0001f0 11 43 6d 3e 6f 52 03 3e f3 61 d2 3d 46 94 89 be
       0.23170115 0.12824415 0.102725886 -0.26870936
000200 92 58 5e 3e 6f 84 6b 3d 6a c5 09 bf cd a8 61 3f
       0.21713474 0.057499345 -0.53816855 0.88148195
000210 5a 89 20 3f 17 6c 0e 3f 15 f0 9c be 71 43 c4 3d
       0.6270958 0.5563368 -0.30651918 0.09583176
000220 ed 17 29 bf 8c 33 14 bf 2d 4f 0c 3f 12 11 e3 bd
       -0.6605213 -0.57891154 0.5480831 -0.1108724
000230 b0 aa 00 3e 96 3e 52 bb 74 0b e8 be 54 0a 90 3d
       0.12565112 -0.003208076 -0.45321238 0.0703322
000240 2c 59 0a 3e 4c 7e 4b 3e c3 f3 07 bf 0a f8 d4 bc
       0.13510579 0.19872397 -0.53106326 -0.02599718
000250 56 c3 7d be 49 74 03 bf bf ff b7 be ae a4 eb bc
       -0.24781546 -0.5134931 -0.35937306 -0.028765049
000260 f8 ac 19 bf 72 6f 9e be 69 aa 29 bf a2 d9 ff 3d
       -0.60029554 -0.309444 -0.6627565 0.12492682
000270 89 e1 6c 3e f1 b0 67 3d 8f 2f d3 3d 78 da b9 3e
       0.2313291 0.05656523 0.103118055 0.3629949
000280 6f dd 0e 3f 54 d1 13 3e 49 e6 3f 3e 47 2d 25 be
       0.5580663 0.14435321 0.1874019 -0.16130553
000290 4b 94 31 3c 45 50 5c 3c 68 34 ad 3e 47 c3 0d 3f
       0.010838578 0.013446872 0.33829045 0.55376095
0002a0 39 de 31 bf 7b d9 b1 be 3d c6 04 be 04 ed 8c be
       -0.6947971 -0.34736237 -0.12966247 -0.2752458
0002b0 ba 5c 38 3f 78 f5 73 bc dd 17 99 3d 5f c5 1e 3f
       0.7201649 -0.014890067 0.07475255 0.62019914
0002c0 e1 f8 3c 3f f5 b5 01 bf e9 b7 0d bf 9a c0 9e 3e
       0.7381726 -0.5066827 -0.5535875 0.31006318
0002d0 ce fe 8f 3e 18 0d 0a 3e 8e 19 09 3f ca 9a e5 bc
       0.28124088 0.13481557 0.5355462 -0.02802791
0002e0 0a b6 d5 be 92 5b 96 3e c5 2e a3 be 03 cc 24 bd
       -0.41740447 0.29366738 -0.3187162 -0.040233623
0002f0 39 c9 ab be 14 30 5d 3d f8 d3 0a 3f 50 59 90 3d
       -0.33551958 0.05400093 0.5422969 0.07048285
000300 b5 44 19 bf f2 f8 94 3e af fa 09 bf 74 32 1c 3e
       -0.59870464 0.2909618 -0.5389814 0.15253621
000310 62 96 e4 be eb 93 98 3d 51 d6 8f be 97 a5 03 be
       -0.44645983 0.07450088 -0.28093198 -0.12856136
000320 a6 fd 64 bf 86 12 67 3e c9 be c8 be 8e c8 8f 3e
       -0.89449537 0.2256566 -0.39208058 0.280827
000330 d3 81 ff bd d6 d7 2c be 4d e2 fb 3d ef 64 82 bd
       -0.12475934 -0.1687921 0.12299023 -0.06366908
000340 76 89 fc 3e c6 ed 1e 3f 57 5d d2 be 48 c6 d6 3d
       0.49323624 0.62081563 -0.41086838 0.10487038
000350 7a d0 a1 be 44 8d 3a 3e db 41 b8 bd 8d d4 0d be
       -0.31604367 0.18217951 -0.08996936 -0.13850613
000360 c6 79 71 bf 8c a8 eb be 70 21 30 3e 20 04 1d 3e
       -0.94326437 -0.4602703 0.17200255 0.15333605
000370 c1 c7 0d 3f a2 44 e1 bb 53 c8 a1 3e 6d c2 a4 bd
       0.55382925 -0.0068746367 0.31598148 -0.08044896
000380 b9 7b 0a 3f 11 3e ce 3e ec 80 1c bf 77 61 66 3e
       0.54095036 0.40281728 -0.6113422 0.22498117
000390 ac 50 21 3d cc 0d d4 3e 65 21 60 3e 0a 07 05 3e
       0.039383575 0.41416776 0.21887739 0.12990966
0003a0 df d0 05 bf 0d 93 9a 3e e8 14 4e 3c d1 8b 2b 3d
       -0.52271837 0.30190316 0.012578227 0.041881386
0003b0 2c ca c0 3e ff f6 a0 3d d0 1f af 3d ff ec 87 3e
       0.37654245 0.07859611 0.0855099 0.26548
0003c0 e0 cd 59 bf 5a 01 15 3e 23 fb c3 be 89 09 51 be
       -0.85079765 0.14551297 -0.3827754 -0.20413794
0003d0 74 5a 1f bf 04 53 b9 3e c1 7b dc 3d 6b 5c 80 3d
       -0.62247396 0.36196148 0.10765792 0.06267627
0003e0 0d 7d 04 bf 58 ed 92 be 36 b1 6d bd 68 28 7b 3c
       -0.5175331 -0.28696704 -0.05803033 0.015329458
0003f0 41 bb f9 3e cb c1 36 be 3b cc 0c 3e b4 7f 8c 3e
       0.48775676 -0.17847364 0.13749783 0.2744118

Variable_22/read f4 [16]
000000 5f ee 4a be 17 74 15 3f b9 0d 0d 3e 74 d4 d8 bf
       -0.19817494 0.58380264 0.13774766 -1.6939836
000010 3b a5 ff bf 28 98 75 bf db 0f 0d 3e 10 d0 9b 3e
       -1.9972299 -0.95935297 0.1377558 0.30432177
000020 73 85 09 3e bf 9f 43 3f 61 e7 9c bf bf c7 d5 be
       0.13429813 0.7641563 -1.2258111 -0.41753957
000030 7d 08 85 be 16 9a 1b bf 0b 16 d3 be dc 82 c6 bf
       -0.2598304 -0.6078199 -0.41227755 -1.5508685

Variable_23/read f4 [16]
000000 da 29 4f 3f f1 e9 1a 3f 1a c0 df 3e b9 18 7c 3f
       0.80923235 0.60513216 0.4370125 0.98475224
000010 e0 6c 83 3f d4 38 da 3f 62 c3 15 3f 67 e4 09 3f
       1.0267601 1.7048593 0.58501256 0.5386414
000020 5f c2 e0 3e fb 38 19 3f 42 6c 52 3f 78 bc 8c 3f
       0.43898293 0.5985257 0.8219644 1.0995016
000030 80 56 1f 3f dd f8 4a 3f 1a e4 45 3f cf e4 56 3f
       0.62241364 0.79285985 0.7730118 0.83942884

Variable_24/read f4 [16, 3, 3, 16]
000000 1b b5 d8 be 7b e2 3e bf 1e 30 37 bf f2 b1 0c 3d
       -0.42325673 -0.7456433 -0.71557796 0.03434939
000010 fd 46 63 bd 84 8c c2 3e 72 72 12 be ae 6c 3d bf
       -0.05548762 0.3799783 -0.1430147 -0.7399396
000020 bc 3d d1 bd 35 a5 0a be 7d 73 f4 bd f1 cd c0 bd
       -0.10216853 -0.13539584 -0.1193609 -0.0941428
000030 4a 68 82 be 98 09 64 3e a6 d2 fb 3e e1 40 b8 3e
       -0.2547019 0.22269285 0.4918415 0.35987
000040 d3 98 aa 3e 95 50 e4 bd fb 3b ac be 47 0a 63 bd
       0.3331972 -0.11148182 -0.3363951 -0.055429723
000050 2a 9d 82 3d 9e 83 e1 bd 27 25 f1 bd a6 29 fa be
       0.06377633 -0.11011432 -0.11774664 -0.488599
000060 d2 45 19 bb 0f ad c2 3d 42 89 86 3d 0c 05 2e 3c
       -0.0023387563 0.095056646 0.065691486 0.01062132
000070 65 d2 19 3f 6a b1 5e 3e ab 60 91 3c 0a e8 f1 3d
       0.6008666 0.21747366 0.01774629 0.11811836
000080 b5 81 56 3e 10 0b 77 3f 22 3e 98 3e c0 05 7f 3d
       0.20947917 0.96501255 0.29734904 0.062261343
000090 f7 a9 c5 be 9c db 64 be 35 6d 0d bf 06 da 8b bd
       -0.38606235 -0.223494 -0.5524476 -0.06828694
0000a0 fb 0d dc bd 3b 34 ed 3e d3 33 03 3f 31 6c 3a bd
       -0.10744854 0.4632891 0.5125095 -0.045513336
0000b0 d2 f2 a6 be 92 ad 9e 3e ba 37 ac be 78 62 91 be
       -0.32607132 0.309918 -0.33636266 -0.28395438
0000c0 fa 9f 29 bf 48 23 14 bf a9 27 57 bd 21 0f 7d be
       -0.6625973 -0.57866335 -0.052528057 -0.24712802
0000d0 59 bb 2a bd 8f 65 49 3e 6d 3a 6b be 4a 02 19 bf
       -0.041682575 0.19667648 -0.22971506 -0.5976912
0000e0 ab 6a 41 3d b1 33 fc be 74 17 0f be 27 39 40 be
       0.047220867 -0.49258187 -0.1397379 -0.18771802
0000f0 e1 db 35 be 15 29 4d 3e 51 4b cd 3e 32 97 1d 3e
       -0.17759658 0.20035203 0.40096524 0.15389708
000100 59 f4 66 3e 65 e2 ba be cf 61 fc bd e3 ed 1b bd
       0.22554149 -0.3650085 -0.12323343 -0.038068663
000110 38 b2 fd 3d 70 9a 88 be 4f 91 14 3e 86 a5 2a bf
       0.12387508 -0.26680326 0.14508556 -0.6665882
000120 b8 b0 05 3c 83 96 f6 bb 34 52 82 be 25 b1 bf 3d
       0.008159809 -0.0075252666 -0.2545334 0.093599595
000130 a5 26 29 3f 4e 07 52 be 89 3d 49 bd c4 01 81 3e
       0.6607459 -0.20510599 -0.04913095 0.2519666
000140 86 c9 33 be 20 9e 85 3f f8 5b 9d bd 88 b7 cd be
       -0.17557344 1.0438881 -0.07683557 -0.40179086
000150 61 5b 3e be ef 6d 85 3e 62 27 37 be 68 16 9c 3e
       -0.18589546 0.26060435 -0.17886117 0.30485845
000160 19 fb 23 3d 77 87 0a 3f 73 e4 63 3e d7 a9 14 3d
       0.040034387 0.5411295 0.22255115 0.036294784
000170 aa 2d d4 3d dd 80 55 be d7 0f a2 bd 91 74 03 bd
       0.10360272 -0.20849939 -0.079131775 -0.03209359
000180 28 4b bd bd 95 50 9a bf 2e 1e d1 bd 88 44 38 3e
       -0.092428505 -1.2055842 -0.102108344 0.17994893
000190 68 cf a2 be 18 21 6e 3e 59 11 47 3d 7a a1 04 bf
       -0.31798863 0.23254812 0.04860053 -0.51808894
0001a0 12 4f 82 be b4 1d d5 be de 34 69 be f0 41 d2 be
       -0.2545095 -0.41624224 -0.22774073 -0.4106593
0001b0 09 1d 07 bf 71 6d c8 3e b5 30 5f 3e a1 0f f8 bd
       -0.5277868 0.39145997 0.21795924 -0.12112356
0001c0 7c 2d 34 3e 11 0b 78 bf 90 a8 37 3d df 11 9e be
       0.17595476 -0.96891886 0.044838488 -0.3087301
0001d0 0f 67 98 be 85 bc 24 be 80 34 34 be 6a 0d 87 bf
       -0.29766127 -0.1608754 -0.17598152 -1.0550969
0001e0 91 7b 5b bc 17 45 c8 3e 89 12 1c be 01 4e 27 3e
       -0.01339616 0.3911521 -0.15241446 0.1633835
0001f0 27 ed 9e 3e 34 46 ce 3e 95 c3 8a be 4a 93 d7 3e
       0.31040308 0.40287936 -0.27102342 0.4210456
000200 7b 72 8c 3e 63 27 32 3f d6 b3 88 be fd 91 8e be
       0.27431092 0.6959135 -0.26699704 -0.27845755
000210 35 50 5f be f7 2a 61 3d 4f d9 1d bd 8d b4 90 bd
       -0.2180794 0.054972615 -0.03853732 -0.07065687
000220 77 a6 bc be 8e ac fb 3e d7 88 c8 bd 14 01 f9 3d
       -0.36845753 0.49155086 -0.09791725 0.12158409
000230 af 24 13 be f6 2e f8 bd 33 2a 81 be 8b c7 bc 3e
       -0.14369462 -0.12118332 -0.25227508 0.3687099
000240 ec c8 a9 3d 6f 5c 2a 3e f9 93 77 3e a8 02 cf 3c
       0.08290276 0.16636823 0.24177541 0.025269821
000250 8c fb a5 bd 0a d2 a8 be 3a 40 25 3e 53 e8 07 bd
       -0.081046194 -0.32972747 0.16137782 -0.033180546
000260 cc cb 6e 3e 35 a6 30 3d 46 bc ba be 4a a8 be bc
       0.2331993 0.043127257 -0.36471766 -0.023273606
000270 09 ab 61 3e 35 b3 a4 bd 52 14 91 be 12 8f eb be
       0.22037901 -0.080419935 -0.28335816 -0.4600759
000280 e3 a4 ee ba 62 8e b2 be 9d bd ae 3e f4 7f a4 bd
       -0.0018207099 -0.34874254 0.34129038 -0.080322176
000290 a6 85 47 bf 9d 64 69 3e f3 2a e8 bd 82 e8 6a be
       -0.77938306 0.22792287 -0.11336317 -0.22940257
0002a0 7d 65 03 bd c6 b3 22 be ef 74 a5 bc 6f 45 19 3e
       -0.03207921 -0.1588889 -0.02019736 0.14967893
0002b0 b0 76 a5 3d 39 83 af be fb f0 a1 be 2c eb 62 bd
       0.080792785 -0.34279802 -0.31629166 -0.05540006
0002c0 0d 9c e2 bc a5 3c 6b be e7 23 9d 3e 72 dd 9f be
       -0.027662301 -0.22972353 0.30691454 -0.31223637
0002d0 57 01 dd 3d 37 db a3 3e df 7d 8c be 52 20 05 bf
       0.10791271 0.32003185 -0.27439782 -0.5200244
0002e0 eb 03 10 3f a2 13 cb be 89 17 f4 be 1b 60 2e 3d
       0.5625598 -0.39663416 -0.47674206 0.042572122
0002f0 31 93 36 bf d8 55 ae be da 67 36 3e 5e 1e 26 bf
       -0.71318346 -0.3404987 0.17813054 -0.64890087
000300 86 53 c6 3e 20 12 b3 3d b2 89 9b 3d 01 9c 24 bf
       0.38735598 0.087436914 0.07594623 -0.64300543
000310 42 64 f8 3e 3c a0 7f be 37 c8 e7 3e 8e e6 ef bd
       0.4851399 -0.24963468 0.4526994 -0.11713897
000320 87 79 1a 3e 1f e9 0c be b2 c7 8d bd 6a f0 6c be
       0.15085422 -0.13760804 -0.069228545 -0.23138586
000330 8b 19 32 be aa 17 4b be 18 df 7d 3e 5d fd 92 be
       -0.17392556 -0.19833246 0.24792135 -0.28708926
000340 23 3f b7 3e da 31 ba bd 5f 40 15 bf 93 f5 73 bf
       0.35790357 -0.0909154 -0.5830135 -0.9529659
000350 bb 13 59 3d 34 62 62 be b0 e3 ca 3d 2e 58 2e 3e
       0.052997332 -0.22107774 0.09906709 0.17025825
000360 88 65 c7 3e 6c db a7 be c8 11 08 3e 45 3a 09 bf
       0.3894465 -0.32784593 0.13288033 -0.5360454
000370 ab 4b d0 3b d8 55 15 3d 63 39 48 be 0e 77 4a bf
       0.0063566766 0.03645882 -0.19553141 -0.79087913
000380 35 a5 1b 3f f7 d9 1f bf f1 35 b5 3d c1 25 55 bf
       0.6079896 -0.6244196 0.08848179 -0.8326073
000390 8c 1e 28 3e e3 08 38 bf 9a ea f0 be cf c0 9f 3e
       0.16417903 -0.7188856 -0.47053987 0.3120179
0003a0 96 b6 51 3f 1b 9e d7 be 39 b0 42 be 00 05 91 3e
       0.8191923 -0.42112812 -0.19012536 0.28324127
0003b0 aa 53 0d be 43 45 f3 be e6 90 db be 1d 0c 93 bf
       -0.13801447 -0.4751378 -0.42883986 -1.1488072
0003c0 e4 84 17 3f 47 74 3c 3f e3 e2 cd be 90 84 64 be
       0.5918715 0.73614925 -0.40212163 -0.22316194
0003d0 9b b0 42 be 43 a2 91 be 52 38 91 bd 27 a7 76 be
       -0.19012682 -0.28444108 -0.0709082 -0.24087201
0003e0 8a 60 ce 3e d7 4f 16 3e fe 4f ac be 44 bd c2 3d
       0.40308028 0.14678894 -0.3365478 0.09508756
0003f0 61 f6 77 3d 78 a4 5a be 7b 6f 0a 3e e1 cd b5 be
       0.0605377 -0.21351802 0.13519089 -0.35508636

Variable_25/read f4 [16]
000000 73 b9 45 3e 1f 23 b4 bd f6 ea b8 bd 8e 9b d0 3d
       0.19309025 -0.08795761 -0.0902919 0.1018592
000010 ee c7 e5 bd 94 0b 26 3e b8 0f 61 bd bb 23 84 be
       -0.11219774 0.16215354 -0.05494663 -0.2580851
000020 c9 70 8f bd 33 8a 1d 3a fb 61 c1 3e 8d bc a1 bb
       -0.07003934 0.0006009668 0.37770066 -0.004935807
000030 cd a0 08 be d0 d9 22 3e 97 7e 2f 3e b3 24 44 3d
       -0.1334259 0.15903401 0.17138134 0.04788656

Variable_26/read f4 [16]
000000 1c ac 92 3f 03 4c 2d 3f 03 64 8c 3f 3e 2d 5d 3f
       1.1458774 0.6769411 1.0968021 0.8639716
000010 95 d6 ee 3e e5 ce 51 3f 07 0f 96 3f 39 83 54 3f
       0.46648088 0.8195632 1.1723336 0.8301273
000020 36 c3 23 3f 6d b8 89 3f 3a f3 2e 3f c1 3a 37 3f
       0.63969743 1.0759407 0.68339884 0.71574026
000030 02 40 9c 3f bc fd 41 3f 3f c9 59 3f 41 28 b1 3f
       1.2207034 0.7577779 0.850727 1.384041
