examples/style_transfer/model/wheatfield_with_crows.onnx (onnx, 134245 bytes, 48 tensors)

Variable_9/read/_47__cf__47:0 f4 [16, 16, 3, 3]
0.48981947 0.23499319 0.48258436 0.11235128 -0.45729175 0.03303375 -0.05691932 -0.2978224
-0.15302703 -0.1634977 -0.057252735 0.045505077 0.249427 0.3747327 -0.2048449 0.030799717
0.25399762 -0.5011393 0.020140797 0.098331444 0.2741564 0.35851932 -0.00839833 0.24280712
0.0031010373 -0.09727204 -0.14232369 0.25773683 -0.1095091 0.44288093 0.42894718 0.16595314
0.14342332 0.2492627 -0.8415294 -0.21655323 -0.060810916 -0.20455225 0.00013471027 0.12890446
-0.10166931 0.15234907 -0.08700375 0.35274583 0.19077326 -0.024392933 -0.08398939 0.08788493
-0.24600466 0.3057504 0.28131485 0.14418878 0.2402661 -0.15350273 -0.33413184 0.15547988
0.12323057 0.50347686 0.7088947 -0.09805827 0.5823626 0.09145934 -0.22518566 0.64974886
-0.15449455 0.032770734 0.032311846 -0.2993224 -0.069802545 -0.2570327 -0.33464807 -0.40417096
-0.7495345 -0.6554912 -0.9770441 -0.09851999 0.953265 0.5131402 -0.0047164443 1.4422389
0.4349365 0.09058254 -0.07124198 -0.1502102 -0.18454039 0.48232526 0.38547763 0.14899644
0.2806227 -0.08578214 -0.55736864 -0.28455868 -0.5628877 -0.51993936 -0.0675139 0.24066697
-0.34149873 0.30364954 0.701584 0.42358646 0.23057967 0.70368993 0.5788963 -0.75896055
-0.15339667 -0.043610122 -0.83417356 0.048859864 0.25414822 0.2897227 0.14656714 -0.050761536
-0.36113816 -0.113117956 -0.03443681 -0.2566067 0.0021966475 0.1002833 -0.03165269 -0.37937325
-0.6425709 -0.32040542 0.0027035773 0.02427005 0.24916501 0.7731963 -0.04802007 -0.07752989
-0.14407566 -0.19814993 -0.2284442 -0.106077686 -0.027260758 0.23664321 -0.16100284 -0.23516643
-0.27041075 -0.16893837 0.52628136 0.09340754 0.08554588 0.24317212 -0.031269033 -0.14382793
0.0007878438 -0.12013986 -0.5504578 -0.1781148 -0.1510603 -0.25218117 -0.30859435 0.40042582
0.27045533 -0.8139762 0.25760788 0.4202494 0.16315855 0.49462092 1.0280964 0.30917814
0.5034868 -0.49949947 0.4220599 0.28333166 0.58843863 0.07597988 0.3837434 -0.43892524
-0.9593691 -1.0310103 -0.59241384 -0.39012778 0.5142687 -0.2240514 -0.50249374 0.05251431
-0.16566837 -0.68861824 0.048333813 0.56985956 -0.8656022 -0.57582366 -0.64923596 -0.23125757
-0.51656705 0.42551264 0.22818571 0.10716384 -0.15505376 -0.47639695 -0.16002133 0.17737979
-0.4697482 0.13226135 -0.027056318 -0.14008953 -0.44545674 -0.6310057 -0.37380335 -0.34368056
0.49907807 -0.68995106 0.817698 0.17325222 -0.6911828 0.19479898 -0.62097454 0.75860083
0.44878936 -0.58636725 0.73571694 -0.32396486 -0.9986384 -0.34006193 -0.28039652 0.021368472
-0.116609894 0.16817488 0.31603044 0.044626486 -0.13200982 -0.4453299 0.014720568 -0.12578057
-0.03739099 0.33159637 0.20922317 -0.4657821 -0.25115225 -0.2798387 -0.1585148 -0.3470778
-0.18315014 -0.1902995 -0.071683384 0.37109926 0.036720134 -0.01159034 -0.14342172 -0.062402792
0.21394216 0.18534756 0.00788971 0.17186797 0.7556521 0.356843 -0.12598857 0.23278454
0.742742 -0.07616368 -0.5944321 -0.115623824 0.17922908 0.3637164 -0.46661487 0.09412079
00000000: 9ec9 fa3e 0ea2 703e 4c15 f73e 6e18 e63d
00000010: 2522 eabe 664e 073d 3c24 69bd 2d7c 98be
00000020: 1eb3 1cbe f16b 27be d881 6abd 8863 3a3d
00000030: cb69 7f3e f7dc bf3e ddc2 51be b04f fc3c
00000040: fa0b 823e aa4a 00bf 50fe a43c ff61 c93d
00000050: 3a5e 8c3e d88f b73e 2699 09bc 6ea2 783e
00000060: c63a 4b3b 9036 c7bd 4dbd 11be 15f6 833e
00000070: 4f46 e0bd 4ac1 e23e f79e db3e 9fef 293e
00000080: 90dd 123e b93e 7f3e 796e 57bf 21c0 5dbe
00000090: de14 79bd 2576 51be 0341 0d39 88ff 033e
000000a0: 0038 d0bd 6501 1c3e 062f b2bd 1a9b b43e
000000b0: 115a 433e b0d3 c7bc a102 acbd 04fd b33d
000000c0: a5e8 7bbe 518b 9c3e 8008 903e 39a6 133e
000000d0: 5108 763e d22f 1dbe 5413 abbe 1e36 1f3e
000000e0: 4f60 fc3d dce3 003f 207a 353f c6d2 c8bd
000000f0: b715 153f 094f bb3d 1297 66be f155 263f
00000100: d233 1ebe 9b3a 063d 6d59 043d c940 99be
00000110: a3f4 8ebd ca99 83be fe56 abbe 7fef cebe
00000120: 7ee1 3fbf 45ce 27bf 901f 7abf d9c4 c9bd
00000130: 2d09 743f 285d 033f 678c 9abb 499b b83f
00000140: ffaf de3e 5783 b93d 51e7 91bd b4d0 19be
00000150: 28f8 3cbe 56f3 f63e 535d c53e 8692 183e
00000160: c7ad 8f3e 8cae afbd b6af 0ebf adb1 91be
00000170: 6919 10bf bf1a 05bf ba44 8abd 6771 763e
00000180: ecd8 aebe f477 9b3e 029b 333f 53e0 d83e
00000190: 141d 6c3e 0625 343f 8c32 143f 3d4b 42bf
000001a0: 0414 1dbe 87a0 32bd 668c 55bf 4821 483d
000001b0: b71f 823e 8956 943e b215 163e 54eb 4fbd
000001c0: 1ae7 b8be 63aa e7bd 9d0d 0dbd f461 83be
000001d0: a1f5 0f3b 5561 cd3d 40a6 01bd 363d c2be
000001e0: 877f 24bf 2e0c a4be 802e 313b fcd1 c63c
000001f0: 1d25 7f3e 31f0 453f b1b0 44bd fec7 9ebd
00000200: 9288 13be d1e7 4abe 47ed 69be 423f d9bd
00000210: f451 dfbc 9952 723e eedd 24be 78cf 70be
00000220: 4773 8abe 2efe 2cbe 60ba 063f 744c bf3d
00000230: ae32 af3d 1d02 793e f513 00bd a147 13be
00000240: 4d87 4e3a e30b f6bd cdea 0cbf ba63 36be
00000250: 8daf 1abe e41d 81be 1400 9ebe 9d04 cd3e
00000260: 1f79 8a3e bf60 50bf 2ee5 833e ee2a d73e
00000270: 0913 273e f43e fd3e aa98 833f 994c 9e3e
00000280: 83e4 003f 65be ffbe 3c18 d83e d910 913e
00000290: eaa3 163f 579b 9b3d 047a c43e cfba e0be
000002a0: 3799 75bf 25f8 83bf 6fa8 17bf d4be c7be
000002b0: 1da7 033f bb6d 65be 6ea3 00bf 3f19 573d
000002c0: f8a4 29be 4949 30bf adf9 453d 51e2 113f
000002d0: 1b98 5dbf 2e69 13bf 5434 26bf c9ce 6cbe
000002e0: bd3d 04bf cbdc d93e 84a9 693e b778 db3d
000002f0: 6ac6 1ebe 4dea f3be a2dc 23be 0ca3 353e
00000300: d682 f0be 856f 073e 36a5 ddbc a173 0fbe
00000310: e812 e4be 9789 21bf 2763 bfbe e6f6 afbe
00000320: 2987 ff3e a2a0 30bf a854 513f 0869 313e
00000330: 5bf1 30bf 6279 473e 30f8 1ebf aa33 423f
00000340: b8c7 e53e 2a1c 16bf f257 3c3f b9de a5be
00000350: c4a6 7fbf 991c aebe 2290 8fbe ef0c af3c
00000360: 2bd1 eebd 0936 2c3e bece a13e 43ca 363d
00000370: 952d 07be 4802 e4be 8a2e 713c 9fcc 00be
00000380: 4b27 19bd 00c7 a93e 993e 563e fe7a eebe
00000390: 0797 80be 0547 8fbe b451 22be 2eb4 b1be
000003a0: b68b 3bbe dfdd 42be bdce 92bd b900 be3e
000003b0: da67 163d 69e5 3dbc 25dd 12be 129a 7fbd
000003c0: a713 5b3e c0cb 3d3e d843 013c 28fe 2f3e
000003d0: 6b72 413f 20b4 b63e 2603 01be 125f 6e3e
000003e0: 5724 3e3f b4fb 9bbd b42c 18bf 2fcc ecbd
000003f0: d487 373e 0939 ba3e 25e8 eebe 67c2 c03d

Variable_8/read/_46__cf__46:0 f4 [1, 16, 1, 1]
0.22448698 0.34104013 0.42127383 0.19117714 0.49034843 0.3486526 0.31104213 0.29517367
0.48879653 0.2333594 0.27902237 0.3650237 0.26136371 0.3482442 0.38677287 0.31714433
00000000: eadf 653e d09c ae3e 34b1 d73e f1c3 433e
00000010: f30e fb3e 9882 b23e ea40 9f3e 0121 973e
00000020: 8a43 fa3e c4f5 6e3e 05dc 8e3e 63e4 ba3e
00000030: 77d1 853e 104d b23e 1807 c63e be60 a23e

Variable_7/read/_45__cf__45:0 f4 [1, 16, 1, 1]
-0.004758606 0.0622866 0.06626438 0.006164592 0.13444397 -0.0069360663 -0.041503284 -0.009082559
0.34010053 -0.006645823 0.24089536 -0.11784619 0.19113557 0.04337268 0.16532408 -0.052321326
00000000: 15ee 9bbb 3c20 7f3d 9fb5 873d 5900 ca3b
00000010: aeab 093e f147 e3bb 59ff 29bd 03cf 14bc
00000020: a821 ae3e 34c5 d9bb 46ad 763e 5859 f1bd
00000030: 0bb9 433e 8da7 313d b74a 293e e34e 56bd

Variable_6/read/_44__cf__44:0 f4 [16, 8, 3, 3]
0.006215006 -0.061860178 0.22203812 0.13927613 -0.026321363 -0.114677355 0.31376466 0.10394939
-0.09444974 0.030676715 -0.008815345 0.10979705 -0.13357656 -0.055704102 -0.025624437 0.010698274
0.091944374 0.18279272 -0.43835402 -0.41132385 -0.669928 -0.63353044 -0.3541627 -0.46215162
-0.76205105 -0.4382285 -0.63246804 0.1902768 -0.16857873 0.1106139 0.1774538 0.104382955
0.27970377 0.023148783 0.015613788 -0.045301717 -0.40921733 -0.17797013 -0.69466543 -0.06057645
-0.3215917 -0.6099409 -0.27042192 -0.18047313 -0.48023298 -1.1575409 -0.15791549 -0.22042157
-0.47020063 -0.21357371 0.79639846 -0.29157913 0.3231993 1.3033693 -0.38298982 -0.3498273
-0.36545134 -0.33383107 -0.006858328 -0.19473734 0.050580647 -0.14735374 -0.43704805 -0.4465316
-0.45685998 -1.0678134 -0.40309623 -0.5075179 -0.6648583 -0.5728002 -0.5093529 -0.45060617
0.16083442 -0.13728805 -0.825851 0.33764347 0.397099 -0.20691788 0.03561751 -0.19244505
-0.47166646 0.31804058 0.11743145 -0.14481854 0.29159525 -0.031066865 -0.20280562 0.06202937
0.09895612 -0.32687458 0.1553031 0.014383858 0.50841165 -0.026538474 -0.1427246 -0.28529263
0.020639533 -0.32222426 -0.11880312 0.20129178 0.8034996 0.31628448 0.9539826 -0.17420778
-0.9359672 0.19784985 -0.7384019 -0.17547771 -0.24497019 0.37558073 0.44170526 -0.4369849
0.26309666 -0.106435 -0.1650386 0.089868836 -0.14364755 0.19764386 0.13105683 -0.15622213
0.0785732 0.065529145 -1.0270327 0.047342446 -0.55324626 -0.28368446 0.69667596 -0.045972724
-1.2896491 -0.035553697 -0.9403563 0.039786387 -0.29166293 -0.12314848 0.37128237 -0.27801126
0.13184536 0.7540181 0.008250743 -0.08137769 0.20529194 -0.06247674 -0.2837521 0.029051019
-0.033345103 -0.26565176 0.043113563 0.024918633 0.12029654 -0.2904623 0.12434379 0.022389397
-0.16510591 0.0007380496 -0.14904876 -0.5088737 0.1553654 0.38850036 -0.22744389 0.07041234
0.03569759 -0.1492078 0.025037656 -0.18366887 -0.246232 0.192802 0.11616951 -0.01642033
0.039126582 -0.013836166 -0.081505194 0.08715657 0.3665258 0.37740368 0.41698042 0.67552507
0.7004299 -0.6643668 -0.727244 -0.3865311 -0.27481163 -0.49689516 -0.39801732 0.32736912
0.13403842 0.26178923 0.13909405 0.09450944 -0.15604286 -0.015360519 0.12978932 -0.098984994
0.030153902 -0.062077507 -0.12904139 -0.16286516 -0.13196234 -0.056377903 -0.04547493 -0.05574211
0.03739448 0.5718315 0.9954451 0.79811746 -1.0777869 -1.5727668 -0.8116168 -0.2977664
-0.36944905 -0.27392155 -0.0027253258 0.06605794 -0.21839485 0.3048882 0.37876293 0.11785439
0.52364796 0.104370184 0.5059562 0.01588505 -0.08752863 0.6195834 0.1584316 -0.039048057
0.39198098 0.3373254 -0.2108954 -0.09379351 0.20725857 -0.20535353 -0.73332286 0.47516686
0.15142566 0.13291281 -0.053759627 -0.31848216 -0.3793662 0.19836694 -0.28949642 -0.35221192
0.4963871 0.48576897 0.22567907 -0.11245193 0.009175402 -0.4494528 0.37409168 0.5390294
0.023985142 0.09948088 0.5750341 0.39878303 0.46600822 0.44355264 0.14616184 0.28490165
00000000: 40a7 cb3b 1961 7dbd f65d 633e 679e 0e3e
00000010: e69f d7bc f6db eabd c3a5 a03e 6be3 d43d
00000020: de6e c1bd bc4d fb3c 3d6e 10bc 47dd e03d
00000030: 4bc8 08be fc29 64bd 57ea d1bc d047 2f3c
00000040: 554d bc3d 042e 3b3e f06f e0be 0a99 d2be
00000050: 6780 2bbf 0d2f 22bf d054 b5be 239f ecbe
00000060: c715 43bf 7c5f e0be 6de9 21bf ecd7 423e
00000070: e79f 2cbe 8a89 e23d 73b6 353e bbc6 d53d
00000080: 5535 8f3e 84a2 bd3c f9d0 7f3c 4b8e 39bd
00000090: ef84 d1be cd3d 36be 98d5 31bf 031f 78bd
000000a0: aba7 a4be 1625 1cbf be74 8abe f3cd 38be
000000b0: 19e1 f5be 4d2a 94bf 99b4 21be 31b6 61be
000000c0: 23be f0be 11b3 5abe c5e0 4b3f dc49 95be
000000d0: 617a a53e ced4 a63f 3e17 c4be 901c b3be
000000e0: 701c bbbe e8eb aabe d3bb e0bb 3a69 47be
000000f0: a72d 4f3d e6e3 16be c3c4 dfbe ca9f e4be
00000100: 8de9 e9be 1cae 88bf a162 cebe b1ec 01bf
00000110: 2734 2abf 09a3 12bf f464 02bf dab5 e6be
00000120: c7b1 243e 3d95 0cbe f96a 53bf 9bdf ac3e
00000130: 8f50 cb3e 48e2 53be abe3 113d 5110 45be
00000140: 447e f1be 37d6 a23e e67f f03d 504b 14be
00000150: f94b 953e f07f febc 47ac 4fbe 8212 7e3d
00000160: 82a9 ca3d 1b5c a7be c707 1f3e 46aa 6b3c
00000170: 4427 023f 3767 d9bc 6626 12be e011 92be
00000180: 3d14 a93c 94fa a4be 0d4f f3bd 6f1f 4e3e
00000190: 26b2 4d3f 0af0 a13e 3438 743f 8663 32be
000001a0: 8c9b 6fbf 2799 4a3e e807 3dbf 6eb0 33be
000001b0: 77d9 7abe 1e4c c03e 3127 e23e 7cbc dfbe
000001c0: 9bb4 863e 98fa d9bd e1ff 28be 270d b83d
000001d0: 5818 13be 2763 4a3e c333 063e b2f8 1fbe
000001e0: fcea a03d 2534 863d cf75 83bf 27ea 413d
000001f0: 8ca1 0dbf 173f 91be 5b59 323f e54d 3cbd
00000200: 3913 a5bf c1a0 11bd 31bb 70bf 0df7 223d
00000210: d854 95be 4535 fcbd b918 be3e 7e57 8ebe
00000220: 7802 073e 5507 413f 202e 073c 59a9 a6bd
00000230: 0d38 523e 9ce7 7fbd f547 91be 67fc ed3c
00000240: e094 08bd 8203 88be d997 303d 2922 cc3c
00000250: 085e f63d 79b7 94be f5a7 fe3d f869 b73c
00000260: 8611 29be ac79 413a 3da0 18be 8c45 02bf
00000270: 1b18 1f3e 85e9 c63e 0de7 68be 5834 903d
00000280: a337 123d eec9 18be c51b cd3c b113 3cbe
00000290: 3e24 7cbe e36d 453e 48ea ed3d ee83 86bc
000002a0: 3243 203d 16b1 62bc 32ec a6bd 257f b23d
000002b0: 45a9 bb3e 0e3b c13e 757e d53e 36ef 2c3f
000002c0: 604f 333f f113 2abf aa2c 3abf 68e7 c5be
000002d0: 1cb4 8cbe 0b69 febe edc8 cbbe ed9c a73e
000002e0: 5e41 093e 3d09 863e ac6e 0e3e 2a8e c13d
000002f0: b3c9 1fbe b0aa 7bbc 7ee7 043e a5b8 cabd
00000300: 5105 f73c fc44 7ebd 6d23 04be 20c6 26be
00000310: 2321 07be 84ec 66bd ec43 3abd d751 64bd
00000320: f42a 193d 8d63 123f 7dd5 7e3f 6d51 4c3f
00000330: ecf4 89bf 6c50 c9bf 1ec6 4fbf d674 98be
00000340: 6d28 bdbe 723f 8cbe 619b 32bb 6349 873d
00000350: e6a2 5fbe 4e1a 9c3e 37ed c13e a45d f13d
00000360: cb0d 063f 09c0 d53d 5886 013f 5d21 823c
00000370: 3642 b3bd 059d 1e3f e53b 223e dbf0 1fbd
00000380: bbb1 c83e eab5 ac3e f7f4 57be d016 c0bd
00000390: 973b 543e 3248 52be 0cbb 3bbf 1249 f33e
000003a0: 540f 1b3e 4c1a 083e 0e33 5cbd 1810 a3be
000003b0: 493c c2be b420 4b3e e038 94be 1f55 b4be
000003c0: 7326 fe3e b6b6 f83e 6a18 673e 334d e6bd
000003d0: 6d54 163c ad1e e6be f288 bf3e d5fd 093f
000003e0: 7d7c c43c a2bc cb3d 6f35 133f 4a2d cc3e
000003f0: a198 ee3e 5519 e33e 73ab 153e a1de 913e

Variable_5/read/_43__cf__43:0 f4 [1, 8, 1, 1]
0.62309045 0.8105102 0.728456 1.9103527 0.521817 0.5825109 2.7478015 0.5203638
00000000: db82 1f3f 997d 4f3f 187c 3a3f 7086 f43f
00000010: cd95 053f 6f1f 153f fbdb 2f40 9036 053f

Variable_47/read/_42__cf__42:0 f4 [1, 3, 1, 1]
0.45057356 0.3120589 0.3748191
00000000: 94b1 e63e 2fc6 9f3e 4ae8 bf3e

Variable_46/read/_41__cf__41:0 f4 [1, 3, 1, 1]
-0.067240454 -0.080547765 -0.27450848
00000000: 5db5 89bd 3af6 a4bd 608c 8cbe

Variable_45/read/_40__cf__40:0 f4 [3, 4, 9, 9]
-0.10110969 -0.18641658 -0.14405453 -0.18335342 -0.13002561 -0.019244447 -0.039821707 0.013877065
0.00509168 -0.13691668 -0.18813735 -0.1312727 -0.22118586 -0.21860574 -0.105384074 -0.14779852
-0.08764166 -0.014915832 -0.067018285 -0.017795453 0.13340135 -0.03549785 -0.042091645 -0.0049250224
-0.15572947 -0.11520356 -0.045098923 0.0048553455 0.029437326 0.116827995 -0.033846874 0.05369056
0.17630352 -0.09248983 -0.06633143 0.0039655026 -0.038695022 -0.21021073 -0.3606823 -0.50151783
-0.17077474 0.16957453 -0.09196293 -0.08390194 0.03296196 -0.12105029 -0.46110293 -0.8745709
-1.0321546 -0.47420302 0.065013655 -0.10558059 -0.084515624 0.050987232 -0.04962802 -0.33259892
-0.7797324 -0.9661454 -0.5467767 -0.086342335 -0.20810248 -0.1436006 0.025665047 0.12312442
0.021195758 -0.1795125 -0.35160062 -0.22122128 0.049405076 -0.12731206 -0.118615605 -0.009050477
0.057776757 0.142843 0.12209526 0.06124492 0.09527911 0.17606255 0.01723686 -0.0112333
0.039165754 0.060747147 0.10223145 0.16492678 0.16011105 0.16298136 0.23687637 0.053885795
0.006391237 0.08065189 -0.034425735 -0.031836275 0.09173428 0.035498753 0.08100679 0.28541198
0.06589719 -0.08046639 0.013487793 -0.15563896 -0.10251801 0.11100785 -0.10303378 -0.06260431
0.2743837 0.09418679 -0.07638059 -0.010292528 0.017442172 0.40912732 0.9435419 0.73958176
0.5434848 0.7300124 0.45411396 0.2649934 0.21111923 0.116550714 0.7147414 1.5262394
1.3393266 0.7464024 0.5853877 0.26103255 0.20816559 0.25156718 0.06613156 0.5038983
1.3089428 1.354217 0.799988 0.4215917 0.0842143 0.03571846 0.11937995 0.04333644
0.22906171 0.8871954 1.2791045 1.0676287 0.8521151 0.4728766 0.2156233 0.14788826
-0.08810148 -0.28056103 -0.049765434 0.29716066 0.33948424 0.46501285 0.313762 0.13097724
0.09944341 -0.03603885 -0.29478636 -0.38505313 -0.30017102 -0.29149896 -0.117299445 -0.019705964
0.011593522 0.0389996 -0.02024621 -0.115237005 -0.108061716 -0.053840313 -0.09321249 -0.10080261
-0.04049708 0.050690085 0.051230084 0.010472646 -0.12856045 -0.1068544 0.003606027 0.006797167
-0.0072409776 0.017240703 0.17951564 0.13402712 -0.0057280045 -0.11947908 -0.065785125 0.050129816
0.10201109 0.1106886 0.05622484 0.23791863 0.18929961 -0.0951567 -0.16732195 -0.09851325
-0.11211867 -0.13579726 -0.061918255 -0.096978486 0.111626595 0.12621711 0.15510517 0.42059204
0.5207571 0.17849469 -0.09474058 -0.16783315 -0.26821834 -0.04321874 0.04989423 0.30196768
0.8130776 0.89008206 0.20020592 -0.25575557 -0.33500668 -0.45099366 -0.12543441 0.026861764
0.035543755 0.3398171 0.4157731 -0.20938425 -0.53714365 -0.3927486 -0.37766448 -0.038804702
0.12386802 -0.13926695 0.049149815 0.26731473 0.0033124771 -0.05036736 0.16577296 0.074129485
0.18637218 0.1983866 -0.13787773 0.0049553933 0.19945228 0.17040445 0.24641144 0.3335966
0.10297349 0.07838432 0.07134081 -0.015975704 -0.028599389 -0.10341589 0.0047152513 0.06070539
0.15205358 0.15242366 0.10929989 0.12231478 0.05165247 0.11712361 0.1084546 0.26621947
00000000: 9912 cfbd fde3 3ebe 0883 13be 00c1 3bbe
00000010: 6f25 05be 88a6 9dbc 161c 23bd a15c 633c
00000020: 1cd8 a63b e333 0cbe 14a7 40be 5a6c 06be
00000030: 8c7e 62be 2fda 5fbe 9bd3 d7bd 7f58 17be
00000040: 787d b3bd 8961 74bc e240 89bd c5c7 91bc
00000050: 5d9a 083e 3266 11bd 4a68 2cbd 1562 a1bb
00000060: 8c77 1fbe d8ef ebbd a6b9 38bd 9719 9f3b
00000070: 8c26 f13c 8443 ef3d 05a3 0abd a2ea 5b3d
00000080: e988 343e 4f6b bdbd c6d8 87bd 0cf1 813b
00000090: ac7e 1ebd 7b41 57be 5aab b8be 7963 00bf
000000a0: 93df 2ebe f2a4 2d3e 1057 bcbd c8d4 abbd
000000b0: 1f03 073d 37e9 f7bd af15 ecbe e1e3 5fbf
000000c0: a41d 84bf bdca f2be e125 853d a33a d8bd
000000d0: 8716 adbd fdd7 503d c046 4bbd 684a aabe
000000e0: 8b9c 47bf 4e55 77bf 8ff9 0bbf 40d4 b0bd
000000f0: d118 55be 090c 13be 813f d23c a828 fc3d
00000100: baa2 ad3c 20d2 37be ff04 b4be d587 62be
00000110: fa5c 4a3d 185e 02be bdec f2bd 7448 14bc
00000120: 52a7 6c3d 6f45 123e 140d fa3d f4db 7a3d
00000130: b221 c33d be49 343e 5134 8d3c e00b 38bc
00000140: 456c 203d 00d2 783d b95e d13d 91e2 283e
00000150: 27f4 233e 96e4 263e b88f 723e 5ab7 5c3d
00000160: 956d d13b d12c a53d 0002 0dbd c166 02bd
00000170: 2fdf bb3d 2467 113d e3e6 a53d 8521 923e
00000180: 1bf5 863d 90cb a4bd e7fb 5c3c d25f 1fbe
00000190: f6f4 d1bd 1558 e33d 6003 d3bd b036 80bd
000001a0: 057c 8c3e 01e5 c03d 6d6d 9cbd fea1 28bc
000001b0: e3e2 8e3c 2379 d13e f68b 713f 3b55 3d3f
000001c0: d221 0b3f 18e2 3a3f a081 e83e 37ad 873e
000001d0: a42f 583e 24b2 ee3d 4bf9 363f d05b c33f
000001e0: 0e6f ab3f 3a14 3f3f f8db 153f 0fa6 853e
000001f0: 5c29 553e 6acd 803e fc6f 873d 7bff 003f
00000200: 708b a73f fc56 ad3f 03cc 4c3f deda d73e
00000210: 8c78 ac3d 854d 123d 7a7d f43d 8d81 313d
00000220: 278f 6a3e 3d1f 633f b2b9 a33f 0fa8 883f
00000230: 3724 5a3f e21c f23e 5bcc 5c3e 0570 173e
00000240: 8c6e b4bd b2a5 8fbe d7d6 4bbd 7125 983e
00000250: e1d0 ad3e 2a16 ee3e 6aa5 a03e e61e 063e
00000260: fda8 cb3d 799d 13bd 3dee 96be af25 c5be
00000270: 04b0 99be 5a3f 95be b13a f0bd 676e a1bc
00000280: c1f2 3d3c 0bbe 1f3d 61db a5bc 6101 ecbd
00000290: 764f ddbd a987 5cbd 31e6 bebd 9971 cebd
000002a0: 44e0 25bd 68a0 4f3d a3d6 513d 7695 2b3c
000002b0: 5aa5 03be 7bd6 dabd 1853 6c3b c5ba de3b
000002c0: b945 edbb 603c 8d3c f3d2 373e 683e 093e
000002d0: fcb1 bbbb 73b1 f4bd 5aba 86bd ec54 4d3d
000002e0: 31eb d03d b4b0 e23d 054c 663d f1a0 733e
000002f0: c2d7 413e 84e1 c2bd 7256 2bbe 51c1 c9bd
00000300: 799e e5bd 700e 0bbe ff9d 7dbd a89c c6bd
00000310: 7c9c e43d 0f3f 013e e4d3 1e3e d757 d73e
00000320: 5650 053f 50c7 363e 5907 c2bd 74dc 2bbe
00000330: ea53 89be 2206 31bd e45d 4c3d 829b 9a3e
00000340: db25 503f 6bdc 633f c802 4d3e 65f2 82be
00000350: ff85 abbe a4e8 e6be e171 00be 340d dc3c
00000360: 5496 113d 82fc ad3e 36e0 d43e d368 56be
00000370: 3f82 09bf 5816 c9be 3d5d c1be aef1 1ebd
00000380: 84ae fd3d ff9b 0ebe 5151 493d 7add 883e
00000390: 2516 593b 014e 4ebd 63c0 293e 33d1 973d
000003a0: 59d8 3e3e db25 4b3e d22f 0dbe da60 a23b
000003b0: 383d 4c3e 817e 2e3e 4853 7c3e 2ccd aa3e
000003c0: c4e3 d23d f587 a03d 211b 923d 7bdf 82bc
000003d0: 4449 eabc b6cb d3bd 6582 9a3b 37a6 783d
000003e0: efb3 1b3e f314 1c3e 9fd8 df3d 2c80 fa3d
000003f0: 8a91 533d 81de ef3d 721d de3d eb4d 883e

Variable_44/read/_39__cf__39:0 f4 [1, 4, 1, 1]
0.94738567 1.1303176 0.7886722 0.9237275
00000000: de87 723f 3fae 903f 6ce6 493f 6879 6c3f

Variable_43/read/_38__cf__38:0 f4 [1, 4, 1, 1]
0.8480849 1.1668103 0.21667977 0.5761853
00000000: 181c 593f 0a5a 953f 4de1 5d3e e180 133f

Variable_42/read/_37__cf__37:0 f4 [8, 4, 3, 3]
-0.32455593 -0.64271766 0.117498524 -0.31195343 -0.3773565 0.23794255 -0.42062467 -0.394975
0.16687527 0.15771855 0.20707403 0.0055621876 0.21276645 -0.13102794 0.59883875 -0.11024557
0.029738236 -0.0708653 0.6805572 -0.2983549 0.58326894 -0.27242917 -0.057699673 0.29483694
0.03071819 0.24395666 -0.037087753 -0.08497584 0.3691215 0.4322879 0.44556594 0.18271746
-0.76135814 0.20860443 0.37338477 0.011154553 0.16279788 -0.10660496 -0.0800243 0.83505106
-0.058954407 0.04076504 -0.078049205 0.37991554 0.52555764 0.05366285 -0.32640782 -0.14241832
0.17756319 0.14391436 0.08150865 -0.05550389 0.0039626644 0.25780004 0.31622282 0.07755035
0.09287853 0.14228988 -0.038607717 -0.364816 0.39134088 0.93782127 0.31369162 0.23244229
0.14214987 0.21373487 0.09288644 -0.29269674 -0.3896998 0.2812721 0.5282678 0.05066205
0.75836354 0.50592256 -0.45925048 -0.14141159 0.38591963 -0.06374913 -0.778028 0.30748504
0.47477266 -0.26834276 -0.44163924 0.43112117 0.28901398 -0.55324256 -0.26619133 0.60553515
0.07543917 -0.114826664 -0.23841368 0.28182712 0.10128235 0.10300773 -0.082760505 -0.033734392
0.05974574 -0.2786484 0.12986247 -0.025238857 -0.018383602 -0.27746132 0.62098795 0.2789751
0.17297375 -0.017629622 -0.023123126 -0.21282715 -0.020253915 0.121725686 0.038797047 0.112704456
-0.27131587 0.20363617 0.4507846 0.28300712 0.09238558 -0.031507645 -0.16120362 0.35902265
0.008962488 0.57971066 0.20381112 0.6579746 -0.14855194 0.6481586 -0.09923524 -0.91907555
-0.34998202 -0.67757267 -0.40163368 -0.5286308 0.1915023 -0.4715687 -0.19309005 0.42865002
0.25208852 0.104504995 -0.4067606 -0.3861291 -0.07999079 0.29585925 0.7269904 0.33649123
-0.1238414 0.08059186 0.013508288 0.14948118 0.23982674 0.039844796 0.41252872 0.40841556
-0.11635436 -0.082421035 -0.37103033 -0.68066 -0.32800317 0.14453392 -0.49835646 0.043573737
-0.02844715 -0.1460214 -0.08829973 -0.12534845 -0.386656 0.13126223 -0.023456652 -0.35923952
0.10394657 0.19539532 0.21708038 -0.10419714 0.5914596 0.84629023 0.34654093 0.5435112
0.60335416 0.33268017 0.4889124 0.03918127 0.26311362 0.5592401 -0.16037384 -0.2003755
0.55118656 0.03514708 -0.3016199 -0.10794808 -0.3998133 -0.5806757 -0.03302851 -0.76087904
-0.077686705 -0.3320774 0.26119485 0.15640084 0.7001128 0.20268853 -0.049933143 0.19454576
-0.13803801 0.13850534 -0.49472213 0.12288243 -0.09003369 0.005988783 0.076547734 0.07119725
-0.024187306 0.48401836 0.052929714 -0.0856726 -0.09272546 -0.31250796 -0.051884867 0.08516394
0.17625552 -0.2451298 0.05334119 -0.09323991 0.17111753 0.1494035 0.35700843 0.12574235
0.020392302 0.060875762 -0.6501552 -0.71654296 -0.6760104 -0.10924719 -0.4570685 -0.022079697
-0.4822289 -0.101803236 -0.7690986 0.3315902 0.5389378 0.4877216 -0.12479811 -0.087408505
0.08075576 0.15225205 -0.13838738 -0.44513434 -0.31673822 -0.5513471 -0.40348223 -0.86203796
-0.34376174 -0.29301038 0.10684865 -0.31847593 -0.03636776 0.14901532 0.32257062 0.2143511
00000000: 322c a6be 2589 24bf 11a3 f03d 5cb8 9fbe
00000010: df34 c1be 36a7 733e 1e5c d7be 2a3a cabe
00000020: 5ae1 2a3e f980 213e 370b 543e 0343 b63b
00000030: 73df 593e 302c 06be 7f4d 193f 6ec8 e1bd
00000040: 9a9d f33c d421 91bd ff38 2e3f f9c1 98be
00000050: 1d51 153f d67b 8bbe 7e56 6cbd def4 963e
00000060: b7a4 fb3c c6cf 793e 54e9 17bd d007 aebd
00000070: 7efd bc3e d754 dd3e 3821 e43e 491a 3b3e
00000080: 5ee8 42bf 669c 553e 4a2c bf3e 96c1 363c
00000090: 7db4 263e b453 dabd c8e3 a3bd e8c5 553f
000000a0: 2d7a 71bd 3ef9 263d 43d8 9fbd 4a84 c23e
000000b0: f28a 063f 94cd 5b3d ed1e a7be 1cd6 11be
000000c0: 20d3 353e 495e 133e 02ee a63d 0c58 63bd
000000d0: 3dd9 813b 5efe 833e f5e7 a13e b8d2 9e3d
000000e0: 1937 be3d 70b4 113e 2023 1ebd 2ac9 babe
000000f0: d55d c83e 0e15 703f 309c a03e 5a05 6e3e
00000100: bc8f 113e 50dd 5a3e 3f3b be3d 59dc 95be
00000110: bb86 c7be e602 903e 8f3c 073f 0283 4f3d
00000120: 1d24 423f 2484 013f e122 ebbe 33ce 10be
00000130: 4297 c53e e78e 82bd d82c 47bf ae6e 9d3e
00000140: 6715 f33e 3964 89be 8a1e e2be eabb dc3e
00000150: a4f9 933e 4ea1 0dbf 3b4a 88be 5a04 1b3f
00000160: da7f 9a3d 3e2a ebbd b722 74be a54b 903e
00000170: 1f6d cf3d b7f5 d23d 577e a9bd 132d 0abd
00000180: f3b7 743d 01ab 8ebe abfa 043e b8c1 cebc
00000190: 3599 96bc 690f 8ebe 11f9 1e3f d3d5 8e3e
000001a0: 0820 313e ff6b 90bc b66c bdbc 5cef 59be
000001b0: 8aeb a5bc 514b f93d a7e9 1e3d 98d1 e63d
000001c0: eae9 8abe 0086 503e 3dcd e63e 4fe6 903e
000001d0: a734 bd3d 290e 01bd 9012 25be d1d1 b73e
000001e0: 66d7 123c eb67 143f ddb3 503e 0671 283f
000001f0: 001e 18be b9ed 253f d83b cbbd 8948 6bbf
00000200: d830 b3be 6775 2dbf eea2 cdbe 5954 07bf
00000210: 2e19 443e 7471 f1be 66b9 45be 0478 db3e
00000220: bf11 813e b706 d63d ed42 d0be b7b2 c5be
00000230: 36d2 a3bd dd7a 973e 0b1c 3a3f 9448 ac3e
00000240: 8fa0 fdbd 580d a53d de51 5d3c 9811 193e
00000250: 2495 753e 4c34 233d f736 d33e d81b d13e
00000260: 324b eebd 5ccc a8bd b0f7 bdbe bc3f 2ebf
00000270: 08f0 a7be b300 143e 9428 ffbe 607a 323d
00000280: ff09 e9bc a286 15be 7dd6 b4bd 585b 00be
00000290: c6f7 c5be 9b69 063e 2a28 c0bc 3eee b7be
000002a0: f0e1 d43d b615 483e 524a 5e3e 4f65 d5bd
000002b0: e569 173f 7aa6 583f d06d b13e 8d23 0b3f
000002c0: 6b75 1a3f 0e55 aa3e ba52 fa3e 8a7c 203d
000002d0: d4b6 863e 5c2a 0f3f 0a39 24be 3c2f 4dbe
000002e0: 901a 0d3f 62f6 0f3d ec6d 9abe e213 ddbd
000002f0: 54b4 ccbe 2aa7 14bf e748 07bd f8c8 42bf
00000300: 351a 9fbd 0d06 aabe 55bb 853e 8b27 203e
00000310: 983a 333f 958d 4f3e b286 4cbd 0137 473e
00000320: d659 0dbe 58d4 0d3e 384c fdbe c9a9 fb3d
00000330: 9563 b8bd 8e3d c43b 0fc5 9c3d ddcf 913d
00000340: 7524 c6bc 41d1 f73e d4cc 583d 1e75 afbd
00000350: d9e6 bdbd 0b01 a0be 3a85 54bd 6f6a ae3d
00000360: 547c 343e 4e03 7bbe 4b7c 5a3d 91f4 bebd
00000370: 6f39 2f3e 3bfd 183e cfc9 b63e 9ac2 003e
00000380: c20d a73c dd58 793d 9270 26bf 5c6f 37bf
00000390: 040f 2dbf febc dfbd e204 eabe 7be0 b4bc
000003a0: b5e6 f6be 377e d0bd a5e3 44bf 31c6 a93e
000003b0: d4f7 093f a5b6 f93e 2796 ffbd 3b03 b3bd
000003c0: 4763 a53d f6e7 1b3e 6cb5 0dbe a6e8 e3be
000003d0: 832b a2be 1525 0dbf 3995 cebe 85ae 5cbf
000003e0: 8a01 b0be 7505 96be 77d3 da3d 470f a3be
000003f0: 5cf6 14bd 7997 183e fa27 a53e db7e 5b3e

Variable_41/read/_36__cf__36:0 f4 [1, 8, 1, 1]
0.9133447 0.81594396 1.1685511 0.9610963 0.93552595 0.96091145 1.018399 1.0534232
00000000: f5d0 693f b4e1 503f 1593 953f 680a 763f
00000010: a17e 6f3f 4bfe 753f e65a 823f 92d6 863f

Variable_40/read/_35__cf__35:0 f4 [1, 8, 1, 1]
0.1911563 0.0050104153 -0.30399773 0.43715197 0.5730518 -0.25283885 0.29704273 1.2499597
00000000: 7abe 433e 692e a43b 97a5 9bbe 62d2 df3e
00000010: 86b3 123f 1874 81be fc15 983e aefe 9f3f

Variable_4/read/_34__cf__34:0 f4 [1, 8, 1, 1]
0.34644634 0.38505846 0.5187526 0.4260463 0.34966254 0.65438974 -0.034628328 0.34277388
00000000: 6a61 b13e 6226 c53e f8cc 043f be22 da3e
00000010: f806 b33e 1686 273f 6fd6 0dbd 0f80 af3e

Variable_39/read/_33__cf__33:0 f4 [16, 8, 3, 3]
0.29352298 0.45266303 0.2541564 0.042861894 -0.2902446 0.012903322 0.34304288 -0.012199667
-0.13530755 0.31118616 -0.2932797 0.6216602 0.4108266 0.053829588 0.21704248 -0.30645287
-0.12003295 0.03763241 -0.422257 -0.3605034 -0.1994688 -0.34735146 -0.50501484 -0.01776819
-0.14123449 -0.11962928 0.1772001 0.28058198 0.34081814 -0.37269938 0.7587426 0.7503551
-0.074982725 0.124587856 0.5852055 -0.34908193 0.64663494 0.21759473 -0.08287103 -0.0580149
-0.14744103 -0.4052571 0.11138014 0.5032875 -0.24384661 -0.6534124 -0.6921572 -0.23313865
-0.7146499 -0.26980767 -0.57540447 0.22325622 0.6710311 0.2295724 -0.5841693 -0.0064667375
-0.020688092 -0.68736506 -0.14943294 -0.064788274 -0.6168799 0.30962357 0.013690858 -0.17953785
-0.08132418 -0.21624231 -0.0014160691 -0.6996586 0.0013911616 -0.24457143 0.035254117 -0.034964893
0.49532026 0.2438267 -0.5532313 -0.3002937 -0.087708205 -0.72754 -0.52447885 -0.018538084
-0.109529465 -0.6620981 0.13875934 -0.22811538 0.00084498903 -0.03788193 0.3969658 -0.30293545
-0.089379884 -0.12225005 -0.048883487 1.0064543 0.0062860185 -0.9036043 -0.42096895 -0.50330305
0.2875461 0.21309137 -0.21422581 -0.09780479 -0.48043865 0.09639814 -0.19037159 0.24032508
-0.11882737 0.36361122 0.20877178 0.3399767 0.31313354 -0.07604168 -0.1576503 -0.48119798
0.6177971 -0.2756156 -0.21927269 0.6430889 0.21654704 0.36677933 0.4956224 0.2859697
-0.010370681 0.15413073 0.15488395 -0.21837051 -0.28240034 -0.6855695 0.02620846 0.6267758
0.3578862 0.5259273 0.45153546 0.24886775 -0.045348015 -0.07409879 0.21063122 -0.2027372
-0.4098796 -0.14965776 0.033458635 -0.39308894 -0.3868258 -0.21450673 0.00017115561 -0.06196987
-0.041861024 0.118181914 0.07835642 0.12883371 -0.031033425 -0.4202928 0.05034912 -0.022414986
-0.20559303 -0.19739456 -0.18311536 0.09957449 -0.27426207 -0.3985085 0.474227 -0.23733756
-0.26240742 -0.36141682 0.04998669 -0.48846844 -0.42672056 0.23093596 -0.19064276 -0.18248232
0.30287957 0.317914 0.009607667 0.34459049 0.17881478 -0.02814281 0.66206247 0.4662603
0.3027011 0.32360935 0.3734113 -0.14766665 -0.37763107 -0.05028959 -0.080251455 0.30354318
0.0007205527 -0.35406747 0.48839712 -0.15242837 0.133703 -0.6543804 -0.18357651 -0.15493292
0.050453812 0.40928933 -0.40235922 -0.25183013 -0.14725445 -0.049128655 -0.6402089 -0.29800445
-0.17361438 -0.89114285 -0.42682236 -0.5268904 -0.024149053 -0.2871753 0.32358336 0.2024792
-0.37331605 -0.18966804 -0.36777788 0.41076046 0.18044955 0.35090077 0.21129994 0.15144514
0.042269528 0.27566835 0.00037177643 -0.45313478 0.48306054 -0.1207609 0.23360738 0.07203829
-0.07322677 0.26406896 0.100722164 0.27087122 -0.65517306 -0.27738455 -0.114867344 -0.29635555
0.11774704 -0.111157306 -0.15691382 0.1016471 -0.02285452 -0.48887601 -0.040184945 0.3669426
-0.13988255 0.13087891 0.29142877 -0.28494778 -0.35397893 0.1043272 -0.4670983 -0.09370517
-0.560954 0.18736307 -0.32580766 -0.20924811 -0.58249694 0.2007899 0.21455175 -0.4815318
00000000: a548 963e 73c3 e73e ca20 823e f48f 2f3d
00000010: f19a 94be 7468 533c 51a3 af3e 1de1 47bc
00000020: 108e 0abe cb53 9f3e c228 96be 1f25 1f3f
00000030: dd57 d23e 6a7c 5c3d 6240 5e3e 64e7 9cbe
00000040: d6d3 f5bd 7124 1a3d 1232 d8be e793 b8be
00000050: 8d41 4cbe 0dd8 b1be a748 01bf 988e 91bc
00000060: c69f 10be 3200 f5bd f173 353e 71a8 8f3e
00000070: b77f ae3e 74d2 bebe f43c 423f 4617 403f
00000080: 8b90 99bd eb27 ff3d 07d0 153f deba b2be
00000090: de89 253f 27d1 5e3e 49b8 a9bd 08a1 6dbd
000000a0: c8fa 16be dc7d cfbe 451b e43d 73d7 003f
000000b0: edb2 79be 0946 27bf 3731 31bf e6bb 6ebe
000000c0: 4cf3 36bf 3b24 8abe b54d 13bf 479d 643e
000000d0: b2c8 2b3f 0715 6b3e 1f8c 15bf ede6 d3bb
000000e0: 137a a9bc 28f7 2fbf f304 19be b7af 84bd
000000f0: d7eb 1dbf fb86 9e3e 9f4f 603c c5d8 37be
00000100: 4b8d a6bd a06e 5dbe 659b b9ba d31c 33bf
00000110: a357 b63a ef70 7abe 9f66 103d 5937 0fbd
00000120: 9e9a fd3e b5ad 793e 91a0 0dbf 19c0 99be
00000130: 5ca0 b3bd 1040 3abf 3f44 06bf 2edd 97bc
00000140: fc50 e0bd 437f 29bf ee16 0e3e 1497 69be
00000150: 4182 5d3a 152a 1bbd 1a3f cb3e 5b1a 9bbe
00000160: cd0c b7bd 3c5e fabd 0d3a 48bd 7fd3 803f
00000170: f2fa cd3b 9d52 67bf 3e89 d7be 78d8 00bf
00000180: 3e39 933e a034 5a3e 035e 5bbe e14d c8bd
00000190: 0efc f5be 636c c53d c5f0 42be c717 763e
000001a0: c45b f3bd 402b ba3e 45c8 553e 6d11 ae3e
000001b0: 0a53 a03e bebb 9bbd 156f 21be 955f f6be
000001c0: f327 1e3f 7d1d 8dbe 0589 60be 79a1 243f
000001d0: 82be 5d3e 80ca bb3e 38c2 fd3e 9f6a 923e
000001e0: cae9 29bc 72d4 1d3e e699 1e3e 859c 5fbe
000001f0: c796 90be 7c81 2fbf 20b3 d63c 6174 203f
00000200: dc3c b73e 2ca3 063f a82f e73e 30d7 7e3e
00000210: d7be 39bd 1bc1 97bd b6af 573e 579a 4fbe
00000220: bddb d1be e23f 19be ec0b 093d f442 c9be
00000230: 080e c6be a7a7 5bbe 3c78 3339 1ed4 7dbd
00000240: 7776 2bbd 5c09 f23d 5579 a03d fcec 033e
00000250: cf39 febc 9e30 d7be e13a 4e3d a29f b7bc
00000260: fb86 52be cd21 4abe 9882 3bbe b6ed cb3d
00000270: 146c 8cbe 4e09 ccbe e2cd f23e 9e08 73be
00000280: 445a 86be a00b b9be d8be 4c3d 8918 fabe
00000290: 1e7b dabe 7a7a 6c3e db37 43be a5dc 3abe
000002a0: 0813 9b3e a0c5 a23e 7a69 1d3c 2a6e b03e
000002b0: 391b 373e c08b e6bc ed7c 293f acb9 ee3e
000002c0: a3fb 9a3e 20b0 a53e c42f bf3e ed35 17be
000002d0: dc58 c1be 75fc 4dbd e05a a4bd 036a 9b3e
000002e0: 79e3 3c3a 5548 b5be 300f fa3e 2f16 1cbe
000002f0: 70e9 083e 7985 27bf 7bfb 3bbe bca6 1ebe
00000300: a8a8 4e3d 5f8e d13e 0702 cebe e1ef 80be
00000310: dfc9 16be 213b 49bd bbe4 23bf 0a94 98be
00000320: f8c7 31be f021 64bf 7688 dabe 4ae2 06bf
00000330: 3cd4 c5bc a408 93be b8ac a53e b556 4f3e
00000340: 4823 bfbe 5738 42be 624d bcbe 324f d23e
00000350: c4c7 383e 44a9 b33e 035f 583e 6f14 1b3e
00000360: d022 2d3d 6724 8d3e fdea c239 4801 e8be
00000370: b653 f73e 7e51 f7bd c636 6f3e d088 933d
00000380: ebf7 95bd 0c34 873e 6c47 ce3d a2af 8a3e
00000390: 6cb9 27bf 5905 8ebe 923f ebbd eabb 97be
000003a0: 5c25 f13d 71a6 e3bd 04ae 20be 5b2c d03d
000003b0: 6739 bbbc f54d fabe f898 24bd e7df bb3e
000003c0: 5f3d 0fbe 1f05 063e 2736 953e ade4 91be
000003d0: ba3c b5be 80a9 d53d 8227 efbe 7fe8 bfbd
000003e0: ae9a 0fbf 1bdc 3f3e 43d0 a6be 2345 56be
000003f0: 851e 15bf de9b 4d3e 74b3 5b3e 568b f6be

Variable_38/read/_32__cf__32:0 f4 [1, 16, 1, 1]
1.91874 2.0688326 2.263471 1.882425 2.1096282 2.049864 2.339304 2.049989
1.8340495 2.327491 1.9201974 2.1051779 2.2559414 2.3097944 1.7424965 2.5273106
00000000: 4699 f53f c167 0440 b5dc 1040 4df3 f03f
00000010: 2604 0740 f930 0340 28b7 1540 0533 0340
00000020: 22c2 ea3f 9df5 1440 07c9 f53f 3cbb 0640
00000030: 5861 1040 acd3 1340 200a df3f 75bf 2140

Variable_37/read/_31__cf__31:0 f4 [1, 16, 1, 1]
-0.05355285 -0.12469847 0.040176533 -0.08277495 -0.012664394 0.20270175 0.11676571 -0.16702117
0.12867543 -0.4866525 0.3442515 -0.11838178 -0.13825323 0.06467273 -0.6435765 0.13338958
00000000: 3c5a 5bbd e961 ffbd 2690 243d ea85 a9bd
00000010: 527e 4fbc 0c91 4f3e dc22 ef3d 9907 2bbe
00000020: 7ec3 033e 842a f9be bc41 b03e 2672 f2bd
00000030: 4192 0dbe 2373 843d 6ec1 24bf 4797 083e

Variable_36/read/_30__cf__30:0 f4 [16, 16, 3, 3]
0.661618 0.30315238 -0.46576118 -0.43662408 0.61256075 -0.09743222 -0.04812822 0.27620158
-0.040734246 0.20017116 -0.14458878 -0.33168033 -0.07028059 -0.11171923 -0.12780274 0.37537375
-0.19800797 -0.17901362 0.6017795 -0.1320015 0.06652363 0.2288832 0.047106035 -0.21041746
0.36419377 0.046649408 0.18146217 -0.015955385 0.17687011 0.18574877 -0.10165634 0.4618345
0.23096357 0.15699989 0.036858015 0.44668248 -0.16797914 0.07155191 -0.21809559 -0.1882354
-0.11158548 0.11387375 -0.27987832 -0.25700623 -0.12366012 -0.5769393 0.2285228 -0.139642
0.032512207 -0.31615734 -0.45257938 -0.45687732 -0.28190437 -0.72528625 -0.13919684 0.03167296
-0.016380396 0.11226941 0.20495348 -0.4454642 0.030708268 0.06147639 -0.41694632 -0.24461985
-0.23241508 -0.83950365 -0.14456727 0.47377557 -0.31167534 0.30120435 0.9192843 0.6295666
-0.45340243 -0.23726897 0.22703665 0.8581002 0.40420318 0.4249251 -0.12072785 0.40626937
0.10296522 0.19951391 0.03620741 0.15361851 0.49771413 0.18257347 0.21042411 0.3526225
-0.26624936 -0.0456795 0.27936128 0.46815112 0.3214669 -0.4503764 0.39205495 0.43293738
-0.121060975 -0.094371326 -0.37360737 0.3266583 0.94469297 -0.33706868 0.17239834 0.18473057
-0.27812484 0.25578195 -0.053671703 0.57946986 -0.14694646 0.10892859 -0.29433098 -0.6624385
-0.3595792 -0.15422174 -0.8375718 -0.3678016 -0.112407416 1.0103605 -0.109466165 -0.45586607
-0.3431653 -0.050477583 1.2280238 -0.022029344 0.31637582 0.29590845 -0.5018604 -0.37760335
-0.12682508 0.42885157 -0.31313968 -0.4488566 0.5930339 0.10960872 -0.3621997 -0.13277
0.30260313 0.4556342 0.60312253 0.22588882 -0.121947356 -0.07890667 -0.50283164 0.1517431
-0.2183679 -0.52540284 0.11680144 0.22856343 0.44578913 0.087465696 -0.11642029 0.11165397
0.32992932 0.9078688 0.7424611 0.1871242 0.6620673 -0.66820455 0.46834227 0.19731219
0.15271696 1.0030481 -0.3887961 0.64410657 0.4086722 0.24421532 -0.40504068 0.1570597
-0.37245122 0.14590031 -0.10085743 0.013134223 -0.029718874 0.5376338 0.49308103 -0.33126104
-0.12821841 0.075108364 -0.4595781 0.7551543 0.6377126 0.027793907 -0.18962559 -0.30144987
0.49227837 -0.28047332 -0.049867634 -0.15803547 -0.28985697 -0.23764308 -0.6076352 -0.23635894
-0.23376141 -0.4277009 -0.14007434 0.34990197 -0.07416141 -0.14085856 -0.0012002797 0.23305121
0.31999385 0.35955474 -0.14339384 0.004441813 0.1848821 -0.009996699 0.016281465 -0.2560457
0.73012346 0.14643218 0.5671509 0.34301385 -0.84887254 0.22803661 0.035545312 -0.4630491
0.21340354 0.37115148 0.16271059 0.2818244 0.3207337 0.2522785 0.4318396 0.19345234
0.088828616 0.2197704 0.3652477 -0.06605174 0.6694593 0.27293313 0.2850268 0.47172603
0.24376124 0.27440503 0.21806443 0.010234319 -0.23793584 0.16326715 0.9857021 0.20030552
0.573177 0.49603736 -0.06314605 0.38852915 -0.6806922 0.49384946 0.29048628 0.32918164
0.5016579 0.18220426 -0.4730164 0.584617 0.03817151 0.11180957 0.3726773 0.2885558
00000000: cc5f 293f ca36 9b3e 4078 eebe 318d dfbe
00000010: c8d0 1c3f 8b8a c7bd 1922 45bd 4b6a 8d3e
00000020: f4d8 26bd abf9 4c3e 150f 14be 01d2 a9be
00000030: 45ef 8fbd 0dcd e4bd b9de 02be fd30 c03e
00000040: 9ac2 4abe 594f 37be 390e 1a3f 672b 07be
00000050: 8a3d 883d 5c60 6a3e 42f2 403d ad77 57be
00000060: 9b77 ba3e 7313 3f3d 38d1 393e deb4 82bc
00000070: 701d 353e ed34 3e3e 3331 d0bd 9275 ec3e
00000080: b781 6c3e 94c4 203e 6ef8 163d 91b3 e43e
00000090: b902 2cbe cf89 923d 7354 5fbe c8c0 40be
000000a0: ee86 e4bd a436 e93d 364c 8fbe 5296 83be
000000b0: 8441 fdbd 4bb2 13bf e201 6a3e 50fe 0ebe
000000c0: 852b 053d 60df a1be 7cb8 e7be d3eb e9be
000000d0: c555 90be 5cac 39bf 9e89 0ebe 81bb 013d
000000e0: 2e30 86bc 81ed e53d 53df 513e e213 e4be
000000f0: e88f fb3c abce 7b3d fd79 d5be a07d 7abe
00000100: 38fe 6dbe b6e9 56bf 7109 14be b692 f23e
00000110: e993 9fbe 7537 9a3e 3756 6b3f 472b 213f
00000120: 5d24 e8be a3f6 72be 4c7c 683e 74ac 5b3f
00000130: b8f3 ce3e c88f d93e 2a40 f7bd 8a02 d03e
00000140: 6edf d23d 604d 4c3e 394e 143d 2c4e 1d3e
00000150: 63d4 fe3e 8af4 3a3e 6b79 573e f08a b43e
00000160: d651 88be 6d1a 3bbd 7108 8f3e 81b1 ef3e
00000170: 4f97 a43e bc97 e6be 6dbb c83e f8a9 dd3e
00000180: d1ee f7bd c145 c1bd 7749 bfbe c23f a73e
00000190: 66d7 713f 4494 acbe 3189 303e 032a 3d3e
000001a0: 6166 8ebe daf5 823e dcd6 5bbd 2358 143f
000001b0: 2279 16be f415 df3d 8db2 96be 9295 29bf
000001c0: c41a b8be 4eec 1dbe 1b6b 56bf 7e50 bcbe
000001d0: dc35 e6bd 7e53 813f cc2f e0bd 4767 e9be
000001e0: 5db3 afbe 95c1 4ebd e22f 9d3f e276 b4bc
000001f0: 03fc a13e 5081 973e ec79 00bf 3a55 c1be
00000200: 6fde 01be 6f92 db3e d853 a0be 88d0 e5be
00000210: 12d1 173f 897a e03d 3d72 b9be dcf4 07be
00000220: ccee 9a3e e348 e93e 3d66 1a3f 664f 673e
00000230: 89bf f9bd d299 a1bd 93b9 00bf 8b62 1b3e
00000240: d69b 5fbe cd80 06bf 9835 ef3d 880c 6a3e
00000250: 793e e43e 3721 b33d c36d eebd d6aa e43d
00000260: 7fec a83e 176a 683f ee11 3e3f 7c9d 3f3e
00000270: 3e7d 293f 740f 2bbf 8fca ef3e 350c 4a3e
00000280: d661 1c3e e163 803f 4810 c7be 2be4 243f
00000290: 7c3d d13e 9513 7a3e 7e61 cfbe 42d4 203e
000002a0: edb1 bebe e466 153e 578e cebd ed30 573c
000002b0: ff74 f3bc 5ea2 093f 1e75 fc3e 0c9b a9be
000002c0: b04b 03be 6ad2 993d d24d ebbe cb51 413f
000002d0: 2241 233f 0cb0 e33c 362d 42be a357 9abe
000002e0: e90b fc3e 339a 8fbe 0142 4cbd 0dd4 21be
000002f0: 2268 94be b558 73be fb8d 1bbf 1408 72be
00000300: 275f 6fbe 9dfb dabe a66f 0fbe 5a26 b33e
00000310: f0e1 97bd 3a3d 10be b452 9dba faa4 6e3e
00000320: 3cd6 a33e 8f17 b83e d6d5 12be a18c 913b
00000330: bc51 3d3e 32c9 23bc b560 853c 6c18 83be
00000340: 5fe9 3a3f 51f2 153e cd30 113f 839f af3e
00000350: b64f 59bf 6e82 693e f697 113d c614 edbe
00000360: 7586 5a3e 9107 be3e 9b9d 263e 4a4b 903e
00000370: 3537 a43e a62a 813e 141a dd3e 5f18 463e
00000380: c7eb b53d 7e0b 613e bf01 bb3e 2246 87bd
00000390: af61 2b3f e4bd 8b3e 08ef 913e 1386 f13e
000003a0: 8c9c 793e d17e 8c3e 484c 5f3e d8ad 273c
000003b0: 74a5 73be 812f 273e f956 7c3f e41c 4d3e
000003c0: babb 123f 9cf8 fd3e b752 81bd 4bed c63e
000003d0: d841 2ebf d6d9 fc3e 9eba 943e 7f8a a83e
000003e0: a76c 003f c193 3a3e 352f f2be 76a9 153f
000003f0: bb59 1c3d 6afc e43d 8fcf be3e 96bd 933e

Variable_35/read/_29__cf__29:0 f4 [1, 16, 1, 1]
1.4258928 0.9519146 0.67018956 1.1433898 0.87475985 1.1357716 1.1480279 1.1462265
0.7293317 0.7026298 1.1030563 0.6864481 0.9060271 0.7286197 1.0450763 1.1401284
00000000: a883 b63f adb0 733f 8b91 2b3f 995a 923f
00000010: 43f0 5f3f f760 913f 94f2 923f 8db7 923f
00000020: 7bb5 3a3f 8cdf 333f f330 8d3f 10bb 2f3f
00000030: 64f1 673f d286 3a3f 0fc5 853f baef 913f

Variable_34/read/_28__cf__28:0 f4 [1, 16, 1, 1]
-1.4198453 -0.34561434 1.7574794 -0.32722282 -0.058216803 0.23537463 0.050328296 -0.4485266
0.18542728 0.97410667 -0.36413598 0.52484745 0.21015199 0.4098395 0.73266906 -1.0958033
00000000: 7ebd b5bf 5df4 b0be 16f5 e03f c089 a7be
00000010: be74 6ebd 0c06 713e 0b25 4e3d 47a5 e5be
00000020: a6e0 3d3e 0e5f 793f 0870 babe 675c 063f
00000030: 1532 573e 7cd6 d13e 3390 3b3f 4843 8cbf

Variable_33/read/_27__cf__27:0 f4 [16, 16, 3, 3]
-0.03606536 -0.029366689 -0.16558816 0.03407029 0.039579898 -0.18203121 -0.13076532 -0.118154906
-0.41139612 -0.048274733 0.3802084 0.02500188 -0.099355236 0.09494203 0.4479174 0.04527226
0.42531216 -0.19144581 -0.0060823634 0.27821332 0.3466166 -0.21228692 0.13872927 0.4965267
0.0030817096 -0.4856826 -1.4364228 -0.0044964068 -0.08084785 0.012930812 -0.13289884 0.2303276
0.26716575 0.21329488 -0.1928996 -0.3172112 -0.28448603 -0.21015099 -0.18169291 -0.10021655
0.45789218 0.32021573 0.31357253 -0.19148779 -0.55519074 0.16853884 0.29290235 0.02340787
0.20813072 -0.16382025 -1.0438477 0.12576479 -0.21634336 -0.2292787 0.09507568 -0.4369317
-0.11115733 0.2083143 0.035355818 -1.2709742 -0.040783595 0.13730243 0.08184933 -0.21429884
0.25509515 -0.4881419 -0.31792918 0.7740857 -0.20738055 -0.057317548 0.79766667 0.75331044
-0.11290456 0.43786174 -0.021238333 -0.18538955 0.6059378 0.4903233 -0.03146061 0.133685
0.42255458 -0.0029157198 0.23187828 -0.12440484 -0.10028418 0.19397646 0.84820133 0.15158683
-0.6753157 0.36308247 0.12818009 -0.5040191 0.73811835 0.04692768 -0.09229555 0.11253464
-0.1669672 -0.8135924 1.5109707 -0.09693985 -0.42052475 -0.21108562 -0.049713474 0.025757236
0.09200671 0.49135098 0.14660823 0.5092965 0.040110752 -0.45845297 0.094055146 0.36723888
0.06783722 -0.6261731 -0.084161855 0.22096221 0.15777647 -0.06013136 0.06707401 -0.2992425
-0.18197781 0.43983305 -0.9048386 -0.20984155 -0.47833633 0.98318195 0.01045383 0.07536979
-0.3259853 -0.07956851 -0.20514171 -0.31259435 0.26108137 -0.443212 0.03532642 0.21918207
-0.45182288 0.40655714 0.2976172 0.48845378 -1.2080683 -0.2411569 -0.22677097 -0.48246777
0.1220107 -0.3750828 -0.3506693 -0.20740454 -0.38364285 -0.36968237 0.17948493 0.046764582
0.63847375 -0.5203791 -0.12697653 0.3503226 0.04094242 -0.7231911 -0.06822167 -0.3446862
0.19745156 0.32362813 0.2642085 0.75983727 0.36097458 0.38368413 -0.16821632 0.20555253
-0.33907703 -0.1271912 -0.0009421557 0.36444244 0.74105847 0.3791065 0.070117414 -0.2358847
0.6905364 -0.2732412 -0.50732577 -0.069993824 -0.34776238 0.22136573 -0.15263394 -0.28311884
-0.1867486 0.11183694 0.16575594 -0.18509333 0.30419546 0.0071531995 0.08797163 -0.46342146
0.39735907 -0.27205366 0.14133425 0.04557823 0.33604604 0.6646324 0.26634648 -1.2348567
0.19645162 -0.44949985 -0.23237975 -0.14417121 -0.29238936 0.62277484 0.1470691 0.54251176
0.07478997 0.20340936 0.2636303 0.16280808 0.19775692 -0.28780782 0.58626354 0.6908613
0.033143006 0.22583872 -0.751077 0.238684 -0.3308228 0.19474575 0.12638356 0.28648615
0.3507937 0.6087156 0.5169924 -0.28793895 0.38282278 -0.16773888 -0.031982176 0.28670672
0.37033063 -0.042993642 -0.45723328 0.51769245 -0.27711087 0.4624113 -0.20714587 0.053776033
0.43347496 0.23740447 -0.16127256 -0.26624912 0.04918691 0.02757689 0.13797235 0.22518152
0.24268574 -0.69254464 -0.12822163 -0.24176218 0.016271612 -0.224394 -0.22398877 -0.5537805
00000000: 45b9 13bd 6992 f0bc f18f 29be 4a8d 0b3d
00000010: 881e 223d 6466 3abe 58e7 05be 33fb f1bd
00000020: 83a2 d2be babb 45bd adaa c23e bed0 cc3c
00000030: c27a cbbd f870 c23d 6e55 e53e 686f 393d
00000040: 84c2 d93e 5f0a 44be 904e c7bb fa71 8e3e
00000050: bb77 b13e be61 59be 0c0f 0e3e bf38 fe3e
00000060: 82f6 493b 64ab f8be b4dc b7bf 9856 93bb
00000070: 8f93 a5bd c2db 533c a216 08be 00db 6b3e
00000080: f3c9 883e f969 5a3e 7987 45be 8269 a2be
00000090: 27a8 91be d231 57be b50d 3abe 563e cdbd
000000a0: d870 ea3e 51f3 a33e 948c a03e 6015 44be
000000b0: fb20 0ebf 7295 2c3e 4cf7 953e ddc1 bf3c
000000c0: 3820 553e 7fc0 27be cd9c 85bf 7cc8 003e
000000d0: 1d89 5dbe 09c8 6abe 0ab7 c23d 83b5 dfbe
000000e0: 74a6 e3bd 5850 553e 43d1 103d 48af a2bf
000000f0: b30c 27bd 0299 0c3e 9fa0 a73d 2871 5bbe
00000100: d59b 823e bced f9be 9dc7 a2be 7b2a 463f
00000110: 915b 54be cec5 6abd e233 4c3f f4d8 403f
00000120: 823a e7bd 6a2f e03e 03fc adbc c2d6 3dbe
00000130: bd1e 1b3f a80b fb3e d7dc 00bd b8e4 083e
00000140: 1359 d83e a915 3fbb 8071 6d3e f7c7 febd
00000150: cb61 cdbd c4a1 463e b923 593f 9439 1b3e
00000160: 7de1 2cbf f2e5 b93e a441 033e 6507 01bf
00000170: 53f5 3c3f 3d37 403d 7305 bdbd 9078 e63d
00000180: 73f9 2abe 9747 50bf 7d67 c13f 6688 c6bd
00000190: 054f d7be d426 58be 5ba0 4bbd d700 d33c
000001a0: 046e bc3d 5b92 fb3e 7820 163e 4161 023f
000001b0: 2c4b 243d 59ba eabe fc9f c03d bc06 bc3e
000001c0: 3eee 8a3d e14c 20bf 0d5d acbd eb43 623e
000001d0: 2890 213e 4d4c 76bd 195e 893d 5036 99be
000001e0: 6458 3abe cc31 e13e 81a3 67bf b4e0 56be
000001f0: 80e8 f4be d0b1 7b3f 8a46 2b3c 7a5b 9a3d
00000200: 8ce7 a6be d1f4 a2bd ab10 52be 5e0c a0be
00000210: 75ac 853e afec e2be 70b2 103d 4471 603e
00000220: 5455 e7be 4228 d03e 4861 983e 9d16 fa3e
00000230: fba1 9abf d6f1 76be a636 68be 0406 f7be
00000240: bfe0 f93d da0a c0be ed8a b3be db61 54be
00000250: d66c c4be 0247 bdbe e6ca 373e 388c 3f3d
00000260: 0473 233f 9137 05bf 2306 02be 7c5d b33e
00000270: 3db3 273d 0d23 39bf ceb7 8bbd b67a b0be
00000280: be30 4a3e 96b2 a53e 5646 873e b284 423f
00000290: a9d1 b83e 3f72 c43e e640 2cbe 5d7c 523e
000002a0: 819b adbe 693e 02be 00fb 76ba 3398 ba3e
000002b0: 02b6 3d3f 3f1a c23e b899 8f3d c28b 71be
000002c0: fec6 303f 45e6 8bbe 1ae0 01bf ec58 8fbd
000002d0: e90d b2be b3ad 623e 124c 1cbe f4f4 90be
000002e0: 063b 3fbe c40a e53d edbb 293e 1b89 3dbe
000002f0: 82bf 9b3e 6365 ea3b 782a b43d 9445 edbe
00000300: a672 cb3e 9e4a 8bbe edb9 103e 3db0 3a3d
00000310: 3a0e ac3e 5925 2a3f 915e 883e c90f 9ebf
00000320: 9d2a 493e d824 e6be f5f4 6dbe 9ea1 13be
00000330: 0fb4 95be 2c6e 1f3f 4899 163e 0de2 0a3f
00000340: 7c2b 993d 8b4a 503e 8dfa 863e 29b7 263e
00000350: ca80 4a3e 8c5b 93be 5e15 163f 49dc 303f
00000360: f6c0 073d 4442 673e 9546 40bf 9469 743e
00000370: 9b61 a9be 6e6b 473e b16a 013e 50ae 923e
00000380: 3b9b b33e c9d4 1b3f 9d59 043f bc6c 93be
00000390: 5901 c43e bec3 2bbe beff 02bd 39cb 923e
000003a0: fa9b bd3e 1a1a 30bd 7b1a eabe 7e87 043f
000003b0: 7ae1 8dbe 2dc1 ec3e 0c1e 54be 4244 5c3d
000003c0: 6ef0 dd3e 281a 733e a224 25be ce51 88be
000003d0: 3778 493d eee8 e13c a048 0d3e fc95 663e
000003e0: 9c82 783e 9b4a 31bf 884c 03be 8190 77be
000003f0: 0b4c 853c 8ac7 65be 505d 65be 8fc4 0dbf

Variable_32/read/_26__cf__26:0 f4 [1, 16, 1, 1]
1.446983 1.598188 1.0166588 1.9002376 1.3138922 1.1017033 1.6960026 1.6461343
1.6653593 1.5189716 1.0472465 1.7106993 1.4204186 1.3736353 1.6655443 1.632397
00000000: bd36 b93f 6d91 cc3f e021 823f fc3a f33f
00000010: 9f2d a83f 9d04 8d3f 9d16 d93f 87b4 d23f
00000020: 7e2a d53f a96d c23f 2c0c 863f 32f8 da3f
00000030: 47d0 b53f 48d3 af3f 8e30 d53f 63f2 d03f

Variable_31/read/_25__cf__25:0 f4 [1, 16, 1, 1]
-0.053552408 -0.12469856 0.040176623 -0.08277489 -0.01266398 0.20270175 0.11676551 -0.16702124
0.12867613 -0.48665234 0.34425095 -0.118381746 -0.1382536 0.064672664 -0.6435762 0.13338988
00000000: c559 5bbd f561 ffbd 3e90 243d e285 a9bd
00000010: 957c 4fbc 0c91 4f3e c122 ef3d 9e07 2bbe
00000020: adc3 033e 7f2a f9be a941 b03e 2172 f2bd
00000030: 5a92 0dbe 1a73 843d 69c1 24bf 5b97 083e
