examples/style_transfer/model/wheatfield_with_crows.tflite (tflite, 150728 bytes, 52 tensors)

Conv2D_12_bias f4 [16]
00000000: 0000 0000 0000 0000 0000 0000 0000 0000
00000010: 0000 0000 0000 0000 0000 0000 0000 0000
00000020: 0000 0000 0000 0000 0000 0000 0000 0000
00000030: 0000 0000 0000 0000 0000 0000 0000 0000
0.0 0.0 0.0 0.0 0.0 0.0 0.0 0.0
0.0 0.0 0.0 0.0 0.0 0.0 0.0 0.0

Conv2D_13_bias f4 [3]
00000000: 0000 0000 0000 0000 0000 0000
0.0 0.0 0.0

Conv2D_1_bias f4 [8]
00000000: 0000 0000 0000 0000 0000 0000 0000 0000
00000010: 0000 0000 0000 0000 0000 0000 0000 0000
0.0 0.0 0.0 0.0 0.0 0.0 0.0 0.0

Conv2D_bias f4 [4]
00000000: 0000 0000 0000 0000 0000 0000 0000 0000
0.0 0.0 0.0 0.0

Variable/read f4 [4, 9, 9, 3]
00000000: 5152 f33d b8f7 0a3d cb3c 0cbf af35 983e
00000010: c286 093d d182 05bf bbdb 983e 669a 743b
00000020: 66c1 09bf 139d 0e3f 7151 b63d 072d ebbe
00000030: 9530 fb3e fc8c 263e 099c d6be 8165 0a3f
00000040: 2952 b43d f2b5 a6be e7ef e53e c2b8 f03d
00000050: 4ec4 05bf 067d a73e 079b dc3d ba41 9bbe
00000060: bc2d c63e dd37 1d3b 95cc 13bf c897 b83e
00000070: c08f 353d ff79 31bf ed59 f53e 8504 0dbc
00000080: 7a98 07bf 5610 cf3e cd87 823e 8a8d b8be
00000090: 8781 0d3f 0a21 903e 962d b3be 5c01 3c3f
000000a0: d0dd 633e 3f4e e5be bf92 263f a258 1dbd
000000b0: ab82 bebe e4cf b83e c14b 42bd 5608 4dbe
000000c0: ce6e 043f a810 e8bd 7899 edbe f31e 963e
000000d0: e704 c5bd 5f25 e0be 74e9 da3e 1eea 203e
000000e0: ba92 23bf 7c6f 183f e3c3 8d3d 9e76 cdbe
000000f0: d4fe 0b3f ce75 803e 6504 74be 76fb 0c3f
00000100: 9ee4 1c3d 7579 14be 19b9 143f 2234 3f3e
00000110: 20c7 babe ab08 0b3f f91d 2ebd 5956 dabe
00000120: 20d1 c83e 085a 563c aeda 91be 75e4 953e
00000130: 6dba a1bc 7569 03bf 562f 843e 5a04 5abe
00000140: 5c9b 2fbf 5b1e e43e 7500 423e d8cd b3be
00000150: fe31 c93e 73b5 1dbd f5b5 82be 4f84 bd3e
00000160: f398 b03d 8e5d 59be f733 f33e 45cf 6bbc
00000170: e8a1 03bf b7a0 2b3f 2bcf f1bc 87c0 e5be
00000180: 87ca 1f3f e26e 363d a430 1ebf 86c7 4b3e
00000190: f4b4 85be 5c74 c4be f44a 3b3e 676f 22be
000001a0: 60f4 1dbf fdf6 c43e b185 47be 86fc 1dbf
000001b0: 8250 113f 68a0 05bd 2187 f8be 9e9c ba3e
000001c0: 04df b83d c1da a2be b56f bc3e fb8f 183d
000001d0: f2df 04bf cb06 ae3e 406b dfbc 2edf b0be
000001e0: 4b8f 043f 940e 87bd a18e 0bbf 28e9 113f
000001f0: 5b28 02be dabd f8be b04c c43e 456e 96bd
00000200: 551f c7be 4988 c63e 2ed2 1e3d f6f9 b6be
00000210: 3dd5 f53e e8de 33bc 0168 a3be 0a80 743e
00000220: 5e28 6ebc e321 83be 3798 943e c29b ddbd
00000230: 9fcf 7fbe 55e8 663e a674 dbbd 7073 dabe
00000240: 380e 183e d022 8bbe ba49 29bf 296c ae3e
00000250: 64d2 09be 1033 07bf 366d df3e bff5 e2bd
00000260: 1f77 b2be 6bed f13e fe56 173e 08d7 dfbe
00000270: 8da4 8c3e fce4 413e 1e96 25be 4047 103f
00000280: f5f4 8c3e 4451 3dbd 9b08 fd3e e3c6 aa3d
00000290: d0a7 cbbe fb04 713e c500 f33d 871f bebe
000002a0: 20b4 ce3d bc53 b3bd 4e27 c4be c04d 8f3e
000002b0: 9c82 8fbd 77d9 f0be 2160 bd3e 4f47 87bd
000002c0: aa2d 0cbf e926 ea3e 6047 ecbb 78ea 91be
000002d0: 4d8e 8b3e 48f6 cc3d 4da9 47be 7d10 b03e
000002e0: b25d 583e e4b7 27be fcbd 263f 2484 333e
000002f0: 5f87 bcbe cf5c fe3e a782 073e 0749 b2be
00000300: 24f6 983e e69c 32bd 09f2 c4be 538f 883d
00000310: 17e9 003d 2336 b9be 1335 fe3d bef8 abbd
00000320: c50c b4be 4ffe c23e 3491 563d 7f4e 7cbe
00000330: d221 c73e a032 843e 9240 76be 9bad 253e
00000340: 049e 6f3e 9091 0abe a059 8a3e f490 683e
00000350: 1041 7fbe fecb 9f3e 7004 563e a721 c8be
00000360: 1666 023f e639 3e3e eb6c b0be 5765 a83e
00000370: 489f 373e 89f9 8dbe df70 ce3e 6197 2e3e
00000380: 4480 88be 6196 473e 8e9c a33b b70f 0fbf
00000390: 139b 923e 8d52 32bd d230 aabe df70 133e
000003a0: 15c3 34be 2f33 f4be d282 863e 6f30 06be
000003b0: 6c84 d5be b21e 403e 27f0 9c3c b002 01bf
000003c0: a700 b13e cf0c 073e 036a 0cbf 1464 183e
000003d0: 361b fb3e 2a9b 22be 77a7 a33c e7e7 813e
000003e0: 9a00 e4bd c138 d0bd a0d3 823d 3965 a5bd
000003f0: d030 19be a47c 39bd 8a02 0dbe 82aa d4bd
0.11880935 0.03392765 -0.5478026 0.29728457 0.03357578 -0.52152735 0.2985514 0.0037323474
-0.5381073 0.55708426 0.089022525 -0.4593279 0.49060503 0.16264719 -0.4191592 0.5406113
0.08804733 -0.32560688 0.44909593 0.1175399 -0.5225266 0.32712573 0.107717566 -0.30323583
0.38706768 0.0023989596 -0.5773404 0.360533 0.044326544 -0.69326776 0.4792017 -0.008607035
-0.52967036 0.4044215 0.25494233 -0.36045486 0.5527577 0.28150207 -0.34995717 0.73439574
0.22252584 -0.4478626 0.65067667 -0.038414605 -0.37209067 0.36096108 -0.047435526 -0.20022711
0.51731575 -0.11331302 -0.4640615 0.29320487 -0.09620076 -0.43778512 0.42756236 0.15714309
-0.6389576 0.5954511 0.06922128 -0.4012956 0.5468571 0.25089878 -0.23829801 0.550712
0.038303964 -0.14499457 0.58094937 0.18672231 -0.36480045 0.543101 -0.042509053 -0.42644003
0.3922205 0.013082989 -0.28487152 0.2927586 -0.019742215 -0.5133279 0.25817364 -0.21290722
-0.68596435 0.4455441 0.18945487 -0.35117984 0.39295954 -0.03850312 -0.25529447 0.37015006
0.08622923 -0.21227095 0.47500584 -0.014392679 -0.51418924 0.67042106 -0.02951773 -0.4487345
0.6241841 0.04453934 -0.6179297 0.19900331 -0.2611462 -0.38370025 0.18290311 -0.15862809
-0.6170101 0.38469687 -0.19484593 -0.61713445 0.5676347 -0.03262368 -0.48540595 0.36447614
0.09026912 -0.3180752 0.36803976 0.037246685 -0.51904213 0.33989558 -0.02727282 -0.34545273
0.5178115 -0.065945774 -0.5451451 0.56996393 -0.12710707 -0.48582345 0.38339758 -0.07345251
-0.38891092 0.38775852 0.03877466 -0.3573758 0.4801425 -0.010978438 -0.31915286 0.23876968
-0.0145359915 -0.2561179 0.2902238 -0.10820724 -0.24981545 0.22549565 -0.10715608 -0.42666197
0.14849174 -0.27174997 -0.6612812 0.34066895 -0.13459164 -0.5281229 0.4363801 -0.110820286
-0.34856507 0.47251448 0.14779279 -0.43718743 0.27469292 0.18935007 -0.16170546 0.5635872
0.27530637 -0.04622008 0.49420628 0.08338716 -0.39776468 0.23537056 0.11865381 -0.37133428
0.1009295 -0.087562054 -0.38311237 0.27989006 -0.07007334 -0.47040913 0.36987403 -0.06605398
-0.5475718 0.4573281 -0.007210657 -0.28499198 0.27257004 0.10007912 -0.19498177 0.3438758
0.21129492 -0.16378742 0.65133643 0.17530876 -0.3682203 0.49680182 0.13233434 -0.3482134
0.2987529 -0.04360666 -0.38465908 0.06667962 0.03147229 -0.36174116 0.12412467 -0.08397053
-0.35165992 0.38084647 0.05238457 -0.24639319 0.3889299 0.25819874 -0.24048069 0.16179506
0.23400122 -0.1353209 0.27021503 0.22711545 -0.24927163 0.3121032 0.2090013 -0.39088175
0.5093702 0.18576774 -0.34458098 0.32889816 0.17931855 -0.27729443 0.4032049 0.17049934
-0.2666036 0.19490959 0.004993028 -0.55883354 0.28633937 -0.043535758 -0.33240372 0.14398526
-0.17652543 -0.476953 0.26271683 -0.13104413 -0.41702592 0.1876171 0.019157482 -0.50394726
0.3457081 0.1318848 -0.5484926 0.14881927 0.49044198 -0.15879503 0.019977314 0.2537224
-0.11132927 -0.10167075 0.063880205 -0.08075947 -0.14960027 -0.045284882 -0.137705 -0.10384084

Variable_1/read f4 [4]
00000000: e189 3a40 1b5f 10be 6280 9f3c 9f02 e63e
2.9146655 -0.1409878 0.019470397 0.44923875

Variable_10/read f4 [16]
00000000: 0023 6b3d 20fd 723e 8efe 12be 6e1e 2e3f
00000010: db82 63bd 1042 263f 79c5 05bd bb8c 4abd
00000020: d7d4 2e3f a2c8 d7be 30f9 173c c826 7f40
00000030: 9592 303f 17ce 623e 3c97 e03f 3556 0b3e
0.057406425 0.23729372 -0.14354917 0.6801518 -0.055544715 0.64944553 -0.032659028 -0.049450617
0.6829352 -0.42145258 0.0092757195 3.986742 0.68973666 0.2214893 1.7546153 0.13607104

Variable_11/read f4 [16]
00000000: 3462 6e3f c0e8 883f 5bba 683f 5d1b 5a3f
00000010: 0ebb 633f 6d68 823f 5e63 913f d2a3 6a3f
00000020: 7e26 5f3f 1b78 703f 9260 c13f e392 153f
00000030: 5e0c 793f 0341 7c3f e20e 323f 52bc b33f
0.93118596 1.069603 0.90909356 0.85198003 0.889573 1.0188118 1.135845 0.9165622
0.8716811 0.93933266 1.5107596 0.58427256 0.97284496 0.985367 0.6955396 1.4041846

Variable_12/read f4 [16, 3, 3, 16]
00000000: 2e07 62be b650 03bf a662 04bf deee f23e
00000010: 27e7 b6bd a918 a4be 2915 83be 1274 3e3d
00000020: 5dd0 eb3d b5a4 533f ea3e 22bf 9efe ae3d
00000030: 0131 ef3d 14fb 023d 1437 d6bd 8d99 0abe
00000040: 7a9c 1a3f a46e f9be 50d5 5dbf af73 cd3e
00000050: 008e d6be b459 5ebe 9c71 a4bd 0a3f 4ebd
00000060: f085 4b3e 409e 17be d712 9e3d d944 c53e
00000070: c9e0 4b3e 2553 ffbd bf96 52be ce16 c5be
00000080: 87fa cc3e 39e6 05bf f02f 28bf c2a7 023f
00000090: f2a4 2cbe ce42 59bd 1ebf 6c3b fdc9 ccbd
000000a0: 970f 103f bf3d 35bf 8c06 353f 8b6b b03e
000000b0: e451 f43d 3373 6dbe 9ece 613e 99fa 9f3c
000000c0: 30a1 4d3f a860 34be 6307 ffbc f101 d03c
000000d0: 5f51 573e 63b7 273e abd3 0cbf e9a6 7a3e
000000e0: b712 9fbc 914e aabd c142 623e 94df 4a3e
000000f0: 3ae5 d53d 366b 9abd 426d b3be 2ba5 03bf
00000100: c454 9d3e 9a1a 85be 4a38 7c3e befa b43e
00000110: 6523 69be a0e3 9fbd 504a 85be 3910 dc3e
00000120: 097a 033e 2a06 6ebe d54d 30bf 1f8f 473f
00000130: ed74 1a3f a699 8bbe 97f0 cdbe be40 55be
00000140: 0f64 0a3f 8bdd 90be 8b67 9dbd 7be2 f63e
00000150: 42cc 87bd e891 d23e ae24 b7bd 8b5e 4d3e
00000160: d7f0 cc3e d5ae ec3d 576a cebe e5b5 763f
00000170: 2d82 133f e6f1 39bd e40b 0ebe 135d d13e
00000180: c2aa 2d3f 5742 4f3e 61ab af3e 6789 2d3d
00000190: a25a b43e 2a14 8c3d 51a3 a2bd 1ebe a53e
000001a0: 59a6 aebd 6920 b93d 0aa0 023f 9931 da3e
000001b0: 28cb 0abf c8ae be3e fd29 bebd 2ae9 853e
000001c0: 73a6 8dbd 80dd 6e3f eb3b a53e 7941 fa3d
000001d0: c365 7b3d 9afd 4f3e 74e7 50be 9732 ffbd
000001e0: 23a1 2abe d644 f4bc a85f 11be 52c6 693f
000001f0: 04d5 db3e 8adb 55bb a304 73bf 8524 2c3c
00000200: da39 0fbf 9b38 823d ca85 4f3f 9082 863e
00000210: 9bd0 e43d 5ff0 043e d8c5 d9bd 47f3 06bd
00000220: 50c5 d8bd 065a 033f c259 3bbf 8b5f 0c3f
00000230: 8172 603f 81e6 223f f0ea bdbd 6582 26bf
00000240: d2c4 9ebe 43b6 2c3f 1fd9 96bb 5113 513e
00000250: 3be4 d2bd 6b41 063e c79e 0d3f 3834 b3be
00000260: abe5 7b3e 68ad ba3e e1eb b9be aaf0 9abe
00000270: ae6f ea3e d776 9abc 7d46 bcbe 520f a9be
00000280: 2c98 f23d 4b9a f3bd 9a48 95bd eadf 263f
00000290: 0134 833e 2253 28be e271 6cbe af74 f5bd
000002a0: 1ab5 0f3d 19e0 373e 0605 18bf c480 13be
000002b0: 1798 61be aed6 aebe 2ebe f9bd 50da d0be
000002c0: 04ff c83e 0fb8 1dbd 84ae b9bd 9882 153f
000002d0: b501 80be dbd6 9bbe 575f d8be 73a0 e73d
000002e0: 0a98 843f fc63 983e be2d a93e bbae 083f
000002f0: fb45 f5bd 6560 debe 700d c93e 7c7b e53d
00000300: e152 8b3d 9199 133f b677 923d cf02 fa3c
00000310: acb2 9cbe a36d c93e 88a0 2c3f a7ea dcbe
00000320: 695c 99be baf8 69bd fd5a 2d3f 56b7 34be
00000330: 4950 ff3d f2b9 0a3e 8473 54be e217 ffbe
00000340: 8c61 12bf 9f9f 36be a437 2d3d 4385 17be
00000350: f065 a33e 4beb 4bbd fd35 083e 1dc2 21bf
00000360: 7ad5 2c3d 9230 f53d 2564 49bf cb92 3bbe
00000370: d718 853e b56e 08be 4068 2dbe 3f92 78bd
00000380: 603c f13e a417 cebe 67fc 8d3e d8db 54bd
00000390: 6ed3 673e 642e 3dbe b861 44bf 1138 af3e
000003a0: 2792 433f 7386 563d e234 063f e0c5 a53e
000003b0: 2a54 923e 08fb 0fbf a802 4dbe 1cd1 39be
000003c0: d167 243f b0ec b13d 90c1 49be 38c9 d4be
000003d0: 69ba 91be 07a7 7a3f bf67 4c3e e4b4 a2be
000003e0: 3d25 91be 9b15 fbbe 3339 b13f d3f8 a9bd
000003f0: d1c3 b23c 18e1 523e 5a0c 453e 5a15 31bd
-0.22073051 -0.5129503 -0.51713026 0.47447866 -0.089308076 -0.32050064 -0.2560208 0.046497412
0.115143515 0.826732 -0.6337725 0.08544658 0.11679269 0.031977728 -0.10459724 -0.13535137
0.60395014 -0.48717225 -0.86653614 0.40127322 -0.41905212 -0.21713907 -0.08029482 -0.050353087
0.19875312 -0.14806461 0.07718437 0.3852909 0.19909967 -0.124670304 -0.20565318 -0.3849396
0.40034887 -0.52304417 -0.65698147 0.5103723 -0.16859797 -0.053042226 0.0036124657 -0.09999464
0.5627379 -0.7079734 0.70713115 0.3445705 0.11929682 -0.23188476 0.22051474 0.019528674
0.8032408 -0.17614996 -0.031131452 0.02539155 0.21027134 0.1637855 -0.5501048 0.24477734
-0.019418104 -0.083157666 0.22095777 0.19811851 0.10444112 -0.0753998 -0.35044295 -0.514239
0.30728734 -0.25996858 0.24630848 0.3534755 -0.22767408 -0.07807088 -0.26033258 0.42981127
0.12839521 -0.23244539 -0.6886876 0.7795276 0.60334665 -0.27265662 -0.40222618 -0.20825478
0.5405893 -0.28294024 -0.07685765 0.48219666 -0.06630756 0.41126943 -0.08942543 0.20055597
0.40027496 0.11556784 -0.40315506 0.963713 0.5762051 -0.045396708 -0.13871723 0.40891322
0.6783868 0.2024015 0.3431044 0.042367365 0.35225397 0.068397835 -0.079413064 0.3237161
-0.08527822 0.09039385 0.5102545 0.42615965 -0.5421624 0.37242723 -0.092853524 0.26154453
-0.06916513 0.9330673 0.32272276 0.12219519 0.061376344 0.20311585 -0.20400792 -0.12460821
-0.16663031 -0.02981798 -0.14196646 0.9131824 0.42935956 -0.0032632076 -0.9492895 0.010506754
-0.5594765 0.06358453 0.8106352 0.26271486 0.11172601 0.1298232 -0.10633439 -0.03294685
-0.105845094 0.5130924 -0.73183835 0.54833287 0.8767472 0.6363297 -0.092733264 -0.65042716
-0.31009537 0.6746561 -0.0046035196 0.20417525 -0.10297438 0.13110892 0.553204 -0.35000777
0.2459933 0.36460423 -0.36312774 -0.30261737 0.4578833 -0.018855495 -0.36772528 -0.330195
0.11845431 -0.118946634 -0.07289238 0.65185416 0.25625613 -0.16437963 -0.23090318 -0.11985146
0.03508482 0.1795658 -0.59382665 -0.14404589 -0.22030674 -0.34148163 -0.12194477 -0.4079156
0.3925706 -0.03850561 -0.09066489 0.58402395 -0.25001302 -0.3043736 -0.4226024 0.113099
1.0358899 0.29763782 0.3304271 0.5339162 -0.11976238 -0.43432918 0.39268064 0.112051934
0.06802917 0.576562 0.07151739 0.030518917 -0.30605066 0.3934146 0.6743245 -0.43147776
-0.29953316 -0.05712197 0.6771696 -0.17648062 0.12466485 0.13547495 -0.2074719 -0.4982291
-0.57180095 -0.17834328 0.04228939 -0.14796929 0.3191371 -0.04978494 0.13301845 -0.6318682
0.042195775 0.11972155 -0.78668433 -0.18317716 0.25995514 -0.13323481 -0.169343 -0.060686346
0.47116375 -0.4025241 0.2773163 -0.05196747 0.22639248 -0.18474728 -0.76711607 0.34222463
0.76394886 0.052374315 0.5242444 0.3237753 0.28579837 -0.5624242 -0.20020545 -0.18146175
0.6422091 0.08687723 -0.19702744 -0.41559768 -0.28462532 0.97911114 0.19961451 -0.31778634
-0.28348723 -0.4903992 1.3845581 -0.082994126 0.021821888 0.20593679 0.19242993 -0.043233253

Variable_13/read f4 [16]
00000000: d3b4 1ebc 580c 1b3e 19d4 e7bc 9781 813d
00000010: 66bd bdbd 3340 f33d ee22 da3c 91e6 0b3e
00000020: ab80 d3ba b70b 96be 44b7 733a dc4f bc3d
00000030: f2af efbd e023 243e 8d5c 8cbe 53c9 0c3b
-0.009686667 0.15141428 -0.028299378 0.063235454 -0.092646405 0.118774794 0.026627984 0.13662173
-0.0016136369 -0.29305813 0.0009297023 0.091949195 -0.11703481 0.1602931 -0.2741436 0.0021482303

Variable_14/read f4 [16]
00000000: b6b6 233f 6506 073f 0691 063f 9ecb d23e
00000010: bc01 3e3f a0dc 0c3f 25f1 583f 67f6 023f
00000020: 764d 263f b6f2 133f 5e37 f93e 3a2c fa3e
00000030: 1880 213f 0e13 0c3f f9dc f63e 0d41 523f
0.6395067 0.5274413 0.5256504 0.41170973 0.74221396 0.5502415 0.8474296 0.5115723
0.64961946 0.5779222 0.48675054 0.48861867 0.6308608 0.54716575 0.48215464 0.8213051

Variable_15/read f4 [16, 3, 3, 16]
00000000: 3ae2 1dbe 5ad4 27be 8f07 bf3e 819b fd3d
00000010: fe16 6c3d 35bb 9e3e 2c80 053f ccc2 9fbd
00000020: ee3c 4fbf dd15 e2bd eb73 70bf c15f a9be
00000030: f0a9 45bd d6d2 d73e 3ed2 34be 12df 823b
00000040: 06cf f0be 8ca6 e23e b995 e0bc fdbe 38bf
00000050: 0453 863e d101 aebe 8165 a33e c185 17bf
00000060: 81df 27be 7db5 083d 3aa2 af3d 76fe fc3e
00000070: 177d 83bd 7645 a03e 03e5 abbe f0e6 1abf
00000080: fd22 473e 5944 b83e 9c1d 41bd e1ad a5bd
00000090: e5ea a6be 167e e6bd bcf6 4c3f d8e4 e2be
000000a0: 208d d5bd c3ad 48bf 3e01 903b 2608 393f
000000b0: 9fde fbbd 30c2 413f f60f ccbe c2b9 2ebe
000000c0: d487 4abe 4862 0ebf 123d eb3e 121b fabe
000000d0: f4ee ff3e 7f97 2cbe 8146 a43e e436 d9be
000000e0: 14e2 0fbf 1208 7e3a 64f1 d4be 867e 41be
000000f0: 79be b43d 0046 463e cf2d 0ebf 8b7c 15bb
00000100: f3e1 06bf 9fa5 e63d 8123 f63d 2d65 36be
00000110: 42da 563d 6b3d 3dbe bfbb 323f 9fc9 bcbe
00000120: 7d1a 253e 325b 84be 38bb c83e 65f7 f93e
00000130: 2f1d 283f a7a2 6dbe 1435 073e 06c4 1f3e
00000140: 2a8e f0bd 2f95 42bd 9311 bc3e 1b56 08bf
00000150: 3e7e 82be f036 c4bd 1f45 f1be 9e7d 04bf
00000160: 2114 b63e c8a4 e2be 27e0 ae3d 584d a63d
00000170: c074 a53e 92ce b6bc 8455 35be 5959 14bf
00000180: a1ca 28bf 799d 80bf 8495 573d bfb2 59bf
00000190: 0de1 0b3f 5d23 76bf ef75 2ebe 78bb 4dbe
000001a0: 192d 21bf 23cc 243e e021 2abd 44a6 363f
000001b0: e12a 9f3d 503e 193c 9538 17bf 7656 0cbd
000001c0: 3ccb 2cbd a244 c1be 07aa aebe 615d 16bf
000001d0: 8f15 39be dbb7 aebd 4eb8 e5be 11ab f03d
000001e0: e1ef 663d 637d 86be 0a7f 1abe 0fe2 1dbe
000001f0: 6c2b 623e dde0 f93a 4933 05bf 9c1a 16be
00000200: d0a1 2cbe 5e0f b53c 5abf 46bf 20df 1cbf
00000210: 7c71 bdbe 8bd3 5bbd 18e6 a5be 9be4 7bbe
00000220: 8501 c03d d9be 17bf e69d 41bf 9f73 743e
00000230: 28b7 a3bd b904 503d 2058 18bc 7064 24bf
00000240: 3625 f8bd f3d1 22bf 0da8 a13d 0db1 ea3d
00000250: ff25 8a3e 4174 afbd 24cd 113e e146 b4bc
00000260: 6903 1b3e 64f6 9ebe 773a 3cbd cec7 aa3c
00000270: f9eb 56bd 1750 22be 7d74 11be 8f6a cb3d
00000280: 4eb1 9f3d 7650 7bbe 2e20 ef3e 6d18 91bb
00000290: 5d89 ea3e 3e14 873e 38dd 5cbd f32c 253f
000002a0: 6026 b63e e02b 8e3e 0566 fe3e 33cb 703e
000002b0: 4dbf 5e3d faa7 c5bc ee38 2abf 2b62 0a3e
000002c0: e8d9 ef3d 2e82 983e 0e97 a63e 4364 843e
000002d0: a461 933d c89f 98bd 1031 dfbd f320 143e
000002e0: 89d8 74be 463b b13d 2355 d13c d881 913e
000002f0: b8d0 23bf da7a 1d3f fce5 d3bb 8a37 98be
00000300: 8f83 313e 26f2 cebd 5936 c1be bb8b df3e
00000310: b754 c23e 92b4 af3e 009c 70be df41 ce3d
00000320: 0b12 01bd d0d6 45be 2803 2a3d 9690 1f3f
00000330: 306b f1bd b30b 4dbf bd01 a0be a7bc 2bbe
00000340: 63a0 bf3e a8bc b73d 12e1 5f3e e2c1 e3bd
00000350: 311c 3a3f 41cc e23b cf36 1e3f 491d 443f
00000360: ffdc f7bd 7f80 993e ff09 67bd ec1c 69bb
00000370: 46b7 acbe a7b5 0cbf 02c1 0bbe a408 84be
00000380: a21c 8d3c 48d0 78be a215 053f be0d ff3e
00000390: 2fbb 183d 996f 7dbe f844 383e bf4f 813e
000003a0: b182 a6bd 11f5 383e 2486 1d3f b18b 4c3e
000003b0: 33c5 68bf badc 1fbf 1575 e13d b89d 273d
000003c0: 3b1f 173d 9d87 18bd 0591 46bd 55b9 6e3e
000003d0: 087f 293e ca1c e0be 0a28 4cbb 191c 2dbe
000003e0: b9f1 bb3e b5fd 9abe dfcf 6d3d 71f2 39bf
000003f0: 998e a63e 864a 38bf 1522 a9be ab4d e7be
-0.1541833 -0.163896 0.37310454 0.12383176 0.057639115 0.31002203 0.521487 -0.078008264
-0.80952346 -0.11039326 -0.93926877 -0.33080867 -0.04825777 0.42153043 -0.17658326 0.003993877
-0.47032946 0.4426769 -0.027415143 -0.72166425 0.2623521 -0.3398576 0.3191338 -0.5918847
-0.16393854 0.033376206 0.08575864 0.49412888 -0.06420343 0.31302994 -0.3357316 -0.6050863
0.1944694 0.35989645 -0.04714738 -0.080898054 -0.32601085 -0.11254518 0.80063987 -0.4431522
-0.10427308 -0.7839014 0.0043946793 0.7227806 -0.12298321 0.7568693 -0.39855927 -0.17063048
-0.19778377 -0.55618715 0.4594503 -0.48848778 0.49986994 -0.16854666 0.3208504 -0.4242469
-0.5620434 0.00096905336 -0.41590416 -0.18895921 0.08825392 0.1936264 -0.5553865 -0.002280983
-0.5268852 0.112620585 0.120184906 -0.17812033 0.05245424 -0.1848046 0.6981773 -0.36872575
0.16123386 -0.25850827 0.39205337 0.4882156 0.6566953 -0.23206578 0.13203841 0.15602121
-0.11745866 -0.047505554 0.36732158 -0.53256387 -0.2548694 -0.09580791 -0.47123048 -0.51754177
0.35562232 -0.44266343 0.085388474 0.08120221 0.32315636 -0.022315297 -0.17708403 -0.57948834
-0.6593419 -1.0048057 0.052632824 -0.8503837 0.54640275 -0.9614771 -0.17037176 -0.20091045
-0.6295944 0.16093497 -0.041536212 0.7134745 0.077718504 0.009353235 -0.5907071 -0.034262143
-0.042186007 -0.37747675 -0.34114096 -0.58736235 -0.1807463 -0.085311614 -0.44867176 0.11751378
0.05638111 -0.26267537 -0.15087524 -0.15418266 0.22086877 0.0019064207 -0.5203138 -0.14658588
-0.16858602 0.022102054 -0.7763573 -0.6127796 -0.37000644 -0.05366854 -0.3240211 -0.24598925
0.0937529 -0.59275585 -0.7563156 0.23872231 -0.07993919 0.050785754 -0.009298354 -0.64215755
-0.121164724 -0.6360161 0.07893381 0.11459551 0.26982114 -0.085670955 0.14238411 -0.022006454
0.1513802 -0.31047356 -0.045954194 0.020847227 -0.052471135 -0.15850864 -0.14204593 0.09932434
0.0779749 -0.24542412 0.4670424 -0.0044279606 0.45807925 0.2638263 -0.05392191 0.6452171
0.35576153 0.2776785 0.4968721 0.23515014 0.054381657 -0.024127949 -0.6649312 0.1351401
0.11711484 0.2978682 0.3253712 0.25857744 0.07196358 -0.07452351 -0.1089803 0.14465694
-0.23910727 0.08653884 0.025553292 0.28419375 -0.63990355 0.6151558 -0.0064666253 -0.29729873
0.17335342 -0.1010478 -0.37736776 0.43661293 0.37955257 0.34317452 -0.2349701 0.10071158
-0.031511348 -0.19320226 0.041506916 0.62329996 -0.117880225 -0.80095977 -0.31251326 -0.16771184
0.37427053 0.0897153 0.21863201 -0.111209646 0.72699267 0.0069213216 0.6180238 0.76607186
-0.121026985 0.29980847 -0.056406017 -0.0035570217 -0.33733577 -0.5496468 -0.13647845 -0.25787842
0.017225567 -0.24298203 0.51986134 0.49815172 0.037287887 -0.24749602 0.1799506 0.25256154
-0.08130396 0.18062235 0.6153281 0.19975163 -0.909259 -0.62446177 0.1100866 0.040921897
0.036895018 -0.037238706 -0.048478145 0.23312886 0.16552365 -0.43771964 -0.0031151795 -0.1690525
0.36707857 -0.30271688 0.05805957 -0.7263556 0.32530668 -0.71988714 -0.33033815 -0.45176443

Variable_16/read f4 [16]
00000000: c080 0b3e 79bd 7e3d 3d1e 653f fc0f f73e
00000010: f899 b4be eefc e93e 8798 c33d a9c8 bd3e
00000020: f1c8 7e3e 8b3d 01bf 63f7 ce3e b7a1 2cbb
00000030: 5723 773d 30f0 b7bd e369 a73e b278 90bf
0.13623333 0.062192414 0.89499265 0.48254383 -0.3527372 0.45700783 0.09550577 0.37067154
0.2488134 -0.5048453 0.40423116 -0.0026341507 0.060336437 -0.08981359 0.32697973 -1.1286833

Variable_17/read f4 [16]
00000000: ef02 113f 5770 563f 2232 893f 314d 4f3f
00000010: 02b0 673f 834c 563f d499 cc3f 3237 7d3f
00000020: 0880 613f a604 b83f 4dc0 433f 13e0 433f
00000030: 408e 533f ecaa 593f c54f 5e3f 9963 963f
0.566451 0.83765167 1.0718424 0.8097716 0.9050294 0.837105 1.5984445 0.98912346
0.88085985 1.4376419 0.764653 0.76513785 0.8263893 0.8502643 0.8684047 1.1749145

Variable_18/read f4 [16, 3, 3, 16]
00000000: 6018 883e 9078 203d e85f b4bd 75e5 0e3f
00000010: 0f37 2ebe 2d71 183c 19fc 5b3e e0cf 293f
00000020: 2abc 9d3e 08e9 08bf 3f70 373f 5f3c ff3e
00000030: 4b57 9abe 01e1 52be 7a0e 473e 4def 5ebd
00000040: 8d91 123f 0c5f dabe 2c71 df3d b685 c23e
00000050: 4296 b0bd aa79 c5bd f109 b43e 1c08 52bf
00000060: 1f11 acbd e8f1 c4bd 94fa 953e e669 9e3e
00000070: fe60 8a3e 3211 18bf f73a a93e 3f6e eb3d
00000080: c460 203e 1c05 c93e ff54 943e b7c7 e53d
00000090: 6946 5e3c c0a7 14bf 68c1 b8be e83c febe
000000a0: ee40 c2be 0002 643f 06ea 8abc f689 8d3e
000000b0: d28c bd3e f563 c8be 40d1 fabd 85f9 e93e
000000c0: 79ea c43e 38e8 9cbe 76d6 90bd b6b7 993e
000000d0: b8dc fabd 2536 6f3e 9f54 adbe 7a19 9f3c
000000e0: 54a7 b53f 08ef ea3e e6b9 853e 0605 b73e
000000f0: ecc8 07bf 134e fcbe c2ce 0b3e 71c3 273d
00000100: 6b4a 2b3e bd07 00bf e41d c43c 78a3 2dbe
00000110: 5632 23be 719f ec3e 4346 04be e5c6 50bd
00000120: 7d29 993f cfca b9be 5e06 8b3e 399b 8e3e
00000130: 6b35 d03e 64ef 96bd cd4f eb3e 6e2c a93e
00000140: 789e 7ebe 2da8 87be e8af 0e3f f94d 973d
00000150: a8ae e53e 1550 4c3e 06fb e9be c363 d83d
00000160: cc87 603f e9f7 3b3e 0601 653e 97d5 cd3e
00000170: c253 033f 1d50 aa3d c70b 323e bed4 e2bd
00000180: 866b bfbd aa76 703e 389d c03d a33e ba3e
00000190: 589d ce3e 009e 0f3f 4f9e acbe 9050 7fbe
000001a0: 7b5b 67bd afc6 0c3f f514 dd3d 17dd 97be
000001b0: 84f5 b83e 76cb a9bd e557 aebe 76b7 fc3e
000001c0: ceb0 293e a2fb 563e 70f4 53be b6f9 6b3e
000001d0: 76b3 1e3e 64fb fc3e 3ea4 07bf b4f8 dd3e
000001e0: 48b6 563f 6ed8 013f fbe8 f0be 8c81 d1be
000001f0: 47b8 05bd 2bfe 9bbc e5a9 b13c 3e94 063e
00000200: f9c7 df3e bfe9 f43d 08d0 9ebd 9e14 8e3e
00000210: e460 11bd 9d40 a1be 6fa3 09be e41f 9fbe
00000220: 7696 703f 794e 40bd 603d c2bb 0d39 913d
00000230: 84c1 d3be eb32 f33c e9d5 bc3d 8e7a d3be
00000240: f6c4 0c3e 2e4a 50bd 9617 edbe 927d 89be
00000250: 1ade 41be 8fc6 423d ca18 bb3e ead4 043d
00000260: ddfd 6abe b392 66be df3e 1abf 7999 183e
00000270: 787b 093e 63c5 e03e c7b1 fb3e 365c 04be
00000280: 682d 1bbe fbed 04bf 8231 923e f3f3 aabe
00000290: e7d8 443e 963b 91be 8807 31be 29a0 21be
000002a0: cf4c 6e3e 564b d63e f388 873d 642a 243f
000002b0: f04e 083d d0ba d2be 6126 f1be 17b7 d03e
000002c0: 4636 cdbd 6120 e03c 031b 16be 1277 983e
000002d0: 515a c93e eeaa 223f 718a f8bc 65d9 a4be
000002e0: 7730 673e ee4a aa3e 9d35 0fbf 841d cebe
000002f0: 22f2 c73e cabe 81be c914 443e e2c2 bcbe
00000300: 713c dd3e c735 d2be 1a03 34bf 0f76 8f3e
00000310: 5402 ff3e a82d 66bd 90dc ab3e 4b44 99bd
00000320: 1584 9a3e c88f 21be 56ad ea3d a4dc 223e
00000330: 644d d6bd 4b3a 893e b28b 46bd 44d2 75be
00000340: 22c2 bb3e 2f8c 38be 9ca9 86be f6ee e43c
00000350: 7f56 cc3e 2a1e a6be 97a4 c33e dc91 f9be
00000360: 9366 3d3d 24f9 58bf 64e8 fe3d ecef 363e
00000370: e199 0b3e 37c4 8abe a76a b4bd 7437 80be
00000380: 1e61 483f f9b3 28be 7df2 43bf 582a d93e
00000390: 265a cdbe db1b d2bc d0e2 4dbf 3bee 1bbf
000003a0: aef9 82bc 1099 163f a849 73bf efc4 da3e
000003b0: 9699 a83d 4801 773e 43b9 3ebe 1e42 12bf
000003c0: 3c3a 383f 9efa 05bf 1d68 42bf db20 463e
000003d0: 5083 1fbf 8750 c93e c92a c3be b976 003f
000003e0: 1c72 4fbe 9dc7 1d3f 1b9e b9be 76b9 e1bc
000003f0: 3818 233f 7117 e03d a26e e73d 1bc7 18bf
0.26581097 0.039177477 -0.08807355 0.55818874 -0.1701319 0.009304327 0.21482886 0.6633282
0.3080762 -0.5348058 0.7165565 0.49850747 -0.30144724 -0.20593645 0.19439116 -0.054427434
0.5725334 -0.4265064 0.10910258 0.37992638 -0.086224094 -0.09642346 0.35163835 -0.82043624
-0.08401703 -0.096164525 0.29292738 0.3094017 0.27027124 -0.5940124 0.330528 0.11495637
0.15661913 0.3926171 0.28971097 0.11219733 0.013566592 -0.58068466 -0.36085057 -0.49655843
-0.37940162 0.8906555 -0.016957294 0.27644318 0.370215 -0.3913876 -0.122469425 0.4569818
0.38460138 -0.3064592 -0.07072155 0.30022973 -0.1224913 0.23360498 -0.33853623 0.019421328
1.419169 0.4588549 0.26118392 0.3574602 -0.5304096 -0.49278316 0.1365309 0.04095787
0.16727607 -0.5001181 0.023940034 -0.1695689 -0.1593717 0.46215394 -0.12917428 -0.05097093
1.1965786 -0.36287543 0.27153295 0.278528 0.40665755 -0.07369879 0.4595932 0.3304171
-0.24865139 -0.26495495 0.5573716 0.07387919 0.44859815 0.19952424 -0.45699328 0.10565903
0.8770721 0.18356289 0.22363672 0.4020202 0.5129968 0.08316062 0.17387305 -0.110757336
-0.0934668 0.23482767 0.09404987 0.36375913 0.4035442 0.56100464 -0.3371453 -0.24933076
-0.056483727 0.5499067 0.10795013 -0.29660866 0.36124814 -0.0829076 -0.34051433 0.4935872
0.16571352 0.20994428 -0.20698714 0.23044476 0.15498146 0.49410546 -0.5298499 0.43353808
0.8387189 0.5072087 -0.4705275 -0.4091915 -0.032646444 -0.019042095 0.021687457 0.13142487
0.43707255 0.11958646 -0.077545226 0.27750105 -0.035492793 -0.3149461 -0.13441251 -0.31079018
0.93979585 -0.046949837 -0.0059277266 0.0709096 -0.41358578 0.029687366 0.092204876 -0.4130444
0.1374701 -0.050851993 -0.46307057 -0.26853615 -0.18932381 0.04755264 0.3654235 0.032429613
-0.22948404 -0.22516899 -0.60252184 0.14902295 0.13426006 0.43900594 0.4915907 -0.129258
-0.1515404 -0.5192563 0.28553396 -0.33389243 0.19223367 -0.28365773 -0.17288029 -0.15783753
0.23271488 0.41854352 0.06617918 0.6412718 0.033278406 -0.41158152 -0.47099593 0.40764686
-0.100201175 0.02735919 -0.14658742 0.29778343 0.39326718 0.6354207 -0.030339452 -0.3219711
0.22577082 0.33260292 -0.5594118 -0.40256894 0.3905192 -0.25340873 0.19148554 -0.36867434
0.43210176 -0.41056654 -0.7031723 0.2801976 0.49806464 -0.056195885 0.33566713 -0.07483729
0.30178896 -0.15777504 0.114588425 0.1590448 -0.1046398 0.26802287 -0.048473068 -0.24005991
0.3667155 -0.18022226 -0.26301277 0.027945977 0.3990974 -0.32444888 0.3821151 -0.48744094
0.0462404 -0.8475516 0.12446669 0.1786496 0.13632919 -0.27102825 -0.08809405 -0.25042307
0.7827319 -0.16474904 -0.7654188 0.42415118 -0.4010784 -0.025648048 -0.80424213 -0.60910386
-0.015988197 0.58827305 -0.95034266 0.42728373 0.08232419 0.24121583 -0.18625359 -0.57132137
0.7196386 -0.52335536 -0.75940114 0.19348471 -0.6230974 0.3931925 -0.3811858 0.50181156
-0.20258373 0.6163271 -0.36253437 -0.027554255 0.6370883 0.10941971 0.113003984 -0.5967881

Variable_19/read f4 [16]
00000000: f2ab 1ebc a60b 1b3e 26d7 e7bc 9781 813d
00000010: b5bd bdbd 8e3f f33d 0528 da3c 92e6 0b3e
00000020: ed61 d3ba f00b 96be 88dd 733a d24e bc3d
00000030: acae efbd 9e23 243e be5c 8cbe d0dd 0c3b
-0.00968455 0.15141162 -0.028300833 0.063235454 -0.09264699 0.118773565 0.02663041 0.13662174
-0.0016127207 -0.29305983 0.0009302725 0.09194721 -0.11703238 0.16029212 -0.27414507 0.0021494515

Variable_2/read f4 [4]
00000000: c2ea 313f 6ba1 583f 0a43 403f 1778 823f
0.69498837 0.84621304 0.75102293 1.0192899

Variable_20/read f4 [16]
00000000: 0f2a 0e3f 5d7c 2e3f aead 4d3f 811e 2a3f
00000010: 43ed 4c3f 393b 3a3f ccb1 833f fc85 0e3f
00000020: e116 5c3f 47ef 533f 26d4 293f 5ae9 323f
00000030: a4c7 303f 134e db3e 27f8 223f 6daa 8c3f
0.55532926 0.68158513 0.8034314 0.66452795 0.8004953 0.72746617 1.0288634 0.55673194
0.8597241 0.82786983 0.6633934 0.69887316 0.6905463 0.42833003 0.636599 1.098951

Variable_21/read f4 [16, 3, 3, 16]
00000000: ddc4 c3be ee12 85be bcbe af3f fdbb 24bf
00000010: be7d 543d a719 9a3d 48ba 91bf 90fc 413f
00000020: 3aaa 9ebd 1edb 9d3e 72d9 cc3d b408 cebe
00000030: 36ee 853f 033a 2b3e 48c5 8bbe 23e1 eabe
00000040: 684c d7bc 5df7 eebd cb36 4ebf f1a6 3dbd
00000050: 6a57 8a3e e1cc 62bd 3bb0 433e 3713 283e
00000060: 448e b7bc c165 70be 0fdb 22be 7bce 58be
00000070: 5cc4 7abf 8064 ccbd f84a 183e 0c27 29be
00000080: 3396 57be e960 0ebc ad43 8cbe ab87 c13d
00000090: cbb7 65be 65da 283d 0902 9d3e bcb1 85bf
000000a0: 71dc e5bb 8f94 04bf 711a 59be 5eb3 a9be
000000b0: 471e 04be da20 7abe fb41 b6bd 19c3 0f3f
000000c0: 8fea 043f 43a6 1f3e 0c28 fabe 4c99 0c3e
000000d0: 09a6 db3e 2fbf 5dbe 769d a7be ae37 05bf
000000e0: f6ca 8b3d 8394 c2bd 3bda fcbd 74db 213d
000000f0: 52a0 a8bf ed9f 0fbe 95c6 a13e d069 08be
00000100: 6439 d83b 235c 063e 7c74 3fbe 6138 a7be
00000110: 0083 a23d 1ea5 0cbe b9f5 6e3f 989b 3ebf
00000120: 4917 f63e 42b9 e0be c0c7 78bb 9ca8 1f3f
00000130: afb6 98be f1e2 16be 6206 603e 5a3d 333f
00000140: feb0 a1bd 680e 3dbe 2548 683e d7c8 dcbe
00000150: bdc9 a83e 249a 8e3e 98b5 18be 8f59 f33e
00000160: b89a ddbc 7298 b53b 11fe 583d 8435 7bbe
00000170: eba3 493f 2c4b 3cbe c05f 91be cc46 ebbe
00000180: 379e 2dbe 7e41 ddbd 7ac2 14be d7bf 9ebd
00000190: fb37 9f3e 3a0b 25be c378 303f 3169 adbe
000001a0: efca b33e 2e3f cabe f32c 14bf f005 7e3e
000001b0: efe4 b8be fad2 9b3e fdb6 9abd 027c 7d3e
000001c0: 6470 0ebe 5d77 90be 4bea ee3b cf12 b1be
000001d0: a096 323e 0ae4 f4bd b7fb c5be c5ee a53e
000001e0: fa90 25be c78e a03e fcf4 12be 039d c9bd
000001f0: 938c 003f bc32 473d 719d 89be ffd3 2fbf
00000200: 80f1 09be 0359 c4bd 1bcb e7be 07b3 603e
00000210: 3c3f 1d3c fc5f 8cbd c86a 5fbe 3304 ca3c
00000220: a28d 7ebe 8eeb f63e 5afb 84be 3953 e53d
00000230: 8ad6 96be 1eb4 9ebd e041 cfbe 4dfd f3bc
00000240: 6a30 7a3e 71ac cd3e e810 52be ccf5 9abe
00000250: 3b01 8c3d a113 24bc 9fb2 723f 7c1c 72be
00000260: 267e 49be 5466 c03e 1542 7fbe 4c5f b6be
00000270: 9d29 ba3e 2452 1d3e 6a6c 14be c38f b5be
00000280: 0b65 ccbd 9e68 f33e 6d7b 4e3e 5264 f73e
00000290: b07b 02be f88c c0bc 1e87 a8be f981 253f
000002a0: 649c a1be 5ca5 e6bd dd49 b53e d728 6dbe
000002b0: 18e9 083e d84c 033e 0119 0fbe 042c cd3e
000002c0: b918 1ebf 90da 14be 25d1 66be 36d0 09bd
000002d0: 68a7 143e 3599 b0be d679 83bf 8d2b 84be
000002e0: b51d 9fbe ea18 c5be 70f4 d5bd 6dda 013e
000002f0: 4f99 533d bc61 18bf bb55 843e 7481 42bf
00000300: a421 343e bf6c d0be 384d 0f3e 9e08 32be
00000310: 3703 e7be 0d69 19be 2cf9 37be 1dd7 f3bd
00000320: 7ee7 b63e deee 373f 8bb9 86be bbf5 ba3e
00000330: c605 13be 2449 c3be c13a 023e f67a 3fbf
00000340: b54b 6dbd 89e5 e83e bb50 12bf 1d92 96be
00000350: 541f 9b3e 120a c7bd 4b78 7b3f 0330 45be
00000360: 10a3 1a3e 998d 033e 0fae 61be 4886 3f3e
00000370: 9ae9 55be ff4f a9bd 807d bfbe ccd9 853e
00000380: 2ce3 253e a47a 9c3e f414 f43e 7081 e23e
00000390: 391e a5be 864c babd 9247 61bf 62b3 2f3e
000003a0: 1e81 8ebe 5f64 56bf 0aa3 073f 9f03 bdbe
000003b0: 5a8b 32bd 9997 0e3d d364 debe 7b33 a43e
000003c0: b377 69be 57fc f0be 54de 933e 35eb b23d
000003d0: 0a37 3e3e 3f64 493e 875b 93bf 6fb8 063f
000003e0: f5da 81be d7ae a7be ad62 a33e 71cc 833e
000003f0: 9b09 403e e360 3abe 493c 84bd dafb be3e
-0.38236132 -0.25991005 1.3730083 -0.6434935 0.05187773 0.07524424 -1.1384974 0.75776005
-0.07747312 0.30831236 0.10002412 -0.40241015 1.0463321 0.16721348 -0.2729895 -0.4587489
-0.02628155 -0.116682746 -0.8055236 -0.046301786 0.27019817 -0.05537117 0.19110195 0.1641358
-0.022406705 -0.23476316 -0.15903877 -0.21172516 -0.9795587 -0.09980106 0.14872348 -0.16518801
-0.2105339 -0.008690097 -0.27395383 0.09449705 -0.22433393 0.041223902 0.30665615 -1.0444865
-0.007014804 -0.5178918 -0.21201493 -0.3314466 -0.12902175 -0.24426594 -0.088993035 0.5615707
0.5192041 0.15590768 -0.48858678 0.13730353 0.42900112 -0.21654962 -0.3273732 -0.52038085
0.06825821 -0.095009826 -0.12346312 0.039515927 -1.3173926 -0.1402585 0.3159682 -0.13321614
0.0065986384 0.13121085 -0.18696779 -0.326602 0.079351425 -0.13734862 0.93343693 -0.7445617
0.4806464 -0.4389134 -0.0037960857 0.6236665 -0.29826877 -0.14735009 0.21877435 0.7001549
-0.07895087 -0.18462527 0.22683771 -0.4312198 0.32966414 0.27851975 -0.14913023 0.47529265
-0.027051315 0.0055418545 0.05297667 -0.24532133 0.78765744 -0.18388051 -0.28393364 -0.4595245
-0.16954885 -0.10803507 -0.14527312 -0.07751434 0.31097397 -0.16117564 0.6893427 -0.33869317
0.35115764 -0.39501327 -0.5788109 0.24806952 -0.36112162 0.304344 -0.075544335 0.24754336
-0.13910061 -0.28216067 0.0072911135 -0.34584662 0.17440271 -0.119575575 -0.38668606 0.3240873
-0.16168585 0.3135893 -0.14351267 -0.09844401 0.502145 0.04863237 -0.2687793 -0.68682855
-0.13471031 -0.0958729 -0.45272145 0.21943294 0.009597596 -0.06854245 -0.21818078 0.024660205
-0.24858716 0.4822659 -0.25973016 0.11197514 -0.29460555 -0.077491984 -0.40479946 -0.02978387
0.24432531 0.40170625 -0.20514262 -0.30265653 0.06836172 -0.0100144455 0.94803804 -0.23643678
-0.19677028 0.3757807 -0.24927552 -0.3561958 0.36359873 0.15363365 -0.14494482 -0.35461244
-0.0998021 0.47540754 0.2016427 0.48318726 -0.12742496 -0.02350472 -0.32915586 0.6465145
-0.3156463 -0.112620085 0.35407916 -0.2316011 0.13370168 0.12822282 -0.13974382 0.40072644
-0.61756474 -0.145365 -0.2254072 -0.03364583 0.14516985 -0.34491888 -1.0271556 -0.25814477
-0.31077352 -0.3849557 -0.104470134 0.12680979 0.05165988 -0.5952413 0.25846657 -0.7597878
0.17590958 -0.40707967 0.139943 -0.173861 -0.4511964 -0.1498148 -0.17966145 -0.11906264
0.3572349 0.7184886 -0.26313433 0.36515602 -0.14357671 -0.3814174 0.12717725 -0.74797
-0.057933528 0.4548762 -0.57154435 -0.2940835 0.3029734 -0.09718718 0.9823043 -0.19256596
0.15101266 0.12846984 -0.22039054 0.18703568 -0.20889893 -0.08267211 -0.37400436 0.26142728
0.1619994 0.30562317 0.47672236 0.44239378 -0.3224962 -0.09096627 -0.8799983 0.17158273
-0.27832884 -0.83746904 0.5298315 -0.36916825 -0.043589927 0.034812544 -0.43436298 0.32070526
-0.22799568 -0.4706752 0.2888056 0.087362684 0.18575683 0.19667147 -1.1512307 0.52625173
-0.25362363 -0.3275058 0.3191122 0.25741914 0.18753664 -0.18201022 -0.06456811 0.37301522

Variable_22/read f4 [16]
00000000: 666c 39bf 80cf 873d 5756 5cbe 6e33 acbe
00000010: 86d6 9ebf 01d7 5d3f 3c51 fabc 5f9f 633f
00000020: 835c 2bbf b078 58be f550 083e 86c7 523f
00000030: 4b67 b6be 58fe 8d3d cc32 2a3f 7470 79bf
-0.7243103 0.06631374 -0.21517311 -0.33632988 -1.2409217 0.86656195 -0.030556314 0.88915056
-0.66938037 -0.21139789 0.13312133 0.823357 -0.3562568 0.06933278 0.6648376 -0.97437215

Variable_23/read f4 [16]
00000000: aa1e 733f 84d7 a43f 648b 4f3f 8dd7 6f3f
00000010: 43aa 803f 976c 903f d0d9 493f 549d 573f
00000020: 2589 863f 2ef8 843f cb9d 143f 7681 1c3f
00000030: e671 5d3f a4da 913f a4a6 043f 32b3 8a3f
0.94968665 1.287827 0.8107207 0.9368828 1.005196 1.1283139 0.7884798 0.8422444
1.0510603 1.0388238 0.5805327 0.6113504 0.8650192 1.1394849 0.51816773 1.0835936

Variable_24/read f4 [16, 3, 3, 16]
00000000: d069 d03d 2352 b73d d571 ee3d c0dd 663e
00000010: 01bb 363f 4edf 11be cbce 1dbc 4ac1 d1bd
00000020: 89e9 4b3d 0a78 fbbe 400d 0f3f 6b29 acbe
00000030: 9e5e cbbe 8325 153f 999f 303e 1851 e93e
00000040: 1242 e2bd 271b a23e f423 503d e2da 4fbe
00000050: 1946 1e3f f107 823e f31b 1fbe b8b6 47bf
00000060: cd2c 3f3c 2d15 b8bd 2cf0 853e f768 cf3e
00000070: 55ef 71bd cf3e 81be d18f 8d3d bec1 113f
00000080: 7cc6 e53e 0435 2dbe fb49 28be bb58 543e
00000090: 51d3 353e 7200 18be 3d62 49be d0d9 b6bf
000000a0: 492c 153e 02a4 9dbe 51a1 aebe 6218 33be
000000b0: 0e1e fa3d 1540 3ebe 94ce a9be 140c 2a3c
000000c0: 99fa 8d3e f433 ed3e 9976 0a3f 5357 babe
000000d0: 3454 013f 2194 093e 33b1 95be b683 0b3d
000000e0: 09ac 183f e894 4c3e 21f8 043e ba7f 813d
000000f0: d9e2 72bd a9fd f63d a3e5 b1be 7d87 d93d
00000100: 6496 bf3d 1563 70be 8b26 96be a8fd 4b3f
00000110: 48be 6cbe d78e c63d 430b c6be 8a0d 263e
00000120: d494 543f fc7c 1fbf d6a6 53be 61fa cd3d
00000130: a697 9f3e 60f2 823e 1fec 263f 8ee5 a8be
00000140: 4e51 053f a56a a03a a8b3 eb3e b019 cabc
00000150: a732 eb3d 5f41 72be 7124 14be 8e40 0f3c
00000160: 71fc 5e3f 4464 d9be 5abe 1bbf 51da 5f3f
00000170: 15ff 86be 039f d63e b19d 6b3f 2f4c e73d
00000180: fb95 163f 1e01 e73e 7c65 103e a9a7 06bd
00000190: 8cb5 0c3e a338 d83c 09bf 383f 5200 c2be
000001a0: 050b 26be 17ac ab3d a3d1 3cbf e3f6 d6be
000001b0: 184f 8cbe aa84 683d f1a3 26be 973c 50be
000001c0: 5176 343e f783 903e 8be6 883d 489d 35bd
000001d0: 39bd 10bf fb25 ac3e 8aef f3be c0fc a3bd
000001e0: 6d5b cebc 37e7 963e 7e1c 59be 6f66 af3d
000001f0: 917c 78be 3f12 5eba 0156 98be e29e f03c
00000200: 1c9a 1d3e 2f8e 47be fe62 12bd f7ea 9d3e
00000210: 9452 193f 9221 8bbe deda 863e 0967 3fbe
00000220: b494 2b3f 8e86 03bf 046e 7abf 8f6a 0f3f
00000230: 4f53 70bf 87f1 933e 6ca5 a93d a382 8f3f
00000240: bdc8 a4be f01d ffbd 6104 8d3f 35dd b33e
00000250: 8ce2 933e 5181 dcbd b464 7f3e 1c0b 293e
00000260: a5f7 c73c 3c64 a3be dd65 1c3f 5842 e6be
00000270: de3d 163f 7004 043e 3d22 9dbe 86f9 033c
00000280: 03d4 0c3d 75ad 973c 39ea 013f f279 2c3f
00000290: 427c 85be 60d8 04bf 84ec 5ebd 1701 f23d
000002a0: 742d bfbc dc08 43be 3991 a03e 8ccb c3be
000002b0: 54e6 3cbd d29a 55bf ced1 d5be 816a 76bf
000002c0: 825c 943e 5bd3 073f 2156 df3e 9330 183f
000002d0: ed91 22be 59f6 c1be 0f0d bbbe 0cd7 7bbe
000002e0: 6873 3e3e c77e 40bf 7e75 adbe c7cd 09be
000002f0: ff52 163e a8da 763f f0d0 643f 6009 3fbf
00000300: c038 a4be d445 8abd 24c6 443f ed65 603e
00000310: 92f0 febe 492c 9a3d cd6c 503e fc00 2c3e
00000320: 6d31 18bf 47ee 53be a2cd cdbe 79a4 05be
00000330: 5274 a53e 1c6a e1be 0b69 30bf b895 79bf
00000340: 545f 333e db43 8cbe 1a41 ab3f 8a5e dabe
00000350: 62e4 ef3e eae5 83bd e8de 7f3e ca9f 03be
00000360: cf85 b8bd a3f3 283c b268 983e 161f e7be
00000370: 2a31 033e 03dd 12bd b6dd 683c 79ba 00bf
00000380: 6ff5 15be 3c55 90be 3ff6 623d 33ce b93e
00000390: c1ce 023e bd52 f8bc 90de e0be 8cd9 e9bd
000003a0: cd66 12be d09d 13bf dd90 313d 5e90 f63b
000003b0: 687b 1abe ac96 b03e 3e00 073d 03b9 163f
000003c0: 72bd a4bd 2439 8ebe 2178 8bbd 1274 d6be
000003d0: 12cf 87bd 1e9c d63e 4390 573e ad89 9f3d
000003e0: 74af 51bc 40fb 4a3d 089d 393f 298e a1bd
000003f0: 872a 14be bbe6 01be e207 8cbf 00f6 2cbe
0.10176432 0.08951213 0.116428055 0.22545528 0.71379095 -0.1424534 -0.009631823 -0.10241945
0.049783263 -0.4911502 0.5587959 -0.3362535 -0.39720625 0.58260363 0.17248382 0.45569682
-0.11047758 0.3166134 0.050815538 -0.20298341 0.6182571 0.25396684 -0.15538006 -0.7801318
0.011668396 -0.08988414 0.261598 0.4050977 -0.059066135 -0.25243232 0.069121964 0.5693625
0.44877994 -0.16914755 -0.16434471 0.20736973 0.17756392 -0.1484392 -0.19666381 -1.4285221
0.14567675 -0.3078919 -0.3410745 -0.1748977 0.12212764 -0.18579133 -0.3316542 0.010378856
0.27730253 0.463287 0.54087216 -0.36394748 0.5051911 0.13435413 -0.29236755 0.034061156
0.59637505 0.19978678 0.12985279 0.0632319 -0.05929837 0.120601006 -0.3474551 0.106215455
0.093548566 -0.23475297 -0.2932628 0.79683924 -0.23119462 0.09695213 -0.38680467 0.16216102
0.83039594 -0.62300086 -0.20669112 0.100575216 0.31170386 0.25575542 0.6520404 -0.32987636
0.52077186 0.0012238814 0.46035504 -0.024670452 0.114842705 -0.2365775 -0.14467026 0.008743418
0.87103945 -0.4245931 -0.6083733 0.874425 -0.26366487 0.4191819 0.92037493 0.11293828
0.588226 0.4511804 0.14101213 -0.032874737 0.1374113 0.026394194 0.72166497 -0.3789087
-0.16215141 0.08382433 -0.7375738 -0.41985235 -0.27404094 0.056767143 -0.16273476 -0.20335613
0.17623259 0.2822568 0.066845976 -0.04433945 -0.5653873 0.33622727 -0.4764369 -0.080071926
-0.02519008 0.29473278 -0.21202275 0.085644595 -0.24266268 -0.0008471347 -0.29753116 0.029372636
0.1539082 -0.19487832 -0.035738938 0.30843326 0.5989163 -0.2717405 0.26338857 -0.18691649
0.6702378 -0.5137719 -0.9782412 0.5602197 -0.9387712 0.28895208 0.08283505 1.1211742
-0.321844 -0.12456882 1.1016961 0.35129705 0.2888378 -0.10766853 0.24940759 0.16508144
0.024410078 -0.3191241 0.6109293 -0.4497249 0.5868815 0.12892318 -0.30690184 0.0080550965
0.034381878 0.018515328 0.5074802 0.67373574 -0.26071364 -0.5189266 -0.054424778 0.11816614
-0.023337103 -0.19046348 0.31360796 -0.3824123 -0.046118096 -0.8343936 -0.4176163 -0.9625626
0.28976828 0.5305688 0.436204 0.5944912 -0.15875979 -0.3788326 -0.365334 -0.24593753
0.18598711 -0.75193447 -0.33878702 -0.13457404 0.14680098 0.9642739 0.89381313 -0.7462368
-0.32074547 -0.067516 0.7686484 0.21913882 -0.49792916 0.07527978 0.20354004 0.1679725
-0.5945042 -0.20696364 -0.40195948 -0.13051023 0.32315308 -0.44026268 -0.6891028 -0.9749408
0.17516834 -0.2739552 1.3379242 -0.42650253 0.4685393 -0.06440337 0.24987376 -0.12853923
-0.09009897 0.010311994 0.29767376 -0.45140904 0.12811723 -0.035855304 0.014213016 -0.50284535
-0.14644407 -0.2819003 0.05541062 0.3629013 0.12774183 -0.03031289 -0.43919802 -0.11418447
-0.14297028 -0.5766268 0.043351043 0.007524534 -0.15086138 0.34489954 0.032959215 0.58876055
-0.08043946 -0.2777797 -0.06810022 -0.4188543 -0.066312924 0.41915983 0.21051125 0.077899314
-0.012798179 0.049556017 0.72505236 -0.07888443 -0.14469348 -0.12685673 -1.0939906 -0.16890717

Variable_25/read f4 [16]
00000000: eea9 1ebc a10b 1b3e 69d6 e7bc af81 813d
00000010: dabd bdbd 9d3f f33d ff28 da3c 7ce6 0b3e
00000020: c972 d3ba c50b 96be e2d2 733a f04e bc3d
00000030: 9bae efbd a223 243e e05c 8cbe 64d7 0c3b
-0.009684069 0.15141155 -0.02830048 0.06323563 -0.09264727 0.11877368 0.026630877 0.13662142
-0.0016132231 -0.29305854 0.00093011383 0.09194744 -0.11703225 0.16029218 -0.27414608 0.0021490688

Variable_26/read f4 [16]
00000000: f641 5e3f 5335 003f 4725 a93f 2689 733f
00000010: 02e7 4c3f 30d5 4d3f 3518 953f de3a b53f
00000020: 9dee 8b3f 181f 6d3f 96be 313f bde6 7a3f
00000030: 90bf 613f b3ef 1f3f 1419 e13f 4b13 8d3f
0.868194 0.50081366 1.3214501 0.95131147 0.8003999 0.80403423 1.1648012 1.415859
1.0932194 0.9262557 0.69431436 0.9800833 0.88182926 0.62475127 1.7585778 1.1021513

Variable_27/read f4 [16, 3, 3, 16]
00000000: e5b9 febd 5c1a 253f 1e87 c7be 1876 2a3e
00000010: 5d21 4bbf 9555 923e dd37 9b3d 02b4 4ebe
00000020: 273e 27bf bca5 f2bd 789a 333e 3461 323c
00000030: a9f7 f3bd ceca 113f 38f7 503e 8266 f1bd
00000040: cf87 fc3e a304 8f3e ddc9 96be 24b0 34bf
00000050: e458 8dbe 473b 4d3f 7b98 a2bd 5688 c53e
00000060: 1b59 9fbe 4a16 b9be 05d2 88be 9b92 5bbc
00000070: 24c3 6ebe 0608 0ebf 6a31 de3e d12e 643e
00000080: aa4b 073f bd69 cabe 217f 86bd fd6a 21be
00000090: 0376 163f c3b2 08be 59ff 573e 31a5 4f3e
000000a0: ee1c 0a3f fdea bdbe 1d0c 9ebe d926 e03e
000000b0: c242 0fbf 10dd 9abf df74 183f 5255 febd
000000c0: 9a3d c0be e05d f63d 9fcd cfbe c7ee c6bd
000000d0: 8a2c 6b3e c929 9cbe 7407 183e 1890 fa3e
000000e0: f63e 1abd 1c6a 513e b04f a2bd 4d28 a4be
000000f0: 6392 84bc 8a9a 7bbe b4fa 623e e655 b5bd
00000100: 72d1 173f 5b83 0ebf cfbb ab3e 0e0f edbe
00000110: 7205 843e dd2d 60be a56e c63d b050 513e
00000120: 53a8 ae3d d92f e03c 754d 34bf eca4 b9be
00000130: 4e64 e3be 4908 85bf fca0 163f 3c1e 713d
00000140: 8745 233f ccaa 8fbe dded 75bd 1b34 e6bd
00000150: 970f 803e 70f7 093f 4139 223e 6556 cb3e
00000160: 2237 15bf 3985 63be e644 afbe 4251 44bf
00000170: c594 babe 9c06 0bbe 88c1 353f d174 14be
00000180: bbba 09bf 3699 d5be 8643 ae3e 3734 c13d
00000190: b13e af3e 9682 29bf c1cf 8fbd 2c32 ab3e
000001a0: 58f9 773e 4868 0a3f f247 d73e be42 5ebe
000001b0: c6f0 26ba 0540 27be 03bf 3e3e 5169 e8bd
000001c0: 7d36 933e 8741 e73e c582 803e 37ec 0c3d
000001d0: 30b7 de3c 1eef 70bd 2995 16be d40c 833e
000001e0: f9ee a6be b43b c4be 305e c2be 6653 3ebe
000001f0: b9e8 9b3e 0e65 af3e 09f7 513e 20fa 90be
00000200: b578 b83e 02c7 043f af32 0ebf 2b62 243e
00000210: cf80 38bf 8f42 a73e dfeb 89bc 30c9 4d3f
00000220: edbb 25bf b1f6 e5be 103f 873e 386b cebe
00000230: 280a 0d3e 95e2 dd3e 5679 f63e a6b6 e43e
00000240: 12bd 653d 960f b2be 19f9 a5bc 3477 2fbf
00000250: 699a 9cbe 6d13 1e3d 012f 473e a47f 163e
00000260: c9bd 4ebd a004 fcbe f1b3 80be abed cdbd
00000270: 6b9d 1aba 9280 aa3e f672 563f ae56 8e3e
00000280: bb48 3e3e 165b ef3e 6e27 5b3e 0572 d5be
00000290: f1f0 633e d3f6 3a3e b66b 0cbf 6904 323e
000002a0: e4fe 343e b4b0 d23e 92e3 3c3f 44d0 e3be
000002b0: 3a68 1e3e fce5 54bf c5d2 21be 7631 e3bd
000002c0: 5a15 013e 1bd0 343e 0f3d 31bf 5dcc 7fbe
000002d0: 39a3 fe3d c4d8 1f3e 9b6e 5e3e 7eb9 3c3f
000002e0: 7c25 47be ce66 113f 08fc 1ebf b074 2bbf
000002f0: 6b9c a2be f95c 0f3f 62d2 8e3c a35e 02be
00000300: fb65 b1bd 022c a4be 7133 243e bd45 69be
00000310: 316d 89be 491a a2be f5ae 673d 3c4f 0f3f
00000320: 5b13 0dbe 7a67 cebd cd14 313d 9089 00be
00000330: 3096 9f3d 7c5c 09bf b062 a13d 02d4 b13e
00000340: 1ab6 78be b19e 633f 7b2f 1ebf d817 863e
00000350: 5323 bc3e b6dc d33c 5300 ce3e ec6d 48be
00000360: 5d9a 373d b581 0bbf c604 cfbe a019 ee3d
00000370: ebae 3ebf 2c68 903e 33f4 063f e3ce 4abf
00000380: 6532 d1bd a12e 0abe 677d a53e 0fb4 9a3d
00000390: 53b0 fe3e b909 4a3f 9439 19bf 2dd1 14bf
000003a0: 5bd0 fc3e 721c ac3e 7b10 a2be fcda c93f
000003b0: f304 c13e 0c70 ba3f b055 bd3e a1e2 b03e
000003c0: c67c 173d a82a 84be 0e48 41bc a07e 7dbd
000003d0: 570f 87bd dfa5 58be 5300 4a3e 329d b53e
000003e0: 290d 753e 7bd2 713e 9496 823e 4c92 d03d
000003f0: 507d 773d e683 c5bd d534 96be f4e4 923e
-0.124378 0.64493346 -0.38970274 0.16646612 -0.79347783 0.2858092 0.075790145 -0.20185855
-0.6532921 -0.118480176 0.17539394 0.010887433 -0.11912472 0.5695008 0.20406806 -0.1178713
0.49322364 0.27933225 -0.29450884 -0.7058127 -0.2760688 0.80168575 -0.079392396 0.3858058
-0.3112267 -0.36149818 -0.26722732 -0.013401653 -0.23316628 -0.5548099 0.43397075 0.22283484
0.5284983 -0.39533797 -0.06567217 -0.15763469 0.5877382 -0.13349442 0.21093501 0.2027786
0.53950393 -0.37093344 -0.30868617 0.43779638 -0.5596124 -1.2098713 0.5955333 -0.12418617
-0.37546998 0.12029624 -0.40586564 -0.09713512 0.22966209 -0.3050063 0.14846593 0.4893806
-0.0376577 0.20450634 -0.079253554 -0.32061997 -0.016183084 -0.2457067 0.22165948 -0.088542745
0.59303963 -0.5566918 0.33541724 -0.46300548 0.25785404 -0.21892495 0.096890725 0.20440936
0.08528199 0.027366566 -0.7043069 -0.36258638 -0.44412464 -1.0393153 0.5883939 0.058866724
0.63777965 -0.28059995 -0.060041297 -0.11240407 0.25011894 0.53893185 0.15842153 0.3971435
-0.5828725 -0.22218789 -0.34232253 -0.7668649 -0.36441627 -0.1357674 0.7099843 -0.14497687
-0.53800553 -0.41718453 0.3403589 0.09433787 0.34227517 -0.66214883 -0.07022048 0.33436716
0.24216211 0.5406537 0.42047077 -0.21705148 -0.00063682755 -0.16333015 0.18627553 -0.113482125
0.2875251 0.4516718 0.2509977 0.03440496 0.02718696 -0.05882179 -0.14705338 0.25595725
-0.32604197 -0.383268 -0.37962484 -0.18586501 0.3045099 0.34256786 0.20504393 -0.2831583
0.36029592 0.5186616 -0.5554609 0.16053073 -0.72071546 0.32667968 -0.016836105 0.8038511
-0.64739877 -0.44914773 0.264153 -0.40316176 0.13773406 0.4333693 0.48139447 0.446706
0.056088515 -0.34777516 -0.02026038 -0.68541265 -0.30586556 0.038592745 0.19451524 0.14697129
-0.050473962 -0.4922228 -0.25137284 -0.10055097 -0.0005898091 0.33301216 0.83769166 0.27800506
0.18582432 0.4674918 0.2140176 -0.41688552 0.2225988 0.18258218 -0.54851854 0.17384495
0.17675358 0.4115044 0.73784745 -0.44494832 0.15469447 -0.8316343 -0.15803058 -0.11093418
0.12605801 0.17657511 -0.69233793 -0.24980302 0.12433476 0.15610033 0.2172188 0.7372054
-0.19447893 0.5679749 -0.6210332 -0.66974926 -0.31759962 0.5600124 0.017434303 -0.12731414
-0.08662029 -0.32064825 0.16035248 -0.2278051 -0.2684112 -0.3166068 0.056563336 0.5598028
-0.13776915 -0.1007833 0.043232728 -0.12552476 0.07792318 -0.53656745 0.07880151 0.34732062
-0.24288216 0.8891402 -0.617912 0.26190066 0.367457 0.02586208 0.40234622 -0.19573182
0.044824947 -0.5449479 -0.4043333 0.11625981 -0.74485654 0.28204477 0.5271637 -0.79221934
-0.1021469 -0.1349435 0.32322237 0.07553875 0.497439 0.78921086 -0.5985348 -0.58131677
0.49377713 0.33615452 -0.316532 1.5769954 0.37699088 1.4565444 0.36979437 0.34547904
0.036984228 -0.25813794 -0.011796964 -0.061888337 -0.06594723 -0.21157025 0.19726686 0.35471493
0.23930801 0.23615448 0.25505507 0.10184154 0.06042224 -0.09644298 -0.29337183 0.28690302

Variable_28/read f4 [16]
00000000: 2a4b a1bf 2167 e5be c268 fc3e d105 1cbf
00000010: 665e 7abf 282c 613f d1e4 ad3e a17d 1f40
00000020: 6594 8dbe 157f 89bd 87d0 3940 01c5 9a3e
00000030: 376b c4be 3807 73bf f6c4 403f 7906 65bf
-1.2601063 -0.44805244 0.49298674 -0.60946375 -0.9780029 0.87958 0.33963636 2.4920428
-0.2765228 -0.06713692 2.9033525 0.30228427 -0.38363048 -0.9493289 0.7530054 -0.89463

Variable_29/read f4 [16]
00000000: a709 7f3f 5a91 823f f68c 1f3f 0480 a03f
00000010: 645d 933f b51b 9e3f 5fe0 803f 4e34 1d3f
00000020: 80d0 5c3f 6a67 653f a8ac 0b3f cc90 1e3f
00000030: 86e8 813f 2807 9b3f a1c9 8d3f c987 7b3f
0.99624103 1.0200608 0.62324464 1.2539067 1.1512876 1.2352206 1.0068473 0.61407936
0.86255646 0.8961092 0.5456033 0.6193969 1.0149086 1.2111559 1.1077157 0.98254067
